flowsim/new_model/lstmcell_time.pt (torch, 493155 bytes, 4 tensors)

weight_ih f4 [600, 1]
000000 65 b6 a0 3d 1c 4f 8c 3d 52 c4 6c 3d ea 08 22 bc
       0.07847289 0.068510264 0.057804413 -0.009889821
000010 2f d4 92 bd da c6 a4 3d a4 43 48 bc 62 0b ed 3d
       -0.07169377 0.080457404 -0.012223158 0.11574437
000020 e6 a5 89 bc 99 5c 7d 3d 08 e4 38 3b d3 d8 eb 3d
       -0.01680274 0.061855886 0.002821209 0.11515965
000030 8e 64 54 bc 9c 95 25 bd 84 4d 8f bd a1 1a 87 3d
       -0.012963427 -0.04042588 -0.06997207 0.06596876
000040 c0 03 73 3d c9 4d 4d bc db 0b f5 3b d2 14 af 3c
       0.05932975 -0.012530752 0.00747822 0.021372233
000050 61 83 cf bb ab a4 cf 3d 76 7a ea bc 24 53 53 bd
       -0.0063328003 0.1013883 -0.028622847 -0.05159296
000060 c5 0f db 3b 82 37 65 3b c4 49 3e 3d 1c 22 43 bd
       0.0066852295 0.0034975712 0.046457067 -0.04763995
000070 77 fb 8d 3c 56 9a 79 3d 7d c6 63 3d e6 85 21 3b
       0.017331822 0.0609382 0.055609215 0.002464646
000080 1c 67 39 bd 4a b1 03 3c c4 e0 09 bd 2e b4 7a bd
       -0.04526435 0.0080378745 -0.03366162 -0.06120699
000090 eb 92 da 3c 8a 9d 89 3d 81 fb fe 3d 36 c3 9d 3d
       0.026681384 0.06719501 0.12450314 0.07703249
0000a0 70 25 1e bd e2 4f 81 3d 97 f8 d4 3c c9 db 2e 3d
       -0.038609922 0.063140646 0.025997443 0.042690072
0000b0 13 63 3c bc a7 ac 26 3d 9a 97 84 3d ca f2 7a bd
       -0.0114982305 0.040691998 0.06474228 -0.061266698
0000c0 98 41 55 bc 0e 91 0c bd c6 cd 72 3d c7 cb 06 bd
       -0.013016127 -0.034318022 0.059278272 -0.03290918
0000d0 96 50 64 3c a2 ba 1f 3d 43 60 23 bb 0a 24 40 3b
       0.013935229 0.038996346 -0.0024929203 0.0029318356
0000e0 37 51 94 3b 09 e3 d6 3d b9 12 72 bc f1 47 01 bd
       0.004526283 0.10492522 -0.014774972 -0.03156275
0000f0 29 0a e6 bc da 85 b4 3d 6c 37 97 bc 1c 80 6d bd
       -0.028081017 0.08814593 -0.018459044 -0.057983503
000100 e3 40 cf 3c 1b 19 0f ba 6d 02 a5 bc 3c 84 2c 3d
       0.025299495 -0.0005458758 -0.020142758 0.042118296
000110 1f 7b 57 3d dd 32 21 3b 4e 24 4f bd 1e c9 5a bd
       0.05260765 0.0024596967 -0.050571732 -0.053414457
000120 85 19 36 3a c9 b7 26 bb 54 27 1f 3d aa e4 a8 bc
       0.0006946552 -0.0025439134 0.038855866 -0.020616848
000130 1e d3 2d 3c 0f 37 38 3c ce 70 95 3d 78 25 55 3c
       0.010609416 0.011243596 0.072969064 0.0130094215
000140 46 9d e7 3d 19 2e d4 3b 1c 5b a6 bd b4 8e 7d bd
       0.113092944 0.006475222 -0.081228465 -0.06190367
000150 6f ce eb 3c e5 70 c0 3c 1d 09 ce 3b b3 ac 14 3e
       0.028784959 0.023491332 0.0062877075 0.14519005
000160 27 2e 3a 3d 7e a5 ec bb 4a 0d 96 bd 06 db 44 bb
       0.04545417 -0.0072218766 -0.073267534 -0.0030037775
000170 d5 f0 d3 bc 70 d8 c7 3c a3 29 26 bd fb 78 37 bd
       -0.025871674 0.024395198 -0.04056705 -0.04479311
000180 a2 f0 55 3d 4a d8 fa 3c 5f 5c e5 3d 6c 0f 56 3d
       0.05223144 0.030620713 0.11199259 0.0522608
000190 e3 fb 1a 3d 91 f1 36 bc fe 29 05 3e 5d 41 43 3b
       0.037837874 -0.011165992 0.130043 0.0029793598
0001a0 70 06 9e 3c 4f dc 89 3b 0b 17 a4 bc 01 5f b2 3d
       0.019290179 0.004207171 -0.020030519 0.08709527
0001b0 51 f1 d6 3c 36 98 f4 bc c4 b3 2f 3d 60 96 95 3c
       0.026238116 -0.029857736 0.042896047 0.018260181
0001c0 c4 e8 8c bc 7b 81 83 bb 98 39 39 3d 41 a4 49 ba
       -0.017200835 -0.004013238 0.04522094 -0.0007692017
0001d0 76 e8 1b bb 18 9b 38 3d 90 14 62 bd 44 d1 9d bd
       -0.002378968 0.045069784 -0.05519539 -0.0770593
0001e0 42 ac 08 3c b7 7d 57 3d c0 47 c3 bd 59 c4 c4 bd
       0.008341851 0.052610125 -0.095351696 -0.09607763
0001f0 4a 76 00 3d 60 6e 63 3d b8 63 64 bd cf d9 a4 3c
       0.03136281 0.055525184 -0.05575916 0.02012339
000200 1c c8 c1 3d a2 8e 61 3d 39 dc 82 bc e6 66 8c bc
       0.09461996 0.055067666 -0.015974151 -0.01713891
000210 4e af d5 3c 7d 3f 99 bd 83 5d 91 3d 1e 52 a9 3d
       0.026084568 -0.074828126 0.07097914 0.08267616
000220 c2 bd 2b bc 8e 7d 06 bd 15 1f fa bc 60 f1 38 3d
       -0.0104822535 -0.032834582 -0.0305324 0.04515207
000230 e6 b0 77 bd 1b 1c 00 bd da d8 8e 3c 8d 0b e0 3b
       -0.060471438 -0.031276803 0.017437387 0.0068373145
000240 e0 c2 6f 3d 8b 99 7e 3d 13 d0 a0 bb 05 89 64 3d
       0.058535457 0.06215815 -0.004907617 0.055794735
000250 84 31 84 3d 57 66 95 3d 36 eb 59 3b 61 8c 01 bc
       0.06454757 0.072949104 0.003325177 -0.007907004
000260 1b 65 70 bd ab 7e 3d bd 98 b3 39 3c 00 6c f7 3b
       -0.05869017 -0.046263378 0.011334322 0.0075507164
000270 23 9d 98 3c f0 a0 17 bd d6 e0 89 3d 2e f4 5a bb
       0.018629616 -0.037018716 0.06732337 -0.0033409703
000280 e5 1a de bc af 69 1b b9 80 04 54 bb 9f 34 42 bd
       -0.027112434 -0.00014821322 -0.0032351315 -0.047413465
000290 48 8a 86 bd b4 4e 55 bd 3c ff 68 3d 03 5f ba 3d
       -0.06569344 -0.05207701 0.056884035 0.09100153
0002a0 f9 08 41 bc 1a 01 9b bd e8 1d be 3c ee 55 95 3d
       -0.011781924 -0.075685695 0.02320762 0.072917804
0002b0 60 6c ba bc 03 9a 35 3d fb bb ff 3c 99 cb 0f 3b
       -0.022756755 0.04433633 0.031217566 0.0021941422
0002c0 74 42 60 3c 88 b2 dd bc 6f 09 c3 3c 82 7e 39 bc
       0.013687719 -0.02706267 0.02380821 -0.011321666
0002d0 d8 a6 4e 3d 36 4a 5f bc 40 e4 21 bd 15 e6 0f bc
       0.050452083 -0.013628533 -0.039524317 -0.008782883
0002e0 64 62 89 3d 77 b2 ae 3d 9f 3a 4a bd b4 e4 ec bb
       0.0670822 0.08530133 -0.04937231 -0.007229412
0002f0 6c 30 3d bd f4 5f 0d 3d e0 3d b5 3c 6e c2 4f bd
       -0.046188757 0.034515336 0.02212423 -0.050722532
000300 cf 3e 2d bb d6 db f8 3c 05 a8 54 bc 15 02 2e 3d
       -0.0026435142 0.030378263 -0.012979512 0.042482454
000310 fc e1 8e 3d 75 bd fb bc 95 db ac bc d2 ea bc bc
       0.06976697 -0.030729989 -0.021100799 -0.02306119
000320 c8 b7 fc 3c 5b 8d a7 bb 1b 15 29 3d f3 9f bc bc
       0.030849352 -0.0051132864 0.041279893 -0.023025488
000330 6f fd 8e 3b 6f 20 7a 3c 4f 2d 05 bd 0d 83 63 bd
       0.0043637077 0.015266522 -0.032513913 -0.0555449
000340 b4 3f 94 bb e3 69 82 bb dc d2 b7 3c 9b d4 3b bc
       -0.0045241956 -0.003979908 0.022439413 -0.011464263
000350 6a 35 94 bd 4c be a5 bc e2 c6 e2 3a 67 ef 2d 3c
       -0.072367504 -0.020232342 0.0017301703 0.01061616
000360 36 e5 8f bb b4 ac 1e 3d ea 28 39 3b e5 66 48 3a
       -0.0043913377 0.03873892 0.0028253146 0.0007644727
000370 06 9b c6 bb bc 2e 53 bb f1 f3 77 bd 15 41 98 3d
       -0.0060609607 -0.00322239 -0.060535375 0.074342884
000380 6a 3b 98 bb dd c0 9f 3d 20 84 4b 3c 0e 08 49 bd
       -0.0046457546 0.078004576 0.012421638 -0.049079947
000390 9e 2d 4b 3b cb 91 3f bd 42 3d 17 bd 28 5e 78 bd
       0.0031002532 -0.0467699 -0.036923654 -0.06063667
0003a0 17 a3 1c bb fc f6 13 bd 03 c7 60 3d 40 28 1f bd
       -0.002390092 -0.036124215 0.054877292 -0.038856745
0003b0 4d 60 36 bd b8 73 82 3d 64 7d 32 bd 19 7e 06 bd
       -0.044525433 0.06369728 -0.043576613 -0.0328351
0003c0 13 f7 90 bd b7 bd 13 3d 1b bf 8f bd 95 da 6a 3c
       -0.07078376 0.036069598 -0.07018872 0.014334341
0003d0 b6 cd 24 bb 4e a9 4f 3d b4 7d 7f bb 99 da 1d 3d
       -0.0025147027 0.05069857 -0.0038984837 0.03853855
0003e0 de 2f b0 bc 0a f0 e3 3c 97 41 9a 3d 2b 8b 53 3d
       -0.0215072 0.02782442 0.075320415 0.051646393
0003f0 92 31 e6 3d 42 65 e4 bc 28 09 0b 3c 0d 60 1a bc
       0.112399235 -0.027880315 0.00848607 -0.009422314

weight_hh f4 [600, 200]
000000 d9 44 35 bd 92 01 36 bc ae 64 22 3d 1f 92 7f bb
       -0.04425511 -0.011108773 0.039646797 -0.0038997007
000010 c7 6e 68 bd 61 71 cb 3c 01 ec 59 bb 25 9d ac 3d
       -0.05674627 0.024834337 -0.0033252242 0.084284104
000020 b5 bd 5a bc 77 65 4a 3c 56 cc ab 3b 2b e9 12 3d
       -0.013350894 0.012353293 0.0052428646 0.035866898
000030 2a aa 0c bd a3 0a a4 bd 26 12 06 3d 9a 28 74 bd
       -0.03434197 -0.08009841 0.03273215 -0.059609033
000040 80 82 3e bd 34 9b 8b bb db db 69 ba 32 72 16 bd
       -0.046511173 -0.004260445 -0.00089210056 -0.03673
000050 bf 85 d8 bc e1 48 68 3d d4 fa 9a 3d f9 c7 28 bd
       -0.026430963 0.056710128 0.07567373 -0.041206334
000060 38 be 4e bd 40 ff 27 3d 45 63 5e 3d dd 31 c3 3d
       -0.050474375 0.04101491 0.05429389 0.09530995
000070 54 84 e6 3c 7d 88 bf bb ba 53 fe 3c a1 0f 51 bd
       0.02813927 -0.005845128 0.031045783 -0.051040296
000080 e9 ce 91 3c 21 70 92 3d 59 46 3b bd ff 6f 8d 3b
       0.017798858 0.07150293 -0.045721386 0.0043163295
000090 80 dd b6 3c f8 bc ae 3c 64 94 83 3d 74 e7 a7 bc
       0.022322416 0.021330342 0.06424788 -0.020496108
0000a0 f3 f3 04 3d f8 11 22 bc 56 97 ed bc af 7b 5b bc
       0.03245921 -0.009891979 -0.029002827 -0.013396188
0000b0 31 f6 a6 3d 50 a6 78 3d 67 7e 33 3d ac d9 aa 3c
       0.08152426 0.060705483 0.04382172 0.020855747
0000c0 e5 ab c7 3d db 49 d3 bc 82 f4 80 bd 76 5d 5e 3d
       0.09749583 -0.025792053 -0.06296636 0.05428835
0000d0 8b 6e be ba b0 19 e5 3d ba 03 c7 3c 71 39 07 3c
       -0.0014528794 0.1118654 0.02429377 0.008253441
0000e0 37 ee 4a 3d e6 32 d8 3c b3 18 bb 3d 4c 4f 48 bc
       0.049543586 0.026391458 0.091355704 -0.012225937
0000f0 a7 41 8f bc 4d 1d b4 bc 53 37 73 3d 79 c6 ec 3d
       -0.01748736 -0.021986628 0.059378933 0.11561293
000100 10 37 88 3d b4 95 5d 3d f3 21 ae 3d dc e2 1d bc
       0.06651127 0.054097846 0.08502569 -0.009636607
000110 dc 61 a3 3d 2d ed 3d 3d cf 0c 9f 3d e2 e3 13 bc
       0.079776496 0.046368767 0.07766115 -0.009026499
000120 ce 66 e2 bb e1 76 4f 3d 8f 26 6a bc d1 4c ab bd
       -0.006909228 0.05065048 -0.01429142 -0.08364261
000130 19 fd 48 bb 24 6e 50 bd 39 61 79 bd ef cf 57 3c
       -0.0030668436 -0.05088629 -0.060883734 0.013172134
000140 ae a4 0f bd 89 90 e3 3a 37 3a 33 3d 37 d6 3c ba
       -0.03506916 0.00173618 0.04375669 -0.00072035514
000150 65 6d f4 3c a5 cd 76 3d 96 90 cd 3c 97 e9 42 bd
       0.02983732 0.06025471 0.025093358 -0.04758605
000160 92 c7 9b 3d 68 9b 79 3d 90 99 b3 bd ff 10 20 bc
       0.076064244 0.060939223 -0.08769524 -0.009769677
000170 44 b0 23 3d ba fd 2b 3d 57 a7 3a 3d d7 63 8f bd
       0.039963022 0.04199002 0.045569744 -0.07001465
000180 0b 17 96 3d 7d ef 96 bd 65 13 b8 39 43 a7 61 bd
       0.07328614 -0.073698975 0.00035109665 -0.055091154
000190 84 c5 31 3c e3 76 e4 bb 51 13 ea bd 5e e3 9c 3d
       0.010850314 -0.00697218 -0.114294656 0.07660554
0001a0 8b 30 0e bd fc 85 14 3c 45 28 ce 3b a4 9c 85 bd
       -0.034714263 0.0090651475 0.0062914216 -0.065240175
0001b0 f7 bf 97 3c a1 67 94 3c 28 e0 04 bd 6f 6a 54 ba
       0.018524153 0.01811582 -0.032440335 -0.0008103018
0001c0 89 4e d7 bc 54 cc ec 3c f3 63 99 3d 9e ea 2a 3d
       -0.026282566 0.028906025 0.07489767 0.041727655
0001d0 38 60 38 3d 4d 48 c9 3c 07 bf 82 bd 62 dc 21 3d
       0.045013636 0.024570609 -0.06384092 0.039516814
0001e0 03 b0 d9 bd 28 d3 0a 3c df ef 00 bd a5 fb 5f bc
       -0.10629275 0.008473195 -0.03147876 -0.013670837
0001f0 f5 8a 97 3d 03 51 c1 bd 03 e8 7b 3d 25 12 de 3b
       0.07399551 -0.0943928 0.06150056 0.0067770653
000200 80 1d 5e 3a f0 26 9d bc ca 85 61 3d 04 d7 62 bd
       0.0008473024 -0.019183606 0.05505923 -0.055380836
000210 69 f0 63 3d bf 99 a2 3d 09 c3 ab 3c 76 7d 42 bd
       0.055649195 0.07939481 0.020967023 -0.04748293
000220 10 0d 85 bc 05 3b f7 3c 1c b9 db 3b e4 9b 8d 3c
       -0.01624158 0.03017951 0.0067054164 0.017286249
000230 23 9d b1 3d fe 27 a8 3b 1c d1 34 3c b1 38 0b 3d
       0.086725496 0.0051317206 0.011036184 0.033989612
000240 a6 0e 01 3d 24 3c a5 bd 8a 9d 92 bc 16 7c 96 bc
       0.03150811 -0.080681115 -0.017897386 -0.018369716
000250 b5 62 41 3d 6a a9 0d 3d c7 81 34 bd ea c4 98 bd
       0.047213275 0.034585394 -0.044069078 -0.074594334
000260 82 5a 6c bd 7f 8e 2b 38 15 fc 62 3c 40 b4 14 3d
       -0.057703502 4.0902287e-05 0.013854046 0.036304712
000270 a8 e7 2a 3d 25 9c c3 3c 3d eb 2b bd 40 70 98 3d
       0.04172483 0.023878166 -0.041972388 0.07443285
000280 05 c6 3a 3d 18 f8 91 3d 62 56 0d bb ee 4a 8f 3d
       0.045599002 0.07127398 -0.002156638 0.069967136
000290 a3 12 5a bd 42 e2 f0 3c d3 d9 e8 bd 1b e8 25 bd
       -0.05324043 0.029404763 -0.11369672 -0.040504556
0002a0 cb 26 bf 3c 6d cb b2 3c 5c f3 e4 3c 78 be 19 3d
       0.023333928 0.021825517 0.027948074 0.03753516
0002b0 bb 3f 1f bc 52 0b 05 bd 33 50 7f bd 04 fd 67 3c
       -0.009719784 -0.0324815 -0.062332343 0.014159445
0002c0 a8 5f c1 3c 08 41 c9 bb 45 a0 92 3d 3a 6f 52 3d
       0.023605183 -0.0061417855 0.07159475 0.051375605
0002d0 93 52 07 3d d5 ab 90 bd 33 e7 86 bc 43 7d 2f bd
       0.033037733 -0.07064024 -0.016467666 -0.04284407
0002e0 2a 6b e3 bc 83 5e a7 bc 10 bb 02 bd 85 6d bb bd
       -0.02776106 -0.020430809 -0.031916678 -0.091517486
0002f0 c3 82 37 3c fa 5f 0b bc 60 0a e4 3c f4 95 82 3c
       0.01120061 -0.008506769 0.027836978 0.015940644
000300 fb 58 07 bd fe fa 57 3d 64 79 70 3b 19 1d 37 3d
       -0.033043843 0.0527296 0.0036693448 0.044705484
000310 c4 b7 3d bd 5b c4 af bc 6f 5a 16 bc 9f 90 2b bd
       -0.04631783 -0.021455934 -0.0091768345 -0.04188597
000320 e6 59 30 bb b1 e2 3c bd 46 30 72 bd c0 ec 90 3d
       -0.0026909052 -0.046114627 -0.05912807 0.070764065
000330 c8 3c 5d 3c b1 a4 a7 3d ae ed d8 bd 8a c9 4a bd
       0.013503261 0.08185709 -0.10592209 -0.04950861
000340 c0 27 9a 3d fc 9f 71 3d e8 8f b6 39 94 c8 e9 3c
       0.07527113 0.058990464 0.00034820964 0.028538026
000350 66 ff 82 3d 6a 97 c5 3c e8 bf 3c bc 17 37 40 bc
       0.0639637 0.024120051 -0.011520363 -0.011731884
000360 7a 90 da 3b 5a c2 00 bd 01 fd 80 3d 71 92 c7 3c
       0.006670055 -0.031435348 0.06298257 0.02436182
000370 9f af 89 bd 98 d0 57 3b 48 99 5a bc 89 5c 54 3d
       -0.0672295 0.0032930728 -0.013342209 0.05184606
000380 d3 06 9a bd 16 f1 89 3d 47 2f aa 3d 4a 97 22 bd
       -0.07520833 0.067354366 0.08309799 -0.03969506
000390 31 7b ba 3c 86 8b c6 bc d6 78 6b bd bd fc 5d 3d
       0.02276382 -0.024236452 -0.057488285 0.054196108
0003a0 e2 5b 15 3d 1c 50 8a bd 72 f1 7d bd 2b ce 60 bd
       0.03646458 -0.06753561 -0.06199784 -0.054884117
0003b0 6e 80 a8 3c 9a 1b a1 3d 80 4f 82 3d a0 99 bf 3d
       0.020569053 0.07866593 0.0636282 0.093554735
0003c0 7a b5 1d 3c 7a 14 e6 3c ae 99 9a 3d bc 7f 95 bc
       0.009625787 0.028085936 0.07548843 -0.018249385
0003d0 af da 84 3c 40 28 a8 3d 9d 59 76 bd 30 36 40 bd
       0.016217558 0.08210802 -0.060144056 -0.046926677
0003e0 33 57 d0 bd 6e ac c2 3b d7 16 6a 3d 40 c7 46 3d
       -0.10172882 0.0059409654 0.057150688 0.048529863
0003f0 dc 83 d0 bc 80 0c a5 3d fe a1 8a 3c 84 6a 84 bd
       -0.0254535 0.08059025 0.016922947 -0.06465629

bias_ih f4 [600]
000000 41 d8 27 bd b6 ea 7d 3c ef 85 b5 3d 06 25 da bc
       -0.04097772 0.015497854 0.088634364 -0.026628982
000010 d1 79 33 bd 57 dd 91 3d ce 8f 99 39 b2 a7 b0 3d
       -0.043817345 0.07122295 0.00029289577 0.08625735
000020 09 46 c0 3a f7 97 70 3d 27 7a 38 3d d6 d8 a6 3d
       0.001466931 0.058738675 0.04503837 0.08146827
000030 aa a5 ac 3c 1d e9 59 bd ca 93 73 bd 5e 55 c4 3d
       0.021075089 -0.05320083 -0.059467115 0.09586595
000040 07 47 b9 3d 73 e0 de 3c 73 d1 5e bc 57 68 0b bd
       0.090467505 0.027206635 -0.013599741 -0.034035053
000050 d2 08 21 bd 01 39 84 3d 2d 34 2c 3d f2 5f f5 bc
       -0.039315052 0.06456185 0.042041946 -0.029952977
000060 6f 60 b6 3d c4 3b 77 3d b2 f0 9f 3c 6f e1 95 3c
       0.08905112 0.06035973 0.019523952 0.018295972
000070 3b 60 98 3c 1a 1d b4 3d dd f8 a5 bc c5 78 2f 3c
       0.018600574 0.08794613 -0.020260269 0.010709946
000080 a4 6d c0 3d ec 1c 66 3d 32 d3 5f bd 2a 0d 2e 3d
       0.09395912 0.056179926 -0.05464477 0.042493023
000090 e0 13 60 3d e1 db e7 bc 36 05 12 3d 94 e5 09 bd
       0.054706454 -0.028303089 0.0356495 -0.03366621
0000a0 2e 72 a7 bc 35 c7 31 bd 72 6d 1b bd 7f 96 92 3d
       -0.020440187 -0.04340287 -0.037946172 0.07157611
0000b0 a6 c4 46 3c 5f e0 95 3c 75 ee a1 bd 0d 1d 55 bd
       0.012131846 0.018295465 -0.0790681 -0.052029658
0000c0 cc f3 02 3c b9 59 d8 ba 94 30 6b 3c 27 f7 68 3d
       0.007992696 -0.0016506232 0.014354844 0.056876328
0000d0 ef 05 ba 3c d3 9a 61 bd 01 ea 9f 3c 87 f9 95 3d
       0.022707907 -0.055079293 0.019520761 0.07322984
0000e0 16 83 ff 3c cb c0 f3 3c 13 48 23 bb 9f 77 44 bc
       0.031190436 0.029755017 -0.0024914786 -0.0119914105
0000f0 6d fe 76 bc 1d f1 65 3e 61 23 27 3c 5f 85 48 bd
       -0.015075308 0.22455259 0.010201306 -0.048955318
000100 4c 71 82 3c 6e 5c a0 bc f1 49 02 3d bf f8 82 3d
       0.015923165 -0.019575324 0.031808797 0.06395101
000110 88 04 b0 3d 30 29 af 3c 7a f0 a1 bc 78 56 31 3b
       0.08594614 0.021381944 -0.019767988 0.0027059596
000120 c0 33 e1 3c 84 2b 04 bc bc c0 ea 3c 00 27 81 3c
       0.027490497 -0.008067016 0.028656356 0.015765667
000130 6e b8 06 3b 5e 07 11 bd d3 42 0e 3d a6 9e f6 3c
       0.0020556706 -0.035407417 0.034731697 0.030104946
000140 17 0b 06 3d 4a 55 85 bd 3a 76 86 b9 e1 6b 84 3d
       0.03272542 -0.06510408 -0.00025646557 0.06465889
000150 05 e3 67 3d 9d fa 84 3d 94 bb 90 38 d3 1f de 3d
       0.056612987 0.06493113 6.901394e-05 0.10845914
000160 e2 62 7e 3d 06 77 8d 3d 7d d5 74 bd 3f 62 82 3d
       0.06210602 0.069074675 -0.05977391 0.06366395
000170 16 6a 17 bd b8 69 c7 bc be a9 48 3c 26 aa ad 3b
       -0.036966406 -0.024342403 0.012247501 0.0052998243
000180 b5 0f 0b 3d 66 5c 29 3d 7a 94 f6 3c 87 7c 90 3d
       0.033950526 0.041347884 0.030100096 0.07055002
000190 31 87 aa bd 6e 0b 08 bd a1 5b 39 3d dd 83 28 bc
       -0.08326567 -0.033214025 0.0452534 -0.010285345
0001a0 41 47 5a 3d 67 19 a5 3d 67 98 41 bd 6a 10 58 bd
       0.05329061 0.08061486 -0.047264483 -0.05275003
0001b0 b9 cb 81 bd 5c 97 f2 3c fe 26 26 3d 6b 84 91 3d
       -0.06337685 0.02961319 0.04056453 0.07105335
0001c0 2e 81 47 3d 61 ba 7f 3d 55 26 45 3d f6 0d ab 3a
       0.04870718 0.062433604 0.04813226 0.0013050425
0001d0 f4 0d a0 3d db cc 2f 3d 26 fc 8a 3b 5a f0 53 3d
       0.07815161 0.042919975 0.004241484 0.05174289
0001e0 ce 99 56 bd a5 30 86 bc c2 c9 19 3d 20 ed 89 3d
       -0.052392773 -0.016380617 0.037545927 0.06734681
0001f0 cf 5f a3 bd 14 86 a2 bb f3 05 c3 bd 15 19 f3 3c
       -0.079772584 -0.004959831 -0.09522619 0.029675046
000200 9a 61 4c 3d dd 0b 5a bd 88 0e a2 bd 32 d7 ad 3d
       0.049897768 -0.05323397 -0.07912928 0.08488311
000210 5a 0f 82 bd 29 b9 3d bd 0e de 4a bb 37 27 61 3d
       -0.06350584 -0.04631916 -0.0030955109 0.05496904
000220 15 dc aa 3c d4 87 93 bc 9b ae 92 bb 4f 58 e0 3c
       0.020856896 -0.018009104 -0.004476381 0.027385859
000230 ac 42 14 3d 7f 0b 28 bd 8c cb be bc 02 ab 05 bd
       0.036196396 -0.04102659 -0.023290418 -0.03263379
000240 6a bb 74 bd 25 2f 7e 3b 2a 41 ed bb 40 e9 78 3c
       -0.059749044 0.0038785425 -0.007240434 0.01519233
000250 70 f1 02 3e 88 c8 a3 3d cb 28 09 3d 9c 8f 8a bd
       0.12787414 0.07997233 0.03348617 -0.067656726
000260 b9 7b 55 3d 1e 87 7b bd a4 c9 8c 3d c7 3c 1f 3d
       0.052119944 -0.061408155 0.068743974 0.03887632
000270 25 2d a3 bd 0c f8 9b 3c 49 0b 12 bd 3a f8 75 3d
       -0.07967595 0.019039176 -0.035655294 0.06005118
000280 ff 5e cd bc 20 26 be bc b8 35 1d bd a1 d3 2a 3d
       -0.025069712 -0.023211539 -0.03838131 0.04170573
000290 c4 46 c7 3d b3 b7 88 bd 23 01 02 bd da 77 c6 3d
       0.09730294 -0.06675663 -0.031739365 0.096908286
0002a0 21 f0 79 bd e3 40 76 3d 10 12 81 bd 44 e7 82 3c
       -0.06102002 0.060120475 -0.06302273 0.015979417
0002b0 15 40 53 bc 2b 31 b6 3d f8 e2 2a 3b 2e e9 02 3c
       -0.012893696 0.08896097 0.0026075225 0.007990165
0002c0 f3 6b 95 bd 17 8b 66 3d 08 ab 9f 3c 6f 67 2b bd
       -0.0729598 0.05628499 0.019490734 -0.04184669
0002d0 8b 25 bc bc 4e 0b 23 3c 0a 88 28 3d f7 1c a5 3d
       -0.02296712 0.009951426 0.041145362 0.08062165
0002e0 9a c5 0c bd 5d 79 9b 3d 49 02 83 3d a9 15 50 bb
       -0.034368135 0.075915076 0.0639692 -0.0031751192
0002f0 65 1b 07 bc 90 52 88 3c 62 ce d2 bc 80 12 4f 3d
       -0.008246277 0.016640931 -0.025733177 0.050554752
000300 12 a7 7a bd 3d 7c a9 3c e7 48 1d 3d cc 55 0f bd
       -0.061194487 0.020689124 0.038399603 -0.03499393
000310 98 68 08 bd 9c 2e 9a 3d 4e ea 78 bd 41 53 3d bc
       -0.033302873 0.07528421 -0.060770325 -0.011555494
000320 66 0c bd 3c 4b f5 1f bd e8 71 9f 3d a4 5e 79 3d
       0.023077201 -0.03905229 0.07785398 0.060881272
000330 86 9d ad 3d 84 e6 b8 bc b6 14 39 3c c2 67 38 bc
       0.08477311 -0.022570856 0.011296442 -0.011255207
000340 4c 39 2d 3d f3 c0 6d bd 0e b4 b5 3d f2 d8 43 bd
       0.04229097 -0.05804534 0.08872233 -0.047814317
000350 53 e9 50 3d ce 2b dc bc fc 90 29 bd f1 e4 49 bd
       0.051003765 -0.026876356 -0.041398033 -0.0492906
000360 e7 f1 0c bd c5 c4 56 bd 2b 97 a5 bc 95 39 16 3c
       -0.034410384 -0.052433748 -0.020213684 0.009169002
000370 f8 18 9c b9 53 61 65 3b 1a 50 1b bc 37 5f 40 bd
       -0.00029773242 0.0035000637 -0.009479547 -0.046965804
000380 71 5f d1 bc f3 99 92 3d 99 69 97 3d 06 1a e0 3d
       -0.025558205 0.0715827 0.07393188 0.109424636
000390 e8 ae 43 bd 98 c0 cf bd 92 38 4b 3d 43 6a 80 3d
       -0.047774225 -0.10144156 0.049614497 0.06270268
0003a0 27 dc 83 bd ab e6 2d 3d c6 3b 80 bc 4c 3d 1e bc
       -0.06438475 0.04245631 -0.015653502 -0.009658169
0003b0 5e 21 54 bd 19 1d 47 3d e8 b2 ea 3c 8e 4c 9e bb
       -0.051789634 0.048611734 0.028649762 -0.0048309034
0003c0 54 66 d9 3c 8f 2a 2f bd f0 f6 1f bd b7 48 b2 bb
       0.026538052 -0.042765196 -0.039053857 -0.005440797
0003d0 17 96 ab 3d 70 42 7e 3d 5f 7b 49 3d b1 ea 48 bd
       0.08378237 0.06207508 0.04918992 -0.049051944
0003e0 10 4a 1c 3c eb 84 7b 3c 9b 14 05 bd 5f 39 5d bc
       0.009539142 0.015351514 -0.032490354 -0.013502448
0003f0 dc ad e1 3d b4 4a 4a 3d 31 29 90 3d 2c f6 2a 3d
       0.11019489 0.04938765 0.07039107 0.041738674

bias_hh f4 [600]
000000 25 bd 41 bd 72 92 6b 3c 93 ee 9d 3d a9 b4 14 3d
       -0.047299523 0.014378177 0.0771152 0.036305103
000010 6e b5 39 3d f2 32 0b bd 1e 89 99 bd 14 77 ea bc
       0.04533904 -0.033984132 -0.07496856 -0.028621234
000020 2b c4 99 3c 62 fa 3b 3d 96 af ab bd 0c 54 06 3d
       0.018770298 0.04589308 -0.083831 0.032794997
000030 b6 c6 ea bc 03 86 52 3d 85 4f 88 bd 2e 85 35 3d
       -0.028659206 0.051397335 -0.06655792 0.044316463
000040 fd 8f d1 3d 3a c4 ed bb 40 9c 0f 3d 6f 3c fd bb
       0.10232542 -0.007256058 0.03506112 -0.0077281515
000050 e6 b4 56 bd 41 ac f4 3c 50 2b 4b 3c c3 ba 92 3d
       -0.052418612 0.029867293 0.012400463 0.07164528
000060 cb d3 d1 bb 5c b5 51 3d 28 f2 47 bd 86 ae d0 3c
       -0.0064034215 0.05119835 -0.048814923 0.025473844
000070 46 da 79 3d 32 92 c1 bb 1f fc 5d 3d 63 c3 1e bd
       0.060999177 -0.0059073204 0.05419552 -0.038760554
000080 ac 66 01 3c 72 a5 3b 3d f9 81 35 bc cf 50 3e bd
       0.007898014 0.045812078 -0.011078351 -0.046463784
000090 de b8 65 bd 5f e0 7c bc 99 f6 10 bd c0 b7 aa 3b
       -0.056084506 -0.015434354 -0.035391424 0.005209893
0000a0 50 dd 5e bc 84 00 ee bc 50 20 a2 3a 62 46 56 3d
       -0.01360257 -0.02905298 0.0012369249 0.052313216
0000b0 6b 23 78 3d 5d d8 2d 3d 58 a6 95 3b 80 8e 3e 3d
       0.060580652 0.04244267 0.004566949 0.046522617
0000c0 b4 0f 20 bd f0 86 87 bb 42 fb 87 3d 61 ad 44 3d
       -0.039077476 -0.004135959 0.066397205 0.04801691
0000d0 f8 6c 3a bd 8f eb 3c bd be 6a 44 bd 34 40 ab 3d
       -0.045514077 -0.046123084 -0.04795336 0.08361855
0000e0 31 f4 33 3c 12 52 96 3d 05 6f 30 bc 71 01 bd 3d
       0.010983513 0.073398724 -0.010768657 0.092287906
0000f0 ab db 8e bd 13 c1 9c 3e a4 29 60 3d ca d2 aa bd
       -0.06975492 0.30616054 0.05472721 -0.08340986
000100 d4 ae 9a bb 49 38 83 3d ab 64 0c bd 15 47 8d bd
       -0.004720548 0.0640722 -0.034275692 -0.068983234
000110 a1 cb 21 3d 47 10 3c bd 93 d7 28 bd d9 04 b4 bd
       0.039500836 -0.04591396 -0.041221213 -0.08789987
000120 7d d1 b6 ba 29 89 48 bc a9 9b 11 3d 22 a6 9e 3a
       -0.001394793 -0.012239733 0.03554884 0.0012103955
000130 06 1a 6e 3d 93 66 8a bd 77 2e 1d bd 82 7a cc 3a
       0.058130287 -0.06757846 -0.03837439 0.0015600475
000140 03 ee b8 bc 99 a3 aa bd e0 ec 0d bd b6 41 77 3d
       -0.02257443 -0.08331985 -0.03464973 0.0603654
000150 4e f6 6c 3d b5 43 8b 3d fb 50 8d 3d 46 f2 20 3e
       0.057852082 0.068000235 0.069002114 0.1571742
000160 5a d7 fa bc 93 31 7b 3d 81 50 bc bd 38 1a 91 3d
       -0.030620266 0.061326575 -0.091950424 0.07085079
000170 5d 94 dd 3c ac 33 8c 3d 6c 30 8b 3c 41 3f 67 3d
       0.027048284 0.06845793 0.016990863 0.056456808
000180 22 fb 8e 3d 5b 44 29 bd 99 bb e6 3c 87 da 4d 3d
       0.069814935 -0.041324954 0.028165625 0.050257232
000190 b7 47 39 bd 4a 61 b8 3d 5a ee 3d bc 8e 43 7c bd
       -0.04523441 0.090029314 -0.011592472 -0.061587863
0001a0 e5 f6 8e 3d d5 4b 4f bd 1d bc 28 bd f3 c7 54 bd
       0.06980685 -0.05060943 -0.041195024 -0.0519485
0001b0 2c 3f 20 bd fb 24 4c bd 5f ba aa bc 2d 1c 29 3c
       -0.039122745 -0.049839955 -0.020840822 0.010321659
0001c0 5e 5f 24 bd 09 d3 50 bd c7 cb b2 3c 74 bb 81 3d
       -0.04013001 -0.05098251 0.021825684 0.06334582
0001d0 48 61 c4 ba 67 88 80 3c ed 17 22 3d d0 16 5f 3c
       -0.0014982605 0.015690042 0.0395736 0.013616279
0001e0 7b cb e6 3a 5a e8 fa 3b 78 35 26 bd 1d bc 7c 3d
       0.0017608249 0.007657093 -0.040578336 0.061702836
0001f0 36 05 c1 3c 15 10 a3 bd a7 cb 41 bd e9 c0 19 3d
       0.023562055 -0.07962052 -0.04731336 0.03753749
000200 fe 0f a2 3c 27 5a 52 3d c9 dc b0 3c e2 cc b5 3d
       0.019783016 0.051355507 0.021589654 0.08876969
000210 f8 26 7f bd d9 54 3b bc a0 fb d9 3c 55 ac 1d 3d
       -0.062293023 -0.0114338035 0.026609242 0.038494427
000220 20 6e 04 bc 32 cf 2b bd 10 08 0d bd cb 73 63 bd
       -0.0080828965 -0.041945644 -0.034431517 -0.05553035
000230 df 67 04 bc cc 40 06 3d a8 6d 66 bc c7 22 26 3d
       -0.008081405 0.03277664 -0.01406423 0.04056051
000240 f3 53 93 bd 5c 7d 08 bd 0b 4b 86 3c 14 74 72 3d
       -0.071937464 -0.033322677 0.016393205 0.059192732
000250 cb 55 bc 3d 1f bb bb 3b e1 93 73 bd 93 91 34 3a
       0.09196051 0.0057290937 -0.0594672 0.00068881473
000260 d8 06 e9 bc 2a df 18 3d 8c 92 25 3d a8 89 cc bc
       -0.028445646 0.0373222 0.04042296 -0.024967983
000270 94 ae f2 3b 6f 06 90 3d 02 97 a1 3d 77 46 80 bd
       0.0074060652 0.07032477 0.078901306 -0.0626344
000280 94 5b 76 bd d2 dd ae 3d a8 a7 9d bd aa f5 50 bd
       -0.06014593 0.085384026 -0.076979935 -0.051015534
000290 1e ec f1 3b 1a 51 7f 3d d6 0c 51 bb a8 95 00 3e
       0.0073828837 0.062333204 -0.003189852 0.1255709
0002a0 6c c2 75 3d 4b 14 b1 3b e8 0f dc bc 71 b2 a7 3d
       0.05999987 0.0054040304 -0.026863053 0.08188332
0002b0 35 51 36 bb 17 ef 06 bd c0 3d 8e 3d b4 36 61 3d
       -0.00278194 -0.032942858 0.06945372 0.05498381
0002c0 4b a2 d2 bc fe fb 6a bd a7 28 f6 3d df 84 fe bc
       -0.025712153 -0.057369225 0.120194726 -0.031069217
0002d0 da 4c 9c 3d 2a 0e 8b 3d fb 9c ce 3c 8f d8 99 3d
       0.07631846 0.06789811 0.025221338 0.075120084
0002e0 60 3c 1d bd 47 86 6e 3d 8e 6f 37 3d 4f 08 89 bd
       -0.038387656 0.058233526 0.04478412 -0.06691038
0002f0 3a 07 10 bd 2a 05 c8 bc 77 55 85 3d f2 19 05 bc
       -0.03516314 -0.024416525 0.06510442 -0.008123862
000300 76 81 22 bc 72 cd 54 bb 9f e0 65 3d 69 1a 55 3d
       -0.009918561 -0.0032471088 0.05612242 0.05202714
000310 a0 4e 85 3d ef 73 aa bc 23 57 39 3d e7 e6 fd bc
       0.06509137 -0.020807235 0.045249116 -0.030993892
000320 ad b6 5d 3d 0b a2 fe 3c 9b 61 e5 3c 43 74 8b 3d
       0.05412929 0.031083127 0.028000643 0.068092845
000330 9d 3e 62 3d 18 03 33 3d 46 c9 94 bd 26 8c 4e 3d
       0.055235494 0.043704122 -0.07264952 0.050426625
000340 be be bb bc fe 36 0a 3d 6a 45 aa 3d c7 ae bc bd
       -0.022918101 0.03374385 0.08314021 -0.09213024
000350 ac 03 77 3d 55 b8 c1 3c 1f 0b 2a 3d 8d fa 69 bd
       0.060306236 0.023647467 0.041514512 -0.05712371
000360 0d 27 6d 3d ff 5b f9 bc 9c 90 5e bd 01 95 7a 3d
       0.05789857 -0.030439375 -0.05433713 0.061177257
000370 43 71 4f 3d 79 d6 4b bc 20 86 ad 3c fb c6 82 bc
       0.050645124 -0.012441271 0.02118212 -0.015964022
000380 35 c5 56 3d 9e c7 a7 3d 7a c4 b4 3d 7e 8d 5a 3d
       0.052434165 0.08192371 0.088265374 0.053357594
000390 63 d5 50 bd ce 02 40 bd 89 e9 99 bd 91 95 d2 3c
       -0.05098475 -0.046877675 -0.075152464 0.025706084
0003a0 fe c1 3e 3d d8 8f 1a bd 45 be 0a bd 46 1f 38 bd
       0.046571724 -0.037734836 -0.03387286 -0.0449517
0003b0 7b db 04 bb 01 e2 2f bd f5 e7 9b 3d a1 8a 86 3d
       -0.0020272422 -0.042940143 0.07612602 0.0656941
0003c0 a3 0b c2 bc 73 32 ec 3c 8e de ba bc 36 ae 9d 3d
       -0.02368719 0.02883265 -0.0228112 0.07699244
0003d0 ba ed e0 3c e1 48 11 3d 0a 3f a5 3c b8 47 0c 3d
       0.027457107 0.035469893 0.02017166 0.034248084
0003e0 03 09 b9 3b 92 50 65 bd 77 a4 19 bd 19 71 8a bd
       0.0056468262 -0.05598504 -0.03751036 -0.06759853
0003f0 d0 20 07 3c c8 b4 a9 bc 55 b3 27 bd 06 83 95 3d
       0.008247569 -0.020716086 -0.04094251 0.07300381
