testbed/models_v6/gnn_layer_2.pt (torch, 896629 bytes, 7 tensors)

weight f4 [300, 300]
0	0xbd622656	-0.05521234
1	0xbd251de6	-0.040311716
2	0xbd06c21d	-0.032899965
3	0xbd33d09b	-0.043900114
4	0x3cf2e43b	0.029649844
5	0xbd586dbf	-0.052839037
6	0xbbe63dc8	-0.007026408
7	0xbced2bc9	-0.028951542
8	0xbd1cc5db	-0.038274627
9	0xbadd567f	-0.001688674
10	0xbd17e0b2	-0.03707952
11	0x3d1727bb	0.036903124
12	0x3d4241f2	0.04742617
13	0xbd2a46e2	-0.041571505
14	0x3d4838e6	0.048882388
15	0x3bd99ee2	0.0066412548
16	0xbd35e3d2	-0.04440672
17	0xbd5d74bc	-0.054066405
18	0xbc6d7de5	-0.014495348
19	0xbd04de95	-0.032438833
20	0x3c23c6a6	0.009996092
21	0x3c09b120	0.008404046
22	0xbd5690a9	-0.052384052
23	0xbcacb492	-0.021082196
24	0x3cc440f5	0.023956755
25	0xbc899865	-0.0167963
26	0x3d256b84	0.040385738
27	0xbd021053	-0.03175385
28	0x3bfa4d67	0.0076386216
29	0x3d0d2b6a	0.03446523
30	0xbd3b4ebc	-0.045729384
31	0x3c9a7270	0.018853396
32	0x3c562760	0.013070911
33	0x3bc10ef3	0.0058916747
34	0xbcd1a374	-0.025590636
35	0xbc17d2b7	-0.009266547
36	0xbd331efe	-0.04373073
37	0x3ce92c9e	0.028463658
38	0xbcd34fe4	-0.02579493
39	0xbca25b4d	-0.019818926
40	0x3bfe06d2	0.007752278
41	0x3d497bbf	0.04919028
42	0xbd209473	-0.039204072
43	0x3d23a21e	0.03994953
44	0x3d0c415d	0.034242023
45	0xbbcf880b	-0.0063333563
46	0x3cc07abd	0.023496026
47	0x3ba64c33	0.0050750016
48	0xbc884548	-0.016634598
49	0x3d1a8ac6	0.03773
50	0xbb4b011e	-0.0030976008
51	0x3d40c33b	0.047061186
52	0xbc63e341	-0.013909162
53	0xbc897d36	-0.016783338
54	0x3bc292eb	0.005937924
55	0xbd0a94fd	-0.033833493
56	0x3d3c148f	0.045918044
57	0x3cb4e1cd	0.022080326
58	0x3d041f57	0.03225645
59	0xbd878c86	-0.066185996
60	0xbd5b2a27	-0.053506996
61	0x3ce0bc3c	0.027433507
62	0x3cd86299	0.026414203
63	0x3c5e39d0	0.013563588
64	0xbca63a16	-0.02029137
65	0xbd5b8561	-0.053593997
66	0x3cc3f174	0.023918845
67	0x3d17d3f9	0.037067387
68	0xbcc3aa1f	-0.023884831
69	0xbc3a0e8e	-0.011356009
70	0x3ce70fb8	0.028205737
71	0x3d108a5c	0.0352882
72	0x3d5ea859	0.054359768
73	0x3cd98fba	0.026557792
74	0x3ce24404	0.027620323
75	0x3d214b35	0.039378364
76	0xbd3ee5f0	-0.046606004
77	0xbce3a60a	-0.027789135
78	0xbcea5069	-0.028602796
79	0x3d203d5c	0.039121017
80	0xbcb93d04	-0.022612102
81	0xbd34028a	-0.043947734
82	0x3c40171d	0.011724261
83	0xbbda2d71	-0.006658249
84	0xbcfceeee	-0.03087565
85	0xbbcf7f99	-0.0063323495
86	0xbc5da402	-0.013527872
87	0xbcca05c1	-0.024660947
88	0x3ad72052	0.001641283
89	0xbc7e0632	-0.015504407
90	0xbae665f5	-0.0017577993
91	0xbc46bcfa	-0.012130016
92	0xbc9928cd	-0.018696213
93	0xbd275308	-0.04085067
94	0x3d1c0fb9	0.03810093
95	0x3b5666b2	0.003271502
96	0x3cf0fbab	0.02941688
97	0x3b1f9feb	0.0024356793
98	0xbd4fdeca	-0.050749578
99	0xbd74d7df	-0.059776183
100	0x3c69ed8f	0.01427783
101	0x3d39ddfd	0.04537772
102	0x3d140f5a	0.036147453
103	0xbc0ae002	-0.008476259
104	0xbd13fc5d	-0.036129344
105	0x3c82b2b9	0.015954362
106	0xbc7c4869	-0.015398123
107	0xbd0aa297	-0.033846464
108	0x3bd50e24	0.00650193
109	0x3c550aff	0.01300311
110	0x3d74af28	0.059737355
111	0x3c8f43a3	0.017488306
112	0x3d293895	0.041313726
113	0xbcb3220a	-0.021866817
114	0xbcc27b12	-0.023740325
115	0x3d5aa3f4	0.053379014
116	0x3cfc41ee	0.030793156
117	0x3cdd65d5	0.027026096
118	0x3cf6bcb1	0.030119272
119	0x3cf11f24	0.029433794
120	0xbd1aabfd	-0.037761677
121	0x3cfbd400	0.030740738
122	0x3cba2e0f	0.02272704
123	0x3b8b129e	0.0042441627
124	0xbae02941	-0.0017102138
125	0xbbe10c2f	-0.0068679075
126	0x3d0797f8	0.033103913
127	0x3d883d15	0.066522755
128	0x3d70a701	0.058753017
129	0xbc182461	-0.009286017
130	0xbcf3fdd9	-0.02978413
131	0x3caaaf8a	0.020835657
132	0x3cfb4368	0.03067179
133	0xbcc7db28	-0.024396494
134	0x3cff23b9	0.031144964
135	0xbcda6e68	-0.026663974
136	0xbd834b6c	-0.0641087
137	0xbd406ee8	-0.04698077
138	0xbd4b832f	-0.049685653
139	0x3c7c66cb	0.015405367
140	0x3d762cc2	0.060101278
141	0x3cf7f863	0.030269807
142	0x3cded2ad	0.027200067
143	0x3cd6caa7	0.026219679
144	0xbd8271d6	-0.06369369
145	0xbd219e2c	-0.039457485
146	0xbd1c1066	-0.038101576
147	0x3ce5ba58	0.028042957
148	0x3cedf8d3	0.029049313
149	0xbc9aefae	-0.018913116
150	0xbd770369	-0.060305987
151	0x3d237c9f	0.03991377
152	0xbbf22aa8	-0.007390339
153	0x3ce3195d	0.027722055
154	0xbb063938	-0.0020480882
155	0x3d4ad749	0.04952172
156	0x3a42465f	0.0007410999
157	0x3d2dc450	0.042423546
158	0xbd02f9e8	-0.03197661
159	0x3d224395	0.039615232
160	0x3cd1ec71	0.02562544
161	0x3d629451	0.055317227
162	0x3aecb1fb	0.0018058413
163	0x3d12decf	0.035857018
164	0xbd07f127	-0.033188965
165	0xbd83248b	-0.064034544
166	0xbd08bde2	-0.03338421
167	0xbcec005a	-0.028808761
168	0xbc2f1943	-0.010687175
169	0xbd5b84e6	-0.05359354
170	0xbd4b6bb7	-0.04966327
171	0x3d52dc75	0.051479775
172	0x3abde848	0.0014488781
173	0xbb9055d6	-0.0044047637
174	0x3d04bffa	0.032409646
175	0x3d1dbc73	0.038509797
176	0xbd121abf	-0.03567004
177	0x3cdb14b1	0.026743265
178	0x3d52bd67	0.05145016
179	0xbd415e07	-0.047208812
180	0x3d68a881	0.056801323
181	0x3c42acf1	0.011882053
182	0xbce640dd	-0.028107101
183	0xbd58d005	-0.052932758
184	0x3d38a4ea	0.04507915
185	0x3cb5c316	0.02218775
186	0xbca12688	-0.019671693
187	0x3d381b62	0.04494799
188	0x3d4f1a38	0.050562114
189	0x3b96130e	0.004579908
190	0xbc697166	-0.014248228
191	0x3d097f71	0.033568803
192	0x3d4b6bb5	0.049663264
193	0x3cda3f82	0.026641611
194	0xbd698cdb	-0.057019096
195	0x3c1b76e4	0.009488795
196	0x3d481af2	0.048853822
197	0xbc19be51	-0.009383754
198	0xbc20d3f8	-0.009816162
199	0xbbdc658c	-0.0067259725
200	0x3c9def51	0.019279154
201	0x3d38650a	0.045018233
202	0x3c9250f7	0.017860873
203	0x3bed9515	0.007250438
204	0x3c98ef04	0.018668659
205	0x3d25f8cb	0.04052047
206	0x3d489ae0	0.048975825
207	0xbc1c6f15	-0.009547968
208	0xbc8ecf65	-0.017432878
209	0xb9c3936a	-0.0003730313
210	0x3c1f2563	0.0097135035
211	0x3c67cdbe	0.014148174
212	0x3d0fc7c8	0.035102636
213	0xbcc87e7d	-0.024474377
214	0x3d3f46d0	0.04669839
215	0xbd654d2d	-0.055981804
216	0xbd66c03c	-0.056335673
217	0xbd20aca6	-0.03922715
218	0xbd33d79b	-0.04390679
219	0xbd62c112	-0.055359907
220	0x3bd242d2	0.006416657
221	0x3d07b4dc	0.033131465
222	0xbce388ff	-0.027775286
223	0xbce6d0f6	-0.028175812
224	0xbd82291e	-0.06355499
225	0xbc79a7ae	-0.015237732
226	0x3c96f7d4	0.01842872
227	0x3caf7a2c	0.02142056
228	0x3c4d958f	0.012547865
229	0x3cbb5eee	0.022872414
230	0xbd331cc5	-0.04372861
231	0x3c92854e	0.01788583
232	0xbd19fc42	-0.037594087
233	0xbd27f355	-0.041003544
234	0x3d38be9a	0.045103647
235	0xbb856bbe	-0.0040716818
236	0xbcd36665	-0.025805661
237	0x3cfbf68c	0.030757211
238	0x3d0d4a2b	0.03449456
239	0x3cab7628	0.020930365
240	0xbd5b0488	-0.05347112
241	0xbc9657a0	-0.01835233
242	0xbcb57d90	-0.0221546
243	0x3ce438cd	0.027859116
244	0x3d386daf	0.045026477
245	0x3b02aa78	0.0019938033
246	0xbc907d9f	-0.017638026
247	0xbd677849	-0.056511197
248	0x3cbdbc0f	0.023160962
249	0x3d30cfaf	0.043166813
250	0xbc08c2a4	-0.008347187
251	0xba054e85	-0.00050852477
252	0xbd3302c8	-0.043703824
253	0x3d63435f	0.055484172
254	0x3ce66524	0.0281244
255	0x3cf2c38f	0.029634265

bias f4 [300]
0	0xbccdb5fe	-0.025111195
1	0xbd68982d	-0.05678575
2	0xbca514f3	-0.02015159
3	0xbd16d3ff	-0.03682327
4	0xbd55a8d4	-0.05216296
5	0xbd11731c	-0.035510167
6	0xbaf886ae	-0.0018961036
7	0x3b33c8e4	0.0027432973
8	0xbd1163e8	-0.03549567
9	0x3b586728	0.003302047
10	0x3d4f45f0	0.050603807
11	0xbd7df627	-0.062002327
12	0xbcf52ce2	-0.029928628
13	0x3cdd5bcf	0.027021317
14	0xbb8ea61b	-0.0043532974
15	0x3c906e35	0.017630676
16	0xbd5e9eaf	-0.05435055
17	0xbca4af67	-0.02010317
18	0xbd62b4fd	-0.055348385
19	0xbb60ffcc	-0.0034332154
20	0xbc43fb4a	-0.011961767
21	0xbc7bc237	-0.015366129
22	0x3c00e4da	0.007867062
23	0x3cf38900	0.029728413
24	0x3ca904ce	0.020632174
25	0x3cee30f3	0.029076075
26	0x3bb09683	0.005389036
27	0xbc2cf024	-0.010555301
28	0x3c791e7b	0.015205021
29	0x3cb32fd5	0.021873394
30	0x3b92b321	0.0044769202
31	0xbd6b42f0	-0.057436883
32	0x3d4d63f6	0.05014416
33	0x3cb10bef	0.021612136
34	0xbd4a80fa	-0.049439408
35	0xbd3ab20a	-0.045579948
36	0x3bd0643a	0.006359604
37	0x3cfcf165	0.030876825
38	0xbcf98646	-0.030459534
39	0xbca5ea45	-0.02025331
40	0x3cccffd9	0.025024341
41	0x3ceafa52	0.028683815
42	0xbc189299	-0.009312295
43	0x3c75e135	0.015007307
44	0xbd17acf0	-0.03703016
45	0xbcf1e9cf	-0.029530434
46	0xbc87505f	-0.016517816
47	0xbd33d8f9	-0.043908093
48	0x3cb7765b	0.022395303
49	0x3c36a98d	0.0111488225
50	0xbd3356b8	-0.043783873
51	0x3bf743b0	0.007545911
52	0xbc40086c	-0.011720758
53	0xbd15c7bd	-0.03656744
54	0x3cd14231	0.025544258
55	0xbd405a3e	-0.04696106
56	0x3d0ca2fc	0.03433512
57	0xbbe16f0a	-0.006879692
58	0xbc5004c9	-0.012696453
59	0x3cd8c83e	0.02646267
60	0x3d4d20e9	0.050080214
61	0x3c6a498d	0.014299762
62	0xbb32fe25	-0.0027312126
63	0xbd50f0c9	-0.05101088
64	0xbd5b999a	-0.053613283
65	0xbd0c86e9	-0.034308348
66	0xbc0480a1	-0.008087308
67	0xbc9da714	-0.019244708
68	0xbc0eb161	-0.008709283
69	0xbd4e1073	-0.050308656
70	0x3d583dc0	0.052793264
71	0xbaac7139	-0.0013156302
72	0x3bca9d85	0.0061833286
73	0xbb0d0eb9	-0.0021523668
74	0x3bf6e284	0.007534327
75	0x3ce44716	0.027865928
76	0x3d023cb9	0.03179619
77	0xbd714434	-0.058902934
78	0x3d55e30c	0.052218482
79	0xbb479e1d	-0.0030459233
80	0x3d086ed4	0.03330882
81	0xbca57874	-0.020199038
82	0x3cce6c17	0.025198026
83	0xbd12106b	-0.03566019
84	0x3d22f7d1	0.039787117
85	0xbcd73dd2	-0.026274595
86	0x3c35f2a5	0.011105214
87	0x3ccfa359	0.025346445
88	0x3d396d32	0.045270152
89	0x3ad8e032	0.0016546308
90	0x3d257608	0.040395766
91	0x3d1a6b76	0.03770014
92	0xbc8a8238	-0.016907796
93	0x3d63d935	0.055627067
94	0xbc9ed628	-0.019389227
95	0xbd717182	-0.05894614
96	0x3758110b	1.2878571e-05
97	0xbb922d85	-0.0044609928
98	0x3d1d4f7f	0.03840589
99	0x3d29cc25	0.041454453
100	0xbbb304e1	-0.005463228
101	0xbcd9c132	-0.02658138
102	0xbc98160f	-0.018565206
103	0xbd56ca82	-0.05243922
104	0xbcee6fbe	-0.029106017
105	0x3cdea9bf	0.02718055
106	0xbd2c97e4	-0.04213704
107	0x3bf13710	0.0073613003
108	0xbb7d8ff8	-0.0038690548
109	0x3c820089	0.015869396
110	0x3c067d7f	0.008208632
111	0xbcf5ac7f	-0.02998948
112	0x3cfc43d9	0.030794071
113	0xbcd9ccf1	-0.026586981
114	0xbca22bf5	-0.019796351
115	0x3bbdf457	0.00579695
116	0xbc80f813	-0.015743291
117	0xbcd39eaa	-0.025832493
118	0xbd391b7e	-0.045192234
119	0x3d42bdb5	0.0475442
120	0x3d1eee98	0.03880176
121	0x3d0cfaf3	0.03441901
122	0xbcb1cfca	-0.021705527
123	0xbd053532	-0.032521434
124	0xbd472bfe	-0.04862594
125	0xbc8b3379	-0.016992318
126	0xbd3a3aa8	-0.045466095
127	0xbd4edd36	-0.050503932
128	0xbc91175c	-0.017711334
129	0xbcb62d9f	-0.02223855
130	0xbd25511b	-0.04036055
131	0x3c74f351	0.014950589
132	0xbcb66e3c	-0.02226936
133	0xbd0ecb0b	-0.034861606
134	0x3d4390d7	0.047745552
135	0xbb7daf3b	-0.0038709182
136	0x3d1c0b0e	0.03809648
137	0xbb17950d	-0.0023129613
138	0xbcc62f87	-0.024192585
139	0xbd6fda47	-0.058557775
140	0x3d0231b9	0.0317857
141	0xbd818bb0	-0.063254714
142	0x3cc8cf89	0.024513023
143	0xbd6d4a8f	-0.057932433
144	0xbd40febe	-0.04711794
145	0xbc8f547c	-0.01749634
146	0x3c97e6df	0.018542705
147	0x3c8478ee	0.016170945
148	0x3d4a8b14	0.04944904
149	0xbd51434b	-0.051089566
150	0x3c10db1e	0.008841304
151	0x3bb566b8	0.0055359267
152	0x3c3bfdb1	0.011474059
153	0xbcfd07a3	-0.03088743
154	0x3d456f3d	0.04820179
155	0x39a3ffd8	0.000312804
156	0x3cb4eae9	0.02208467
157	0xbc9952a7	-0.01871617
158	0x3cf11f6d	0.02943393
159	0x3d3d4f48	0.046218187
160	0xbd81c9d7	-0.06337326
161	0xbc39c46d	-0.011338335
162	0xbd25360b	-0.040334743
163	0x3d56f683	0.052481186
164	0xbb423f25	-0.0029639688
165	0xbd2de0dd	-0.042450774
166	0xbc63b585	-0.013898258
167	0x3be4bb5b	0.0069803423
168	0x3d2896bc	0.041159377
169	0x3d391572	0.045186467
170	0x3d2838aa	0.041069664
171	0x3d25cfc2	0.040481336
172	0x3d2365a2	0.039891846
173	0x3d01b18d	0.031663466
174	0x3caf182a	0.021373827
175	0xbb6a00eb	-0.0035706114
176	0xbcf558ee	-0.029949632
177	0xbd386ba3	-0.045024525
178	0xbd20425f	-0.039125796
179	0x3cfa5af9	0.030560957
180	0xbd4f018f	-0.050538596
181	0x3b9ec2cf	0.0048450003
182	0x3d160d8c	0.036634013
183	0xbc8719e7	-0.016491843
184	0x3d626e66	0.055281065
185	0x3d428cc5	0.04749753
186	0x3d002d54	0.03129323
187	0x3d202325	0.039096016
188	0x3afbca92	0.0019210151
189	0x3bffed11	0.007810243
190	0xbc68e501	-0.014214755
191	0x3cfb23ec	0.030656777
192	0x3d2fc995	0.042916853
193	0x3cc1d806	0.023662578
194	0x3d1d5be4	0.03841771
195	0x3cc020cf	0.023453144
196	0x3bfe2c6a	0.0077567594
197	0xba515523	-0.00079854036
198	0xbd12a212	-0.035799094
199	0xbd3782bc	-0.044802412
200	0xbd1231af	-0.035691913
201	0x3bdc8464	0.0067296494
202	0xbc81dcc8	-0.015852347
203	0xbd3fac42	-0.046795137
204	0xbbf1f8f6	-0.007384415
205	0xbd039858	-0.03212771
206	0xbc06d9b5	-0.008230616
207	0x3d2b7930	0.04186362
208	0xbd322897	-0.04349574
209	0x3d4160ef	0.047211584
210	0xbd5020de	-0.050812595
211	0x3bb9a7a2	0.0056657353
212	0xbd6635d4	-0.05620368
213	0xbcd87cd8	-0.026426718
214	0xbca7c5f1	-0.020480128
215	0xb9d65784	-0.00040882465
216	0x3d4630df	0.04838645
217	0x3d3818a7	0.044945385
218	0x3af9f6c2	0.0019070732
219	0x3cd88cb7	0.026434286
220	0xbd4be33d	-0.04977726
221	0x3cb208fe	0.021732803
222	0xbd6066ae	-0.054785423
223	0x3c85ffae	0.01635727
224	0x3cb055e9	0.02152534
225	0x3d3f0ea5	0.046644825
226	0xbd3de8d1	-0.04636461
227	0xbc868006	-0.016418468
228	0x3ca6ce60	0.02036208
229	0x3d3d0da4	0.046155587
230	0xbbcf8a97	-0.00633366
231	0x3d098fe2	0.033584483
232	0x3d260439	0.04053137
233	0x3d4a810d	0.04943948
234	0xbd5c106d	-0.053726602
235	0xbc95752b	-0.018244347
236	0xbd57474d	-0.052558232
237	0xbd011610	-0.03151518
238	0x3d1834ab	0.037159603
239	0x3c09a7a6	0.008401787
240	0xbc0c09b5	-0.008547236
241	0xbd471617	-0.04860505
242	0xbd3e7f83	-0.046508323
243	0x3d52f217	0.051500406
244	0x3d1a3fa1	0.037658338
245	0x3d2bc2b2	0.041933723
246	0x3ce88346	0.028382909
247	0xbd68b33b	-0.056811552
248	0xbd6fbfa9	-0.05853239
249	0xbcd2143f	-0.02564442
250	0xba8cf960	-0.0010755472
251	0xbbed60dd	-0.007244213
252	0xbc0bb1d9	-0.008526289
253	0xbb0e5675	-0.0021719013
254	0x3d035dde	0.03207194
255	0xbc2611d4	-0.0101360865

weight f4 [200, 300]
0	0xbcb9b252	-0.022668038
1	0x3cfa4be2	0.030553762
2	0xbc1fae44	-0.009746138
3	0x3cb5d6df	0.022197185
4	0x3cf787a4	0.030216046
5	0x3c9affe0	0.018920839
6	0x3d327009	0.043563876
7	0x3d13fb9f	0.036128636
8	0xbd4dafa2	-0.050216325
9	0x3d0a9072	0.03382916
10	0xbd0df66c	-0.034658834
11	0xbd537322	-0.05162347
12	0x3c08f640	0.008359492
13	0x3cc38f53	0.023872053
14	0x39ca7b5c	0.00038620352
15	0x3c1da0e9	0.0096208835
16	0xbcc3abf2	-0.0238857
17	0xbd3b92ae	-0.04579418
18	0xbcfee091	-0.031112941
19	0x3c214c05	0.009844785
20	0xbc589852	-0.01321991
21	0x3c3f4521	0.011674196
22	0x3d78326f	0.060594972
23	0xbd7880ca	-0.060669698
24	0x3d2bf98b	0.04198603
25	0xbb149e77	-0.002267746
26	0xbcff4c9e	-0.031164464
27	0x3d55a093	0.05215509
28	0x3d4c8cc0	0.049938917
29	0xbcd3d17f	-0.025856731
30	0xbd68dba8	-0.056850106
31	0xbcddbaa8	-0.027066544
32	0x3cad0043	0.021118289
33	0xbd8148b4	-0.06312695
34	0xbd89bfae	-0.06726013
35	0xbd2076b5	-0.039175708
36	0xbd06a61d	-0.03287326
37	0x3d293296	0.041308008
38	0xbd17ce81	-0.03706217
39	0x3d093a25	0.033502717
40	0x3cb947f5	0.02261732
41	0x3ce767a3	0.02824766
42	0x3ae0ecc6	0.0017160408
43	0xbd0a3c32	-0.033748813
44	0xbd2c6127	-0.04208484
45	0x3bb507ea	0.005524625
46	0xbd288d8c	-0.041150615
47	0x3c98b1c7	0.018639458
48	0xbd590d62	-0.05299128
49	0x3d35f033	0.044418525
50	0xbd76f624	-0.06029333
51	0xbcf082d6	-0.029359262
52	0x3cf93eec	0.030425511
53	0x3d1dfa8c	0.03856902
54	0x3c578c12	0.013155954
55	0xbb6f88eb	-0.0036550115
56	0x3ccd0324	0.025025912
57	0xbc434691	-0.01191868
58	0x3b944f8a	0.0045260834
59	0x3cb1819a	0.021668244
60	0xbd8620aa	-0.06549199
61	0xbccb3eb2	-0.024810169
62	0xbc87a033	-0.016555881
63	0x3d2fa697	0.04288348
64	0x3d521bdb	0.051296096
65	0xbc071f4a	-0.008247206
66	0x3d1e19c3	0.038598787
67	0x3bc9d603	0.0061595454
68	0xbca23143	-0.01979888
69	0xbd2ca3e9	-0.042148504
70	0xbd0189bc	-0.031625494
71	0xbd2afe08	-0.04174617
72	0xbd69c228	-0.057069927
73	0x3d13e474	0.03610654
74	0xbc135855	-0.008993228
75	0x3d3d308c	0.046188876
76	0xbd20b92b	-0.03923909
77	0x3d2ce4b5	0.0422103
78	0xbcb35ebb	-0.021895757
79	0x3d20b95b	0.03923927
80	0xbcd6206e	-0.02613851
81	0x3ce57717	0.028010888
82	0xbd2c1408	-0.04201129
83	0xbc857c2f	-0.016294567
84	0xbd1f343f	-0.038868185
85	0xbd47036f	-0.04858726
86	0xbcbe3b3f	-0.02322161
87	0xbc6f3d97	-0.0146020865
88	0x3d1cc40d	0.038272906
89	0x3d0e3f8c	0.03472857
90	0xbc782552	-0.015145617
91	0x3ade75e5	0.0016972391
92	0x3b70863b	0.0036701101
93	0x3cbef4e7	0.023310138
94	0xbba4c0a4	-0.0050278474
95	0x3d572596	0.05252608
96	0x3c44f4aa	0.012021223
97	0x3d31a962	0.043374427
98	0x3b9c0a3b	0.0047619618
99	0xbd76f08a	-0.06028799
100	0x3d6a6937	0.057229247
101	0x3be1686d	0.0068789036
102	0xbb713441	-0.0036804827
103	0x3a12673a	0.000558484
104	0x3d03e373	0.032199334
105	0xbd688c4a	-0.056774415
106	0xbd709d91	-0.058744017
107	0x3c0dfe28	0.008666553
108	0xbcbb96c5	-0.022899041
109	0x3d727f5f	0.0592035
110	0x3d22f14a	0.039780892
111	0x3d0ece00	0.034864426
112	0x3d2e0637	0.042486396
113	0xbc1e6a79	-0.00966894
114	0x3d10c8e8	0.03534785
115	0xbc1bbc93	-0.009505409
116	0xbd7a53e7	-0.06111517
117	0x3ba6fd21	0.0050960933
118	0xbd49a6fd	-0.049231518
119	0x3b6b1990	0.003587339
120	0xbb6c85aa	-0.0036090412
121	0x3abbc9e3	0.0014327135
122	0x3d53bf2c	0.051695988
123	0x3d4c0b14	0.049815252
124	0xbd227d92	-0.039670534
125	0xbb870dd2	-0.0041215206
126	0x3d303dd5	0.043027718
127	0x3cfec682	0.031100515
128	0xbce2a54a	-0.027666707
129	0x3d611d4c	0.05495958
130	0xbcb65e31	-0.02226171
131	0xbd3b3a33	-0.0457098
132	0x3caa251c	0.020769648
133	0x3d575346	0.05256965
134	0xbcb9b5a9	-0.02266963
135	0xbc2b64e9	-0.010461071
136	0x3d25ca56	0.040476166
137	0xbbb326f3	-0.0054672896
138	0x3c7d209a	0.015449667
139	0xbc6ff876	-0.01464664
140	0xbd37556b	-0.044759195
141	0x3d53a7b8	0.05167362
142	0x3d115ad7	0.035487022
143	0x3ca51b7c	0.020154707
144	0xbd4b1b92	-0.04958684
145	0xbd4ec0dd	-0.050476898
146	0x3cb70c65	0.022344777
147	0x3d35c35d	0.044375766
148	0x3d2f32dd	0.042773116
149	0xbb3afb3e	-0.00285311
150	0xbcfd80ac	-0.030945145
151	0x3ccc4280	0.024934053
152	0xbd5714b4	-0.05250998
153	0xbd70208a	-0.05862478
154	0xb9936899	-0.00028115956
155	0xbd552fa2	-0.05204738
156	0x3d687b47	0.05675819
157	0xbd17bbe3	-0.037044417
158	0xbbff2949	-0.007786904
159	0x3b9944d6	0.0046773953
160	0xbd35b548	-0.044362336
161	0x3c102386	0.008797532
162	0x3c9148e6	0.017734956
163	0xbcce74f5	-0.025202254
164	0xbd8691be	-0.06570767
165	0x3c7cfae9	0.015440681
166	0xbcbf65f4	-0.023364045
167	0x3d5bf7c3	0.05370308
168	0xbba6d337	-0.0050910967
169	0x3d1109a2	0.035409577
170	0x3c05e8cf	0.008173182
171	0xbd64d3ce	-0.055866055
172	0xbd229693	-0.03969438
173	0xbc318313	-0.010834473
174	0x3cd1c99c	0.02560883
175	0xbca06ac6	-0.019582164
176	0xbd47602e	-0.04867571
177	0x3d033388	0.032031566
178	0x3d3de0b1	0.04635686
179	0x3c91e0fd	0.017807478
180	0xbcc85f37	-0.024459464
181	0xbc3430f3	-0.0109979985
182	0xbcaf14de	-0.021372255
183	0x3d05d0b9	0.032669757
184	0xbc177cfb	-0.009246106
185	0xbd0ada61	-0.03389967
186	0xbd0ae156	-0.033906303
187	0xbb6ec0b3	-0.0036430776
188	0x3cd90d36	0.026495557
189	0xbb124462	-0.0022318591
190	0x3d3dc54a	0.046330728
191	0x3cecb8d2	0.028896723
192	0xbd218d55	-0.039441425
193	0xbd7aec65	-0.0612606
194	0x3be4226f	0.0069621126
195	0xbd83ef72	-0.06442155
196	0x3d29b374	0.041430905
197	0x39cbc941	0.00038869123
198	0xbcda8b54	-0.026677765
199	0xbca1ba7d	-0.019742245
200	0x3d893ae7	0.06700688
201	0xbcc3402a	-0.023834307
202	0x3d15b27e	0.036547177
203	0x3c1be1b1	0.009514258
204	0x3d29f139	0.041489813
205	0xbd97fb46	-0.074209735
206	0xbcd00c54	-0.025396504
207	0xbcd35add	-0.025800163
208	0x3c5f275b	0.013620223
209	0xbd55614a	-0.052094735
210	0x3cd55dee	0.026045766
211	0x3d2c3686	0.042044185
212	0xbbeba9c0	-0.0071918666
213	0x3c3cb2bc	0.011517223
214	0x3d1c94ab	0.03822772
215	0x3d2882f7	0.041140523
216	0xbd72c8ca	-0.05927352
217	0x3cc4cc4b	0.024023196
218	0xbca0ff32	-0.019652937
219	0x3cc1d42f	0.023660747
220	0x3d43205a	0.047638275
221	0x3c876617	0.016528172
222	0xbc9a47b7	-0.018833024
223	0xbc11aec6	-0.008891767
224	0x3c3bf29f	0.01147142
225	0xbd59bf39	-0.05316088
226	0xbd83a384	-0.064276725
227	0xbbde3316	-0.0067809923
228	0xbd4469a1	-0.047952298
229	0xbcae1a26	-0.021252703
230	0x3d6cd239	0.05781767
231	0x3c87b766	0.016566943
232	0x3d113a94	0.035456255
233	0xbd2cf81f	-0.042228814
234	0xbd07d529	-0.03316227
235	0x3b351699	0.0027631877
236	0x3cd794f5	0.026316145
237	0xbccc1cc4	-0.02491606
238	0xbd696d2a	-0.056988873
239	0xbceb10c1	-0.028694512
240	0xbcc5aec7	-0.024131192
241	0x3c643a86	0.013929969
242	0xbcbe555e	-0.023234066
243	0xbcf20712	-0.029544387
244	0xbd025fe8	-0.031829745
245	0x3cdd9284	0.027047403
246	0x3d358fea	0.0443267
247	0x3d5bf1ae	0.05369728
248	0xbca18d9e	-0.019720849
249	0xbcb30446	-0.021852624
250	0x3cae35b5	0.021265844
251	0x3d161cb8	0.036648482
252	0x3ccddbac	0.025129162
253	0x3c49b82e	0.012311978
254	0x3c4e11e5	0.012577509
255	0x3ce31129	0.027718144

bias f4 [200]
0	0x3cb9a0c7	0.022659672
1	0xbc29e47f	-0.010369419
2	0xbd1da4de	-0.038487308
3	0xbd006cca	-0.03135375
4	0x3ae6b91e	0.0017602777
5	0x3d040c4c	0.03223829
6	0x3ca75d2a	0.020430166
7	0x3c05c07a	0.008163566
8	0x3d69c881	0.05707598
9	0x3cec82bf	0.028870938
10	0xbbfb5c7c	-0.007670937
11	0x3b4e4dd3	0.0031479492
12	0xbc287ef1	-0.010284171
13	0x3d3db71f	0.046317216
14	0xbbac92f7	-0.005266543
15	0x3c0f1444	0.008732859
16	0x3cafec82	0.02147508
17	0xbd2e81cf	-0.042604264
18	0xbbd74d29	-0.0065704775
19	0x3ccd2dda	0.025046278
20	0x3ce57a83	0.02801252
21	0xbc2022dd	-0.009773937
22	0xbd5025ac	-0.050817177
23	0xbd550a7b	-0.052011948
24	0x3d4c884c	0.04993467
25	0x3cb2a5b4	0.021807529
26	0xbd26f069	-0.040756617
27	0xbb1a77ce	-0.0023569944
28	0x3d54f3e9	0.051990423
29	0xbd263897	-0.040581312
30	0xbd5e9eb0	-0.054350555
31	0xbb8f4811	-0.0043726047
32	0x3ae548e5	0.0017493038
33	0x3d401153	0.04689152
34	0x3d4c0a3a	0.04981444
35	0x3c70b1cb	0.014690827
36	0xbd326a53	-0.04355843
37	0x3d03256e	0.032018118
38	0x3c825ace	0.01591244
39	0x3cafbdd1	0.021452816
40	0x3b380bad	0.0028083131
41	0x3d56c8ca	0.05243758
42	0x3d54208e	0.05178886
43	0xbd51d806	-0.051231407
44	0xbce0435c	-0.02737587
45	0xbd3fff71	-0.046874467
46	0x3d65f2fb	0.056139927
47	0x3b2889c0	0.002571687
48	0xbc2aab91	-0.010416881
49	0xbc7a7d46	-0.015288657
50	0xbd5cd93a	-0.0539181
51	0x3ba39f50	0.0049933568
52	0x3d19394d	0.037408162
53	0xbce076c1	-0.027400376
54	0x3d3064a0	0.043064713
55	0x3c0a1c6f	0.008429631
56	0xbd0c0609	-0.034185443
57	0xbd04d4fa	-0.032429673
58	0xbd2ed841	-0.042686705
59	0xbd321b8e	-0.04348331
60	0xbc9c1d60	-0.019056976
61	0x3cbf34d3	0.023340618
62	0xbc81320f	-0.01577094
63	0xbd5d152f	-0.05397528
64	0x3cb19b66	0.021680545
65	0xbd52f212	-0.051500387
66	0xbd22c949	-0.03974274
67	0x3d08ce20	0.0333997
68	0xbca41c7c	-0.020033114
69	0xbd0f2d37	-0.03495523
70	0xbd1a8ae4	-0.037730113
71	0x3d386ae9	0.045023832
72	0xbca82776	-0.020526629
73	0xbd30b40b	-0.043140452
74	0x3b1aacd5	0.002360155
75	0x3d587889	0.052849326
76	0xbcb27024	-0.021781988
77	0xbd201115	-0.03907879
78	0x3d22535d	0.039630283
79	0xbcf7670e	-0.030200507
80	0x3c4865f4	0.012231339
81	0xbd42f1c5	-0.04759385
82	0xbd16a823	-0.03678144
83	0xbcc22e4d	-0.023703719
84	0x3d0adb5b	0.0339006
85	0x3bfd8411	0.007736691
86	0xbd5e7215	-0.054308016
87	0x3d654c1e	0.055980794
88	0x3c6ea9f2	0.014566885
89	0x3d2f08f4	0.042733148
90	0xbc3751fc	-0.01118898
91	0x3be93ef5	0.0071181008
92	0xbd2d4d21	-0.042309884
93	0x3caaedcb	0.020865342
94	0xbc7407b9	-0.014894419
95	0xbcc60ec1	-0.024176957
96	0x3cf6e4b9	0.03013836
97	0xbb9e80b1	-0.0048371186
98	0xbd23415f	-0.039857265
99	0x3cb771b9	0.022393094
100	0xbc8d820d	-0.017273927
101	0x3bbc5a7e	0.005748092
102	0x3d5c22c0	0.053744078
103	0x3d18d523	0.037312638
104	0x3d5ea325	0.054354805
105	0x3ce314d1	0.027719887
106	0xbae25647	-0.0017268144
107	0xbcb62947	-0.02223648
108	0xbc817975	-0.015804986
109	0xbcb067b4	-0.021533825
110	0x3d4bfb99	0.04980049
111	0xbd1e86f3	-0.038702916
112	0xbd50c010	-0.050964415
113	0x3c1bf09b	0.009517814
114	0xbd3041bb	-0.043031435
115	0x3d1cf452	0.03831894
116	0xbc2b6124	-0.010460172
117	0x3a493985	0.00076761126
118	0xbd15ea77	-0.036600556
119	0x3c114869	0.008867362
120	0xbd17e753	-0.037085842
121	0x3d3e5b0b	0.046473544
122	0xbc5b6140	-0.013389885
123	0xbd1a3635	-0.037649352
124	0x3d0f3914	0.034966543
125	0x3d0a5c1c	0.03377925
126	0x3bf29324	0.0074027944
127	0xbb9d867f	-0.004807293
128	0xbc086e36	-0.008327058
129	0x3c533252	0.012890415
130	0x3d6f993d	0.05849575
131	0x3cf4ed13	0.029898202
132	0x3ba05c1d	0.0048937933
133	0x3d239a41	0.03994203
134	0xbd508ec5	-0.050917406
135	0xbd192fe3	-0.037399184
136	0x3d50cb7a	0.0509753
137	0x3c52488d	0.01283468
138	0x3d513986	0.05108025
139	0x3d170b74	0.036876157
140	0xbc9f5354	-0.019448914
141	0x3caaf692	0.020869527
142	0xbd35d690	-0.044394076
143	0x3cab6aec	0.020925008
144	0x3cc45f9d	0.023971373
145	0xbd510d58	-0.051038116
146	0x3d5f5e9c	0.054533586
147	0xbd4436f5	-0.047903974
148	0xbbcde020	-0.0062828213
149	0xbaa73479	-0.0012756727
150	0x3d25cc76	0.040478192
151	0xbaa96d3c	-0.0012926231
152	0xbb3d880b	-0.00289202
153	0xbcd12a78	-0.025532946
154	0xbd0acde6	-0.033887766
155	0xbd5e244b	-0.05423383
156	0xbd25fe14	-0.04052551
157	0xbb9285d7	-0.0044715214
158	0x3d2d5722	0.042319424
159	0x3cf06734	0.029346086
160	0xbc834d66	-0.016028117
161	0xbca3a2c2	-0.01997507
162	0x3c5056dc	0.012716021
163	0xbbc953ba	-0.006144014
164	0x3d2234a1	0.039600972
165	0x3d0b02f2	0.033938356
166	0xbc6135f9	-0.013745778
167	0x3d714c74	0.058910802
168	0x3a88dcba	0.0010441758
169	0x3d68c008	0.05682376
170	0x3ce66e32	0.028128717
171	0xbd44740a	-0.047962226
172	0x3afa5e09	0.0019101511
173	0xbc77fc0e	-0.015135778
174	0xbb000057	-0.0019531453
175	0xbc6ceb30	-0.01446037
176	0x3d308d1c	0.043103322
177	0x3d5d2637	0.053991523
178	0xbd4cc797	-0.04999503
179	0xbd2f157e	-0.042745106
180	0xbc42c251	-0.011887149
181	0x3cd21507	0.025644792
182	0xbca2e71c	-0.019885592
183	0x3d403b22	0.046931393
184	0xbd2a7285	-0.04161312
185	0xbce1659a	-0.027514268
186	0xbc995d8f	-0.01872137
187	0xbc4913c6	-0.012272781
188	0xbd3b14b2	-0.045674033
189	0x3b311b3b	0.0027024287
190	0xbd010674	-0.031500295
191	0x3d16ab17	0.036784258
192	0x3cac1044	0.02100385
193	0xbb1a96cf	-0.0023588424
194	0x3d45be4b	0.04827718
195	0xbbb4c51b	-0.005516661
196	0xbd69b21b	-0.05705462
197	0x3cf63900	0.030056477
198	0x3c258c95	0.010104318
199	0x3cb11f28	0.021621302

weight f4 [200, 300]
0	0xbb566c6a	-0.0032718428
1	0x3bb79c2d	0.0056033344
2	0xbc0a5703	-0.008443597
3	0x3cc70920	0.024296343
4	0xbd230ace	-0.039805226
5	0xbd489903	-0.04897405
6	0x3a997de7	0.0011710495
7	0x3c0421d2	0.008064704
8	0x3d8741bc	0.06604335
9	0xbd64bd2d	-0.055844475
10	0x3d5e553e	0.054280512
11	0xbd2e56ff	-0.042563435
12	0xbd3b2333	-0.045687865
13	0xbbc72855	-0.006077806
14	0x3950c3b1	0.00019909327
15	0xbd514427	-0.051090386
16	0xbccc214b	-0.02491822
17	0x3ca31eec	0.019912206
18	0x3cf87eeb	0.030333957
19	0x3c0614bf	0.008183657
20	0xbcd27dfc	-0.02569484
21	0xbd176fab	-0.03697173
22	0xbd611ab5	-0.05495711
23	0xbd738da1	-0.05946124
24	0x3becb153	0.007223287
25	0x3d3d1fc2	0.046172865
26	0xbcd62c54	-0.026144184
27	0xbcfa08a8	-0.030521706
28	0x3c407f56	0.011749109
29	0x3b528ef9	0.0032128675
30	0xbd55aa10	-0.052164137
31	0xbd1ecf1b	-0.03877173
32	0xbd69c7b3	-0.057075214
33	0x3c946246	0.018113267
34	0x3bb6c7cb	0.0055780164
35	0x3d49614f	0.049165066
36	0x3ce489e4	0.027897783
37	0xbc7d7af6	-0.015471211
38	0x3ca70caf	0.02039179
39	0xbc233c97	-0.009963176
40	0x3c3a8217	0.011383555
41	0xbbd90722	-0.0066231648
42	0xbd039db5	-0.032132823
43	0xbce3c949	-0.027805941
44	0x3c84120b	0.016121885
45	0xbd22fb90	-0.03979069
46	0x3d6aec14	0.057354048
47	0xbc00f9b3	-0.007872033
48	0x3d1caa62	0.038248427
49	0x3d0244c3	0.031803858
50	0xbc3eae5f	-0.011638253
51	0xbcf1b3f2	-0.02950475
52	0xbc66f810	-0.014097229
53	0x3cbff655	0.02343289
54	0xbd64c1a4	-0.055848733
55	0xbc91ac49	-0.017782347
56	0xbb7e4b23	-0.003880211
57	0xbd2ab6e4	-0.041678324
58	0xbc821e45	-0.015883574
59	0xbd2cd2ee	-0.042193346
60	0x3d33259e	0.043737046
61	0xbd71ef3b	-0.05906604
62	0x3d064b5a	0.032786705
63	0xbd890682	-0.066906944
64	0xbd460d47	-0.048352506
65	0xbd6d69ea	-0.057962336
66	0x3ce604b1	0.028078409
67	0xbbaef7bc	-0.005339591
68	0xbd493608	-0.049123794
69	0xbcd49752	-0.025951061
70	0x3c527a87	0.012846596
71	0xbcaf6326	-0.021409582
72	0x3c0fb657	0.008771501
73	0x3b5b4641	0.0033458623
74	0xbd284037	-0.041076865
75	0xbb37084b	-0.0027928527
76	0xbd1139e7	-0.03545561
77	0xbc906ad5	-0.017629066
78	0x3d407e68	0.04699555
79	0xbd80a787	-0.06281953
80	0x3cbca70d	0.023028875
81	0x3d3816c6	0.044943593
82	0x39ce5f99	0.00039362608
83	0x3c434413	0.011918086
84	0xba7fc1f3	-0.0009756379
85	0x3d61c99d	0.055123914
86	0x3bb2bf49	0.005454932
87	0x3ca87d27	0.02056749
88	0x3d08a9bb	0.033364993
89	0x3bcf91bf	0.006334513
90	0x3d3f6f64	0.04673709
91	0xbd1378b9	-0.036003802
92	0x3c5b6a28	0.013392009
93	0xbae97c92	-0.0017813614
94	0xbc9acbb2	-0.018895958
95	0x3d1c261b	0.038122278
96	0xbd1216e4	-0.03566636
97	0xbce2a178	-0.027664885
98	0x3cebf022	0.028801028
99	0xbd0152d8	-0.031573147
100	0xbd3294f6	-0.04359909
101	0xbbb45acf	-0.0055039893
102	0x3c0a9829	0.008459129
103	0x3cd0abc4	0.02547253
104	0x3cb27f8c	0.021789335
105	0x3cdca959	0.02693622
106	0x3d2f33c8	0.04277399
107	0xbd5b329c	-0.05351506
108	0xbd33fe7d	-0.04394387
109	0x3cb9b0a6	0.02266724
110	0x3d063ba0	0.032771707
111	0x3c72a08f	0.014808788
112	0x3ce009b8	0.027348384
113	0xbd51ca6d	-0.05121844
114	0x3c6bc0c3	0.01438922
115	0xbd1d0157	-0.038331356
116	0xbd6c3046	-0.057663225
117	0xbadeffe4	-0.0017013517
118	0x3c718bb2	0.014742779
119	0x3d00acdb	0.031414848
120	0x3c9f5ec6	0.019454371
121	0xbd0bf630	-0.03417033
122	0x3cca60fd	0.02470445
123	0x3d4778b9	0.048699114
124	0xbd2297fa	-0.039695717
125	0xbd6c15b4	-0.057637885
126	0xbb970b3e	-0.0046094945
127	0xbc8baada	-0.017049242
128	0xbb398cde	-0.0028312723
129	0x3d72058a	0.059087314
130	0x3cba68c2	0.02275503
131	0xbca721ad	-0.0204018
132	0x3cdfc3a9	0.027314978
133	0x3ce06647	0.02739252
134	0xbc963d1d	-0.018339688
135	0x3d479054	0.048721626
136	0xbd3c1727	-0.045920517
137	0x3d845948	0.064623415
138	0x3d0d36b6	0.034476005
139	0x3cf1c821	0.029514374
140	0xbd3d5d04	-0.046231285
141	0xb995ee00	-0.00028596818
142	0x3d106235	0.035249908
143	0xbd442b6f	-0.047892984
144	0xbd8c5645	-0.06852392
145	0x3d5ef801	0.054435734
146	0xbd6395d6	-0.055562817
147	0xbd321cd0	-0.04348451
148	0xbd3055a0	-0.04305041
149	0xbc71b710	-0.014753118
150	0x3d83c7b9	0.064345784
151	0x3d49ee77	0.049299683
152	0x3cc1e295	0.023667613
153	0xbcc1ab4b	-0.02364125
154	0xbd1244a6	-0.03571
155	0x3d3530b3	0.044235896
156	0xbd175fa1	-0.036956433
157	0xbbaabb15	-0.00521029
158	0xbc6e43fc	-0.014542576
159	0xbcd0839a	-0.025453378
160	0xbc9db9f3	-0.019253707
161	0xbd14afdc	-0.036300525
162	0x3c83d073	0.016090607
163	0x3cba47d9	0.022739338
164	0xbd2a6f32	-0.04160995
165	0x3cb8dcd9	0.022566246
166	0x3cf29cc9	0.029615777
167	0x3b16b061	0.0022993314
168	0x3d873aef	0.066030376
169	0xbcbe0943	-0.023197776
170	0xbd6521e8	-0.05594054
171	0xbd1889a6	-0.037240647
172	0xbc8776a5	-0.016536066
173	0x3d045ba8	0.032313973
174	0x3d61a88a	0.055092372
175	0x3d07d9fc	0.03316687
176	0xbd0a9dab	-0.03384177
177	0x3d24364f	0.040090855
178	0xbd50f27b	-0.051012497
179	0x3d3b0eaf	0.0456683
180	0xbca6948c	-0.020334505
181	0xbb92e345	-0.004482659
182	0xbd2ac067	-0.041687395
183	0xbd5c887c	-0.0538411
184	0x3bd8ea85	0.006619754
185	0x3c9a3c75	0.018827656
186	0x3d089783	0.033347618
187	0x3cefed3f	0.029287932
188	0x3cd5b486	0.026087057
189	0x3cdbfbf7	0.026853545
190	0x3d2dfb37	0.042475905
191	0x3cb59338	0.022164926
192	0xbd3ff1c5	-0.04686143
193	0x3c9afe45	0.018920073
194	0x3c86eda0	0.01647073
195	0xbd071e41	-0.032987837
196	0x3ce1f162	0.02758092
197	0x3ce33b28	0.027738169
198	0xbcf52066	-0.029922675
199	0xbcb10277	-0.02160762
200	0xbbcf95d3	-0.006334999
201	0x3c97018e	0.018433359
202	0x3d023c32	0.031795688
203	0x3cea1fb1	0.028579565
204	0xbd25c4d9	-0.04047093
205	0x3c0c80a8	0.008575596
206	0x3ad106b6	0.0015947435
207	0xbd255429	-0.040363465
208	0x3b62b28e	0.003459129
209	0xbcd9fc56	-0.026609581
210	0xbd233dae	-0.039853744
211	0xbd6242ea	-0.055239595
212	0x3d39e5ac	0.045385048
213	0x3d47a522	0.048741467
214	0x3c5602f3	0.013062227
215	0xbd2b1e8f	-0.04177719
216	0xbcc27b5f	-0.023740469
217	0xbce07e10	-0.027403861
218	0xbc48c34d	-0.012253595
219	0xbc500fa1	-0.012699039
220	0x3c3a33f4	0.011364926
221	0xbd357c3d	-0.044307936
222	0xbc451485	-0.012028818
223	0x3cfba402	0.030717853
224	0x3cdfd90e	0.02732518
225	0x3c8bf745	0.01708568
226	0xbcb37bbe	-0.02190959
227	0x3d157971	0.03649277
228	0xbd1470b2	-0.036240287
229	0xbcb739df	-0.022366462
230	0x3d5c98c8	0.05385664
231	0xbca56f46	-0.02019466
232	0x3d3ccc45	0.046093244
233	0x3d4d0fc1	0.050063852
234	0xbd7da745	-0.0619271
235	0x3c94c35c	0.01815956
236	0x3d74d3a2	0.05977214
237	0x3cacfacd	0.021115685
238	0xbba470fd	-0.005018352
239	0xbd24ba28	-0.040216595
240	0x3bcdc9d6	0.0062801642
241	0x3d686c91	0.056744162
242	0x3d0d2dd6	0.03446754
243	0xbd6cb776	-0.05779215
244	0xbd2ddadd	-0.042445052
245	0xbd483cdb	-0.04888616
246	0x3d0762e8	0.03305331
247	0x3c5c4463	0.013444039
248	0x3c9597a6	0.018260788
249	0xbbdf0ac5	-0.0068067038
250	0x3cdbdc5e	0.026838478
251	0x3cd4f73e	0.0259968
252	0x3c073da3	0.008254441
253	0xbbd5ab4d	-0.006520665
254	0xbd28b59a	-0.041188814
255	0xbd2d5b87	-0.042323615

weight f4 [200]
0	0x3f80dfd4	1.0068307
1	0x3f8200f7	1.0156544
2	0x3f814a10	1.0100727
3	0x3f8022b7	1.0010594
4	0x3f803546	1.0016258
5	0x3f81ac43	1.0130695
6	0x3f8135e2	1.0094569
7	0x3f80ea38	1.0071478
8	0x3f828eb3	1.0199798
9	0x3f82938a	1.0201275
10	0x3f81200a	1.0087903
11	0x3f80f080	1.0073395
12	0x3f809dff	1.0048217
13	0x3f808172	1.0039504
14	0x3f81bfe3	1.0136684
15	0x3f82e6c8	1.0226679
16	0x3f8145d9	1.0099441
17	0x3f811893	1.0085624
18	0x3f814680	1.009964
19	0x3f81e015	1.014651
20	0x3f823efd	1.0175472
21	0x3f811cf3	1.008696
22	0x3f8067ab	1.0031637
23	0x3f811430	1.0084286
24	0x3f804161	1.0019952
25	0x3f8157d5	1.0104929
26	0x3f81c309	1.0137645
27	0x3f81da27	1.01447
28	0x3f804d3d	1.0023571
29	0x3f81a0f5	1.0127245
30	0x3f810721	1.00803
31	0x3f7fb9e2	0.9989301
32	0x3f810437	1.0079411
33	0x3f818008	1.0117197
34	0x3f803d54	1.0018716
35	0x3f808c78	1.0042868
36	0x3f82443d	1.0177075
37	0x3f80bef8	1.0058279
38	0x3f8154aa	1.0103962
39	0x3f810157	1.0078534
40	0x3f80d034	1.0063539
41	0x3f806d85	1.0033423
42	0x3f803725	1.0016829
43	0x3f8032bb	1.0015482
44	0x3f8184cb	1.011865
45	0x3f81c58a	1.0138409
46	0x3f819686	1.0124061
47	0x3f8118a7	1.0085648
48	0x3f80b699	1.0055724
49	0x3f8339a8	1.025197
50	0x3f82c779	1.0217124
51	0x3f8118cf	1.0085696
52	0x3f80e75e	1.0070608
53	0x3f82d4f1	1.0221235
54	0x3f81537e	1.0103605
55	0x3f84036d	1.0313545
56	0x3f806922	1.0032084
57	0x3f80f07c	1.007339
58	0x3f8071f4	1.0034776
59	0x3f81ab27	1.0130357
60	0x3f80bc96	1.0057552
61	0x3f802844	1.0012288
62	0x3f8160d7	1.0107678
63	0x3f83c24c	1.029367
64	0x3f8129cb	1.0090879
65	0x3f81a2f7	1.0127858
66	0x3f809c4c	1.0047698
67	0x3f81b163	1.0132259
68	0x3f8070ec	1.0034461
69	0x3f80ce6e	1.0062997
70	0x3f80f07b	1.0073389
71	0x3f821e65	1.0165526
72	0x3f83386d	1.0251595
73	0x3f827092	1.0190604
74	0x3f82646d	1.0186898
75	0x3f82960b	1.020204
76	0x3f81ddd3	1.014582
77	0x3f80d535	1.0065066
78	0x3f810a41	1.0081254
79	0x3f7f3a79	0.996986
80	0x3f7e7069	0.99390274
81	0x3f8066ea	1.0031407
82	0x3f80f7c0	1.0075607
83	0x3f8044f2	1.002104
84	0x3f80e05f	1.0068473
85	0x3f80b2cd	1.0054566
86	0x3f80d1d5	1.0064036
87	0x3f808141	1.0039445
88	0x3f81824d	1.011789
89	0x3f8298a6	1.0202835
90	0x3f81c6c0	1.0138779
91	0x3f83bc4d	1.029184
92	0x3f81680b	1.0109876
93	0x3f826f19	1.0190154
94	0x3f80f746	1.0075462
95	0x3f805f72	1.0029128
96	0x3f825036	1.0180728
97	0x3f81586b	1.0105108
98	0x3f81a997	1.012988
99	0x3f826045	1.0185629
100	0x3f7fe157	0.99953216
101	0x3f80f31f	1.0074195
102	0x3f817988	1.0115213
103	0x3f804cc6	1.0023429
104	0x3f84571f	1.0339087
105	0x3f82a7dc	1.0207477
106	0x3f80c8d7	1.0061291
107	0x3f7eb107	0.9948887
108	0x3f812067	1.0088013
109	0x3f81279f	1.0090216
110	0x3f80903f	1.004402
111	0x3f817525	1.0113875
112	0x3f81234c	1.0088897
113	0x3f8076ed	1.0036293
114	0x3f820b61	1.0159723
115	0x3f845ba1	1.0340463
116	0x3f80b536	1.0055301
117	0x3f80755a	1.0035813
118	0x3f814344	1.0098653
119	0x3f80d6f5	1.00656
120	0x3f8129e4	1.0090909
121	0x3f8257e5	1.0183073
122	0x3f813547	1.0094384
123	0x3f816a29	1.0110523
124	0x3f81e866	1.0149047
125	0x3f818568	1.0118837
126	0x3f8130ce	1.0093019
127	0x3f811896	1.0085628
128	0x3f824601	1.0177613
129	0x3f83708b	1.026872
130	0x3f804996	1.0022457
131	0x3f809762	1.0046198
132	0x3f816cbf	1.0111312
133	0x3f7fc033	0.9990265
134	0x3f82798e	1.0193346
135	0x3f815a52	1.0105689
136	0x3f802e73	1.0014175
137	0x3f814f5c	1.0102344
138	0x3f817f74	1.0117021
139	0x3f81d714	1.0143762
140	0x3f81b28b	1.0132612
141	0x3f809768	1.0046206
142	0x3f815d8f	1.0106677
143	0x3f8019a1	1.0007821
144	0x3f815959	1.0105392
145	0x3f80653f	1.0030898
146	0x3f81816f	1.0117625
147	0x3f8222da	1.0166886
148	0x3f807a7a	1.0037377
149	0x3f824067	1.0175904
150	0x3f810d78	1.0082235
151	0x3f804d59	1.0023605
152	0x3f82a346	1.0206077
153	0x3f804783	1.0021824
154	0x3f832581	1.024582
155	0x3f838c0e	1.0277116
156	0x3f81657e	1.0109098
157	0x3f83a024	1.0283246
158	0x3f80cae6	1.006192
159	0x3f819adf	1.0125388
160	0x3f813381	1.0093843
161	0x3f829bc5	1.0203787
162	0x3f807905	1.0036932
163	0x3f806fc8	1.0034113
164	0x3f809e2b	1.0048269
165	0x3f80d013	1.0063499
166	0x3f810731	1.008032
167	0x3f815497	1.010394
168	0x3f814d93	1.0101799
169	0x3f80c2c0	1.0059433
170	0x3f80f780	1.0075531
171	0x3f81abdc	1.0130572
172	0x3f814cbf	1.0101546
173	0x3f809805	1.0046393
174	0x3f80d48a	1.0064862
175	0x3f814cf9	1.0101615
176	0x3f8117af	1.0085353
177	0x3f8061db	1.0029863
178	0x3f82b599	1.0211669
179	0x3f80cee8	1.0063143
180	0x3f829990	1.0203114
181	0x3f811b61	1.008648
182	0x3f83e595	1.0304438
183	0x3f82ea27	1.0227708
184	0x3f7fc4f8	0.99909925
185	0x3f809b1c	1.0047336
186	0x3f80c3ac	1.0059714
187	0x3f8472b7	1.0347508
188	0x3f818ec8	1.0121698
189	0x3f829920	1.020298
190	0x3f81f73b	1.0153574
191	0x3f811118	1.0083342
192	0x3f817245	1.0112997
193	0x3f7f94d8	0.9983649
194	0x3f8181c9	1.0117732
195	0x3f814bcb	1.0101255
196	0x3f80b578	1.005538
197	0x3f80af9f	1.0053595
198	0x3f815d4e	1.0106599
199	0x3f80554d	1.0026032

bias f4 [200]
0	0xbbe5715f	-0.0070020403
1	0x3b4c03a1	0.0031130093
2	0xb9bd460f	-0.00036101087
3	0x3b8e62af	0.00434526
4	0x3b5de2d4	0.0033857124
5	0xbb81605f	-0.003948256
6	0x3bacc561	0.005272553
7	0xbbdbaa16	-0.0067036254
8	0x3b946cc0	0.0045295656
9	0xba86cd3b	-0.0010284552
10	0x3bc9aea0	0.00615485
11	0xbb5d8082	-0.003379852
12	0xbbab3e4b	-0.0052259318
13	0xbbac6821	-0.0052614366
14	0xbbcb5da6	-0.006206232
15	0x3bbfab59	0.0058492837
16	0x3c069fb8	0.008216791
17	0xba55cc98	-0.0008155792
18	0x3bc13509	0.005896215
19	0x3c0485e9	0.008088567
20	0xbb1359b1	-0.002248388
21	0xbb9a4681	-0.0047081118
22	0x3b9b7d83	0.004745187
23	0x3be0855e	0.006851836
24	0x3b3872bc	0.002814456
25	0xbc0e7e1e	-0.008697061
26	0x3bef40c9	0.007301424
27	0x3be6eb52	0.0070470953
28	0xbb80a9ea	-0.0039265053
29	0x3b75d377	0.0037510076
30	0xbb82ad98	-0.003987979
31	0x3b6341e0	0.0034676716
32	0x3b57798a	0.003287884
33	0x3aeb1cb1	0.0017937628
34	0xbb629929	-0.0034576154
35	0xbaddfffd	-0.0016937252
36	0xb9674e71	-0.00022059098
37	0x3b3245f1	0.0027202333
38	0xbb3e8977	-0.0029073635
39	0xbbcb26af	-0.00619968
40	0x3b579baf	0.003289919
41	0x39a44cd1	0.0003133775
42	0xbb77672d	-0.0037750707
43	0x3b99278d	0.0046739043
44	0x3c318887	0.010835773
45	0xbb7ff414	-0.0039055394
46	0x3b831e86	0.0040014414
47	0xbbcf8a62	-0.006333635
48	0xbb952391	-0.004551359
49	0xbc4f44d6	-0.012650689
50	0x390cc59d	0.00013425057
51	0x3b53e6fb	0.003233372
52	0xbaf42445	-0.0018626532
53	0xbb305b76	-0.0026909984
54	0xbbf480c0	-0.0074616373
55	0x3a9d2435	0.001198894
56	0xbb84c4db	-0.0040517873
57	0xbb51db70	-0.0032021664
58	0x3b180088	0.0023193676
59	0x3b9b41fa	0.0047380896
60	0xbb31e3f8	-0.0027143937
61	0xbad8d8ff	-0.0016544162
62	0xbbda3513	-0.006659159
63	0x3be7e166	0.00707643
64	0x3c579b61	0.013159604
65	0xbc3bf657	-0.011472306
66	0x3c023738	0.0079477355
67	0x3accd47a	0.0015627288
68	0xbb449e5f	-0.0030001623
69	0xbb8ba185	-0.004261198
70	0xbbe9b110	-0.007131703
71	0xbb4525c8	-0.0030082334
72	0xbc090009	-0.008361825
73	0x3b6929ef	0.0035577973
74	0x3aa5fdb1	0.0012664107
75	0x3acc66b2	0.001559457
76	0x3b931415	0.004488478
77	0xbacc30c5	-0.0015578499
78	0x3b97e4f2	0.0046354467
79	0xbb5cadd9	-0.0033672957
80	0xb99a70bf	-0.0002945717
81	0xbb344b44	-0.0027510682
82	0x3c2524d3	0.01007958
83	0x394d3847	0.00019571288
84	0xbb85348a	-0.004065101
85	0x3ba3a5fd	0.0049941526
86	0x3bdcec31	0.0067420234
87	0xbb061356	-0.0020458302
88	0xbbd03a8a	-0.0063546347
89	0x3bd20e39	0.006410387
90	0x3c026606	0.007958895
91	0xbb8e0154	-0.0043336544
92	0x3aca3254	0.0015426376
93	0xbc065e5e	-0.00820121
94	0x3be710bc	0.0070515554
95	0x3c287a4e	0.010283066
96	0xba71cf23	-0.0009224286
97	0xbbc6335b	-0.0060486025
98	0xbbd6f3c6	-0.006559822
99	0x3bfcf88d	0.0077200592
100	0x3b126bad	0.0022342012
101	0xbb8c261e	-0.004277005
102	0xbbafce22	-0.005365149
103	0x3b1ec21c	0.0024224585
104	0x3bee0eb7	0.0072649377
105	0xbb68cb79	-0.003552167
106	0xbc097a4d	-0.008390975
107	0x39f0af37	0.00045906912
108	0xbb0554b2	-0.0020344672
109	0xb9cb2b12	-0.00038751267
110	0xba752d00	-0.0009352714
111	0x3b8f581d	0.0043745176
112	0xbbda6d22	-0.0066658417
113	0xbb1bd66c	-0.0023778928
114	0x3ad751e5	0.0016427605
115	0x3be0eff5	0.0068645426
116	0xbba3136d	-0.004976681
117	0x3bb60842	0.0055551836
118	0xbb9b17b9	-0.0047330526
119	0x3ba27192	0.0049573863
120	0x3bd0a4de	0.00636731
121	0xbb96f803	-0.004607202
122	0x39a36916	0.00031168078
123	0xbadf5a6b	-0.0017040496
124	0xba549811	-0.0008109818
125	0x3c2c335f	0.010510295
126	0xbb6843fd	-0.0035440915
127	0x3bc814d9	0.006106001
128	0x3bbe55ce	0.0058085686
129	0xbc2223a0	-0.009896189
130	0xbac8783c	-0.0015294622
131	0xbb308186	-0.002693267
132	0xbbce8edd	-0.0063036517
133	0xb9d2fa6c	-0.000402409
134	0xbc24f52e	-0.010068221
135	0xbb4ae479	-0.0030958934
136	0x3b21cc9f	0.0024688614
137	0x3a6534b7	0.0008743512
138	0xbb26715a	-0.0025397153
139	0xbb4a671a	-0.0030884207
140	0x3a7baee1	0.0009600949
141	0xbbc01b15	-0.0058626034
142	0xbbb4214a	-0.0054971324
143	0x3b3c1590	0.0028699376
144	0x3b0db9a7	0.002162555
145	0xbb00ada9	-0.001963476
146	0xbb39c93d	-0.0028348707
147	0x3b5089dd	0.0031820454
148	0x3b32eacb	0.0027300592
149	0x3b1d882e	0.0024037468
150	0xbbbd564b	-0.005778109
151	0x3bb4eb18	0.0055211894
152	0x3c5d4a18	0.013506435
153	0xbbf1735f	-0.0073684896
154	0x3b2c24e2	0.00262671
155	0xbbdff751	-0.0068349023
156	0x3b54dd93	0.0032480701
157	0x3ba930a6	0.00516327
158	0x39a3d0ab	0.00031245252
159	0xbbdf4162	-0.006813214
160	0xbb13f6f9	-0.0022577627
161	0xbb36ef27	-0.0027913542
162	0xbb00ba2e	-0.0019642222
163	0xbc1ac1ab	-0.009445588
164	0x3b3dfdce	0.002899039
165	0xba71e46a	-0.0009227457
166	0xbbae7b52	-0.0053247595
167	0xbbc03c66	-0.005866575
168	0xbba0f0e4	-0.004911529
169	0xbac130c0	-0.001473926
170	0x3b2e1aa3	0.002656617
171	0x3c30771f	0.010770588
172	0x3b3ea659	0.002909085
173	0x3b6b839e	0.0035936604
174	0x3ae11f9f	0.0017175562
175	0xbc1323be	-0.00898069
176	0xbaa64393	-0.0012684934
177	0x397766f6	0.00023594112
178	0xbc041c8b	-0.008063446
179	0x390cb1b0	0.00013417634
180	0x3b74ab50	0.0037333556
181	0x3c181026	0.009281194
182	0xbbded038	-0.006799724
183	0xbbacf576	-0.0052782847
184	0x3a8459cc	0.0010097562
185	0xbb7ef45f	-0.003890298
186	0x3b870856	0.004120867
187	0x3bec8774	0.0072182957
188	0xbb8afda4	-0.004241662
189	0x3c1b03b8	0.009461336
190	0xbb8040a5	-0.003913956
191	0xbbb7aec9	-0.005605553
192	0x3bc92685	0.006138625
193	0x3b1c0789	0.0023808202
194	0x3b56e9dc	0.00327932
195	0x3c0b288f	0.008493557
196	0x3b53456d	0.0032237426
197	0xbba89c55	-0.0051455894
198	0x3c0c997b	0.0085815145
199	0xbb9b7685	-0.0047443532
