testbed/models_v6/lstmcell_time.pt (torch, 493081 bytes, 4 tensors)

weight_ih f4 [600, 1]
0	0x3c90daf6	0.017682534
1	0x3cf53e0d	0.029936815
2	0xbd1dc8ed	-0.038521696
3	0xbd4fbabd	-0.050715197
4	0xbcc96e4b	-0.024588725
5	0xbd7bb515	-0.06145199
6	0xbd195f7c	-0.037444577
7	0x3d019d30	0.031644046
8	0xbd0b74ce	-0.03404694
9	0x3d8e768b	0.06956204
10	0xbb952dbb	-0.0045525706
11	0x3d8b2242	0.067936435
12	0xbd3ea607	-0.046545055
13	0x3c3617f1	0.0111141065
14	0xbd3fcb7b	-0.046824913
15	0x3c23e9fa	0.010004515
16	0x3c2e910a	0.010654697
17	0x3b5ac1d4	0.003337969
18	0xbdbf25c7	-0.09333377
19	0xbb5c7a17	-0.0033642107
20	0xbcc78a65	-0.024357984
21	0x3d41bf61	0.047301654
22	0xbd460fee	-0.048355035
23	0xbcd06beb	-0.025442084
24	0x3ba0d212	0.004907855
25	0xbae5b596	-0.001752543
26	0x3d979886	0.074021384
27	0xbd235436	-0.03987523
28	0xbd814aed	-0.06313119
29	0xbc27157f	-0.010197996
30	0xbbc80376	-0.006103928
31	0x3db1f47f	0.08689212
32	0x3d2aad14	0.041668966
33	0xbbcbf055	-0.006223718
34	0x3c797362	0.015225263
35	0xbd5701db	-0.052492004
36	0xbcfcb06a	-0.03084584
37	0x3d57999d	0.05263673
38	0xbc326f06	-0.010890728
39	0x3d29545e	0.041340224
40	0xbd16c130	-0.03680533
41	0x3da03493	0.07822528
42	0x3cf9f713	0.030513322
43	0xbd70b6ab	-0.058767956
44	0x3d3897d8	0.045066684
45	0xbd04c6de	-0.032416217
46	0x3d05486a	0.032539763
47	0xbd8fd3f0	-0.07022846
48	0x3ccccc07	0.024999632
49	0xbd4cf8e2	-0.05004204
50	0x3d4d46de	0.050116412
51	0xbd13a8b4	-0.03604956
52	0xbcad7081	-0.02117181
53	0x3d16cad6	0.036814533
54	0xbbfb4f67	-0.0076693776
55	0x3ddbf1e7	0.107394986
56	0xbca4ff21	-0.020141186
57	0xbd2496e8	-0.040182978
58	0x3c2eabc5	0.01066107
59	0xbca6e36f	-0.02037212
60	0xbd5ded81	-0.05418158
61	0x3c84ab03	0.016194826
62	0x3cb1e12a	0.021713812
63	0x3cd66bd7	0.026174469
64	0x3c1ba6e3	0.009500238
65	0x3d4da1ea	0.05020324
66	0xbd1afed1	-0.037840668
67	0x3d1f04ab	0.03882281
68	0x3c98a23f	0.018632052
69	0xbd48ff73	-0.04907174
70	0x3dafd061	0.08584667
71	0xbd7f08eb	-0.062264364
72	0xbd82f71f	-0.06394791
73	0xbd25607b	-0.040375214
74	0xbc6aec8b	-0.014338623
75	0xbc8c07e0	-0.017093599
76	0x3d482151	0.048859898
77	0xbd6ba55e	-0.057530753
78	0xbcbfd671	-0.023417683
79	0x3ca34cb5	0.019934038
80	0xbd3f7f42	-0.046752222
81	0x3d0fb6e8	0.035086542
82	0xbce3b897	-0.02779798
83	0x3cb24808	0.021762863
84	0x3cc168c1	0.02360952
85	0x3d77ab88	0.06046632
86	0xbcfcf3f1	-0.03087804
87	0x3c426fcf	0.011867478
88	0xbcb99416	-0.02265362
89	0x3d84eaf1	0.06490124
90	0xbc89ff77	-0.016845448
91	0x3d40c218	0.047060102
92	0x3d706846	0.058693193
93	0x3ac4d34a	0.0015016582
94	0xbc6c9d76	-0.0144418385
95	0x3d8e8677	0.06959241
96	0x3cc116b4	0.023570396
97	0x3caa86d7	0.02081625
98	0xbc6f329d	-0.0145994695
99	0xbd25c6ed	-0.040472914
100	0x3d8ab6d5	0.06773154
101	0x3d86883c	0.065689534
102	0xbd605623	-0.054769646
103	0x3ca6fd9c	0.020384602
104	0x3d231ed8	0.039824337
105	0xbd036c9d	-0.032086004
106	0x3c893c62	0.016752426
107	0xbcbc6f04	-0.023002155
108	0x3c3bba6e	0.0114580225
109	0xbd8079b4	-0.06273213
110	0x3d223b81	0.03960753
111	0xbcb5d8a4	-0.022198029
112	0x3d0109f2	0.031503625
113	0x3d71ff9d	0.059081662
114	0xbcccdc70	-0.025007457
115	0xbba5c938	-0.0050593875
116	0x3cc95dbf	0.024580834
117	0xbd685493	-0.05672128
118	0xbd68be77	-0.056822266
119	0xbd453af4	-0.048151925
120	0x3d1fd8af	0.039025005
121	0xbd08900c	-0.0333405
122	0xbd5b36e0	-0.05351913
123	0xbd500caf	-0.050793346
124	0x3d8d6005	0.0690308
125	0xbcc0b4f1	-0.02352378
126	0x3d04535d	0.032306064
127	0x3b9aec23	0.0047278567
128	0xbd2cdab1	-0.042200748
129	0x3d41b12e	0.047288112
130	0xbd44acd6	-0.04801639
131	0x3c4ad5ad	0.012380046
132	0xbd45f07a	-0.04832504
133	0xbc6c1bad	-0.014410895
134	0x3d80b528	0.06284553
135	0xbd0fe11c	-0.03512679
136	0x3d9453cd	0.07242546
137	0x3c3af729	0.011411467
138	0xbce4d8c0	-0.027935386
139	0x3bfb5709	0.0076702875
140	0xbd693e71	-0.056944314
141	0x3d8071f2	0.06271733
142	0x3d3a1bff	0.045436855
143	0x3ce48f21	0.02790028
144	0x3d88554b	0.06656893
145	0x3d819fa4	0.06329277
146	0xbc849029	-0.016182022
147	0xbd52a008	-0.05142215
148	0x3d1f1ddb	0.03884683
149	0x3d4fd968	0.050744444
150	0x3d88b8f0	0.06675899
151	0xbd7d42dd	-0.061831344
152	0xbd6c25cb	-0.05765323
153	0xbd3be484	-0.045872226
154	0x3ccb2f62	0.024802867
155	0xbd4770f4	-0.048691705
156	0xbbb38d9b	-0.005479527
157	0x3d81100c	0.06301889
158	0xbc01213b	-0.007881458
159	0x3d3426e8	0.043982416
160	0xbe00c78c	-0.12576121
161	0x3ce33b2f	0.027738182
162	0x3d4413a6	0.0478703
163	0x3c79982f	0.015234037
164	0x3cec4d7a	0.028845537
165	0x3c7850b9	0.0151559645
166	0x3cfb365a	0.030665565
167	0xbd849dda	-0.0647542
168	0xbd089136	-0.03334161
169	0xbd8460bf	-0.06463765
170	0xbd097ef8	-0.033568352
171	0xbdd7bb4c	-0.10533771
172	0x3d0b2b29	0.033976708
173	0xbcf86359	-0.03032081
174	0x3c14f0f1	0.009090648
175	0x3c079f94	0.0082777925
176	0xbcf202fe	-0.029542442
177	0xbca9aa8c	-0.020711206
178	0xbcdc92e8	-0.02692552
179	0x3d920ecb	0.07131728
180	0xbc7ee116	-0.015556594
181	0x3ca9b0de	0.02071422
182	0x3d91a3ae	0.071112975
183	0xbd52a919	-0.051430795
184	0xbcab08e5	-0.020878265
185	0x3d1204bf	0.035649057
186	0x3d8d7092	0.06906237
187	0x3d0bbc7c	0.0341153
188	0xbcaf0e61	-0.021369161
189	0x3c7eca52	0.015551167
190	0x3d1e6fe9	0.038680945
191	0x3d556d23	0.052106034
192	0x3ba4c417	0.0050282585
193	0x3d9e3a3c	0.07725951
194	0xbd90e9f7	-0.07075875
195	0x3ca8a91e	0.020588454
196	0x3b48b29e	0.0030624042
197	0xbd9cb0a3	-0.07650878
198	0xbd30a0e1	-0.043122176
199	0xbbb7be26	-0.0056073843
200	0xbca7af5f	-0.020469366
201	0xbc70b621	-0.01469186
202	0xbca1c93d	-0.019749278
203	0xbc95b427	-0.01827438
204	0x3cd1cc90	0.025610238
205	0x3d820c12	0.063499585
206	0x3cd6b882	0.026211027
207	0x3c4935ec	0.012280922
208	0x3d4f93db	0.050678115
209	0xbb98903a	-0.004655865
210	0xbc65eb17	-0.014033101
211	0x3d9ab1c7	0.075534396
212	0x3cff33c2	0.03115261
213	0xbce02c89	-0.027364986
214	0x3cbadbe8	0.022809938
215	0xbd80c5f4	-0.062877566
216	0xbce07f9a	-0.027404595
217	0xbc89e568	-0.016833022
218	0xbc9434a4	-0.018091507
219	0xbd3b85c9	-0.045781884
220	0x3c81d3da	0.015848089
221	0x3d8905a9	0.06690533
222	0x3d3fea8a	0.046854533
223	0x3cb6222d	0.022233093
224	0xbadfb588	-0.001706765
225	0xbd6a527e	-0.057207577
226	0x3c6b8cfd	0.014376876
227	0x3d1efaa9	0.038813267
228	0x3d638e26	0.055555485
229	0x3d47dfd9	0.048797462
230	0xbc973737	-0.018458946
231	0xbc67b5d7	-0.014142475
232	0x3d2a8b66	0.041636847
233	0x3b9d3ee3	0.0047987564
234	0x3ab15863	0.001353037
235	0xbc5d7921	-0.013517649
236	0x3c906f85	0.017631302
237	0xbcbddc9b	-0.023176482
238	0x3d5138fb	0.05107973
239	0x3d7a7894	0.06115015
240	0x3cb2668d	0.021777416
241	0x3d96c717	0.07362192
242	0x3c5a95b8	0.01334136
243	0x3d87678a	0.066115454
244	0x3c439358	0.011936985
245	0x3c5d2c4d	0.013499332
246	0x3d576099	0.052582357
247	0x3d879f0a	0.06622131
248	0x3d90ae36	0.07064478
249	0x3cbeff4b	0.023315093
250	0x3d91ebb8	0.07125038
251	0x3d98fee5	0.07470492
252	0xbcfa9095	-0.03058652
253	0x3d84c4f8	0.06482881
254	0xbccc3e54	-0.024932064
255	0xbd6e4242	-0.058168657

weight_hh f4 [600, 200]
0	0xbcbdde0f	-0.023177175
1	0x3c6a9112	0.014316814
2	0x3d849467	0.06473618
3	0x3d98646b	0.07441028
4	0x3d79a964	0.06095256
5	0x3d756206	0.059907936
6	0x3c16fc00	0.009215355
7	0x3d5289c4	0.051400915
8	0xbccaf321	-0.024774136
9	0xbd8019c9	-0.06254918
10	0x3d16b20b	0.03679089
11	0xbd4860dd	-0.0489205
12	0x3cbcbb95	0.023038665
13	0x3d72a830	0.059242427
14	0x3d3e38df	0.046440955
15	0xbd4d301b	-0.050094705
16	0x3d414698	0.047186464
17	0x3d3abfff	0.045593258
18	0xbc2a23f2	-0.010384547
19	0x3d80fb89	0.062979765
20	0x3d744b03	0.05964185
21	0xbc57a390	-0.013161555
22	0xbba98680	-0.0051735044
23	0xbd4144fe	-0.047184937
24	0xbbda25d6	-0.0066573424
25	0x3d81d846	0.06340079
26	0xbd1fdbbe	-0.03902792
27	0x3d06792e	0.03283041
28	0x3ccfc7c9	0.02536382
29	0xbd327399	-0.043567274
30	0xbd2c1d79	-0.042020295
31	0xbd868513	-0.06568351
32	0xbc8b955c	-0.017038994
33	0xbd8d2412	-0.068916455
34	0xbc117133	-0.008877086
35	0x3d336745	0.043799657
36	0x3d3fa91a	0.046792127
37	0xbd655024	-0.05598463
38	0x3d7e6b05	0.06211378
39	0xbcda2c8f	-0.026632575
40	0xbd38508e	-0.044998698
41	0x3d55a935	0.05216332
42	0x3c4b7992	0.012419121
43	0xbba7ca78	-0.0051205717
44	0x3d35574a	0.0442727
45	0xbd8b3512	-0.06797232
46	0xbd8cc7f3	-0.06874075
47	0xbb934f24	-0.0044955183
48	0xbd2c5db4	-0.04208155
49	0x39e20318	0.00043108384
50	0x3c7c432f	0.015396877
51	0xbcdf76e5	-0.027278373
52	0xbd12281d	-0.035682786
53	0xbd2651d7	-0.040605392
54	0xbc04d8fe	-0.008108376
55	0x3d383ad2	0.04497797
56	0x3d5b7011	0.05357367
57	0xbce32ec5	-0.027732262
58	0x3d7c90aa	0.0616614
59	0x3b1fee7e	0.0024403627
60	0xbd6c3864	-0.057670966
61	0x3c9e760b	0.019343397
62	0x3cec8348	0.028871194
63	0xbd6bd320	-0.05757439
64	0xbd37632a	-0.044772305
65	0xbc8ba01a	-0.017044116
66	0xbd273496	-0.040821634
67	0x3d81103f	0.06301927
68	0x3d6c96c6	0.057760976
69	0x3d04633b	0.032321196
70	0xbd3c1d7d	-0.04592656
71	0x3d3f7140	0.046738863
72	0xbd2689b9	-0.040658686
73	0x3ce34a0a	0.027745266
74	0x3d8fa794	0.07014385
75	0xbc85b76e	-0.016322818
76	0xbd4800ed	-0.048829008
77	0x3d54b3cb	0.051929276
78	0xbd80fe05	-0.062984504
79	0x3d32df8e	0.04367023
80	0xbb4f8c13	-0.0031669184
81	0x3d2be729	0.0419685
82	0x3d2d0d86	0.042249225
83	0xbd7a10bc	-0.061051115
84	0xbd8d1b98	-0.06890029
85	0xbccafadd	-0.024777824
86	0xba0fea35	-0.00054899167
87	0xbd64a682	-0.055822857
88	0x3d3dcb37	0.04633638
89	0x3ca256f1	0.019816848
90	0xbb2d46b5	-0.002643985
91	0xbd63c20b	-0.055604976
92	0xbcfeccf8	-0.031103596
93	0x3d26f42d	0.040760208
94	0xbc162116	-0.009163162
95	0xbd937d30	-0.07201612
96	0xbca62f84	-0.02028633
97	0xbc7738f9	-0.015089267
98	0xbbae8d47	-0.0053269
99	0x3d171125	0.036881585
100	0x3d0dbcd2	0.0346039
101	0xbd89602f	-0.06707799
102	0x3d3878b9	0.045037005
103	0xbc61237d	-0.013741371
104	0x3cca7aca	0.024716754
105	0x3d19970d	0.03749757
106	0x3d0b524f	0.034014042
107	0x3ce013b6	0.027353149
108	0xbcb72c4d	-0.022359991
109	0x3c7dec4d	0.015498233
110	0x3d718d2d	0.058972526
111	0x3b8a22ce	0.004215575
112	0xbd17bf89	-0.037047897
113	0x3cab0bcf	0.020879654
114	0xbd12c8e9	-0.035836134
115	0x3ca38ae8	0.019963697
116	0x3c500abd	0.012697873
117	0xbcb5a64c	-0.022174023
118	0xbd1dfc95	-0.03857096
119	0x3c844e5d	0.016150648
120	0xbc9cb63b	-0.019129863
121	0x3cb9d370	0.02268383
122	0xbc16cebd	-0.009204564
123	0xbd89ee5d	-0.06734917
124	0x3d68cfcc	0.056838796
125	0x3d9151f5	0.0709571
126	0x3c732dc5	0.014842455
127	0x3d7c06c7	0.0615299
128	0xbd0bd6a9	-0.034140263
129	0xbcaa2034	-0.020767309
130	0x3b5ffbc4	0.0034177164
131	0xbc800553	-0.015627539
132	0xbc62d94f	-0.013845756
133	0x3d3022d1	0.043001954
134	0x3d82b8f7	0.063829355
135	0x3d9f6537	0.07782977
136	0xbd3ae7b8	-0.04563114
137	0xbca0b0a7	-0.019615484
138	0x3d6efb7a	0.058345295
139	0xbd2b72c8	-0.04185751
140	0x3d00e6dc	0.031470165
141	0xbd000f56	-0.031264625
142	0x3d98e41a	0.07465382
143	0xbc052d28	-0.008128442
144	0x3d764775	0.06012674
145	0xbd2c80c2	-0.04211498
146	0x3d6cc540	0.0578053
147	0x3d70801b	0.05871592
148	0xbd2a0586	-0.041509174
149	0x3d492359	0.049105976
150	0xbd561d5a	-0.052274086
151	0x3d37e33c	0.044894442
152	0x3d295e56	0.04134973
153	0xbd7e8d57	-0.06214651
154	0x3cfcfa00	0.030880928
155	0x3cdf7503	0.027277475
156	0xbd0bca3e	-0.03412842
157	0x3d542e00	0.05180168
158	0x3d729d7f	0.05923223
159	0xbd08e4a7	-0.033421185
160	0xbd34423a	-0.04400847
161	0x3cbc55e1	0.022990169
162	0x3d954d24	0.07290104
163	0xbd60ab5a	-0.054850914
164	0xbd2d2a08	-0.042276412
165	0x3bb05343	0.0053810193
166	0x3d49d19c	0.049272165
167	0x3d910e2c	0.07082781
168	0xbd5172c8	-0.051134855
169	0xbbba24dc	-0.0056806635
170	0x3d127a11	0.035760943
171	0x3d841b83	0.0645056
172	0xbd669e89	-0.056303535
173	0x3d9b257b	0.07575508
174	0x3ce7be1d	0.028288895
175	0xbc38c9d8	-0.011278592
176	0xbcd681ce	-0.026184943
177	0x3cb36b03	0.021901613
178	0xbc6b928b	-0.0143782
179	0xbce44595	-0.02786521
180	0xbc651bff	-0.013983726
181	0xbb1bcf59	-0.0023774712
182	0x3d2fa5ff	0.042882916
183	0xbd57e667	-0.052709963
184	0xbd764e17	-0.060133066
185	0x3d10abd4	0.035320118
186	0xbd4b416c	-0.049622938
187	0x3c9804a8	0.018556908
188	0x3d514300	0.051089287
189	0x3b995045	0.0046787583
190	0xbd8728db	-0.065995894
191	0x3d803656	0.06260364
192	0x3ca671b5	0.020317892
193	0x3d481f93	0.048858237
194	0xbd621d07	-0.055203464
195	0xbd14ffed	-0.036376882
196	0x3d914704	0.07093623
197	0x3c0d7198	0.00863304
198	0x3ce31cee	0.027723756
199	0xbcbd9e53	-0.023146784
200	0xbd28bffd	-0.04119872
201	0x3d7ecf95	0.062209684
202	0xbd501109	-0.050797496
203	0xbd6495f4	-0.05580707
204	0xbc9506d2	-0.018191729
205	0xbd3df39e	-0.04637491
206	0xbd66a7d2	-0.05631239
207	0xbd367f24	-0.044554844
208	0xbd8c13b7	-0.06839698
209	0x3d1869eb	0.037210386
210	0xbca3d990	-0.020001203
211	0xbd7018c2	-0.05861736
212	0x3d6c839a	0.057742693
213	0x3ca88a24	0.020573683
214	0x3d3c3ce5	0.04595651
215	0xbd3d9d4b	-0.046292584
216	0x3cd34dde	0.025793966
217	0x3d75318e	0.059861712
218	0x3d0f6b6e	0.035014562
219	0x3c271a04	0.010199074
220	0x3c8cc1c2	0.017182235
221	0xbc95b1bd	-0.018273229
222	0x3d9e0461	0.07715679
223	0xbc068bb4	-0.008212019
224	0xbdbcc785	-0.09217743
225	0xbc87103b	-0.016487231
226	0x3cb0cd27	0.0215822
227	0xbcc27bec	-0.023740731
228	0x3d12f7cb	0.035880845
229	0x3d661fcf	0.05618268
230	0xbc5ba6e5	-0.01340649
231	0xbd23ffb5	-0.040038783
232	0xbb010731	-0.0019688124
233	0x3ccd3ef4	0.025054432
234	0x3d79171e	0.060813062
235	0x3d9b1db5	0.075740255
236	0xbc30fbea	-0.0108022485
237	0x3d061f93	0.032744955
238	0xbcafbeda	-0.02145331
239	0xbcf7d6d7	-0.03025381
240	0x3d7a6304	0.061129585
241	0xbb45affd	-0.0030164712
242	0xbce56ae8	-0.028005078
243	0xbd5a3f93	-0.053283285
244	0xbd38a69a	-0.04508076
245	0x3c308a9b	0.010775234
246	0xbd4604ce	-0.048344426
247	0xbd5eeaf8	-0.054423302
248	0xbdc32b44	-0.09529737
249	0x3dbbebfb	0.09175869
250	0xbdc3e682	-0.0956545
251	0xbd0138dc	-0.031548366
252	0x3d9919c7	0.0747562
253	0x3c85f22c	0.016350828
254	0xbc81f860	-0.015865505
255	0x3d81c6da	0.06336756

bias_ih f4 [600]
0	0xbcdfd549	-0.027323382
1	0xbd457ae1	-0.04821289
2	0x3d85efa3	0.06539848
3	0x3c2948e0	0.010332316
4	0xbc8ee1c0	-0.01744163
5	0xbd2d6b4c	-0.042338654
6	0xbb887fa6	-0.0041656075
7	0x3d1a24cf	0.03763276
8	0x3ca9edfb	0.02074336
9	0x3d6a7c2b	0.057247322
10	0x3d5ecb1b	0.054392915
11	0x3be7c6b5	0.0070732483
12	0x3d4d3981	0.050103668
13	0x3d179d1b	0.03701506
14	0xbc5a40bd	-0.013321099
15	0x3c2b3f94	0.01045217
16	0xbd218c02	-0.039440162
17	0x3d2cb7a0	0.042167306
18	0xbcec071c	-0.028811984
19	0x3c4d8c18	0.012545608
20	0xbca73b4c	-0.020414017
21	0x3d4d9db2	0.050199218
22	0x3d7bd916	0.061486326
23	0x3c9fe101	0.01951647
24	0xbcef7966	-0.029232692
25	0x3d145167	0.036210444
26	0x3d1b22a4	0.037874833
27	0x3d1a1030	0.037613094
28	0xbcf95a6b	-0.030438622
29	0xbd16b2fe	-0.036791794
30	0xbd7975f1	-0.060903493
31	0xbcc944d4	-0.024568953
32	0xbcba847a	-0.022768248
33	0xbd8b5765	-0.068037786
34	0x3d6770bf	0.056504007
35	0xbd162358	-0.0366548
36	0x3d835d08	0.06414229
37	0x3c480c86	0.012210017
38	0xbd2e0267	-0.04248276
39	0xbd3da8e2	-0.046303637
40	0x3d13e5af	0.036107715
41	0xb91d21a6	-0.00014985222
42	0xbd774fd1	-0.060378853
43	0xba454b1f	-0.00075261475
44	0xbc7e417f	-0.015518545
45	0x3d855a87	0.06511407
46	0xbc817fb9	-0.015807973
47	0xbcca75a1	-0.024714293
48	0x3bf6759c	0.0075213443
49	0xba8f20e2	-0.0010919834
50	0xbca4465d	-0.020053083
51	0xbbd1a2ed	-0.006397596
52	0xbae39196	-0.0017362114
53	0xbcfcf377	-0.030877812
54	0xbd35cb61	-0.04438341
55	0x3cde19a2	0.027111832
56	0x3b08e193	0.0020886406
57	0x3d50ebff	0.051006313
58	0x3cda7e80	0.026671648
59	0x3c367e45	0.011138503
60	0xbcdcadfd	-0.026938433
61	0x3cbe6b48	0.023244515
62	0x3d9887bf	0.074477665
63	0x3da0ba06	0.07847981
64	0xb932019b	-0.00016976001
65	0xbd298114	-0.041382864
66	0xbd0cae91	-0.034346167
67	0x3d0f07b5	0.03491946
68	0x3ca63d34	0.020292856
69	0x3cd15dee	0.025557484
70	0xbce57776	-0.028011065
71	0xbc2fa718	-0.010720991
72	0x3ceb0b6b	0.028691968
73	0x3d1b861b	0.03796969
74	0x3cc5abfe	0.024129864
75	0xbc2fa745	-0.0107210325
76	0x3d9b914b	0.07596072
77	0xbd496538	-0.049168795
78	0x3c85bb85	0.016324768
79	0xbd61f2a1	-0.05516303
80	0xbbe438f2	-0.006964796
81	0x3cbf921f	0.023385106
82	0x3d3f59a7	0.04671636
83	0x3d8f862d	0.07008014
84	0x3d154fec	0.036453173
85	0xbd45bc3d	-0.04827522
86	0x3bab7965	0.005232977
87	0x3b9db9e2	0.0048134187
88	0x3cab50b7	0.020912511
89	0xbcc47cd0	-0.023985296
90	0xbd6bdb22	-0.05758203
91	0x3c5b538a	0.0133866165
92	0xbd99df31	-0.075132735
93	0x3bd8c5bb	0.006615368
94	0x3c8773e8	0.01653476
95	0x3d4d2369	0.050082598
96	0xbd293cf4	-0.041317895
97	0xbc94acf2	-0.018148873
98	0xbd55802e	-0.052124195
99	0xba150feb	-0.0005686271
100	0xbca9073b	-0.02063333
101	0xbd286edc	-0.04112135
102	0xbd5e8dab	-0.054334324
103	0xbd83d47f	-0.06437015
104	0x3c8d8594	0.01727561
105	0xbcc9d417	-0.024637265
106	0x3d85f85d	0.06541512
107	0xbd616748	-0.055030137
108	0x3c9c8345	0.019105563
109	0xbd574970	-0.05256027
110	0x3cf1cdff	0.029517172
111	0x3d40fdd0	0.047117054
112	0x3d8e4bbe	0.069480404
113	0x3c8a0982	0.016850237
114	0xbd37ae11	-0.044843737
115	0x3c57259a	0.0131315235
116	0xbc94f0bf	-0.018181203
117	0xbcefc060	-0.029266536
118	0xbdaa93c2	-0.08328964
119	0xbd7384a3	-0.059452664
120	0xbd94120d	-0.072300054
121	0xbc9384b6	-0.018007617
122	0x3c228e1a	0.009921575
123	0x3ca574b5	0.020197252
124	0x3d0488a9	0.03235689
125	0xbd7f70f7	-0.06236359
126	0x3d4a7766	0.049430273
127	0xbd37cbc4	-0.04487206
128	0xbd72eab3	-0.059305858
129	0xbc3416d9	-0.010991775
130	0x3c5b611b	0.013389851
131	0x3c5030c6	0.012706941
132	0xbd33a8ca	-0.04386214
133	0xbd9497bc	-0.072555035
134	0xbb785247	-0.0037890838
135	0x3d4a5812	0.049400397
136	0xbd5ac1f5	-0.053407628
137	0xbd53a1b4	-0.051667884
138	0xbcf909ab	-0.030400118
139	0xbd113287	-0.035448577
140	0x3d3b0779	0.045661423
141	0x3d77a39d	0.06045877
142	0x3c966aee	0.018361535
143	0x3ce70d23	0.028204506
144	0x3d23afd5	0.03996261
145	0x3d37fe4f	0.044920262
146	0xbd8316a2	-0.06400801
147	0x3d5fd166	0.054643057
148	0x3d17519e	0.03694307
149	0x3d364a23	0.044504296
150	0x3d88dcb2	0.06682719
151	0x3d82bccc	0.063836664
152	0x3d4a1d20	0.049344182
153	0x3d84db7b	0.06487175
154	0x3d569dca	0.052396573
155	0x3d6f0490	0.05835396
156	0x3d382d48	0.04496506
157	0xbd14e267	-0.036348727
158	0xbd2ec016	-0.042663656
159	0x3cd97cf6	0.026548844
160	0xbbc622cf	-0.00604663
161	0xbd95a9d4	-0.07307783
162	0xbd09562d	-0.03352945
163	0x3d8a645b	0.067574225
164	0x3c2234d8	0.009900294
165	0xbb55bed1	-0.0032614956
166	0xbd7122a5	-0.05887093
167	0x3cdf2818	0.027240798
168	0x3c5604fa	0.01306271
169	0x3c94c3b8	0.018159732
170	0xbd850b87	-0.06496339
171	0x3ca2dc66	0.019880485
172	0xbd547173	-0.051866006
173	0x3d454304	0.048159614
174	0x3d540708	0.051764518
175	0x3d8c8913	0.06862082
176	0x3c3ef83a	0.0116558615
177	0x3b36670d	0.002783242
178	0xbd184ba6	-0.03718152
179	0xbb1e0635	-0.0024112586
180	0x3d32fd28	0.04369846
181	0x3bbdf609	0.005797152
182	0x3bb4f490	0.005522318
183	0xbc2cad5d	-0.01053938
184	0xbc0d39bc	-0.008619722
185	0xbd7fc2e1	-0.06244171
186	0x3d3b0e35	0.045667846
187	0xbd595025	-0.053054947
188	0xbd21e5f2	-0.039525934
189	0x3b9af23e	0.0047285846
190	0x3d269b9a	0.040675737
191	0xbbc13a23	-0.005896823
192	0x3cd8ac18	0.026449248
193	0xbce19c34	-0.027540304
194	0x3d3866ed	0.045020033
195	0x3cc0bb65	0.023526857
196	0x3cf26bfa	0.029592503
197	0x3b8f92e7	0.004381526
198	0xbca22b49	-0.01979603
199	0x3a7565a1	0.0009361152
200	0x3cb3d9aa	0.021954376
201	0xb9eb8e38	-0.00044928654
202	0x3d911db7	0.07085746
203	0xbd498956	-0.04920324
204	0xbcf676cb	-0.030085942
205	0xbb8236ad	-0.003973803
206	0xbd38ddd2	-0.04513342
207	0xbc8652f0	-0.01639697
208	0xbd573d5c	-0.05254875
209	0x3d24c670	0.040228307
210	0x3d6d9dee	0.05801194
211	0xbccb50f5	-0.024818877
212	0xbd056036	-0.032562457
213	0xbd8da9b6	-0.069171354
214	0xbbb6978c	-0.005572265
215	0x3d77fc9b	0.060543638
216	0xbc0ce366	-0.008599138
217	0x3a448b5f	0.00074975746
218	0x3d278df1	0.04090685
219	0xbd9a2243	-0.07526066
220	0xbd1f1c9d	-0.038845647
221	0x3c741dfc	0.014899727
222	0x3d2c0bd3	0.042003464
223	0x3cd7231e	0.026261862
224	0x3d0c7125	0.03428759
225	0x3d1f5fea	0.03890983
226	0x3c5f06be	0.013612447
227	0x3c0f58e9	0.008749225
228	0x3d4356ce	0.047690205
229	0xbd32ac96	-0.043621622
230	0x3b280c4f	0.0025642102
231	0x3d875765	0.06608466
232	0xbd1631e7	-0.036668684
233	0x3d1ce6b7	0.038305964
234	0x3d84a751	0.064772256
235	0xbd83b1de	-0.0643041
236	0x3d68520a	0.056718864
237	0x3d97f64f	0.074200265
238	0x3c1ef9f3	0.009703147
239	0x3d8e72a1	0.069554575
240	0x3c95cd8e	0.018286493
241	0x3c555137	0.013019851
242	0x3bfc5471	0.007700496
243	0x3d9ac109	0.0755635
244	0xbcbbfe80	-0.022948503
245	0xbd7165c8	-0.058934957
246	0x3ceb7f38	0.028747186
247	0x3d7e74a4	0.062122956
248	0xbc968108	-0.018372074
249	0x3cc65a75	0.024213055
250	0xba96874a	-0.0011484411
251	0xbd0c8f1d	-0.03431617
252	0x3d6720fb	0.056427937
253	0xbd54cca9	-0.05195299
254	0xbd5053dd	-0.05086123
255	0x3d69121c	0.056902036

bias_hh f4 [600]
0	0x3d2dd1b0	0.0424363
1	0xbd821e8c	-0.063534826
2	0x3c4eeccb	0.012629698
3	0x3d3392c8	0.043841153
4	0xbcac3e1a	-0.021025706
5	0xbc80d9db	-0.015728882
6	0xbd28c9f2	-0.041208215
7	0xbc0161e2	-0.007896872
8	0xbd063d83	-0.032773506
9	0xbd45675d	-0.048194278
10	0x3c222d00	0.009898424
11	0xbcca1264	-0.024666972
12	0xbbc7dba8	-0.006099183
13	0x3d266f68	0.04063359
14	0x3d2abaee	0.041682176
15	0xbd135ca2	-0.035977013
16	0x3d963d0f	0.07335865
17	0x3d995b0d	0.0748807
18	0xbbaf418c	-0.00534839
19	0xbd7cd8f4	-0.06173034
20	0xbd562502	-0.052281387
21	0x3cfca288	0.03083922
22	0xbd143c27	-0.03619018
23	0x3d32893a	0.0435879
24	0x3c4c7332	0.012478637
25	0xbd65834e	-0.056033425
26	0x3d3ae249	0.04562596
27	0x3ca51e66	0.020156097
28	0xbd373d6d	-0.044736315
29	0xbd31ca1d	-0.04340564
30	0x3c8b2f65	0.016990373
31	0x3cb5e567	0.022204114
32	0xba13aa14	-0.00056329486
33	0xbd8ae65e	-0.0678222
34	0xbd04be33	-0.03240795
35	0xbd4bada8	-0.04972616
36	0x3d90b331	0.07065428
37	0xbc885446	-0.016641747
38	0xba91d19a	-0.0011125088
39	0xbc0bc0a2	-0.008529814
40	0xbcbdd7e1	-0.023174228
41	0x3d3ab2a8	0.045580536
42	0x3d89323b	0.06699034
43	0xbd37f896	-0.044914804
44	0xbc7023c8	-0.014656968
45	0x3d00cae8	0.031443506
46	0x3aab23a7	0.001305689
47	0xbd0bba47	-0.034113195
48	0x3c042ec8	0.008067794
49	0xbd2126ae	-0.03934353
50	0x3cf425c7	0.02980317
51	0xbd98c423	-0.07459285
52	0xbd089d47	-0.033353116
53	0x3c8a20f4	0.016861416
54	0x3d0a6d27	0.033795502
55	0xbbf26718	-0.0073975436
56	0x3cdbbb0c	0.02682259
57	0xbba4c454	-0.005028287
58	0x3d3f9219	0.04677019
59	0x3d1efd60	0.038815856
60	0x3d97d9e1	0.07414604
61	0xbc3123f5	-0.0108117955
62	0xbcdb4c78	-0.026769862
63	0xbd2246d7	-0.03961834
64	0xbc83572e	-0.016032781
65	0x3bba0647	0.005677018
66	0xbc2ece79	-0.010669344
67	0x3d0e6635	0.03476544
68	0xbd904fee	-0.070464954
69	0x3d10b7b0	0.035331428
70	0x3c1bbbe7	0.009505249
71	0x3ab6acbe	0.0013936979
72	0x3d48252f	0.048863586
73	0x3d288b32	0.041148372
74	0x3c5b945d	0.013402072
75	0x3d86bbf3	0.06578817
76	0x3b65057a	0.0034945891
77	0x3d16fefe	0.036864273
78	0xbc820ee8	-0.015876248
79	0x3cea3e21	0.028594078
80	0xbd748d06	-0.059704803
81	0xbd39c93d	-0.04535793
82	0xbcf9310a	-0.030418891
83	0xbd2ce199	-0.042207334
84	0xbc2bfaa5	-0.01049677
85	0x3c6d9cc7	0.014502711
86	0x3d1c36d1	0.038138214
87	0x3c97830e	0.018495109
88	0x3d8357e4	0.06413248
89	0x3d1d99d2	0.038476773
90	0xbc1fed8f	-0.009761228
91	0xbd7b144e	-0.06129866
92	0xbcf6d66e	-0.030131545
93	0x3d36a74a	0.044593133
94	0x3d38249a	0.04495678
95	0x3bebb2fe	0.0071929684
96	0xbd8f481c	-0.06996176
97	0x3c4127c3	0.011789265
98	0x3ceec792	0.029147897
99	0xbd42f027	-0.04759231
100	0xbd55a473	-0.052158784
101	0xbcc3a996	-0.023884576
102	0xbd690256	-0.056886993
103	0x3c20793a	0.009794528
104	0x3d3909d5	0.045175392
105	0xbd978275	-0.073979296
106	0x3b1b912f	0.002373766
107	0x3bbef41b	0.0058274395
108	0x3c5930c5	0.0132562565
109	0xbd7ef622	-0.06224645
110	0x3c88db37	0.016706092
111	0xbd22f89e	-0.03978788
112	0xbd82e881	-0.06392003
113	0x3d880296	0.06641118
114	0xbcde5301	-0.027139189
115	0xbd1fde87	-0.039030578
116	0xbd7e67cc	-0.062110707
117	0x3c9cf1cf	0.019158272
118	0xbd77ef13	-0.060530733
119	0x3d41f8e1	0.04735649
120	0x3ba309a3	0.004975514
121	0xb9f3f9b4	-0.00046534615
122	0xbc2934e0	-0.010327548
123	0x3bd1a46f	0.006397776
124	0xbd194720	-0.037421346
125	0x3d4b1cc8	0.049587995
126	0xbd812346	-0.06305556
127	0x3d85c0d0	0.06530917
128	0xbbd40bb9	-0.006471124
129	0x3ca10020	0.01965338
130	0xbd67f05c	-0.05662571
131	0x3ce084bd	0.027407045
132	0xbcf31db7	-0.029677255
133	0xbb44ac60	-0.003000997
134	0x3d068015	0.032836992
135	0xbc06294c	-0.008188557
136	0xbd776a6a	-0.06040422
137	0x3c1c07b2	0.009523319
138	0xbd0b638f	-0.034030493
139	0x3c6864e0	0.014184207
140	0x3cfd57c8	0.030925646
141	0x3d94e97c	0.07271096
142	0x3cd811d1	0.026375683
143	0xbbffc356	-0.0078052683
144	0xbd61a275	-0.05508657
145	0x3d8b38c2	0.06797935
146	0x3d25c7c1	0.040473703
147	0x3d8f4841	0.06996203
148	0xbc69243e	-0.014229832
149	0xbb17c657	-0.0023158991
150	0xbd28a03e	-0.041168444
151	0x3d2d86cb	0.042364877
152	0xbc881e0d	-0.016615892
153	0xbd814a1f	-0.063129656
154	0x3d937c20	0.07201409
155	0x3d534191	0.0515762
156	0x3d55613d	0.052094687
157	0x3d25e572	0.04050202
158	0xbcb06a54	-0.021535076
159	0x3c9db218	0.01924996
160	0x3d52702c	0.051376507
161	0xbd9ef94d	-0.07762394
162	0xbd0b5018	-0.03401193
163	0x3bcda156	0.0062753363
164	0x3d91a9c6	0.0711246
165	0x3c28954d	0.010289502
166	0xbd719734	-0.05898209
167	0xbd5b5993	-0.05355222
168	0x3c605e42	0.013694348
169	0x3d80a894	0.06282154
170	0x3cede152	0.029038105
171	0x3d954ba5	0.07289819
172	0x3c2b1e23	0.010444197
173	0x3c56a42f	0.013100668
174	0xbc79ad85	-0.015239124
175	0x3d4dd54b	0.05025224
176	0xbc868b3a	-0.01642381
177	0x3d8d1e0d	0.06890497
178	0x3d30a355	0.043124516
179	0xbc9123fa	-0.01771735
180	0x3ce604c9	0.028078454
181	0x3bb24722	0.0054406086
182	0x3ca5f00b	0.020256063
183	0xbae32db7	-0.001733235
184	0xbd72a706	-0.059241317
185	0xbd85393b	-0.065050565
186	0x3d2c5474	0.04207273
187	0x3d7237a6	0.0591351
188	0xbcb89cf0	-0.022535771
189	0x3d3f1277	0.04664847
190	0xbc4b1fae	-0.01239769
191	0xbd347e72	-0.0440659
192	0xbc279c46	-0.01023013
193	0x3d7c39ec	0.061578676
194	0xbd145449	-0.036213193
195	0x3d8697a5	0.06571893
196	0xbbbbfb53	-0.0057367473
197	0xbc82911d	-0.015938336
198	0x3d194e3c	0.037428126
199	0x3ce2a4ec	0.027666532
200	0xbd13b2ba	-0.03605912
201	0xbc65be65	-0.014022444
202	0x3ce8df66	0.028426837
203	0x3cbb9469	0.022897916
204	0x3d92af8e	0.07162391
205	0x3d815bcf	0.06316339
206	0x3d689636	0.056783877
207	0xbd4afaaf	-0.049555477
208	0xbd1958e1	-0.037438277
209	0x3b259f8f	0.0025272106
210	0x3da4f298	0.080540836
211	0xbd45b743	-0.048270475
212	0xbd574e58	-0.05256495
213	0xbd5ee363	-0.05441607
214	0x3cde1a5b	0.027112177
215	0x3cdd9e2b	0.02705296
216	0x3ccb3eca	0.024810214
217	0x3d18d23a	0.037309863
218	0xbbbf4017	-0.0058364975
219	0x3caea593	0.021319186
220	0xbcf2a636	-0.029620271
221	0x3da3e9a8	0.08003551
222	0xbd34687d	-0.04404496
223	0xbd564885	-0.052315254
224	0xbd41d528	-0.047322422
225	0xbd7a8490	-0.061161578
226	0xbcc73e82	-0.024321798
227	0x3c1730ff	0.00922799
228	0x3cdb403a	0.026764024
229	0xbd00e9b9	-0.031472895
230	0xbd791a3e	-0.060816042
231	0xbca166e5	-0.019702384
232	0x3c2f992a	0.0107176695
233	0x3a0f2f36	0.0005462052
234	0xbd261fa3	-0.040557515
235	0xbd04ea23	-0.032449853
236	0x3cdb2ed4	0.026755728
237	0xbbb2f250	-0.005461015
238	0x3d256d01	0.040387157
239	0xbcdf897a	-0.027287234
240	0x3cba8ca3	0.022772139
241	0xbd2296ff	-0.039694782
242	0xbd1728db	-0.036904197
243	0x3d3bd6c7	0.045859125
244	0xbd6c6b58	-0.05771956
245	0x3d20bcf2	0.039242692
246	0xbd84a04a	-0.06475885
247	0x3c3c4cf7	0.011492959
248	0x3c3e470c	0.011613619
249	0x3d60af3b	0.054854613
250	0xbd5e1ddf	-0.054227706
251	0xbc4e2e45	-0.012584274
252	0x3d879d10	0.06621754
253	0xbd180898	-0.03711757
254	0x3d77af6e	0.060470037
255	0xbd4c664f	-0.049902257
