inference/models_topo/gnn_layer_2.pt (torch, 319203 bytes, 9 tensors)

weight f4 [128, 128]
0	0xbc616feb	-0.0137595935
1	0x3d8b1766	0.06791572
2	0x3d89456b	0.067026936
3	0xbc9fbf14	-0.019500293
4	0xbd31f702	-0.043448456
5	0xbd1b56e3	-0.03792466
6	0xbd6b8fd6	-0.05751022
7	0x3d359d2a	0.044339336
8	0xbd175295	-0.03694399
9	0xbda16ecf	-0.07882463
10	0x3c7318a4	0.014837418
11	0x3cff364b	0.031153819
12	0x3dad6277	0.08466046
13	0xbd861faa	-0.06549008
14	0xbd2e989b	-0.042626005
15	0xbd768b64	-0.060191527
16	0xbd53ff98	-0.051757425
17	0xbd3b5dc5	-0.045743722
18	0xbd8bb152	-0.068209305
19	0x3ba3cb71	0.0049986173
20	0x3d55dd06	0.052212738
21	0x3d26264d	0.04056387
22	0xbda30cfa	-0.079614595
23	0x3d4613df	0.048358794
24	0x3dc00234	0.0937542
25	0x3d77f9e3	0.060541045
26	0xbd3d56d9	-0.046225403
27	0x3da48a8b	0.080342375
28	0x3d137064	0.035995856
29	0xbda358b1	-0.07975901
30	0xbd35799c	-0.04430543
31	0xbc3b36c1	-0.011426629
32	0x3d033fc0	0.03204322
33	0x3c407f4e	0.011749102
34	0x3c3a4be4	0.011370633
35	0xbd764391	-0.06012303
36	0x3d84ddaf	0.06487595
37	0xbdad0308	-0.08447844
38	0xbd8c9b83	-0.06865599
39	0xbd89adc1	-0.06722594
40	0x3d2e8d0d	0.042614985
41	0xbcc31787	-0.02381493
42	0xbd8ef521	-0.069803484
43	0x3c0f223e	0.008736191
44	0x3d4da54d	0.05020647
45	0xbd9e81fd	-0.07739637
46	0xbc80ef83	-0.015739208
47	0xbdb84b35	-0.089987196
48	0x3da71a6d	0.08159337
49	0xbd8b312c	-0.06796488
50	0x3c3db0c0	0.011577785
51	0x3d231b40	0.03982091
52	0x3d69657c	0.05698155
53	0x3d5af82d	0.053459335
54	0x3d85d922	0.065355554
55	0x3d4ea3d8	0.050449222
56	0x3d6a7d63	0.057248484
57	0x3d69c99b	0.05707703
58	0x3dafe241	0.085880764
59	0x3da18f5c	0.07888672
60	0x3d37d60c	0.044881865
61	0xbd2a58f9	-0.041588757
62	0x3bdf57a0	0.0068158656
63	0x3d9ebb36	0.077505514
64	0x3d8d2c27	0.06893187
65	0xbd8bff32	-0.06835784
66	0x3cf75c13	0.030195272
67	0xbd6a1926	-0.05715289
68	0xbd895e7b	-0.06707474
69	0x3cba52f4	0.022744633
70	0x3d8e9c54	0.06963411
71	0xbbb02f97	-0.005376767
72	0xbd20f91c	-0.03930007
73	0x3d43f066	0.047836684
74	0x3c47e8e2	0.01220152
75	0x3d17b9b7	0.037042346
76	0x3d1c281b	0.038124185
77	0xbda232f5	-0.079198755
78	0x3abda432	0.001446849
79	0x3d84ef56	0.06490962
80	0xbd50d011	-0.050979678
81	0x3c98edc6	0.018668067
82	0x3ce4ac6f	0.027914254
83	0x3da1bcd6	0.07897346
84	0x3d21006f	0.039307054
85	0x3ccf90ec	0.025337659
86	0xbd758e4b	-0.059950154
87	0x3d754329	0.059878502
88	0xbcd80aa0	-0.026372254
89	0x3d213a11	0.039362017
90	0x3cedb956	0.02901904
91	0xbd216565	-0.039403338
92	0xbd12ba15	-0.035821993
93	0xbd8ae6dc	-0.06782314
94	0xbd6d47cc	-0.0579298
95	0xbc2ecba9	-0.010668674
96	0xbda4ac21	-0.080406435
97	0xbd2680a9	-0.040650044
98	0xbc00aae7	-0.007853246
99	0xbd0cb50d	-0.03435235
100	0x3c940b60	0.01807183
101	0xbd9a1e86	-0.07525353
102	0x3d7b2c4b	0.061321538
103	0x3d82a2ce	0.06378709
104	0xbd1b177c	-0.037864193
105	0x3da7bf66	0.08190803
106	0xbdb74a0d	-0.08949671
107	0x3d540228	0.05175987
108	0xbca67039	-0.020317184
109	0xbd1830c3	-0.037155878
110	0xbd93e5ee	-0.0722159
111	0x3cf6d887	0.030132545
112	0xbce14a36	-0.027501207
113	0x3d09dfc5	0.03366067
114	0x3da4114c	0.080111116
115	0x3d9d0253	0.07666459
116	0x3d48fd70	0.04906982
117	0x3d2a28c4	0.041542783
118	0x3d626af8	0.055277795
119	0x3d8dab6a	0.0691746
120	0x3c9c2ffa	0.019065846
121	0xbd864ca4	-0.06557587
122	0xbc17df73	-0.009269583
123	0xbd562660	-0.05228269
124	0xbbd6013c	-0.006530909
125	0xbd6b471b	-0.05744086
126	0xbdafff44	-0.0859361
127	0x3cd6c9e7	0.026219321
128	0x3de6d510	0.11271107
129	0xbd2e7a0a	-0.042596854
130	0xbcfa33fc	-0.030542366
131	0xbce2ad70	-0.027670592
132	0xbd90100a	-0.07034309
133	0xbc5da744	-0.013528649
134	0x3d628585	0.055303115
135	0x3cb71d8e	0.02235296
136	0x3ce078ac	0.02740129
137	0xbd9eb5ce	-0.0774952
138	0x3da62012	0.08111586
139	0x3c329e44	0.010901991
140	0xbd89a3e7	-0.06720715
141	0xbd04e33c	-0.03244327
142	0xbd88638e	-0.066596135
143	0x3d195cb9	0.037441943
144	0x3d3496ce	0.04408913
145	0x3d9cbf0c	0.07653627
146	0x3d105784	0.03523971
147	0xbdaa02ca	-0.08301313
148	0x3d15ae9c	0.036543474
149	0xbda6879d	-0.08131335
150	0xbcbfd616	-0.023417514
151	0xbd8d3a3d	-0.06895874
152	0x3d55aad6	0.052164875
153	0xbd28c3ce	-0.04120236
154	0xbdb12e1b	-0.08651372
155	0x3c18174d	0.009282899
156	0xbbd42bcf	-0.006474949
157	0xbd2af5a9	-0.041738186
158	0xbd697033	-0.056991767
159	0xbcc2a8dc	-0.023762159
160	0xbcb45ec2	-0.02201784
161	0xbd8e7f80	-0.069579124
162	0xbd8f4e2b	-0.06997331
163	0xbd87ae2b	-0.06625017
164	0xbd1625fd	-0.036657322
165	0xbc8ca7a7	-0.017169787
166	0x3d9fe202	0.078067794
167	0x3d6daad2	0.058024235
168	0x3c3dd5ab	0.011586587
169	0x3d9c3347	0.07626968
170	0x3d708d26	0.05872836
171	0x3d52968c	0.051413104
172	0x3a6df912	0.0009077947
173	0x3d17576c	0.036948606
174	0x3db98f02	0.0906048
175	0x3d198283	0.03747798
176	0x3d6ae92a	0.05735127
177	0xbc261e8c	-0.010139119
178	0x3d7834ee	0.060597353
179	0x3c7c8b1b	0.015414025
180	0x3d9f1cec	0.07769188
181	0x3d921c8d	0.07134352
182	0xbb8225a5	-0.0039717727
183	0x3d56e1b1	0.05246133
184	0x3d994ae9	0.07484991
185	0x3d31a06c	0.04336588
186	0xbc8bbcfa	-0.017057884
187	0xbd532953	-0.05155308
188	0xbd1be099	-0.03805599
189	0x3d7cf07d	0.061752785
190	0x3ca70b4c	0.020391129
191	0x3d70960d	0.05873685
192	0x3da8ad7e	0.08236216
193	0xbcd324a9	-0.025774317
194	0x3d46bcf2	0.048520036
195	0xbd757a91	-0.05993134
196	0x3d2347c8	0.039863378
197	0x3c028e01	0.007968427
198	0x3c56c297	0.013107917
199	0x3c75b312	0.014996307
200	0xbdb0d7a2	-0.08634879
201	0xbbaa154e	-0.005190528
202	0x3d6e11a5	0.058122296
203	0xbd05e9cb	-0.032693665
204	0x3d4af508	0.049550086
205	0x3cd195f7	0.025584204
206	0x3cfa0173	0.03051827
207	0x3d8d19fb	0.06889721
208	0x3ba4df66	0.005031514
209	0x3d3d4ec5	0.0462177
210	0xbdb98bd0	-0.0905987
211	0xbb5c14c9	-0.0033581725
212	0xbdaca22d	-0.0842937
213	0x3dad6035	0.08465616
214	0xbce14dfd	-0.027503008
215	0xbda8c6fd	-0.08241079
216	0x3d15c7c9	0.036567483
217	0xbda9b261	-0.08285976
218	0x3d8ec426	0.06971006
219	0xbd8176a3	-0.06321456
220	0x3cf73ebe	0.030181285
221	0xbdb7be25	-0.08971814
222	0xbd4cd806	-0.050010704
223	0x3c6bdfda	0.014396632
224	0xbd4850b6	-0.048905097
225	0x3d80491c	0.062639445
226	0x3b3dbf0c	0.0028952984
227	0x3da3867d	0.07984636
228	0xbcdec65d	-0.027194196
229	0xbda73d81	-0.08166028
230	0xbd7148e5	-0.05890741
231	0x3d11647d	0.035496224
232	0x3d3601eb	0.044435423
233	0x3d86ab4c	0.06575641
234	0xbdae2694	-0.08503452
235	0xbc920fee	-0.017829861
236	0x3dae3300	0.08505821
237	0x3d537e01	0.05163384
238	0x3d1d154c	0.03835039
239	0x3d82c23c	0.063847035
240	0x3d2228a5	0.039589543
241	0xbd95c637	-0.07313197
242	0xbd40b9cf	-0.0470522
243	0xbcf0c912	-0.029392753
244	0xbd08b8a2	-0.033379205
245	0x3d759e86	0.059965633
246	0x3c6c25c4	0.014413301
247	0xbcce6a1b	-0.02519708
248	0xbb9b3d08	-0.0047375
249	0xbd843357	-0.06455105
250	0x3c1f992e	0.009741111
251	0xbd19bf9a	-0.03753624
252	0xbbe6c653	-0.007042685
253	0x3c371d27	0.011176384
254	0xbc0e93d9	-0.008702242
255	0x3d9d512d	0.07681499

bias f4 [128]
0	0x3d4977f9	0.04918668
1	0xbcb6487d	-0.022251362
2	0xbda5a002	-0.0808716
3	0xbd83353f	-0.0640664
4	0x3da8b958	0.082384765
5	0x3da9b23f	0.08285951
6	0xbdaccde9	-0.08437712
7	0x3bebaf2a	0.007192512
8	0xbd77113c	-0.06031917
9	0x3da6f2cb	0.08151778
10	0xbd266427	-0.040622856
11	0xbd4e4296	-0.05035647
12	0x3d5b78d0	0.053582013
13	0xbd27fbfe	-0.041011803
14	0xbd00acee	-0.03141492
15	0x3cef674b	0.029224059
16	0xbbc6127b	-0.0060446835
17	0xbb949942	-0.0045348713
18	0x3d9838ae	0.07432686
19	0x3d9e362c	0.07725176
20	0x3d38e528	0.045140415
21	0x3c81832b	0.015809616
22	0xbc6cded7	-0.014457426
23	0xbd87c5c1	-0.066295154
24	0x3d1e65f2	0.03867144
25	0xbd4e6d60	-0.050397277
26	0xbb1c275d	-0.0023827173
27	0x3d9170bc	0.071015805
28	0xbd9d16e7	-0.07670384
29	0x3d7edd55	0.062222797
30	0xbc937181	-0.017998459
31	0x3da98a7e	0.082783684
32	0xbd2609df	-0.040536758
33	0xbd38d7cb	-0.04512767
34	0x3d809be7	0.06279736
35	0x3d9a757e	0.07541941
36	0xbd556ff6	-0.052108727
37	0xbd745f3b	-0.05966113
38	0xbcb13be6	-0.021635007
39	0x3ce94e25	0.028479645
40	0xbd0da008	-0.034576446
41	0xbda8ca3a	-0.08241697
42	0x3b34e907	0.0027604715
43	0xbda4a623	-0.080395006
44	0xbd858c4d	-0.06520901
45	0xbd9237eb	-0.07139572
46	0x3b608887	0.0034261064
47	0xbc8774f7	-0.016535265
48	0x3d6563de	0.056003444
49	0x3c99b739	0.018764125
50	0x3cdabc9d	0.026701266
51	0x3c9d595c	0.019207649
52	0x3cccc074	0.024994113
53	0x3d6534b2	0.055958457
54	0x3cecb958	0.028896973
55	0x3c44daf0	0.012015089
56	0xbcc6cae2	-0.024266664
57	0xba87a637	-0.0010349219
58	0xbc8cdf6b	-0.017196378
59	0xbcc08f7b	-0.023505917
60	0xbd9017df	-0.07035803
61	0xbdb59ec7	-0.08868175
62	0x3cdbb17f	0.026818035
63	0xbd438f2e	-0.04774397
64	0xbd4d480f	-0.05011755
65	0xbd1bc151	-0.038026158
66	0x3c5c2802	0.013437273
67	0x3c834f6c	0.016029082
68	0x3cc22e8f	0.023703841
69	0x3cf69e44	0.030104764
70	0x3c4dd9d5	0.012564142
71	0x3c8023d0	0.015642077
72	0x3da8bcb5	0.08239118
73	0x3da4a2ae	0.08038841
74	0xbdb25170	-0.08706939
75	0x3d80f730	0.06297147
76	0xbd014e73	-0.031568956
77	0xbd9c8b6c	-0.0764378
78	0xbd0ff67f	-0.035147186
79	0x3d8f3b1e	0.069936976
80	0x3d3c9c27	0.046047356
81	0x3cc0353c	0.023462884
82	0x3d2b0418	0.04175195
83	0x3cc7eebd	0.024405831
84	0xbda512f2	-0.08060254
85	0x3bb16b63	0.005414413
86	0xbcc42b52	-0.023946438
87	0xbcf92a80	-0.030415773
88	0xbb99d543	-0.004694612
89	0x3a73727e	0.0009286775
90	0xbce1b6ab	-0.027552923
91	0xbcc4cad6	-0.024022501
92	0xbd910d2c	-0.070825905
93	0xbb4e0120	-0.0031433776
94	0xbd583718	-0.052786916
95	0x3ce14679	0.027499424
96	0x3d0014ec	0.031269953
97	0x3d41cc8f	0.047314223
98	0x3c653725	0.013990198
99	0xbc114f51	-0.008869008
100	0xbd90cb84	-0.070700675
101	0xbb79b2a5	-0.0038100865
102	0x3d7d7f3e	0.061888926
103	0x3d8a33ab	0.06748136
104	0x3c4deaef	0.01256822
105	0x3cef93e3	0.029245323
106	0xbd8236e9	-0.063581295
107	0x3beb4951	0.007180371
108	0x3d7f8052	0.062378235
109	0x3a27ba53	0.0006398309
110	0xbc914302	-0.017732147
111	0x3c5d8086	0.013519412
112	0xbda95873	-0.082688235
113	0x3c977a1c	0.018490843
114	0xbd351ee9	-0.04421893
115	0xbdb3c2f2	-0.08777417
116	0x3d91bdaf	0.071162574
117	0xbd8ea81a	-0.069656566
118	0xbd6dbaeb	-0.058039587
119	0xbdb42fb0	-0.08798158
120	0xbd19db89	-0.03756288
121	0x3d7fb079	0.062424157
122	0x3cebf15f	0.028801618
123	0x3d3dfeaa	0.046385445
124	0xbc5135cb	-0.012769173
125	0x3d2501c2	0.04028488
126	0xbd2cd9f6	-0.04220005
127	0xbc8f68a7	-0.017505957

weight f4 [128, 128]
0	0xbdb5ac25	-0.088707246
1	0xbd0d00db	-0.034424644
2	0x3d9dc59f	0.07703709
3	0x3cc21a5f	0.023694215
4	0x3d76c00e	0.06024175
5	0x3cb64b5b	0.02225273
6	0xbd8f8e6b	-0.07009586
7	0xbd33ed02	-0.0439272
8	0xbd4bebca	-0.049785413
9	0x3d94542d	0.07242618
10	0x3d2d7fa6	0.042358063
11	0x3d7ba7a0	0.061439157
12	0x3c4a7275	0.01235639
13	0xbab2133b	-0.0013586053
14	0x3c8ef0df	0.01744884
15	0xbd9f8cb0	-0.07790506
16	0xbce65ced	-0.028120482
17	0xbd0ca799	-0.03433952
18	0xbc5cd9db	-0.013479675
19	0xbdae7c47	-0.08519798
20	0xbc914bbd	-0.01773631
21	0x3cab6ba4	0.02092535
22	0x3c30c784	0.010789756
23	0xbd35f9eb	-0.044427793
24	0x3d9d3337	0.07675784
25	0x3c26cfd8	0.01018139
26	0xbb093e90	-0.0020941831
27	0x3da98249	0.08276803
28	0xbd278d29	-0.040906105
29	0xbda8c5ba	-0.08240838
30	0xbd67b5d0	-0.056569874
31	0x3c9b1f7a	0.018935908
32	0x3daa34a0	0.08310819
33	0x3b9fb1ae	0.004873476
34	0x3d39b0ad	0.045334507
35	0x3d1c35f2	0.038137384
36	0x3d84f09e	0.064912066
37	0x3c93aa03	0.018025404
38	0xbcb4ebe7	-0.022085143
39	0x3d321e1b	0.043485742
40	0x3d3179af	0.043328937
41	0xbd3f4d46	-0.046704553
42	0xbd780bd4	-0.060558155
43	0x3d1a3239	0.037645552
44	0xbd98707c	-0.0744333
45	0xbda23e5c	-0.0792205
46	0xbb874cf0	-0.0041290447
47	0x3da8c3c2	0.08240463
48	0x3d35f31d	0.044421304
49	0xbd600674	-0.054693654
50	0xbc90deab	-0.017684301
51	0x3d499c46	0.0492213
52	0x3cc262ba	0.023728717
53	0x3d5d6cbf	0.054058786
54	0xbd88369d	-0.06651042
55	0x3d8ee532	0.06977309
56	0x3d83c7f3	0.06434622
57	0xbca1e273	-0.0197613
58	0xbd8edd71	-0.0697583
59	0x3d6183a7	0.055057194
60	0x3d7ee796	0.062232576
61	0xbc928563	-0.01788587
62	0x3d34c52f	0.04413336
63	0xbd1dd6cc	-0.038534924
64	0xbba06ebd	-0.0048960135
65	0x3bb8a312	0.005634674
66	0xbdab4afc	-0.083639115
67	0xbd0a912b	-0.03382985
68	0x3d791d31	0.060818855
69	0x3d42293e	0.047402613
70	0xbc910295	-0.017701427
71	0xbd2eda53	-0.04268868
72	0x3ce74cfc	0.028234951
73	0xbc65f8da	-0.014036382
74	0xbd9e3204	-0.077243835
75	0xbd3df16b	-0.046372812
76	0x3d43764f	0.04772025
77	0xbd73b385	-0.059497375
78	0x3d5479a7	0.05187383
79	0xbd6c29b0	-0.057656944
80	0xbd0123de	-0.031528346
81	0xbb7437e9	-0.003726477
82	0xbd3225e4	-0.043493167
83	0x3d8563dc	0.06513187
84	0x3d9b04b7	0.07569259
85	0x3d1b2963	0.037881266
86	0xbc0b595c	-0.008505192
87	0xbd48dd49	-0.04903916
88	0xbcf7c440	-0.030244946
89	0x3d754edc	0.05988966
90	0xbd308905	-0.043099422
91	0xbdaff642	-0.08591892
92	0xbc89e9e6	-0.016835164
93	0xbd906c1b	-0.070518695
94	0x3c3225dd	0.010873285
95	0x3d982149	0.07428224
96	0xbd2501fb	-0.04028509
97	0xbd9fb552	-0.07798256
98	0xbcf791c6	-0.030220877
99	0xbd281d8b	-0.0410438
100	0xbcafd55f	-0.021464048
101	0xbca45d37	-0.02006398
102	0xbcc4e299	-0.024033831
103	0x3b98bfdf	0.0046615447
104	0x3d55300e	0.05204778
105	0x3ba3b67f	0.0049961205
106	0xbd8294fb	-0.06376072
107	0xbbe0255d	-0.0068403916
108	0x3bc43e65	0.0059888833
109	0x3d065c37	0.032802787
110	0x3c694de7	0.014239765
111	0xbd3eb30b	-0.046557467
112	0xbd923468	-0.07138902
113	0x3d46b03a	0.048507906
114	0xbd8fc7d4	-0.07020536
115	0x3d3b0f2f	0.045668777
116	0xbcccf25d	-0.025017912
117	0xbd59b585	-0.053151626
118	0x3d4c5a61	0.04989088
119	0xbc560fd4	-0.013065297
120	0xbb8c6cec	-0.0042854454
121	0xbd1a9779	-0.03774211
122	0x3d8c9b54	0.06865564
123	0x3d841c2b	0.06450685
124	0xbca87472	-0.020563338
125	0xbbbca8f6	-0.0057574464
126	0x3d8154c0	0.06314993
127	0xbda10bcb	-0.078635775
128	0x3cfe6d7e	0.03105807
129	0x3c5a8954	0.013338406
130	0xbd85a342	-0.065252796
131	0xbd8d8e42	-0.06911899
132	0xbd2c8d55	-0.042126972
133	0xbd32d9d4	-0.04366477
134	0x3cc1b8ed	0.02364775
135	0xbd860d7c	-0.06545541
136	0x3ad39406	0.0016142137
137	0xbca44565	-0.020052621
138	0x3c85f3e2	0.016351644
139	0xbd3fcb1f	-0.04682457
140	0xbca648eb	-0.020298442
141	0x3d90ed09	0.07076461
142	0x3c837e5b	0.016051462
143	0xbd33e420	-0.04391873
144	0xbdaaf63a	-0.08347745
145	0x3db0e267	0.08636933
146	0x3b6ca081	0.003610641
147	0xbd656d38	-0.056012362
148	0x3d164cf8	0.036694497
149	0xbc9fe554	-0.019518532
150	0xbcc31c34	-0.02381716
151	0xbd0d0962	-0.034432776
152	0xbd92026f	-0.071293704
153	0x3d73829f	0.05945074
154	0x3c63fedb	0.013915743
155	0x3cb0f28b	0.021600028
156	0xbc587c5b	-0.013213242
157	0x3c2bf31d	0.010494974
158	0xbd0f23a6	-0.034946106
159	0xbda0b8f1	-0.07847775
160	0x3d65e2b4	0.056124404
161	0x3bc71b39	0.0060762432
162	0xbd1ea7d2	-0.038734265
163	0x3d938073	0.07202234
164	0xbd87011e	-0.0659201
165	0x3d6ea258	0.05826029
166	0x3cb72518	0.022356555
167	0xbb4031df	-0.00293266
168	0xbda50ecd	-0.08059464
169	0x3ce2f4f1	0.027704688
170	0xbcf7dc40	-0.03025639
171	0x3bfae261	0.007656381
172	0xbdb04be3	-0.08608224
173	0xbd92c3c2	-0.07166244
174	0xbd74871f	-0.059699174
175	0xbd2967df	-0.041358825
176	0x3d9045e6	0.07044582
177	0x3da4b781	0.08042813
178	0x3d6410d2	0.055680104
179	0x3d9fd20a	0.07803734
180	0x3d755676	0.05989691
181	0xbd8d0bba	-0.06887002
182	0xbccf97f9	-0.02534102
183	0xbd9e83fa	-0.07740016
184	0xbd8ce30a	-0.06879242
185	0x3c109b5c	0.008826103
186	0xbcf8485e	-0.030307945
187	0x3d813122	0.063081995
188	0xbd354ad0	-0.0442608
189	0x3da12b90	0.07869637
190	0x3caa8777	0.020816548
191	0xbc11341e	-0.008862523
192	0x3c671ff2	0.014106737
193	0x3ce1dcdc	0.027571134
194	0xbda424c5	-0.08014826
195	0x3da22a53	0.07918229
196	0x3d508264	0.0509056
197	0xbad02212	-0.0015879294
198	0xbd2605ec	-0.04053299
199	0x3cbdc317	0.023164315
200	0xbdadb904	-0.084825546
201	0xbd4858af	-0.0489127
202	0x3d41f0bf	0.047348734
203	0x3d262d6d	0.040570665
204	0x3ce2183b	0.027599445
205	0x3bcec256	0.0063097877
206	0xbd922a55	-0.071369804
207	0xbd291601	-0.04128075
208	0x3c814ae7	0.015782787
209	0x3ca0ef58	0.019645378
210	0x3b452150	0.003007967
211	0xbda1ac45	-0.07894186
212	0x3d6ae2fe	0.057345383
213	0x3dc65008	0.096832335
214	0x3c79cec2	0.015247049
215	0xbd819795	-0.0632774
216	0xbc5582e9	-0.0130317
217	0x3c73f3a1	0.014889629
218	0x3cdff562	0.027338687
219	0xbda5fff5	-0.081054606
220	0xbd5027c1	-0.050819162
221	0xbada342a	-0.0016647626
222	0x3d7fb461	0.062427882
223	0x3c2db76e	0.010602815
224	0x3d637cf7	0.055539098
225	0x3da1ce9b	0.07900735
226	0x3d336114	0.043793753
227	0xbdbfa8d4	-0.09358373
228	0x3bfdf462	0.00775008
229	0x3d91fca3	0.07128265
230	0x3d690813	0.056892466
231	0x3d87afbd	0.06625316
232	0xbd89c6ea	-0.06727393
233	0x3dae8a08	0.08522421
234	0xbd0c0ca4	-0.034191743
235	0x3d811bf0	0.06304157
236	0xbc5d167e	-0.013494132
237	0xbd1fb259	-0.038988445
238	0x3da2ae31	0.079433806
239	0xbd143575	-0.036183793
240	0x3c0b3630	0.008496806
241	0xbd163fbe	-0.036681883
242	0x3d2e49fe	0.042551033
243	0x3d8ae17e	0.067812905
244	0x3ce217b4	0.027599193
245	0x3da716c6	0.081586406
246	0xbc8ba720	-0.017047465
247	0xbcf88d1d	-0.030340726
248	0x3d83b701	0.064313896
249	0xbd3d505b	-0.04621921
250	0xbda864f3	-0.082223795
251	0x3d0169c9	0.031595025
252	0x3dad370a	0.084577635
253	0xbc761b22	-0.015021117
254	0x3d7e0307	0.062014606
255	0x3d62bf7f	0.055358406

bias f4 [128]
0	0xbd1a1a5e	-0.037622802
1	0xbc270d44	-0.010196034
2	0x3d8da639	0.0691647
3	0xbdb750c5	-0.089509524
4	0xbd5a7e66	-0.0533432
5	0xbab1fb94	-0.0013579004
6	0xbd9e84a2	-0.077401415
7	0xbd196c10	-0.037456572
8	0x3d8f568a	0.06998928
9	0x3c2aba0e	0.010420335
10	0x3d286389	0.04111055
11	0x3d8d6b86	0.06905274
12	0xbd8691ae	-0.06570755
13	0x3cf129a2	0.029438797
14	0xbb150647	-0.0022739337
15	0xbc465037	-0.012104086
16	0xbb25f64f	-0.0025323813
17	0xbc23978e	-0.009984864
18	0x3d6fcdb0	0.05854577
19	0xbd262811	-0.040565554
20	0x3dad6177	0.084658556
21	0x3d13d59f	0.036092397
22	0x3d63c57e	0.055608265
23	0xbd75a8dd	-0.059975494
24	0xbd50f70d	-0.051016856
25	0xbc599ad3	-0.013281542
26	0x3c2ab82d	0.0104198875
27	0x3c2ee26c	0.0106741
28	0x3c4361a4	0.011925135
29	0xbce413b0	-0.027841419
30	0xbd1e448d	-0.038639594
31	0xbb96a6fb	-0.0045975423
32	0x3d856424	0.06513241
33	0x3da31770	0.07963455
34	0x3cf7baaf	0.030240385
35	0xbca24fe8	-0.019813493
36	0x3d5128b3	0.051064204
37	0x3cc1885f	0.023624597
38	0xbd351679	-0.044210885
39	0x3cd46365	0.025926301
40	0x3d0efe2e	0.034910373
41	0xbd763145	-0.06010558
42	0x3da25c93	0.079278134
43	0xbcc0b91b	-0.023525765
44	0xbcd19e99	-0.02558832
45	0x3daf4dd7	0.08559769
46	0xbb0cb229	-0.0021468496
47	0x3d930e7e	0.071804985
48	0xbd09e512	-0.033665724
49	0x3da74678	0.08167738
50	0x3d0cd250	0.034380257
51	0xbc4ee4f1	-0.012627826
52	0x3d46e9ff	0.048563
53	0xbd138104	-0.03601171
54	0xbd4e7769	-0.050406847
55	0x3d473b8d	0.048640776
56	0xbd879a53	-0.06621232
57	0xbb91fb6c	-0.0044550207
58	0x3d90298c	0.070391744
59	0x3d0aecaf	0.033917125
60	0x3da15301	0.0787716
61	0x3cb74e0a	0.02237608
62	0x3d806bbf	0.06270551
63	0x3da6586f	0.08122336
64	0x3d2734f1	0.040821973
65	0x3d4955f6	0.049154244
66	0xbdb895c5	-0.09012941
67	0x3cdb7d22	0.026793066
68	0xbc0977cf	-0.008390381
69	0x3ace40fb	0.0015735918
70	0x3d982607	0.07429128
71	0x3d8201c5	0.06347994
72	0xbc8ff9de	-0.0175752
73	0xbd45f0ec	-0.048325464
74	0xbd4cf1a0	-0.05003512
75	0xbd766ac2	-0.060160406
76	0xbcdc0592	-0.026858125
77	0xbda86855	-0.08223025
78	0x3d86e245	0.06586126
79	0x3daca87a	0.08430572
80	0x3cb6dc31	0.022321792
81	0xbd2e810a	-0.04260353
82	0xbcec6ed6	-0.028861444
83	0x3c8d71c8	0.01726617
84	0x3bdca773	0.0067338287
85	0xbbfdcd3e	-0.007745414
86	0x3d5d9692	0.054098673
87	0xbd3572d1	-0.04429895
88	0x3cbf27a7	0.023334337
89	0x3d811dd0	0.063045144
90	0xbd04ae74	-0.032392934
91	0x3dacf53a	0.08445211
92	0xbd1c709d	-0.038193334
93	0xbc979795	-0.018504897
94	0x3d7fc470	0.062443197
95	0x3cb7ddfe	0.022444721
96	0xbd780432	-0.060550876
97	0xbcdaced0	-0.026709944
98	0xbd4a3665	-0.04936828
99	0x3ceeddf6	0.029158574
100	0xbc96d790	-0.018413335
101	0x3c50b6e1	0.012738914
102	0xbcf104ba	-0.0294212
103	0x3b71d572	0.0036900905
104	0xbd5b3423	-0.05351652
105	0xbd1ed27b	-0.03877495
106	0x3da7575e	0.08170961
107	0x3cec6643	0.028857356
108	0x3d3ae2f2	0.04562659
109	0xbd3f8d50	-0.046765625
110	0x3c0e3d2b	0.008681576
111	0xbd9582cd	-0.07300339
112	0x3a60668f	0.00085602043
113	0x3c91627a	0.017747153
114	0xbd36c383	-0.04462005
115	0xbb05d54e	-0.002042133
116	0x3d03d7b4	0.032188132
117	0x3c50600a	0.01271821
118	0x3b8ba985	0.0042621517
119	0x3cd3d8e1	0.025860252
120	0x3d28a2a5	0.041170735
121	0xbcdf17da	-0.027233053
122	0xbdab5dd9	-0.083675094
123	0xbd5b6fd0	-0.05357343
124	0xbd5f405e	-0.054504745
125	0xbd95ad40	-0.073084354
126	0xbd2100b5	-0.039307315
127	0xbdabe612	-0.08393492

weight f4 [128, 128]
0	0xbc015002	-0.0078926105
1	0xbd3aad48	-0.04557541
2	0x3c93b950	0.0180327
3	0xbd973950	-0.07383978
4	0xbc807365	-0.015680024
5	0xbd2f9f9c	-0.042876825
6	0xbd8b4fc9	-0.06802327
7	0xbd2858eb	-0.041100424
8	0x3d8c1c8b	0.06841382
9	0x3d83577d	0.064131714
10	0xbd80631c	-0.062689036
11	0xbc100762	-0.008790823
12	0xbc7a0cea	-0.015261868
13	0xbb285867	-0.0025687458
14	0xbd84ab39	-0.06477971
15	0x3cf9ac49	0.03047766
16	0x3d19d470	0.03755611
17	0x3c8d806a	0.017273147
18	0x3c7fc058	0.015609823
19	0xbd9e7d29	-0.07738716
20	0xbd9269c8	-0.071490824
21	0x3dbc3262	0.09189297
22	0xbd2edbe5	-0.042690177
23	0xbc9c3705	-0.019069204
24	0x3da8be43	0.082394145
25	0xbd965a35	-0.073414244
26	0x3cd1c83d	0.025608176
27	0x3d9eb389	0.07749087
28	0x3d1a7231	0.037706558
29	0xbc02237f	-0.007943033
30	0x3d1fa757	0.038977947
31	0x3b37f83a	0.0028071539
32	0xbd98e3a3	-0.07465293
33	0xbdae3d27	-0.08507758
34	0xbd8bf4c1	-0.068337925
35	0x3c010bc3	0.007876339
36	0xbcb7776d	-0.022395814
37	0x3c97ec29	0.018545227
38	0x3d174109	0.036927257
39	0x3d8a1f1b	0.06744214
40	0x3ca34f92	0.019935403
41	0xbd5b1c79	-0.05349395
42	0xbd186349	-0.03720406
43	0xbda13fe5	-0.07873515
44	0xbd3fbd9a	-0.046811678
45	0xbbd07b86	-0.0063623814
46	0xbd63ce3d	-0.055616606
47	0x3c289757	0.0102899885
48	0xbbb08fe3	-0.0053882464
49	0x3dafdf95	0.08587567
50	0xbc611927	-0.013738907
51	0x3d8cdb50	0.06877768
52	0xbbfd2fbc	-0.0077266376
53	0xbca5ea09	-0.020253198
54	0xbdb677e4	-0.08909586
55	0xbc7ab705	-0.015302424
56	0x3d075b47	0.033046033
57	0x3c407e43	0.011748853
58	0xbda8c9fe	-0.08241652
59	0x3d8f0416	0.06983201
60	0xbdacd7ba	-0.08439584
61	0xbd6264f3	-0.055272054
62	0x3cfab2bb	0.030602803
63	0xbbd18e92	-0.0063951695
64	0xbda465ed	-0.08027253
65	0xbcbc5be3	-0.022993034
66	0xbd8f2ed0	-0.06991351
67	0xbdc9e256	-0.09857623
68	0xbd5d0d16	-0.053967558
69	0xbd33c241	-0.043886427
70	0x3d55e220	0.052217603
71	0xbd97860f	-0.073986165
72	0x3db7cdb8	0.089747846
73	0x3d25b6f3	0.040457677
74	0xbd9027e0	-0.070388556
75	0x3cf1dfdf	0.029525695
76	0xbcc5f07f	-0.024162529
77	0x3d90a4ef	0.070627086
78	0x3d038c1c	0.03211604
79	0xbdbdcc3e	-0.09267472
80	0x3d9804a0	0.07422757
81	0xbd6aa807	-0.05728915
82	0xbc99f877	-0.018795235
83	0xbd6b0805	-0.057380695
84	0xbd317792	-0.04332692
85	0x3d6b995e	0.05751931
86	0xbbae88b6	-0.005326356
87	0xbd219c0f	-0.03945547
88	0xbd8184f4	-0.06324187
89	0xbda5e4a1	-0.08100248
90	0x3d140650	0.036138833
91	0x3d3c66ec	0.04599659
92	0x3d39c643	0.045355093
93	0x3cc68558	0.024233505
94	0xbd8c42ef	-0.06848704
95	0x3cf6fbf2	0.030149434
96	0x3daf7145	0.08566526
97	0xbbcdfe8f	-0.0062864493
98	0x3d5be889	0.05368856
99	0xbd922098	-0.07135123
100	0x3b8f5861	0.0043745493
101	0x3ce230f1	0.027611228
102	0xbc06dd86	-0.008231526
103	0xbca4af7c	-0.020103209
104	0xbd88c1ca	-0.06677587
105	0x3d4cec2c	0.05002992
106	0x3c9c5632	0.01908407
107	0xbd255f55	-0.04037412
108	0xbd8b122a	-0.06790574
109	0x3d0cf0df	0.0344094
110	0xbd2ee4f0	-0.0426988
111	0x3c8e6a75	0.017384747
112	0xbcdd1cc5	-0.026991257
113	0x3d3cce94	0.046095446
114	0x3d05bb97	0.032649603
115	0xbd9c314a	-0.07626589
116	0xbd3437a5	-0.04399838
117	0x3b740dda	0.0037239701
118	0xbcec6a75	-0.028859356
119	0xbc0e5a7b	-0.008688564
120	0x3d774ee7	0.06037798
121	0xbba0a48c	-0.004902428
122	0xbcd821d6	-0.026383322
123	0x3d523451	0.051319424
124	0xbd8e19a7	-0.069384865
125	0xbdb9a2bc	-0.09064242
126	0xbae64c3a	-0.0017570325
127	0xbdaa67fc	-0.08320615
128	0xbd508814	-0.050911024
129	0x3cb4e77d	0.022083038
130	0x3d81c2f8	0.063360155
131	0xbca93116	-0.020653289
132	0x3d0526a5	0.032507557
133	0x3c7d44f6	0.015458336
134	0xbd040ee7	-0.032240774
135	0x3b8f0c6a	0.0043654935
136	0xbda86d2e	-0.082239494
137	0xbb52f54f	-0.0032189672
138	0xbd85ee41	-0.06539584
139	0xbd76191b	-0.060082536
140	0x3d1b136d	0.037860323
141	0xbd8a2baf	-0.06746613
142	0xbda6b726	-0.081404015
143	0x3d92bfc8	0.071654856
144	0xbd9ab8c6	-0.07554774
145	0xbd980a4c	-0.07423839
146	0xbd09995c	-0.03359352
147	0xbcf104cd	-0.029421235
148	0xbbf271ce	-0.0073988205
149	0xbcc273eb	-0.023736915
150	0x3d9e36b4	0.077252775
151	0x3d471912	0.048607893
152	0xbda4fbf9	-0.080558725
153	0x3d5749d7	0.052560654
154	0xbb51181d	-0.0031905242
155	0xbdbccf6f	-0.09219252
156	0xbc43f0f2	-0.011959301
157	0x3c0692e8	0.008213736
158	0x3d52fb75	0.05150934
159	0xbd8d2563	-0.068918966
160	0x3ba1bf60	0.0049361438
161	0x3d8dda61	0.06926418
162	0x3c33ea61	0.010981173
163	0x3d7ee814	0.062233046
164	0xbdba95fe	-0.0911064
165	0xbd947c71	-0.07250298
166	0xbc4b9942	-0.012426676
167	0x3d8ae9df	0.067828886
168	0xbcafe2bc	-0.02147042
169	0x3d5a0a56	0.053232513
170	0x3d14706f	0.036240038
171	0xbd04af1c	-0.03239356
172	0x3d9849c8	0.07435948
173	0x3be1f038	0.0068950914
174	0xbd03b03f	-0.032150503
175	0xbc026fa7	-0.00796119
176	0x3b4023bf	0.0029318181
177	0xbd01ac41	-0.031658415
178	0xbd4dc1ff	-0.050233837
179	0xbc60a471	-0.013711081
180	0x3d506819	0.050880525
181	0x3d87f67f	0.06638812
182	0xbcf93bfe	-0.030424114
183	0x3cc4df8e	0.02403238
184	0x3d5bcd6f	0.053662714
185	0xbd882c20	-0.06649041
186	0x3c509afc	0.012732264
187	0x3d963744	0.0733476
188	0x3c4d3ec9	0.012527176
189	0xbd8322ea	-0.06403144
190	0x3da420e3	0.08014085
191	0xbc0868d2	-0.008325772
192	0x3ba961c8	0.005169127
193	0x3d0db65c	0.03459774
194	0x3cf8cb0c	0.030370258
195	0x3d1f1e1a	0.038847066
196	0x3cd03170	0.025414199
197	0x3d932b33	0.07185974
198	0xbd4cfa35	-0.050043304
199	0x3cf5d059	0.030006574
200	0x3cf6823b	0.030091396
201	0xbc518f6a	-0.01279054
202	0xbd256efe	-0.040389054
203	0x3c902de9	0.017600017
204	0x38b14ba8	8.45411e-05
205	0xbc8129c0	-0.015766978
206	0x3d30ccf1	0.043164197
207	0xbcfdcdb3	-0.030981874
208	0xbd746ca5	-0.059673924
209	0xbcc610b7	-0.024177892
210	0xbc54c371	-0.01298605
211	0xbd34fc1a	-0.044185735
212	0x3d1e78e5	0.038689513
213	0x3ca62d57	0.020285292
214	0x3cd33931	0.025784107
215	0xbd7248be	-0.059151404
216	0xbb6e7a6a	-0.0036388882
217	0xbcf5beb7	-0.029998166
218	0xbd252137	-0.04031488
219	0xbd1e05dd	-0.03857981
220	0x3da29153	0.07937875
221	0xbd048427	-0.032352593
222	0xbdbb38ef	-0.091417186
223	0x3c1113c2	0.008854808
224	0xbcfbc36d	-0.030732835
225	0xbcd2e02e	-0.025741663
226	0x3b11ff06	0.002227725
227	0x3d2e8ae2	0.042612918
228	0x3daa7edf	0.0832498
229	0xbb3de88f	-0.0028977727
230	0xbda503d0	-0.08057368
231	0xbd45c819	-0.04828653
232	0xbd3078cd	-0.043083955
233	0xbd561b71	-0.052272264
234	0xbd622798	-0.05521354
235	0x3bcb49cd	0.006203866
236	0xbd322bc9	-0.043498788
237	0xbc079ab4	-0.00827663
238	0xbd7ae872	-0.061256833
239	0xbd6a9c33	-0.05727787
240	0xbd941a6d	-0.07231603
241	0xbcb39d6f	-0.021925656
242	0xbd42f147	-0.04759338
243	0x3d1bf8db	0.038079124
244	0xbcaf549e	-0.021402653
245	0xbc823713	-0.015895402
246	0xbdadc2de	-0.084844336
247	0x3daf94b9	0.085732885
248	0xbd157b0e	-0.036494307
249	0x3d2ca574	0.042149976
250	0xbcd66ce6	-0.026174974
251	0x3da997cb	0.08280905
252	0x3daca9af	0.08430802
253	0x3bfb982c	0.0076780524
254	0xbd701e15	-0.05862244
255	0xbd5d8eeb	-0.054091375

weight f4 [128]
0	0x3f803697	1.001666
1	0x3f7e486a	0.99329245
2	0x3f7f76a2	0.99790394
3	0x3f80fabf	1.0076522
4	0x3f804ff9	1.0024406
5	0x3f801a17	1.0007962
6	0x3f7f190e	0.99647605
7	0x3f7f83bb	0.9981038
8	0x3f7ef52a	0.9959284
9	0x3f7e8b44	0.9943125
10	0x3f7fbbbe	0.99895847
11	0x3f80faf0	1.007658
12	0x3f7e611b	0.9936692
13	0x3f805619	1.0026275
14	0x3f7e23d0	0.99273396
15	0x3f7f8d37	0.9982485
16	0x3f80295a	1.001262
17	0x3f803197	1.0015134
18	0x3f7f5d39	0.9975162
19	0x3f812659	1.0089828
20	0x3f8019a6	1.0007827
21	0x3f7fde6d	0.9994877
22	0x3f809e17	1.0048245
23	0x3f803d94	1.0018792
24	0x3f8068f6	1.0032032
25	0x3f7ff7d4	0.9998753
26	0x3f7ee874	0.99573445
27	0x3f802e0f	1.0014056
28	0x3f7c6f79	0.98607594
29	0x3f8030e6	1.0014923
30	0x3f7f1415	0.9964002
31	0x3f80195b	1.0007738
32	0x3f8080aa	1.0039265
33	0x3f7d704d	0.9899948
34	0x3f7e96ab	0.9944865
35	0x3f80ead2	1.0071661
36	0x3f7eb264	0.9949095
37	0x3f80aefe	1.0053403
38	0x3f7f6a39	0.9977146
39	0x3f813d77	1.0096883
40	0x3f7f0f4a	0.99632704
41	0x3f7ec7d9	0.99523693
42	0x3f80b021	1.005375
43	0x3f7f2f79	0.9968181
44	0x3f80b1d9	1.0054275
45	0x3f7ffdd6	0.999967
46	0x3f80c836	1.00611
47	0x3f806b86	1.0032814
48	0x3f804d04	1.0023503
49	0x3f7f2392	0.9966365
50	0x3f8016f4	1.0007005
51	0x3f7f30be	0.9968375
52	0x3f8067cc	1.0031676
53	0x3f7f16ff	0.99644464
54	0x3f80d27b	1.0064234
55	0x3f80009c	1.0000186
56	0x3f7e4acd	0.99332887
57	0x3f8044e8	1.0021029
58	0x3f7fefd6	0.99975336
59	0x3f7e979a	0.99450076
60	0x3f7fad8f	0.99874204
61	0x3f7f73e2	0.997862
62	0x3f7f2eb5	0.99680644
63	0x3f7ed954	0.99550366
64	0x3f7f6cd3	0.9977543
65	0x3f804939	1.0022346
66	0x3f805613	1.0026268
67	0x3f807b39	1.0037605
68	0x3f80200f	1.0009784
69	0x3f7ffa7c	0.99991584
70	0x3f806edb	1.003383
71	0x3f7f3a1a	0.9969803
72	0x3f812627	1.0089768
73	0x3f7e9823	0.9945089
74	0x3f7ffa9e	0.99991786
75	0x3f7ed28b	0.99540013
76	0x3f81330b	1.0093702
77	0x3f7f06a7	0.99619526
78	0x3f808b9d	1.0042607
79	0x3f80c00d	1.0058609
80	0x3f7fe371	0.99956423
81	0x3f808b12	1.0042441
82	0x3f80458b	1.0021223
83	0x3f80be01	1.0057985
84	0x3f80b4f7	1.0055226
85	0x3f8061e7	1.0029877
86	0x3f801951	1.0007726
87	0x3f80377f	1.0016936
88	0x3f80f829	1.0075732
89	0x3f7fb199	0.9988037
90	0x3f7fc086	0.9990314
91	0x3f7f770e	0.9979104
92	0x3f8085f6	1.0040882
93	0x3f7f0c19	0.99627835
94	0x3f7f08ea	0.99622977
95	0x3f814005	1.0097662
96	0x3f7fc2fc	0.999069
97	0x3f801ccd	1.0008789
98	0x3f803c31	1.0018369
99	0x3f81340a	1.0094006
100	0x3f80b772	1.0055983
101	0x3f800a33	1.0003113
102	0x3f80031d	1.000095
103	0x3f80e9ef	1.0071391
104	0x3f80330f	1.0015582
105	0x3f7e7877	0.99402565
106	0x3f8069e1	1.0032312
107	0x3f8046f9	1.0021659
108	0x3f7e34e1	0.99299437
109	0x3f809366	1.0044982
110	0x3f7db031	0.9909697
111	0x3f7d7ef5	0.99021846
112	0x3f807115	1.003451
113	0x3f7f42b8	0.9971118
114	0x3f8035fa	1.0016472
115	0x3f808175	1.0039507
116	0x3f80584b	1.0026945
117	0x3f802ff3	1.0014633
118	0x3f802bf6	1.0013416
119	0x3f8038a2	1.0017283
120	0x3f7f9c0f	0.998475
121	0x3f801020	1.0004921
122	0x3f7f7209	0.9978338
123	0x3f7f0b08	0.9962621
124	0x3f7fb9f1	0.998931
125	0x3f801fef	1.0009745
126	0x3f7fadfc	0.99874854
127	0x3f7f4940	0.99721146

bias f4 [128]
0	0xbb567a8a	-0.0032726848
1	0xb97a1adf	-0.00023851868
2	0xba06c9db	-0.0005141773
3	0xbbcad4f3	-0.0061899363
4	0x3bb02266	0.0053751944
5	0xbb5065e1	-0.0031799006
6	0xbb2e6c3a	-0.00266148
7	0x3c075e5d	0.008262244
8	0x3aec298e	0.0018017755
9	0x3b87c5f4	0.004143471
10	0xbb49c61d	-0.003078825
11	0xba9eee05	-0.0012125379
12	0x3b331cd1	0.0027330408
13	0x3b800fe9	0.0039081466
14	0x3ba6444e	0.0050740605
15	0xbb18b576	-0.0023301519
16	0x39b6ed24	0.0003489043
17	0xbbc161a6	-0.005901533
18	0xb9649a1f	-0.00021801189
19	0xbb87664a	-0.004132067
20	0x3aae0b93	0.0013278596
21	0xbb567de3	-0.0032728843
22	0x3b521261	0.0032054412
23	0xbb592bb3	-0.003313762
24	0x3b37902d	0.002800952
25	0xbb90e832	-0.004422211
26	0xbacdd8e1	-0.0015704894
27	0x3b0dfd06	0.0021665706
28	0x39a00035	0.00030517732
29	0x3b95c88f	0.0045710276
30	0x3aa32e23	0.0012449663
31	0x39cde5a4	0.00039271743
32	0xb98b726b	-0.00026597394
33	0x3b89a964	0.004201101
34	0xbba6b09c	-0.0050869714
35	0x3b8a557e	0.0042216172
36	0x3bbde15e	0.005794688
37	0xbbaaea72	-0.0052159363
38	0x3baa40c2	0.005195708
39	0x3b7559fe	0.0037437673
40	0xbbef0a7a	-0.00729495
41	0x3ae14b3d	0.001718856
42	0x3ab68ad9	0.0013926878
43	0xba1772be	-0.0005777291
44	0xbb996580	-0.004681289
45	0x3acbb7cd	0.0015542448
46	0x3b57e328	0.0032941792
47	0x3a945a73	0.001131846
48	0xbb047707	-0.0020212547
49	0x3b40c779	0.002941577
50	0xbaa262a0	-0.0012389012
51	0xbacaf862	-0.0015485401
52	0x3b5746da	0.0032848627
53	0x3b2e372e	0.0026583183
54	0xba2ea379	-0.00066619326
55	0xbb3aed3c	-0.002852275
56	0xbae2036b	-0.001724345
57	0xba72656c	-0.00092466804
58	0x3b43d157	0.0029879415
59	0xbb5c59d5	-0.003362288
60	0xbb239ef4	-0.002496657
61	0x3b4220bc	0.0029621562
62	0x3b105640	0.0022024065
63	0xbb64dca7	-0.0034921558
64	0xbb5a2296	-0.0033284775
65	0x3b6b3c31	0.0035894031
66	0xbaf7c1ff	-0.001890242
67	0x3bc29d5d	0.0059391693
68	0xba3d4910	-0.0007220665
69	0x3b1ebe90	0.002422247
70	0x3aecc74c	0.0018064766
71	0xbb1dc1b7	-0.0024071762
72	0xbb48cd21	-0.0030639844
73	0x3b98b0b8	0.0046597384
74	0x3ab5e389	0.0013877015
75	0x3b0ead7d	0.0021770888
76	0x3b1b5f7e	0.002370804
77	0xba7b23a0	-0.00095801987
78	0xba17c4d6	-0.0005789524
79	0x3b1c5b58	0.0023858156
80	0xba806dda	-0.0009798363
81	0xba557285	-0.000814237
82	0x3a8e98a3	0.001087923
83	0xbb1b0605	-0.002365471
84	0x3b34e0dc	0.0027599847
85	0x3b2cfc9e	0.0026395689
86	0x3a21b862	0.0006169138
87	0x3b1400a9	0.0022583401
88	0x3a85a5cc	0.0010196506
89	0x39cbd72c	0.00038879493
90	0x3b145f21	0.002263971
91	0x3aeca186	0.0018053509
92	0xbb83e27f	-0.004024803
93	0x3abac099	0.0014248072
94	0xba919ecf	-0.0011109951
95	0x3a80cd0b	0.0009826733
96	0xba0571df	-0.00050905155
97	0xb9d4fb3d	-0.00040622978
98	0x3b2b369f	0.0026125086
99	0x39c381bd	0.0003728996
100	0x3a9876cc	0.0011632084
101	0x3b83e98a	0.0040256428
102	0xbb34de27	-0.0027598233
103	0xba9f7372	-0.0012165143
104	0xbb0ceac6	-0.002150224
105	0xbb40b08c	-0.0029402105
106	0xbbbe44e7	-0.0058065536
107	0xbb4b8277	-0.0031053105
108	0xbb99e8d5	-0.004696945
109	0xbb8acced	-0.004235855
110	0xbc046048	-0.008079596
111	0x3b83a809	0.004017834
112	0x3a3a262b	0.00071010244
113	0xbb49fe41	-0.0030821713
114	0x3b004396	0.0019571534
115	0xb9719415	-0.00023038716
116	0x39bc8239	0.00035955178
117	0x3bb586fe	0.005539774
118	0x3b8fc119	0.0043870327
119	0xbb0d699e	-0.0021577845
120	0xbb021e98	-0.001985466
121	0xb95af41e	-0.00020881041
122	0x3b01e50c	0.001982036
123	0xbb302d93	-0.0026882633
124	0x3a032ba2	0.0005003755
125	0x3ba6ee44	0.0050943214
126	0xbae433e2	-0.0017410482
127	0x3bad76b6	0.0052936925

weight f4 [128, 128]
0	0xbd3d4eba	-0.046217658
1	0x3d11bb4d	0.035579015
2	0x3cbeb9f4	0.023282029
3	0xbb8cfce1	-0.0043026065
4	0x3d985fef	0.07440173
5	0x3c2972c5	0.010342305
6	0x3da1414e	0.07873784
7	0xbd9ab932	-0.075548545
8	0x3ce791ad	0.028267706
9	0x3c552aa5	0.0130106555
10	0x3d378040	0.044800043
11	0x3d8379a8	0.064196885
12	0x3dada571	0.08478821
13	0xbdaaa3b6	-0.08332007
14	0xbd365fc1	-0.04452491
15	0xbd961876	-0.07328884
16	0xbb8b4974	-0.0042506997
17	0xbd58ac2c	-0.05289857
18	0x3ccd13a3	0.025033778
19	0x3da5f370	0.08103073
20	0x3c6f069e	0.01458898
21	0x3bf31cda	0.007419211
22	0x3ccb7936	0.024838071
23	0xba8df205	-0.0010829574
24	0xbd8b37e2	-0.06797768
25	0xbd9d0f1a	-0.07668896
26	0x3d4b2fa8	0.049605995
27	0xbd19b263	-0.03752364
28	0xbdbb086e	-0.09132467
29	0xbd246eae	-0.040144615
30	0x3d18db09	0.037318263
31	0x3d439fcb	0.047759812
32	0xbb90af8a	-0.004415457
33	0xbd0427f1	-0.032264654
34	0xbd4022c8	-0.04690817
35	0x3d9fe5fb	0.07807537
36	0xbcdf0623	-0.027224606
37	0xbdb39ad5	-0.08769766
38	0xbd68a160	-0.056794524
39	0x3d9c2502	0.07624246
40	0x3d8d1e3a	0.06890531
41	0x3d08987a	0.033348538
42	0x3ceb0fa4	0.028693981
43	0xbcca04f0	-0.024660558
44	0x3ce0d900	0.027447224
45	0xbd2f0be8	-0.042735964
46	0xbce135ef	-0.027491538
47	0xbcce6c54	-0.02519814
48	0x3d710412	0.058841772
49	0xbd2d2f07	-0.042281177
50	0xbd84373b	-0.06455847
51	0xbd59a8e3	-0.05313958
52	0x3d02fb10	0.031977713
53	0x3c8fb05f	0.017540155
54	0xbd82f22e	-0.06393848
55	0xbc9d5ff3	-0.019210791
56	0xbd27d533	-0.040974807
57	0x3d15a50d	0.036534358
58	0x3cccad09	0.024984853
59	0xbc81afd1	-0.015830906
60	0xbd4cb106	-0.04997351
61	0xbdaa547b	-0.083168946
62	0xbc9c03f4	-0.019044854
63	0xbbb15430	-0.0054116473
64	0x3c25452c	0.010087293
65	0xbd62cf20	-0.05537331
66	0x3d2d6be0	0.042339206
67	0x3c1b0f2a	0.009464065
68	0x3bf62f30	0.0075129494
69	0xbd8c48c5	-0.06849817
70	0xbda6f632	-0.08152427
71	0x3d22be0a	0.039732017
72	0x3d689efa	0.056792237
73	0xbd4a9d82	-0.049466617
74	0xbd164a54	-0.03669198
75	0xbc28595e	-0.010275213
76	0x3d4d1fb1	0.05007905
77	0xbafa6263	-0.0019102808
78	0x3d4787de	0.048713557
79	0x3d7b576b	0.061362665
80	0x3cba11bb	0.022713533
81	0xbc64164b	-0.013921331
82	0x3c5f3fb9	0.0136260325
83	0x3da90bed	0.08254228
84	0x3c5a5f46	0.013328379
85	0xbd1f4849	-0.038887296
86	0xbd89f2cf	-0.06735765
87	0xbc65a926	-0.014017379
88	0xbc625f33	-0.013816643
89	0x3d388717	0.045050707
90	0xbd67b38a	-0.056567706
91	0x3cd28571	0.025698395
92	0xbd53bdaf	-0.05169457
93	0x3c715c8b	0.014731537
94	0x3da36913	0.07979026
95	0x3da0f68d	0.07859526
96	0xbcd1b718	-0.025600001
97	0xba9ed211	-0.0012117048
98	0x3bd2d155	0.0064336457
99	0x3d87c32c	0.06629023
100	0xbd0173ae	-0.03160446
101	0xbd084002	-0.033264168
102	0x3cc8f605	0.024531374
103	0x3d88c2e1	0.06677795
104	0xbd87f101	-0.06637765
105	0x3d1d53fe	0.03841018
106	0xbdaccda8	-0.08437663
107	0x3cb10d15	0.021612683
108	0xbc1f6176	-0.009727826
109	0x3c828dcc	0.015936755
110	0x3bb81922	0.0056182304
111	0xbd94d1df	-0.07266592
112	0x3da972e6	0.08273868
113	0x3d9a5771	0.075362094
114	0xbd23e5a8	-0.04001394
115	0x3cb9a3d2	0.022661123
116	0xbd4dbca1	-0.05022872
117	0xbd3f3555	-0.04668172
118	0xbd58f615	-0.052969057
119	0x3d40318c	0.04692225
120	0xbc497167	-0.012295104
121	0x3d917e99	0.07104225
122	0xbd474be4	-0.04865636
123	0x3d666ebb	0.056257945
124	0x3d5a6335	0.053317267
125	0x3a889c76	0.0010422606
126	0x3d6a13a8	0.057147652
127	0x3d8cffa4	0.06884697
128	0x3db71875	0.08940212
129	0xbd322c23	-0.043499123
130	0xbd815185	-0.06314377
131	0x3cf5ea68	0.030019
132	0xbd68f325	-0.056872506
133	0x3c96775b	0.01836746
134	0x3c451275	0.012028326
135	0xbce255b6	-0.02762876
136	0x3d57dff5	0.052703816
137	0x3c2504e3	0.010071966
138	0xbd86c3f8	-0.06580347
139	0x3cfa6e99	0.030570315
140	0x3d7824c6	0.060581945
141	0x3d9ca58d	0.07648764
142	0xbd0b4037	-0.033996787
143	0xbc8e13aa	-0.01734336
144	0x3aadecc7	0.0013269418
145	0xbce1ab54	-0.027547516
146	0x3daa21e4	0.083072454
147	0xbc121355	-0.008915742
148	0x3d737feb	0.059448164
149	0x3d2b5d39	0.04183695
150	0x3d17c76c	0.037055418
151	0xbc2b00bf	-0.01043719
152	0xbc83755c	-0.016047172
153	0xbd771077	-0.060318436
154	0x3d93c3f4	0.072151095
155	0x3c98199a	0.018566895
156	0x3daa218f	0.08307182
157	0xbd21d57d	-0.03951024
158	0x3ce35e14	0.02775482
159	0xbcfb1c95	-0.030653277
160	0x3d5e0e14	0.054212645
161	0xbcc77c64	-0.024351306
162	0x3da9f651	0.08298934
163	0xbbd7f1fd	-0.0065901265
164	0x3da1c1c9	0.0789829
165	0xbd1bafba	-0.038009383
166	0xba63e0c3	-0.0008692855
167	0x3d94fc10	0.072746396
168	0x3c98097d	0.018559212
169	0xbc8b881a	-0.017032672
170	0xbcd8e6a3	-0.026477164
171	0x3d836ae6	0.06416874
172	0x3d5c9e6f	0.05386203
173	0x3c3706f3	0.01117109
174	0x3d834361	0.06409336
175	0x3d529d25	0.051419396
176	0xbbf7e077	-0.0075646
177	0xbd87fc0c	-0.06639871
178	0xbd96ca65	-0.073628224
179	0x3db60eca	0.088895395
180	0x3d2a066b	0.041510027
181	0xbcd45404	-0.025918968
182	0xbd33cf4b	-0.04389886
183	0x3d8d7fdf	0.06909155
184	0xbd80059d	-0.06251071
185	0x3d8ebc30	0.06969488
186	0x3c72cee5	0.014819835
187	0x3c60d2b0	0.013722107
188	0xbc02af81	-0.007976414
189	0xbda15ee3	-0.07879426
190	0xbdac92c3	-0.0842643
191	0x3d9a7d28	0.07543403
192	0x3d888371	0.066656955
193	0xbd09232e	-0.033480816
194	0xbbc99085	-0.0061512613
195	0xbc7d0cae	-0.015444918
196	0x3da68597	0.08130949
197	0x3daca564	0.08429983
198	0xbc9bde05	-0.019026766
199	0xbd91409c	-0.070924014
200	0xbd9eb889	-0.07750041
201	0x3da4200a	0.080139235
202	0xbd876fee	-0.06613146
203	0x3dadb543	0.084818386
204	0x3d819130	0.063265204
205	0x3d303e44	0.04302813
206	0x3db616f6	0.08891098
207	0x3cabbd07	0.020964159
208	0x3c44aa97	0.012003562
209	0xbbf4f0dd	-0.007475002
210	0xbcb31d53	-0.021864569
211	0xbd8439bf	-0.06456327
212	0x3b1cf37a	0.0023948834
213	0xbd0e8843	-0.034797918
214	0x3d7fec4b	0.062481206
215	0xbd84abf2	-0.064781085
216	0xbccc0b9b	-0.024907878
217	0x3da65a2b	0.08122667
218	0xbd4304fe	-0.047612183
219	0xbce6e242	-0.02818406
220	0xbda8a281	-0.0823412
221	0xbc61ebfa	-0.013789171
222	0xbba81793	-0.0051297634
223	0x3dabc62d	0.083874084
224	0x3cdba753	0.026813185
225	0xbd9732e3	-0.07382753
226	0x3d10dcd9	0.035366867
227	0x3d3b352a	0.045704998
228	0x3d9495de	0.072551474
229	0x3ca58f94	0.020210065
230	0xbd372c6b	-0.044720095
231	0x3cff23fc	0.031145088
232	0xbd0204a0	-0.031742692
233	0x3d9a8197	0.075442486
234	0xbd0dd33d	-0.03462528
235	0xbda3071f	-0.079603426
236	0xbd4c93e6	-0.049945734
237	0x3d92fed8	0.07177514
238	0x3d852a2e	0.06502186
239	0xbd1ff76c	-0.03905432
240	0xbd8ded16	-0.06929986
241	0xbcff4ab4	-0.03116355
242	0x3bdbb9ec	0.006705513
243	0x3d4fd3a7	0.050738957
244	0x3d60125a	0.054705
245	0xbc876edd	-0.016532356
246	0x3d4b8cd2	0.049694844
247	0x3d7eea8c	0.0622354
248	0x3c649d0a	0.013953457
249	0xbcc1fa4f	-0.023678927
250	0xbb3d56d1	-0.0028890858
251	0xbcb7267c	-0.022357218
252	0xbb8b5a56	-0.0042527122
253	0x3d8f20ec	0.06988701
254	0xbd078cbd	-0.033093203
255	0xbd00816e	-0.031373434

bias f4 [128]
0	0x3baf1443	0.0053429916
1	0xbd72343a	-0.05913184
2	0x3c30206e	0.010749919
3	0x3daeb561	0.08530689
4	0xbd0dad70	-0.03458923
5	0xbda942ff	-0.082647316
6	0xbcb954a8	-0.022623375
7	0xbd01e6ab	-0.031714123
8	0xbd18b08b	-0.03727774
9	0xbb594c6f	-0.003315713
10	0x3dae32f7	0.085058145
11	0x3c9bc74c	0.01901593
12	0x3a4d2de9	0.00078269705
13	0xbd6229ea	-0.055215754
14	0x3d4f09ae	0.05054634
15	0x3d8c0bde	0.06838201
16	0xbd4a6a10	-0.049417555
17	0xbda114f0	-0.07865322
18	0xbb8b22ab	-0.004246076
19	0xbc8b3dcf	-0.016997246
20	0xbb50f2dc	-0.0031883037
21	0x3d02c628	0.031927258
22	0xbcd74f98	-0.02628307
23	0x3d5d2df0	0.053998888
24	0x3d21be9b	0.039488416
25	0xbc112e86	-0.00886119
26	0xbcc4b1e8	-0.024010614
27	0xbcb8ad86	-0.02254368
28	0xbd39ecc4	-0.045391813
29	0xbbfcdf63	-0.0077170595
30	0x3d10da3c	0.035364375
31	0x3cfaa32e	0.030595388
32	0xbd97b221	-0.07407022
33	0x3d5493b2	0.051898666
34	0x3d91ddac	0.07122359
35	0xbd282967	-0.04105511
36	0xbd9e5800	-0.077316284
37	0x3d040925	0.032235283
38	0x3c841c28	0.016126707
39	0xbac474ba	-0.00149884
40	0xbd3fdc55	-0.046840984
41	0x3d8ad53f	0.06778955
42	0x3d8c9a60	0.06865382
43	0x3d5e48c1	0.054268602
44	0xbc00b942	-0.007856669
45	0xbcda1d6d	-0.02662536
46	0xbd8276b0	-0.06370294
47	0xbd419058	-0.047256798
48	0x3d098885	0.03357746
49	0x3d6d3c1a	0.057918645
50	0xbd3051f5	-0.04304691
51	0x3cc9b060	0.024620235
52	0xbd092cf7	-0.033490147
53	0xbc59bcc4	-0.013289634
54	0xbcf7f819	-0.03026967
55	0xbda53c08	-0.08068091
56	0xbcc7cb3b	-0.0243889
57	0xbd63ef2c	-0.055648014
58	0x3d2814eb	0.041035574
59	0xbd034231	-0.032045547
60	0xbac68492	-0.001514571
61	0xbb5e29f8	-0.0033899527
62	0xbd684e5c	-0.056715354
63	0x3d4d6081	0.05014086
64	0xbd8a91c7	-0.06766086
65	0xbcaea2bb	-0.02131783
66	0x3d836ecf	0.064176194
67	0x3d5e2a2b	0.054239433
68	0x3d68e55f	0.05685937
69	0xbd8b8819	-0.06813068
70	0x3d37cd7c	0.0448737
71	0xbd5581d1	-0.052125756
72	0x3cbdcb79	0.023168312
73	0x3da43b0a	0.08019073
74	0xbb67dcc4	-0.003537939
75	0x3b89825b	0.004196448
76	0xbd127447	-0.035755422
77	0x3ce497e2	0.027904455
78	0x3d1b0048	0.037842065
79	0xbd118ad6	-0.035532795
80	0xbd1a02d7	-0.037600365
81	0x3d9244f1	0.07142056
82	0x3cb9322b	0.02260693
83	0xbd8f6c10	-0.07003033
84	0xbcca0a2b	-0.024663052
85	0xbd9189f8	-0.071063936
86	0xbd2b0059	-0.04174838
87	0x3b80cb09	0.0039304537
88	0xbd88e7fe	-0.06684874
89	0x3d930dfd	0.071804024
90	0x3d120a52	0.035654373
91	0xbc2bda14	-0.010489006
92	0x3bb64ca1	0.005563334
93	0xbd69a70c	-0.057044074
94	0x3d8bf847	0.068344645
95	0x3d95c1c8	0.073123515
96	0x3c69d0d7	0.014270983
97	0xbd94fd88	-0.0727492
98	0x3bb65046	0.0055637686
99	0xbc72936a	-0.014805654
100	0xbc9f9535	-0.019480327
101	0x3cbbb62c	0.022914015
102	0x3d942951	0.07234443
103	0x3d010e25	0.03150763
104	0x3d866636	0.06562464
105	0xbd1925fc	-0.03738974
106	0xbd0a338b	-0.03374056
107	0x3ca037ac	0.019557796
108	0xbc6d4a00	-0.014482975
109	0x3d50dc6c	0.05099146
110	0xbd218c7a	-0.03944061
111	0xbd3be054	-0.045868233
112	0xbda8d175	-0.08243076
113	0xbd9d8c29	-0.07692749
114	0x3d5d1e87	0.05398419
115	0x3d95a8e8	0.07307607
116	0x3d119107	0.0355387
117	0xbcec1b34	-0.028821565
118	0xbcdab1fd	-0.0266962
119	0x3c95bc29	0.018278198
120	0xbd658ddb	-0.056043487
121	0xbd9014b7	-0.07035201
122	0x3ce80add	0.028325493
123	0x3d42b2fb	0.04753397
124	0xbd19adc4	-0.03751923
125	0x3c2017f1	0.009771333
126	0x3d133a51	0.035944287
127	0xbd71a6cf	-0.05899697
