testbed/models/gnn_layer_0.pt (torch, 696467 bytes, 7 tensors)

weight f4 [200, 200]
0.044413988 0.0142100835 -0.006302552 0.008824089 0.030982792 -0.025467426 0.030946853 0.034599174
-0.029195303 0.02955504 0.008692751 0.0601659 0.026398407 0.037936322 -0.011198366 -0.026924241
0.0032639354 -0.048065104 0.057968736 0.02828178 0.04672965 0.061191447 -0.064008646 0.001812154
0.058510803 -0.0676645 -0.06676288 -0.035337776 0.012892144 -0.00012914841 0.04750803 -0.003341977
-0.055736724 -0.012977057 -0.014751355 0.033445857 0.0005008357 0.034891892 -0.03767981 -0.0022144497
0.010492356 0.053319078 -0.064759836 -0.056480672 0.005154926 0.04912003 -0.04119572 -0.047529604
0.016567836 -0.046764184 0.034925662 0.029699193 0.053779926 -0.036643486 -0.035870884 -0.03534018
0.018686766 -0.04729828 -0.031194277 -0.051408265 -0.011030344 0.06456746 0.019307604 -0.027526993
0.032218263 0.026999325 0.016567713 -0.026825232 0.007272753 -0.048369046 -0.075761005 0.015889645
-0.076452054 -0.053030983 -0.005170166 -0.04165941 -0.07205635 -0.013414049 0.0068104723 -0.03980592
0.041297473 -0.056831315 -0.026014475 0.065584965 0.07277008 0.0673071 0.045608874 0.05931072
-0.05097838 -0.026640953 0.056695007 -0.0690859 -0.060803533 0.037321728 0.02020033 0.06608848
0.022559844 0.041123018 -0.03545866 -0.0009237148 -0.05669611 -0.011088234 -0.058939833 -0.055053823
0.07057417 0.02682506 -0.041418165 0.011686764 0.070617124 -0.012494463 0.009741595 0.066217445
-0.016840681 0.020917833 -0.0066102156 -0.01159354 -0.05941963 -0.015017336 0.05769245 -0.041309092
-0.049882896 0.013494894 0.039121583 0.014926696 -0.0011544506 0.04737436 0.030574966 -0.013769282
-0.0518386 0.05183052 -0.05509051 0.016361414 -0.045531075 -0.008689617 0.0062966007 0.04610623
-0.024903301 0.019287977 0.002879172 -0.07218363 0.006544074 -0.05281805 0.0019934205 -0.043307096
-0.009259147 0.002265451 0.053664654 0.034073 0.043538686 0.061360687 -0.019869028 0.03648675
-0.011000751 -0.0032641795 0.049608972 0.042684432 0.011477167 -0.013955271 -0.014750105 -0.061362896
-0.027711803 0.06254839 0.046400126 0.031992313 0.012497641 0.013292994 0.011581909 0.0018147598
-0.0073603555 0.023772663 0.0650308 0.06309153 0.043099623 0.0015408669 -0.036483 0.016322494
0.055810187 0.006712004 0.03031253 0.010350614 0.025766099 0.03446535 -0.03396765 -0.06728226
-0.018305501 0.015913278 0.02189943 0.011044644 0.012576094 0.06283264 0.01484197 -0.014053621
-0.026586792 0.034767445 -0.02598556 -0.040559508 0.06279753 -0.050751872 0.011623292 -0.060788937
0.041502774 0.005024229 -0.009124927 0.026080253 -0.01989687 -0.015310109 -0.040205654 -0.037807737
-0.01337126 0.05736314 0.013879916 0.033044647 -0.02100412 0.060700938 0.011673183 0.023279458
0.028853357 0.030811762 0.004822679 0.040320113 -0.011738419 0.062408164 -0.046968747 -0.0027324029
0.019467464 -0.022261033 -0.073223196 -0.009905724 0.016416455 0.038637612 -0.037204247 0.013481626
-0.028943328 0.0366004 0.020828985 -0.014888351 -0.03719569 -0.012406476 -0.03076608 -0.038370512
0.0012842107 -0.004378845 -0.003837217 0.021299781 0.018260328 -0.018504804 -0.058113664 -0.04944041
0.06905292 0.060675524 -0.026482826 -0.06285255 0.0447104 -0.03304354 0.063686475 0.060351525
00000000: 71eb 353d 69d1 683c a385 cebb e992 103c
00000010: a0cf fd3c 10a1 d0bc 4184 fd3c ddb7 0d3d
00000020: fd2a efbc 691d f23c 0a6c 0e3c 8570 763d
00000030: 7941 d83c 1e63 1b3d 5a79 37bc 3a90 dcbc
00000040: c0e7 553b eadf 44bd a070 6d3d 31af e73c
00000050: 9767 3f3d e2a3 7a3d f716 83bd cc85 ed3a
00000060: 06a9 6f3d af93 8abd faba 88bd 58be 10bd
00000070: 9239 533c 036c 07b9 c897 423d 1205 5bbb
00000080: 314c 64bd b99d 54bc abaf 71bc 86fe 083d
00000090: 844a 033a cdea 0e3d 2556 1abd 4d20 11bb
000000a0: 21e8 2b3c 1b65 5a3d cea0 84bd 4758 67bd
000000b0: a7ea a83b 1632 493d d8bc 28bd 67ae 42bd
000000c0: 45b9 873c cd8b 3fbd 360e 0f3d b94b f33c
000000d0: 5748 5c3d 7b17 16bd 59ed 12bd ddc0 10bd
000000e0: fd14 993c d7bb 41bd 248b ffbc 7991 52bd
000000f0: 9eb8 34bc f23b 843d fb2a 9e3c 4a80 e1bc
00000100: 4cf7 033d b02d dd3c 03b9 873c 97c0 dbbc
00000110: 4650 ee3b 9f1e 46bd 9628 9bbd 002b 823c
00000120: e592 9cbd 0437 59bd 7f6a a9bb 0fa3 2abd
00000130: 4892 93bd 99c6 5bbc 622a df3b 880b 23bd
00000140: 8a27 293d f4c7 68bd 4f1c d5bc 6951 863d
00000150: 7b08 953d 4ed8 893d 5fd0 3a3d ccef 723d
00000160: b5ce 50bd 213e dabc 0639 683d e97c 8dbd
00000170: 200d 79bd abde 183d 2a7b a53c 6659 873d
00000180: 6ccf b83c 9c70 283d 1a3d 11bd 7325 72ba
00000190: 2e3a 68bd 6dab 35bc e56a 71bd 1e80 61bd
000001a0: 3189 903d 3ac0 db3c 18a6 29bd d779 3f3c
000001b0: b69f 903d 93b5 4cbc 369b 1f3c 039d 873d
000001c0: 78f5 89bc e05b ab3c 829a d8bb d5f2 3dbc
000001d0: ff61 73bd 460b 76bc eb4e 6c3d b933 29bd
000001e0: 0252 4cbd b019 5d3c f43d 203d 1a8f 743c
000001f0: ef50 97ba 9e0b 423d 5a78 fa3c 8e98 61bc
00000200: b654 54bd 3d4c 543d 96a6 61bd 5f08 863c
00000210: cb7e 3abd e55e 0ebc b753 ce3b e3d9 3c3d
00000220: 0202 ccbc d201 9e3c 7eb0 3c3b 03d5 93bd
00000230: ac6f d63b bd57 58bd 0ca4 023b c862 31bd
00000240: adb3 17bc f677 143b 78cf 5b3d 2190 0b3d
00000250: 9f55 323d 5855 7b3d 5fc4 a2bc 2173 153d
00000260: 7e3c 34bc d8eb 55bb c732 4b3d dfd5 2e3d
00000270: ba0a 3c3c a6a4 64bc 6daa 71bc a957 7bbd
00000280: dd03 e3bc 5f19 803d 0f0e 3e3d 5f0a 033d
00000290: e8c2 4c3c dcca 593c 0cc2 3d3c 3cdd ed3a
000002a0: 232f f1bb e3be c23c de2e 853d 2236 813d
000002b0: 3b89 303d eaf6 c93a 336f 15bd c0b6 853c
000002c0: 3999 643d 5ff0 db3b fc51 f83c 9f95 293c
000002d0: 6d13 d33c 8a2b 0d3d aa21 0bbd 48cb 89bd
000002e0: 6bf5 95bc 905c 823c 6f66 b33c 98f4 343c
000002f0: f60b 4e3c 66ae 803d bc2b 733c 2941 66bc
00000300: 8bcc d9bc 4f68 0e3d abdf d4bc ba21 26bd
00000310: fe9b 803d 32e1 4fbd 9f6f 3e3c d2fd 78bd
00000320: d0fe 293d 4aa2 a43b b880 15bc 41a6 d53c
00000330: c3fe a2bc 40d7 7abc afae 24bd 49dc 1abd
00000340: 2113 5bbc 9df5 6a3d 9668 633c d359 073d
00000350: d510 acbc 8ca1 783d e140 3f3c 90b4 be3c
00000360: e05d ec3c f368 fc3c 9007 9e3b b426 253d
00000370: 7f52 40bc b49f 7f3d 4d62 40bd 1d12 33bb
00000380: 3b7a 9f3c c55c b6bc 0bf6 95bd 9e4b 22bc
00000390: cd7b 863c 7942 1e3d 7b63 18bd 0ae2 5c3c
000003a0: 8f1a edbc 4dea 153d 8ca1 aa3c 45ee 73bc
000003b0: 825a 18bd 8844 4bbc 2509 fcbc 662a 1dbd
000003c0: f652 a83a 6a7c 8fbb d279 7bbb e17c ae3c
000003d0: af96 953c 6397 97bc 9808 6ebd 0782 4abd
000003e0: 9e6b 8d3d e686 783d 83f2 d8bc d6b8 80bd
000003f0: 4122 373d aa58 07bd 0e6e 823d 2933 773d

bias f4 [200]
0.048089247 -0.011011025 -0.018988293 0.012662267 -0.05945299 0.026773654 -0.0044014025 -0.04276492
-0.0032613075 -0.02746787 -0.029883785 0.041690156 0.044200763 -0.06381268 0.01584092 -0.06031892
-0.044409435 0.04259086 0.027523998 -0.030962868 0.026261717 0.0071014315 0.029338997 0.044805832
-0.03019229 0.050819505 -0.028896492 -0.018173214 0.022774072 -0.0075309495 0.05833639 -0.047766723
0.05748448 -0.055866383 -0.020736841 -0.0025186571 0.04679107 -0.009345795 -0.014611678 -0.038576927
-0.04057104 -0.01190481 0.03375019 0.048793174 -0.043179378 0.037176937 0.035998195 -0.055126075
-0.01807105 0.03327854 -0.03779138 -0.041935172 0.05389411 -0.042613715 0.0651601 0.061122127
0.0042095063 0.021698903 0.0064065484 -0.010003354 0.06603452 -0.070852384 0.05551234 0.031552847
-0.0555675 -0.004207715 0.06436612 0.021089192 0.04318751 -0.014501078 0.057310846 0.023646628
-0.021953108 0.032576874 -0.041234374 -0.058307134 0.019379057 -0.048209712 0.06485921 0.014746432
0.007366224 0.01977399 -0.03721936 -0.018764079 0.033850886 0.05552392 0.044509247 0.07084694
-0.03658023 -0.032088887 -0.03453088 -0.03644504 -0.020496171 0.061015263 -0.03257191 0.040724367
0.016347414 -0.03857066 -0.022088006 -0.006717375 -0.013876826 0.07306168 0.032310236 -0.0019959807
-0.055272873 0.0579245 0.034761958 0.032550782 -0.015535419 0.008925804 0.032136545 -0.032932583
-0.012890208 -0.028330661 0.043024026 -0.00021703809 -0.001828081 0.054453142 -0.014284135 0.013523738
-0.02282144 -0.01890125 -0.05849329 -0.035190288 -0.071902305 0.017914122 -0.06677631 0.044026453
-0.06825362 0.024363196 0.05496633 -0.019147012 -0.06653085 0.036066245 -0.05581663 0.016990896
-0.069441155 0.0007300513 -0.028223349 0.0094225155 0.01230931 0.045591913 -0.013376714 0.018322287
-0.03878677 0.045214288 0.0341825 0.06964973 0.01347146 0.026331954 0.0067454446 0.04567368
0.0005680129 0.06508447 0.047008954 -0.0725397 0.0090612685 -0.045205396 -0.008149149 -0.004669828
0.009305909 -0.06953161 -0.020576693 0.010317635 0.035832062 -0.04606245 -0.007157927 0.025226349
0.048595864 0.031619716 -0.07108826 -0.032753963 0.023510974 -0.048415914 0.021943783 0.0138355745
-0.05875543 0.023430074 0.03413354 -0.06064508 -0.05314962 -0.016083756 0.00917015 -0.009893279
0.015588378 -0.063760675 -0.050970953 -0.05311951 0.05301735 -0.03640095 0.04355198 0.03718866
0.022188282 0.05185878 0.067665406 -0.0078048846 -0.032880876 -0.0083185695 0.057152618 -0.04933742
00000000: 3bf9 443d 9667 34bc 568d 9bbc 6675 4f3c
00000010: fa84 73bd 6c54 db3c a439 90bb 452a 2fbd
00000020: a9bb 55bb 4c04 e1bc d7ce f4bc 4cc3 2a3d
00000030: dc0b 353d 39b0 82bd d1c4 813c f910 77bd
00000040: abe6 35bd c173 2e3d 027a e13c d7a5 fdbc
00000050: d022 d73c 20b3 e83b 5658 f03c 5286 373d
00000060: d255 f7bc 1d28 503d 56b8 ecbc fedf 94bc
00000070: b190 ba3c 2fc6 f6bb 23f2 6e3d 0aa7 43bd
00000080: d974 6b3d 26d4 64bd 4fe0 a9bc 0e10 25bb
00000090: fea7 3f3d 1b1f 19bc d265 6fbc d702 1ebd
000000a0: d22d 26bd 640c 43bc a43d 0a3d 5adb 473d
000000b0: dcdc 30bd d846 183d d872 133d e1cb 61bd
000000c0: bd09 94bc 144f 083d 22cb 1abd 37c4 2bbd
000000d0: 12c0 5c3d b88b 2ebd a972 853d 325b 7a3d
000000e0: e6ef 893b e6c1 b13c 06ee d13b 1ce5 23bc
000000f0: 1b3d 873d 0e1b 91bd e860 633d 8f3d 013d
00000100: bf9a 63bd dfe0 89bb 62d2 833d 3ec3 ac3c
00000110: 63e5 303d ee95 6dbc c7be 6a3d 93b6 c13c
00000120: 01d7 b3bc 546f 053d 60e5 28bd 76d3 6ebd
00000130: d4c0 9e3c 8c77 45bd e8d4 843d 059b 713c
00000140: 5e60 f13b 10fd a13c 5473 18bd 20b7 99bc
00000150: 3aa7 0a3d 0d6d 633d 544f 363d 3318 913d
00000160: 27d5 15bd a36f 03bd 4170 0dbd 6547 15bd
00000170: 96e7 a7bc 24eb 793d 206a 05bd 98ce 263d
00000180: 03eb 853c 45fc 1dbd e8f1 b4bc 6d1d dcbb
00000190: a05b 63bc 5da1 953d bd57 043d 00cf 02bb
000001a0: cf65 62bd 3e42 6d3d 8e62 0e3d f853 053d
000001b0: 4588 7ebc 893d 123c 9ca1 033d 51e4 06bd
000001c0: 7331 53bc b415 e8bc f639 303d b894 63b9
000001d0: 389c efba 420a 5f3d 0108 6abc ab92 5d3c
000001e0: 07f4 babc cbd6 9abc a996 6fbd b123 10bd
000001f0: 8441 93bd a3c0 923c 05c2 88bd 1555 343d
00000200: 8ec8 8bbd 5395 c73c 6024 613d 32da 9cbc
00000210: 5441 88bd 33ba 133d fb9f 64bd 7e30 8b3c
00000220: 2a37 8ebd ea60 3f3a a734 e7bc e560 1a3c
00000230: fdac 493c 96be 3a3d 012a 5bbc 9f18 963c
00000240: e0de 1ebd 9e32 393d f302 0c3d 85a4 8e3d
00000250: 66b7 5c3c 1cb6 d73c e408 dd3b 5314 3b3d
00000260: b3e6 143a 024b 853d 768c 403d b28f 94bd
00000270: b775 143c 4b29 39bd 0284 05bc 5b05 99bb
00000280: d077 183c 9766 8ebd 7490 a8bc 4c0b 293c
00000290: a4c4 123d fbab 3cbd 0b8d eabb 7da7 ce3c
000002a0: 750c 473d ad83 013d b996 91bd 0529 06bd
000002b0: 169a c03c c44f 46bd 73c3 b33c 9bae 623c
000002c0: 89a9 70bd 6df0 bf3c 9ccf 0b3d fa66 78bd
000002d0: 6ab3 59bd 15c2 83bc 663e 163c 6b17 22bc
000002e0: 6566 7f3c f594 82bd ebc6 50bd d893 59bd
000002f0: b928 593d 2a19 15bd 9063 323d 2353 183d
00000300: 33c4 b53c df69 543d 2994 8a3d 1ec0 ffbb
00000310: 19ae 06bd 9c4a 08bc dd18 6a3d 0916 4abd

weight f4 [300, 200]
0.039075628 -0.020508945 0.025096169 0.066572845 0.023181016 -0.038557507 0.06531811 -0.05929259
0.024778863 0.00887454 -0.060016733 -0.013757794 -0.025429586 -0.0393347 -0.054387417 -0.023198232
0.063743986 -0.05006262 -0.020939484 -0.00841662 0.057994753 0.053761717 -0.024028122 -0.03227697
-0.0094695855 0.055998817 -0.037499927 -0.005008682 0.028791111 -0.0014073774 -0.06962349 -0.06719075
0.03857134 0.030168494 0.03398477 0.011860972 -0.0677656 0.061058376 -0.0049894378 -0.028147444
-0.055980906 0.022578977 -0.05777734 -0.01841267 -0.0023492563 -0.02350978 -0.022760836 0.009089869
0.026637992 -0.045167506 -0.056982096 -0.011785714 -0.07138905 0.016049376 -0.011806688 0.03550802
-0.057892933 -0.03605032 0.014747982 0.034501027 -0.06893745 0.04827348 0.04522643 0.018671535
0.05060264 -0.04304557 0.019911349 -0.02738978 -0.012009666 -0.060768615 -0.012827855 -0.0038830393
-0.046459902 0.038116265 -0.04973268 0.024437573 0.020370834 -0.029335707 0.009784566 -0.051728345
0.012424165 0.06884222 -0.058817875 -0.047527276 0.02065748 0.037637554 -0.028977511 -0.010700909
0.06966136 0.04606279 0.040525876 -0.064490624 0.040411986 -0.020546561 0.019893263 -0.012872366
-0.059350874 -0.017268848 -0.055551026 -0.050388947 0.024524134 0.007921899 0.06858751 -0.02921458
-0.0636524 0.039321877 -0.068952285 -0.026710765 -0.01944733 -0.051311962 -0.012375203 -0.04106299
-0.034164786 0.05341439 0.0066316254 0.002137197 0.062105592 0.063255616 0.02710926 0.04396219
-0.05281568 -0.070796855 -0.048633818 0.038781654 0.04739981 -0.011899317 0.04514906 0.0042436817
0.009202135 -0.03882864 0.04041595 0.010342243 0.065607935 0.0039101727 0.03019004 -0.059464224
-0.06475181 0.04381978 0.049724944 0.0075018103 0.041445617 -0.03896139 0.04179981 -0.032931846
-0.0110270465 -0.028944647 -0.06911909 -0.012503607 -0.069620594 0.0229996 0.036273755 0.020380192
0.05586715 -0.052725688 -0.012405629 -0.020469641 -0.0035374828 -0.065740645 -0.03317929 -0.04774558
-0.018081399 0.010862733 0.0014772181 0.060359806 -0.021721395 0.060489412 0.016493337 0.008450074
-0.0048397183 0.0052531995 -0.013294393 -0.004879792 0.05264856 -0.050172955 -0.04241411 -0.050801173
0.03933015 -0.01728701 0.025498388 0.011064401 -0.01715166 -0.061276674 -0.0665897 -0.061275754
0.06452001 -0.032508004 0.013495311 -0.061774213 0.008684698 0.011368267 -0.010982322 -0.040333215
0.019426972 -0.059262294 -0.06385529 -0.017744116 0.03334545 0.03457971 -0.03680264 -0.018993562
0.018504001 0.002924326 0.013980122 0.012472263 0.011068377 0.0472709 0.007752328 0.045327876
0.013691893 0.055963416 -0.060826488 0.017956996 0.03066058 0.042182475 -0.037071213 0.024961479
-0.06919296 0.034223776 0.054395977 0.012264096 -0.06692946 -0.0025349027 -0.06043628 0.05845589
-0.07012317 0.043380026 -0.017887319 0.012166043 0.003622996 0.065020755 0.0043755365 -0.0015940851
-0.04050799 -0.05249127 0.019856209 0.018108802 -0.06450544 0.030853841 -0.06871944 0.026656196
0.02447064 0.05703238 0.04401135 0.010163267 0.039909977 0.037474237 -0.0087557 -0.01732644
0.07326167 -0.02567378 -0.06302421 -0.03359349 -0.06461656 0.004572886 0.028980765 0.065056406
00000000: c40d 203d 6002 a8bc 7b96 cd3c 5857 883d
00000010: 1de6 bd3c 7aee 1dbd 80c5 853d c9dc 72bd
00000020: 0bfd ca3c 8566 113c 1bd4 75bd 5f68 61bc
00000030: b551 d0bc 6c1d 21bd 57c5 5ebd 380a bebc
00000040: 358c 823d 760e 4dbd 4889 abbc dde5 09bc
00000050: e88b 6d3d 3f35 5c3d a0d6 c4bc db34 04bd
00000060: 5226 1bbc 045f 653d 8699 19bd df1f a4bb
00000070: 56db eb3c c077 b8ba c396 8ebd 4e9b 89bd
00000080: fbfc 1d3d eb23 f73c 9d33 0b3d 8654 423c
00000090: b1c8 8abd 5918 7a3d 707e a3bb 7895 e6bc
000000a0: 3c4c 65bd 8cf7 b83c efa7 6cbd 2bd6 96bc
000000b0: fbf5 19bb 9597 c0bc ef74 babc aded 143c
000000c0: eb37 da3c 9001 39bd 0f66 69bd de18 41bc
000000d0: 6c34 92bd fb79 833c d770 41bc dc70 113d
000000e0: 2421 6dbd 80a9 13bd 85a1 713c f350 0d3d
000000f0: 142f 8dbd 6aba 453d 593f 393d 0cf5 983c
00000100: b744 4f3d 8d50 30bd 201d a33c 8860 e0bc
00000110: 31c4 44bc 83e8 78bd ec2b 52bc 977a 7ebb
00000120: bd4c 3ebd cd1f 1c3d 7fb4 4bbd 4e31 c83c
00000130: bce0 a63c 7051 f0bc 724f 203c 1ae1 53bd
00000140: ba8e 4b3c 26fd 8c3d 03eb 70bd f6ab 42bd
00000150: e039 a93c d629 1a3d 3f62 edbc de52 2fbc
00000160: 9daa 8e3d 56ac 3c3d 76fe 253d a913 84bd
00000170: 0a87 253d 4351 a8bc 32f7 a23c 9ee6 52bc
00000180: e719 73bd 6677 8dbc 7989 63bd a464 4ebd
00000190: d6e6 c83c daca 013c 9c77 8c3d 6a53 efbc
000001a0: 315c 82bd fa0f 213d db36 8dbd 89d0 dabc
000001b0: 0250 9fbc 7e2c 52bd 5dc1 4abc aa31 28bd
000001c0: 60f0 0bbd 0cc9 5a3d 1b4e d93b 3710 0c3b
000001d0: 6f62 7e3d 298c 813d 3d14 de3c b311 343d
000001e0: 4155 58bd f1fd 90bd 4134 47bd 83d9 1e3d
000001f0: 4e26 423d 5af5 42bc 39ee 383d 950e 8b3b
00000200: 8dc4 163c c80a 1fbd 328b 253d 8372 293c
00000210: 745d 863d e820 803b 1a51 f73c c290 73bd
00000220: 999c 84bd 5f7c 333d 62ac 4b3d bfd1 f53b
00000230: e1c2 293d fa95 1fbd 4736 2b3d 8be3 06bd
00000240: c9aa 34bc 531d edbc 4f8e 8dbd eedb 4cbc
00000250: 3e95 8ebd a869 bc3c ca93 143d 5cf4 a63c
00000260: f4d4 643d e4f6 57bd fb40 4bbc f3af a7bc
00000270: 1dd5 67bb 08a3 86bd 02e7 07bd df90 43bd
00000280: 711f 94bc 9bf9 313c 379f c13a d83b 773d
00000290: 11f1 b1bc bfc3 773d 091d 873c 2e72 0a3c
000002a0: 8096 9ebb 0823 ac3b bad0 59bc aae6 9fbb
000002b0: 04a6 573d 2882 4dbd 6bba 2dbd e414 50bd
000002c0: a718 213d 7d9d 8dbc ffe1 d03c 7647 353c
000002d0: a381 8cbc 40fd 7abd 2e60 88bd 49fc 7abd
000002e0: 1123 843d 1d27 05bd 701b 5d3c f506 7dbd
000002f0: 434a 0e3c f841 3a3c 32ef 33bc 7134 25bd
00000300: 5025 9f3c 05bd 72bd 90c6 82bd 1c5c 91bc
00000310: 3d95 083d 74a3 0d3d 5dbe 16bd 6398 9bbc
00000320: b495 973c 0da6 3f3b e20c 653c 7658 4c3c
00000330: 2358 353c 229f 413d 3e07 fe3b b9a9 393d
00000340: f653 603c e539 653d 3225 79bd 8d1a 933c
00000350: e62b fb3c 88c7 2c3d fcd7 17bd 047c cc3c
00000360: 0ab5 8dbd 3b2e 0c3d 51ce 5e3d 59ef 483c
00000370: 5012 89bd 9c20 26bb 088c 77bd 716f 6f3d
00000380: bd9c 8fbd 41af 313d 6d88 92bc 1554 473c
00000390: c96f 6d3b 9a29 853d a960 8f3b 9ff0 d0ba
000003a0: b5eb 25bd 1601 57bd 7da9 a23c e958 943c
000003b0: 6e1b 84bd 32c1 fc3c c7bc 8cbd 185e da3c
000003c0: a776 c83c c99a 693d 3f45 343d d583 263c
000003d0: a578 233d 967e 193d 1174 0fbc 2ef0 8dbc
000003e0: 370a 963d d251 d2bc d612 81bd 5499 09bd
000003f0: b055 84bd 26d8 953b 1269 ed3c 4b3c 853d

bias f4 [300]
0.035187997 -0.057128314 -0.030373648 -0.015089316 0.03314887 0.0679258 0.061831236 0.053965986
-0.05811927 -0.021755897 -0.005134879 0.016980346 -0.010320347 -0.06493544 -0.0026047237 -0.049671218
-0.061632033 -0.008968025 -0.027834957 -0.023934044 0.06337961 -0.025369428 0.03660362 0.0010714915
-0.029159302 -0.058861148 0.05482028 -0.05387946 0.055632968 -0.047058165 0.0358879 -0.041631434
-0.033358052 0.03556126 -0.03832404 -0.04738502 -0.006199589 -0.05376986 -0.035317913 0.0020246452
0.06180979 -0.03744851 0.04327823 0.057788346 -0.011065499 -0.053710908 0.016113767 0.022987477
0.040323958 0.037071574 0.051708378 -0.033061385 -0.012698255 0.05203376 -0.05299867 0.062052254
0.0480182 0.048998192 0.058287986 -0.037287924 -0.010600097 0.058496375 -0.029677566 0.031472243
0.011534501 -0.00043746497 -0.0125382785 0.021655686 -0.04907245 -0.042959556 0.024888057 0.06676486
-0.054199632 -0.045708925 0.064395875 0.052930854 -0.045109283 -0.029242303 -0.05292841 -0.010958922
-0.05717321 -0.068155676 -0.051542904 0.0034809986 0.056245074 -0.014777456 -0.052271374 0.046223767
0.013711275 0.035825152 -0.05282429 0.03191436 0.018128898 0.007046112 -0.049054887 0.02341653
-0.009142116 -0.057488427 0.026483929 -0.03304724 0.058675706 -0.0017817976 0.039959364 -0.064961664
0.031843785 -0.046765298 0.058709808 0.05381771 -0.00062803464 0.06601915 0.042313766 0.0681874
0.058720153 0.050562594 -0.052911587 -0.061775263 -0.022747431 0.03860584 0.030166712 0.05915944
-0.043447305 0.02003394 -0.03585465 0.027008299 -0.049806442 0.05822427 0.025892455 0.05299547
0.062910624 0.055294212 -0.005477989 0.033750802 -0.05536592 0.0059053507 0.05816673 0.0029103549
0.054560408 0.01625835 0.0023468558 0.061531447 0.014925465 0.028449712 0.04248669 0.019489737
0.048501015 -0.06086556 0.020314366 0.038152065 0.042328116 0.024465844 0.0064040204 -0.060885593
-6.357149e-05 0.014729609 0.01696765 -0.025391545 0.005758568 0.016162189 -0.033984087 0.02759925
-0.012848711 -0.003201292 -0.04561827 0.03385798 -0.031921316 -0.050577268 -0.028985407 0.024031302
0.038598616 -0.018251263 -0.056022026 0.00019608691 0.05911878 -0.044486806 0.066513 0.06841374
-0.012706475 0.04277561 0.067747846 -0.043812793 -0.036040552 0.011390733 0.015413113 0.018447194
0.058556717 -0.0010107756 0.03930208 0.0038187294 0.056369614 0.03825916 -0.027734866 -0.045637123
0.03265718 -0.05903127 0.024299908 -0.06711772 -0.039509665 -0.0557125 -0.012078888 -0.012910885
-0.030503426 -0.057065472 0.011366618 0.04609917 -0.06581871 0.044614382 0.057585634 0.008016192
-0.07058474 -0.07459748 -0.06724417 0.01246691 0.026949752 0.0070290673 -0.009286287 -0.013767278
-0.012150554 0.03105005 0.065254115 -0.04484589 -0.012210528 0.06174161 0.05762215 0.040383544
-0.061243974 0.051339496 0.003073068 -0.059091445 0.047442436 -0.035746105 -0.040275782 0.023715178
0.012228273 -0.040952202 0.02318613 -0.07040206 -0.023418665 0.040871087 -0.020323748 -0.06703864
0.049469832 0.017287515 -0.011287973 0.03573249 0.059973374 0.034775913 -0.0489249 -0.023280384
-0.05424449 0.058469914 0.045892376 -0.038401052 -0.061167546 0.0087562995 0.026695812 -0.021058992
00000000: 4a21 103d 61ff 69bd 28d2 f8bc 2e39 77bc
00000010: 1cc7 073d af1c 8b3d c042 7d3d 700b 5d3d
00000020: 790e 6ebd 6c39 b2bc 7d42 a8bb 5e1a 8b3c
00000030: ac16 29bc dffc 84bd 03b4 2abb 0c74 4bbd
00000040: df71 7cbd a0ee 12bc 2306 e4bc 5411 c4bc
00000050: 2bcd 813d 8cd3 cfbc aded 153d 4a71 8c3a
00000060: 7ddf eebc 6318 71bd 3b8b 603d b5b0 5cbd
00000070: 65df 633d 10c0 40bd 31ff 123d b985 2abd
00000080: 74a2 08bd afa8 113d abf9 1cbd cb16 42bd
00000090: ec25 cbbb c93d 5cbd 84a9 10bd e9af 043b
000000a0: 432c 7d3d 9c63 19bd 8344 313d 79b3 6c3d
000000b0: 114c 35bc f8ff 5bbd 0501 843c 3c50 bc3c
000000c0: bc2a 253d 5dd8 173d 2acc 533d 606b 07bd
000000d0: 570c 50bc 5a21 553d 2215 59bd 812a 7e3d
000000e0: bbae 443d 54b2 483d 62bf 6e3d 39bb 18bd
000000f0: 07ac 2dbc e599 6f3d 5e1e f3bc 0ae9 003d
00000100: 34fb 3c3c 8e5b e5b9 5a6d 4dbc 4467 b13c
00000110: 3100 49bd 5cf6 2fbd 0ae2 cb3c 04bc 883d
00000120: 6f00 5ebd 4839 3bbd fce1 833d 06ce 583d
00000130: 83c4 38bd 8e8d efbc 76cb 58bd 0d8d 33bc
00000140: 752e 6abd 3495 8bbd a71e 53bd 7721 643b
00000150: 3c61 663d 251d 72bc 821a 56bd 2255 3d3d
00000160: 41a5 603c 65bd 123d 485e 58bd a2b8 023d
00000170: 0e83 943c 12e3 e63b c7ed 48bd 06d4 bf3c
00000180: d0c8 15bc fc78 6bbd d3f4 d83c 8b5c 07bd
00000190: f055 703d 358b e9ba 6eac 233d 9f0a 85bd
000001a0: a16e 023d f88c 3fbd b279 703d f66f 5c3d
000001b0: b1a2 24ba 0c35 873d 3351 2d3d d6a5 8b3d
000001c0: 8b84 703d b91a 4f3d d2b9 58bd 0f08 7dbd
000001d0: d258 babc 2821 1e3d 2e20 f73c 2b51 723d
000001e0: cdf5 31bd 381e a43c 53dc 12bd 8240 dd3c
000001f0: d701 4cbd 927c 6e3d 6a1c d43c c711 593d
00000200: 49d7 803d 2f7c 623d b480 b3bb 483e 0a3d
00000210: 60c7 62bd ac81 c13b 3d40 6e3d a7bb 3e3b
00000220: bc7a 5f3d 3b30 853c b5cd 193b 6608 7c3d
00000230: f089 743c 5f0f e93c 8606 2e3d f1a8 9f3c
00000240: 00a9 463d 2a4e 79bd 506a a63c 5745 1c3d
00000250: 3f60 2d3d 986c c83c d1d8 d13b 2c63 79bd
00000260: af51 85b8 7554 713c beff 8a3c ee01 d0bc
00000270: 5fb2 bc3b 9166 843c e632 0bbd d317 e23c
00000280: 6683 52bc c4cc 51bb 39da 3abd aaae 0a3d
00000290: edbf 02bd 1c2a 4fbd ce72 edbc 4bdd c43c
000002a0: 9519 1e3d ac83 95bc 5a77 65bd ae9c 4d39
000002b0: 8926 723d cc37 36bd f837 883d 811c 8c3d
000002c0: d22e 50bc 7a35 2f3d 62bf 8a3d 0b75 33bd
000002d0: 429f 13bd 32a0 3a3c 4887 7c3c 921e 973c
000002e0: 2bd9 6f3d 007c 84ba 38fb 203d a643 7a3b
000002f0: d3e3 663d a3b5 1c3d 3b34 e3bc feed 3abd
00000300: 89c3 053d c6ca 71bd 9a10 c73c 0475 89bd
00000310: e3d4 21bd ca32 64bd 87e6 45bc 2d88 53bc
00000320: 52e2 f9bc 7cbd 69bd 0d3b 3a3c 7cd2 3c3d
00000330: f6cb 86bd 92bd 363d eade 6b3d 5956 033c
00000340: bb8e 90bd 90c6 98bd 50b7 89bd 0342 4c3c
00000350: bac5 dc3c 1754 e63b 8325 18bc 2690 61bc
00000360: 1e13 47bc ad5c fe3c f3a3 853d 53b0 37bd
00000370: ab0e 48bc c5e4 7c3d 3405 6c3d 3769 253d
00000380: f6da 7abd 5d49 523d 8765 493b df09 72bd
00000390: 0053 423d 826a 12bd 38f8 24bd 5546 c23c
000003a0: 1859 483c 7fbd 27bd d7f0 bd3c f52e 90bd
000003b0: 80d8 bfbc 7168 273d fd7d a6bc 8e4b 89bd
000003c0: e1a0 4a3d 8c9e 8d3c 31f1 38bc 3b5c 123d
000003d0: a4a6 753d 3071 0e3d 7a65 48bd 81b6 bebc
000003e0: 782f 5ebd 267e 6f3d a5f9 3b3d 6c4a 1dbd
000003f0: d28a 7abd 9576 0f3c 2db1 da3c e883 acbc

weight f4 [300, 200]
0.03752854 -0.06336263 -0.061789196 0.008618325 0.020583162 0.030356955 -0.00026873616 -0.029620523
-0.053181347 0.02857316 0.034504615 -0.059582077 -0.02286389 0.040100932 -0.055908833 0.028575392
-0.06925889 0.040306758 0.036470596 0.019530168 0.014200803 -0.042060327 -0.0062723216 0.02263211
-0.008054999 -0.06237637 -0.07032691 0.004559438 -0.046427164 0.017501464 0.06978218 -0.017257448
-0.0655225 0.047885492 -0.06357171 0.03668319 0.06822278 -0.046110973 0.014600696 0.025799071
0.015244602 -0.07034934 -0.024764746 -0.022765068 0.072152086 -0.02198985 0.018239077 0.06652806
0.021082245 0.015311477 -0.049281754 0.021557042 -0.015152225 0.021022566 -0.010902048 0.022923319
-0.020794354 0.0087196175 0.06594262 -0.050751768 0.025651904 0.049676623 0.041147813 0.039772145
-0.030066913 -0.040793758 0.06070465 -0.020201422 -0.030514095 0.040715203 0.009592192 -0.05273998
-0.059307646 0.018458756 0.025260985 0.024347223 0.015914587 -0.026416825 0.049660254 0.050074775
0.056183744 -0.049724042 0.0105253 0.01512468 0.060035754 0.081747964 0.023167152 0.03378052
0.0064487625 0.06818942 0.005088711 0.042461365 0.015898332 0.03345966 -0.025422268 0.00849931
-0.057979926 0.04503127 -0.041844934 -0.033064857 -0.06965539 -0.018960204 0.033960775 -0.044110864
-0.030299941 0.03522819 -0.05853098 0.066530675 0.010315092 -0.047375567 -0.0032202988 0.01338506
0.052157182 0.017117387 0.06661685 0.009584935 0.044385534 -0.05838145 -0.058952425 0.026288915
-0.0067730364 -0.04979633 0.07156586 0.0006585399 -0.046292752 0.0050699557 0.016054781 0.013037599
0.07092096 -0.063040875 0.008947846 0.045038465 0.002476411 -0.043949947 -0.014420747 -0.042151034
0.012205332 -0.014602914 0.045565575 -0.05970075 0.011014136 -0.021473994 -0.046600312 -0.038609274
-0.054256573 -0.00027325065 -0.061703395 0.03675024 -0.054616213 -0.008313952 0.021372039 0.060430136
0.008287809 0.023502424 0.028111152 -0.06899335 0.027242512 0.04358354 0.06771179 -0.05855565
0.021691166 -0.017583102 -0.046863332 0.057780847 -0.0067097247 -0.04273761 -0.021229886 -0.06844414
-0.037695576 0.06308739 -0.03569502 -0.06855715 -0.036050364 -0.0691607 0.012452555 -0.02223522
0.054604974 0.024225062 0.0040993113 -0.05848712 -0.04471863 0.06372265 -0.056553245 -0.04273757
0.04597029 -0.055500302 0.046520382 0.053723842 0.0107757775 -0.06698287 -0.031390607 -0.03539239
0.0038606059 -0.033816684 0.046231683 -0.05429335 0.058376666 -0.04879725 -0.019000482 0.06796106
-0.033592194 0.011432468 -0.051064443 -0.00658223 0.06431646 0.016119394 -0.030041793 0.033382162
0.036648925 0.051498305 0.03671771 -0.06508953 0.005618166 -0.063731976 -0.023592921 0.03772302
-0.01062926 -0.033388887 0.05049713 -0.0064757057 0.057155024 -0.065937966 -0.0029143682 0.008898858
0.0043684635 -0.0087069245 0.06122701 0.046719804 -0.0027745985 -0.0267344 0.02730221 -0.04386985
0.008256473 -0.016138464 -0.049133122 0.048939113 0.06462113 0.0048905984 -0.058141228 -0.00986706
0.008344569 -0.051489323 0.06328464 0.025377685 0.049323335 0.004215433 -0.05793769 0.044308882
0.05835569 -0.0077353436 0.05233367 0.004062705 0.029496185 -0.060504828 -0.06404931 -0.055509213
00000000: 87b7 193d 44c4 81bd ab16 7dbd e033 0d3c
00000010: 059e a83c 26af f83c 28e5 8cb9 bda6 f2bc
00000020: afd4 59bd 4212 ea3c b654 0d3d 560c 74bd
00000030: 0d4d bbbc e040 243d a900 65bd f116 ea3c
00000040: 9bd7 8dbd b318 253d 3162 153d bbfd 9f3c
00000050: 7caa 683c 7347 2cbd 0c88 cdbb fa66 b93c
00000060: 1df9 03bc 5d7e 7fbd 8e07 90bd 5767 953b
00000070: 692a 3ebd 3b5f 8f3c f6e9 8e3d 7e5f 8dbc
00000080: a930 86bd 9423 443d e231 82bd 1d41 163d
00000090: 63b8 8b3d dcde 3cbd c237 6f3c 9358 d33c
000000a0: 7fc4 793c 5113 90bd 70df cabc cf7d babc
000000b0: 79c4 933d 0f24 b4bc 1e6a 953c dd3f 883d
000000c0: acb4 ac3c fddc 7a3c aadb 49bd 6598 b03c
000000d0: 0a41 78bc 8437 ac3c 819e 32bc afc9 bb3c
000000e0: ec58 aabc badc 0e3c ed0c 873d 16e1 4fbd
000000f0: f123 d23c b779 4b3d 9c8a 283d 1ee8 223d
00000100: e34e f6bc 5b17 27bd 70a5 783d 747d a5bc
00000110: b2f8 f9bc fcc4 263d 9228 1d3c e105 58bd
00000120: 93ec 72bd d136 973c 20f0 ce3c d473 c73c
00000130: 4f5f 823c 1968 d8bc 8d68 4b3d 351b 4d3d
00000140: ed20 663d 70ab 4bbd 4f72 2c3c 81cd 773c
00000150: 0de8 753d 7a6b a73d 0ac9 bd3c 715d 0a3d
00000160: 2450 d33b e5a6 8b3d 34bf a63b f8eb 2d3d
00000170: 383d 823c ff0c 093d 5c42 d0bc b140 0b3c
00000180: 5c7c 6dbd b572 383d 9865 2bbd 046f 07bd
00000190: 7ca7 8ebd 6e52 9bbc 741a 0b3d 98ad 34bd
000001a0: 9537 f8bc 6f4b 103d 2ebe 6fbd 3c41 883d
000001b0: a200 293c e20c 42bd a60b 53bb 034d 5b3c
000001c0: c5a2 553d c339 8c3c 6a6e 883d 220a 1d3c
000001d0: 9bcd 353d 6321 6fbd 1978 71bd da5b d73c
000001e0: 59f0 ddbb 3df7 4bbd 1f91 923d dda1 2c3a
000001f0: 789d 3dbd df21 a63b 5185 833c a79b 553c
00000200: 023f 913d 931b 81bd fc99 123c 417a 383d
00000210: 484b 223b dc04 34bd ff44 6cbc 90a6 2cbd
00000220: dff8 473c 1041 6fbc f8a2 3a3d c688 74bd
00000230: a274 343c 3bea afbc f8df 3ebd c224 1ebd
00000240: 243c 5ebd 1543 8fb9 b3bc 7cbd 6b87 163d
00000250: 40b5 5fbd 3e37 08bc 6a14 af3c 9785 773d
00000260: 97c9 073c 2888 c03c 5c49 e63c 634c 8dbd
00000270: b02b df3c a784 323d 7bac 8a3d 0dd8 6fbd
00000280: acb1 b13c 700a 90bc c4f3 3fbd 9cab 6c3d
00000290: 40dd dbbb a20d 2fbd 4cea adbc 712c 8cbd
000002a0: ad66 1abd f633 813d f134 12bd b167 8cbd
000002b0: 8ca9 13bd 20a4 8dbd cd05 4c3c a326 b6bc
000002c0: 77a9 5f3d a373 c63c 8453 863b 3190 6fbd
000002d0: e22a 37bd 0581 823d 60a4 67bd 970d 2fbd
000002e0: 584b 3c3d 4954 63bd 288c 3e3d 880d 5c3d
000002f0: e38c 303c 512e 89bd 7093 00bd 9cf7 10bd
00000300: 3802 7d3b 5d83 0abd 6f5d 3d3d b462 5ebd
00000310: 5f1c 6f3d a0df 47bd e6a6 9bbc 2b2f 8b3d
00000320: f897 09bd 3f4f 3b3c f328 51bd bfaf d7bb
00000330: 59b8 833d d20c 843c 351a f6bc bcbb 083d
00000340: 2f1d 163d e3ef 523d 4f65 163d a94d 85bd
00000350: 9818 b83b e985 82bd f145 c1bc 7483 1a3d
00000360: 5926 2ebc c9c2 08bd 14d6 4e3d 2832 d4bb
00000370: 631b 6a3d 7c0a 87bd fcfe 3ebb 84cc 113c
00000380: 5425 8f3b 7da7 0ebc 2cc9 7a3d 445d 3f3d
00000390: 0ad6 35bb 1a02 dbbc e2a8 df3c dfb0 33bd
000003a0: 2846 073c d034 84bc d03f 49bd 6174 483d
000003b0: 1558 843d 5041 a03b 7f25 6ebd 73a9 21bc
000003c0: a9b7 083c 78e6 52bd 619b 813d dde4 cf3c
000003d0: 4407 4a3d 9d21 8a3b 1250 6dbd 3b7d 353d
000003e0: 6006 6f3d c478 fdbb d55b 563d 7120 853b
000003f0: fca1 f13c e9d3 77bd 492c 83bd a15d 63bd

weight f4 [300]
0.9949913 1.005872 1.0000776 1.0028982 1.0023195 1.0029571 1.0008432 0.9920188
0.9982313 0.99566644 0.9948269 0.99708086 0.9942947 1.008254 0.9969866 1.0012331
1.0155079 1.0012186 1.0076783 1.0002863 1.0066111 0.9974735 1.0053202 1.0014666
0.99952376 0.99911386 1.0132039 1.0011617 1.003171 0.99995136 0.9962723 1.0057842
0.9945592 0.99159557 0.99537086 1.0008681 0.9945938 1.004036 0.9966851 0.9949681
1.002122 1.0033977 0.99973726 0.99735475 1.0066673 0.9961533 1.0011998 0.99812955
1.0003737 0.99447703 0.99787426 0.9991722 1.0029285 0.996081 0.9984854 1.0012536
0.9980782 1.000681 0.99671346 1.002843 1.0074008 1.0028557 1.0076157 1.0100085
1.0003883 0.9988556 1.0010881 0.99824107 1.0034503 1.0023053 0.99819684 1.0011731
0.9992355 0.9910799 1.0028113 0.9983035 0.9972731 0.99841756 0.9954127 1.0022867
1.0022026 1.0066199 0.9940857 0.9997214 0.9957105 1.0003448 1.0020874 1.0011574
0.9966581 1.0040034 0.99882954 1.0074955 0.9952119 1.003385 1.001897 1.0030303
0.99501115 1.0000857 0.9963976 1.0000801 0.99950707 0.9989009 0.99616295 1.0010685
1.0043563 1.0001698 0.99975336 0.99743795 1.0029634 0.9970771 1.0053644 0.99942255
1.005401 0.99389493 1.003652 0.9962875 1.0012273 1.0026257 1.0180738 1.0024686
0.99953884 1.0001564 1.0038285 0.9981703 0.9982608 0.99647146 1.0003868 1.0013765
1.0078943 0.9930175 1.0105952 0.99483097 0.9993354 1.0013036 1.004922 0.98843473
1.0023589 0.99783224 1.0032996 0.9987687 1.0090522 1.0018377 0.9996566 1.005569
1.0034549 1.0019346 0.99707776 0.99534357 1.0023805 0.99779564 1.0021049 1.0055165
0.99786973 0.99626464 0.9954458 1.0002016 1.001517 0.9990907 1.0051825 0.99854386
1.0055659 1.0022309 1.0097929 0.9982144 1.0001018 0.9987149 0.9964668 1.0039015
1.0098361 0.99764544 0.9991865 0.9992691 1.0036548 1.0008798 1.0017258 0.997459
1.0026847 0.9995264 1.0047554 0.99956125 0.99840444 0.99256676 1.00478 0.9996095
0.9987301 1.0015092 1.000272 1.00302 0.9943659 1.0021577 1.0091293 0.9969163
0.99852467 0.9934766 0.9969531 0.99389213 0.9992941 0.9971768 1.0031615 0.9981275
0.99962074 0.99956936 0.99927396 1.0136259 0.99520326 0.9986791 0.99748826 1.0023099
1.0013489 0.99705803 0.99389803 0.99728894 1.0019355 0.99839324 1.0038375 0.99828625
0.9977698 0.99508196 1.0034508 1.004602 0.9983853 0.9990285 0.99598056 0.99486375
0.9964033 1.0046144 1.0014871 0.9959373 1.0028826 0.99998873 1.00044 1.0015314
0.9955976 1.0016421 1.0092436 1.0059227 1.0030797 0.9994321 1.0032095 0.9958265
0.99627763 1.007361 1.0135106 1.0041436 1.0006024 0.9996392 1.0030872 0.99764633
1.0035694 1.0005132 0.99771434 0.9985463 1.0037338 0.99884826 0.99717 0.9989068
00000000: c0b7 7e3f 6ac0 803f 8b02 803f f85e 803f
00000010: 014c 803f e660 803f a11b 803f f2f4 7d3f
00000020: 168c 7f3f ffe3 7e3f faac 7e3f b140 7f3f
00000030: 198a 7e3f 780e 813f 843a 7f3f 6828 803f
00000040: 2afc 813f ee27 803f 9afb 803f 6209 803f
00000050: a2d8 803f 6c5a 7f3f 55ae 803f 0f30 803f
00000060: cae0 7f3f edc5 7f3f aab0 813f 1126 803f
00000070: e867 803f d0fc 7f3f b40b 7f3f 89bd 803f
00000080: 6f9b 7e3f 35d9 7d3f a0d0 7e3f 721c 803f
00000090: b39d 7e3f 4084 803f c126 7f3f 3bb6 7e3f
000000a0: 8945 803f 566f 803f c8ee 7f3f a452 7f3f
000000b0: 79da 803f e703 7f3f 5127 803f 6b85 7f3f
000000c0: 3f0c 803f 0c96 7e3f b074 7f3f c0c9 7f3f
000000d0: f65f 803f 2aff 7e3f bd9c 7f3f 1429 803f
000000e0: 0e82 7f3f 5116 803f 9d28 7f3f 295d 803f
000000f0: 82f2 803f 935d 803f 8df9 803f f547 813f
00000100: b90c 803f 00b5 7f3f a823 803f ba8c 7f3f
00000110: 0f71 803f 8a4b 803f d489 7f3f 7126 803f
00000120: e6cd 7f3f 6ab7 7d3f 1f5c 803f d190 7f3f
00000130: 4a4d 7f3f 4b98 7f3f 5ed3 7e3f ee4a 803f
00000140: 2d48 803f ecd8 803f 677c 7e3f beed 7f3f
00000150: e2e6 7e3f 4c0b 803f 6644 803f ed25 803f
00000160: fc24 7f3f 2f83 803f 4bb3 7f3f 9df5 803f
00000170: 35c6 7e3f eb6e 803f 293e 803f 4c63 803f
00000180: 0db9 7e3f cf02 803f ea13 7f3f a002 803f
00000190: b2df 7f3f f8b7 7f3f 8904 7f3f 0323 803f
000001a0: bf8e 803f 9005 803f d6ef 7f3f 1858 7f3f
000001b0: 1b61 803f 7240 7f3f c8af 803f 28da 7f3f
000001c0: fbb0 803f e66f 7e3f ab77 803f b30c 7f3f
000001d0: 3728 803f 0a56 803f 3e50 823f e450 803f
000001e0: c7e1 7f3f 2005 803f 747d 803f 1788 7f3f
000001f0: 058e 7f3f c118 7f3f ad0c 803f 1b2d 803f
00000200: ae02 813f 6536 7e3f 2f5b 813f 3ead 7e3f
00000210: 72d4 7f3f b72a 803f 49a1 803f 0f0a 7d3f
00000220: 4c4d 803f ef71 7f3f 1f6c 803f 4eaf 7f3f
00000230: 9f28 813f 383c 803f 7fe9 7f3f 7cb6 803f
00000240: 3671 803f 653f 803f 7d40 7f3f d6ce 7e3f
00000250: 014e 803f 896f 7f3f f944 803f c4b4 803f
00000260: 6474 7f3f 330b 7f3f 89d5 7e3f 9b06 803f
00000270: b631 803f 68c4 7f3f d2a9 803f 92a0 7f3f
00000280: 62b6 803f 1a49 803f e540 813f fb8a 7f3f
00000290: 5603 803f c8ab 7f3f 7318 7f3f d87f 803f
000002a0: 4f42 813f b165 7f3f b0ca 7f3f 1ad0 7f3f
000002b0: c377 803f d41c 803f 8d38 803f 7959 7f3f
000002c0: f957 803f f6e0 7f3f d39b 803f 3fe3 7f3f
000002d0: 6f97 7f3f db18 7e3f a29c 803f 68e6 7f3f
000002e0: c7ac 7f3f 7431 803f ea08 803f f662 803f
000002f0: c38e 7e3f b446 803f 262b 813f e835 7f3f
00000300: 509f 7f3f 7c54 7e3f 5238 7f3f b76f 7e3f
00000310: bdd1 7f3f fb46 7f3f 9967 803f 4985 7f3f
00000320: 25e7 7f3f c7e3 7f3f 6bd0 7f3f 7ebe 813f
00000330: a4c5 7e3f 6fa9 7f3f 645b 7f3f b14b 803f
00000340: 332c 803f 323f 7f3f 1a70 7e3f 544e 7f3f
00000350: 6c3f 803f b396 7f3f bf7d 803f b08f 7f3f
00000360: d76d 7f3f b1bd 7e3f 1371 803f cc96 803f
00000370: 2e96 7f3f 55c0 7f3f 95f8 7e3f 64af 7e3f
00000380: 4914 7f3f 3497 803f bb30 803f bff5 7e3f
00000390: 755e 803f 43ff 7f3f 6b0e 803f 2e32 803f
000003a0: 7cdf 7e3f cf35 803f e52e 813f 13c2 803f
000003b0: ea64 803f c8da 7f3f 2b69 803f 7cee 7e3f
000003c0: 0d0c 7f3f 35f1 803f b7ba 813f c787 803f
000003d0: bd13 803f 5be8 7f3f 2965 803f c065 7f3f
000003e0: f674 803f d110 803f 356a 7f3f bba0 7f3f
000003f0: 597a 803f 85b4 7f3f 8846 7f3f 5bb8 7f3f

bias f4 [300]
0.001812604 0.00013482742 0.002542111 -0.0012715054 0.00052436965 -0.0027486528 -0.0002565675 -0.00042340375
0.0019456983 -0.00076126884 0.0045823054 0.00691152 -0.0021516206 -0.00025716744 0.0015336182 0.002454723
0.00039065361 -0.0010392198 0.0018160407 -0.0015039695 -0.0014943938 -0.002723333 -0.0009358872 0.0016172053
-0.0043961536 -0.0027575488 0.0005944105 0.0031789332 0.00014459102 -0.0022446432 0.001681434 0.0013523822
0.004826209 0.0016636036 0.0008178868 0.0019500507 -0.00185999 0.0008531502 0.00048166848 0.0011720953
0.0012963391 0.0006958986 -0.0011775913 0.0026859173 -0.00038364515 -0.0011969897 -0.0021806052 -0.0021894837
-0.002877022 -0.0055484655 0.00029442544 -5.3967644e-05 0.0010879753 -0.005356569 -0.0007173429 -0.0006120682
-0.0007996526 -0.0043880967 -0.0028983457 -0.0009110986 0.00014857146 -0.00042195997 0.00044344217 0.0011085481
0.002403044 0.00010565288 -0.0022998825 0.003101826 0.0017757026 0.00073764584 -0.0048909215 9.9597106e-05
-0.0034719433 -0.00082580926 0.0004501892 -0.0018080653 -0.0020096404 0.0037780905 -0.0025259953 -0.002625592
0.0026452704 0.0001904531 0.0034867977 -0.0043179435 -0.00015044386 0.0012538701 -0.004046684 -4.3912893e-05
0.005848863 0.0018978538 -0.0006362449 -0.0008570293 0.0048170225 -0.0008154929 -0.0016032886 -0.0047497055
0.0003766191 0.004621828 -0.0044819517 -0.0026549245 0.0018687915 -0.00073172466 -0.0006279414 0.0014067981
0.0014198772 -0.0005598531 -0.00043039516 0.0033091658 0.0014873387 0.0031950474 -0.0033307837 -0.0032194096
-0.00089361076 0.003506195 -0.0001464466 -0.00063480675 -0.0009340352 0.0012007733 -0.0011973601 0.003219799
0.0019437174 -0.0012006423 0.0022210078 0.0006147124 -9.8346565e-05 -0.002114065 -0.004870827 0.00018132923
0.0027671123 -0.0056321947 0.00012111531 -0.0023143913 0.006185793 0.00045269812 -0.0020870047 -0.004550671
-0.003310651 -0.0021894937 -0.00016621822 -0.000351188 -0.0021753395 -0.002476489 -0.0042243702 -0.0012026975
0.0002819353 0.002295153 0.00013761928 -0.0060743117 0.0024570206 0.0013585221 -0.0001873954 -0.0010688232
0.0014345672 0.00060411316 -0.0013986698 -0.0003042673 0.00020824393 -0.0020917319 -0.0016131018 -0.0010929786
-0.002797779 -0.0019615884 0.0036836062 0.0010789138 0.0019520178 0.00033127738 0.00034661737 -0.002249993
-0.004484549 0.0012013918 0.0037827303 -0.0029224553 0.0011035586 0.0005963701 -0.00046330065 0.0013215962
-8.534027e-05 -0.0017435105 -0.00072454533 0.007925875 0.0012158796 -0.0010432311 -0.00016934193 -0.0007989154
-0.00023533427 -0.0005561343 -0.0027153897 -0.0011082941 -0.00037637984 0.0018664484 -0.0005938045 0.00088587275
-0.00078971474 0.0031794827 -0.0024069801 -0.0009034895 0.0014603242 -0.0034529492 -0.0004038477 -0.00046951917
0.0003353711 -0.0007325749 -0.0005068661 0.000773769 -0.00031344825 0.0036112098 0.0014039741 0.0021898847
0.0013875624 -0.0020772438 0.003998499 -0.00019183916 0.0010379227 8.1485e-05 -0.0027563164 0.0013155334
0.0005611274 0.007500437 -0.0002309677 0.0019097029 0.0015030499 0.0016586025 -0.002066549 -0.0014774749
-0.003192926 0.000979382 0.0011964294 -0.0010375212 0.00013897737 0.0003258176 0.0019672734 -0.0015335721
0.004495051 0.0035327012 -0.00067164906 -0.0015412819 -0.0017397195 -0.004263061 -0.0016303763 0.00080472697
-0.00059499603 0.0038332061 -0.0016246322 0.0010011198 0.00021298106 -0.0004110665 0.00031163954 -0.0025649176
-0.00046611 0.0013430613 -0.0019543436 0.00015655055 0.0010825054 0.0010145821 0.0027423517 0.0030493126
00000000: e694 ed3a 7660 0d39 8c99 263b a4a8 a6ba
00000010: da75 093a be22 34bb e883 86b9 4afc ddb9
00000020: cd06 ff3a e38f 47ba 2a27 963b 087a e23b
00000030: 3402 0dbb 6ed4 86b9 b003 c93a 6bdf 203b
00000040: a4d0 cc39 6e36 88ba 3708 ee3a d820 c5ba
00000050: 89df c3ba f279 32bb 5456 75ba 68f8 d33a
00000060: 9c0d 90bb feb7 34bb 37d2 1b3a a655 503b
00000070: 5b9d 1739 dd1a 13bb 9063 dc3a 6b42 b13a
00000080: 2d25 9e3b 460d da3a 7467 563a d898 ff3a
00000090: e8ca f3ba f1a5 5f3a 7388 fc39 fea0 993a
000000a0: ece9 a93a f76c 363a 6859 9aba 3706 303b
000000b0: fb23 c9b9 4fe4 9cba 7ce8 0ebb 717d 0fbb
000000c0: 6b8c 3cbb e7cf b5bb 1d5d 9a39 515b 62b8
000000d0: 659a 8e3a 2886 afbb 110c 3cba 3473 20ba
000000e0: c79f 51ba 06ca 8fbb 2cf2 3dbb cbd6 6eba
000000f0: d9c9 1b39 823a ddb9 cd7d e839 b44c 913a
00000100: 637c 1d3b f591 dd38 a0b9 16bb 0148 4b3b
00000110: b1be e83a 935e 413a 0644 a0bb cade d038
00000120: 8b89 63bb 1f7b 58ba 5f07 ec39 9bfc ecba
00000130: 2cb4 03bb d799 773b 2b8b 25bb 2012 2cbb
00000140: 465c 2d3b 5db4 4739 c282 643b 897d 8dbb
00000150: 77c0 1db9 e658 a43a 0c9a 84bb 1c2f 38b8
00000160: d2a7 bf3b 68c1 f83a acc9 26ba 43aa 60ba
00000170: 1dd8 9d3b cdc6 55ba 7025 d2ba 6ba3 9bbb
00000180: f674 c539 b472 973b 56dd 92bb 3efe 2dbb
00000190: 3df2 f43a 36d1 3fba 6f9c 24ba 5064 b83a
000001a0: 2c1b ba3a 1bc3 12ba a9a6 e1b9 97de 583b
000001b0: cef2 c23a 0064 513b 4749 5abb bbfc 52bb
000001c0: 3441 6aba 31c8 653b 768f 19b9 2969 26ba
000001d0: 0bda 74ba 4463 9d3a bdf0 9cba 4303 533b
000001e0: 55c4 fe3a df5e 9dba 548e 113b a724 213a
000001f0: 693f ceb8 208c 0abb 759b 9fbb 3223 3e39
00000200: 7158 353b 468e b8bb 49ff fd38 0bad 17bb
00000210: 31b2 ca3b 1d58 ed39 21c6 08bb cc1d 95bb
00000220: 82f7 58bb 9c7d 0fbb dd4a 2eb9 a81f b8b9
00000230: 2490 0ebb 974c 22bb 966c 8abb d5a3 9dba
00000240: b7d0 9339 476a 163b e54d 1039 050b c7bb
00000250: f705 213b 7010 b23a 927f 44b9 c117 8cba
00000260: 1608 bc3a 595d 1e3a 9253 b7ba 1186 9fb9
00000270: 0e5c 5a39 7015 09bb b76e d3ba 4742 8fba
00000280: f15a 37bb fe8d 00bb a868 713b 576a 8d3a
00000290: d9da ff3a 4caf ad39 32ba b539 9e74 13bb
000002a0: 20f3 92bb 0578 9d3a afe7 773b aa86 3fbb
000002b0: 48a5 903a b855 1c3a 29e7 f2b9 6939 ad3a
000002c0: b5f8 b2b8 8186 e4ba 6aef 3dba 87db 013c
000002d0: 265e 9f3a 07bd 88ba 6191 31b9 4e6e 51ba
000002e0: 10c4 76b9 8bc9 11ba aef4 31bb 2e44 91ba
000002f0: d954 c5b9 9ea3 f43a 8ca9 1bba ea39 683a
00000300: dc04 4fba de5e 503b 6dbe 1dbb 27d8 6cba
00000310: 5968 bf3a e04a 62bb 85bb d3b9 cc29 f6b9
00000320: bfd4 af39 450a 40ba 35df 04ba c2d6 4a3a
00000330: 5056 a4b9 0caa 6c3b 8e05 b83a 2b84 0f3b
00000340: dede b53a 5e22 08bb d705 833b 6f28 49b9
00000350: e80a 883a ede2 aa38 51a3 34bb fa6d ac3a
00000360: 9f18 133a 3ac6 f53b eb2f 72b9 ff4e fa3a
00000370: fc01 c53a 7765 d93a f06e 07bb d5a7 c1ba
00000380: 6940 51bb 9b5e 803a 82d1 9c3a 6ffd 87ba
00000390: 74ba 1139 7fd2 aa39 5fed 003b 2402 c9ba
000003a0: 394b 933b e484 673b 9b11 30ba d704 caba
000003b0: 4d07 e4ba 26b1 8bbb 5ab2 d5ba 50f4 523a
000003c0: 82f9 1bba 8736 7b3b 9cf1 d4ba 0238 833a
000003d0: ab53 5f39 6984 d7b9 8d63 a339 2d18 28bb
000003e0: 3a60 f4b9 a909 b03a 7214 00bb b827 2439
000003f0: dbe2 8d3a bafb 843a 07b9 333b fad6 473b
