testbed/models/gnn_layer_2.pt (torch, 896821 bytes, 7 tensors)

weight f4 [300, 300]
0	0xbd662061	-0.056183223
1	0xbd341a3f	-0.043970343
2	0xbd0fdc73	-0.035122346
3	0xbd36baf9	-0.044611905
4	0x3ce8feb0	0.028441757
5	0xbd5a214d	-0.053254414
6	0x3ba52198	0.005039405
7	0xbce13eef	-0.02749583
8	0xbd219e37	-0.039457526
9	0x396bb564	0.0002247892
10	0xbce1ebe1	-0.027578296
11	0x3cb1dfd6	0.021713179
12	0x3d6b680d	0.057472277
13	0xbd143e91	-0.03619248
14	0x3d3c5118	0.045975775
15	0x396dbf14	0.00022673263
16	0xbd547122	-0.051865704
17	0xbd5e885a	-0.054329254
18	0xbc857db5	-0.016295293
19	0xbd0471f5	-0.03233524
20	0x3c67bc24	0.014143977
21	0x3c057002	0.0081443805
22	0xbd15d387	-0.03657868
23	0xbce039c2	-0.027371291
24	0x3ce2007d	0.027588123
25	0xbc8fdad4	-0.0175604
26	0x3d0fe0fc	0.03512667
27	0xbd0f74f8	-0.03502366
28	0xba12ab22	-0.0005594959
29	0x3ca44986	0.02005459
30	0xbd6db779	-0.0580363
31	0x3cab8398	0.020936772
32	0x3b6f6f38	0.0036534797
33	0x3c9660d6	0.018356722
34	0xbce7b837	-0.028286083
35	0xbc2c2404	-0.010506634
36	0xbd2c5ac6	-0.042078756
37	0x3d1f7537	0.038930144
38	0xbc9c80fa	-0.01910447
39	0xbcdad2a1	-0.026711764
40	0x3c1f8416	0.009736082
41	0x3d30f4c7	0.043202188
42	0xbd2cef91	-0.042220656
43	0x3d0ddecb	0.0346363
44	0x3cde89c2	0.027165297
45	0xbc3f6542	-0.011681857
46	0x3cc4a133	0.024002647
47	0x3c24a50a	0.010049114
48	0xbc5e6f43	-0.013576332
49	0x3d296252	0.04135353
50	0xbc0b522b	-0.008503477
51	0x3d1b50e4	0.03791894
52	0xbbe2e13c	-0.0069238227
53	0xbcaeba09	-0.021328943
54	0x3aee0e40	0.0018162206
55	0xbcc3103b	-0.02381145
56	0x3d2ba222	0.04190267
57	0x3cb2df60	0.02183503
58	0x3cff4f5f	0.031165777
59	0xbd6ed6bb	-0.05831025
60	0xbd70f2ff	-0.05882549
61	0x3cad1828	0.021129683
62	0x3ccd8856	0.025089424
63	0x3c2ae476	0.010430446
64	0xbc4a54d3	-0.012349325
65	0xbd6b5b1c	-0.057459936
66	0x3d0c02c4	0.034182325
67	0x3d0d78af	0.03453892
68	0xbcba1b90	-0.022718221
69	0x3a713568	0.00092013786
70	0x3cbd5881	0.023113491
71	0x3d2f9f66	0.042876624
72	0x3d4f39a8	0.050592095
73	0x3cbb699e	0.02287751
74	0x3c9feb5c	0.019521408
75	0x3d237a36	0.03991147
76	0xbd39340a	-0.045215644
77	0xbd154c83	-0.03644992
78	0xbd01b4d5	-0.031666595
79	0x3d1ae7e4	0.037818804
80	0xbcba8267	-0.022767259
81	0xbd6334ee	-0.0554704
82	0x3bee17e6	0.0072660325
83	0xbbc2605f	-0.0059318985
84	0xbcc3663b	-0.023852458
85	0xbc26c182	-0.010177972
86	0xbca27381	-0.019830467
87	0xbcba947d	-0.022775883
88	0xbbe779bc	-0.0070640724
89	0xbc858388	-0.01629807
90	0xbb9030f3	-0.0044003665
91	0xbc9a4a73	-0.018834328
92	0xbc91dc66	-0.01780529
93	0xbd09de2e	-0.033659153
94	0x3d4cbed0	0.04998666
95	0x38c30088	9.2984235e-05
96	0x3d2d0ded	0.04224961
97	0x3bd31653	0.0064418702
98	0xbd5dcfc3	-0.054153215
99	0xbd72d82f	-0.0592882
100	0x3b592243	0.0033131994
101	0x3d4facdc	0.05070196
102	0x3d13578a	0.035972156
103	0xbbfc1edf	-0.00769411
104	0xbd01927f	-0.03163385
105	0x3bee74e0	0.007277116
106	0xbc765ccc	-0.015036773
107	0xbca8e9eb	-0.020619353
108	0x3ca1a05a	0.019729782
109	0x3c266483	0.0101558
110	0x3d276d43	0.040875684
111	0x3ad79529	0.0016447651
112	0x3d0e9299	0.034807775
113	0xbd134e08	-0.03596309
114	0xbcd386ad	-0.025821054
115	0x3d51ab40	0.051188707
116	0x3ce69f8e	0.028152253
117	0x3caa0294	0.020753182
118	0x3ce46fac	0.02788528
119	0x3ce1987d	0.027538532
120	0xbd3378c5	-0.043816347
121	0x3ce173d7	0.027521057
122	0x3c935314	0.01798395
123	0x3c30355a	0.0107549075
124	0xbb77b423	-0.0037796579
125	0x3b3adc04	0.0028512487
126	0x3d0c78e5	0.03429498
127	0x3d5c1ae5	0.053736586
128	0x3d66b4f5	0.056324918
129	0x39d7c8a2	0.0004115748
130	0xbd3293ff	-0.04359817
131	0x3ce34d87	0.027746929
132	0x3d150ae5	0.036387343
133	0xbc9caa6a	-0.019124229
134	0x3cc92286	0.024552595
135	0xbcb09eda	-0.021560121
136	0xbd56041a	-0.052250005
137	0xbd32c655	-0.043646175
138	0xbd5d366f	-0.05400699
139	0x3c8e90f1	0.017403098
140	0x3d4d7bec	0.05016701
141	0x3cd31ab8	0.025769576
142	0x3d01dd15	0.03170498
143	0x3ce34337	0.027742011
144	0xbd1b6c63	-0.037945163
145	0xbd1d752e	-0.03844183
146	0xbd35a509	-0.044346843
147	0x3d269024	0.040664807
148	0x3cca845f	0.024721323
149	0xbc74dcd1	-0.014945225
150	0xbd453833	-0.0481493
151	0x3cb2fdea	0.021849591
152	0xbc50e702	-0.012750389
153	0x3cf6e893	0.030140197
154	0xbb0b11e2	-0.0021220376
155	0x3d3fd1ea	0.04683105
156	0xbaf82fed	-0.0018935181
157	0x3d43f1ed	0.04783814
158	0xbcea6de7	-0.028616859
159	0x3cccfaeb	0.02502199
160	0x3cad2d69	0.021139817
161	0x3d3a867c	0.04553841
162	0x3b778311	0.003776733
163	0x3d1a9e7a	0.03774879
164	0xbd0baa2f	-0.034097847
165	0xbd4de752	-0.050269432
166	0xbd01db27	-0.03170314
167	0xbc9549f3	-0.018223738
168	0xbc5d1a64	-0.013495062
169	0xbd663b3b	-0.05620883
170	0xbd395f75	-0.04525705
171	0x3d32879b	0.043586355
172	0x3b3831a1	0.0028105753
173	0xbb535f03	-0.0032252676
174	0x3d3c85e7	0.046026137
175	0x3d5e47a2	0.054267533
176	0xbcbc94cf	-0.023020176
177	0x3ca9f712	0.020747695
178	0x3d5d1840	0.053978205
179	0xbd231ecf	-0.039824303
180	0x3d59c414	0.05316551
181	0x3c62e4b9	0.013848477
182	0xbcf2e222	-0.029648844
183	0xbd6bee35	-0.05760022
184	0x3d394f48	0.045241624
185	0x3cdc1488	0.026865259
186	0xbb72f470	-0.0037071966
187	0x3d0aaa65	0.033853907
188	0x3d0e3d0f	0.0347262
189	0x3bb981bd	0.005661218
190	0x3bb9ceb3	0.0056703924
191	0x3d227760	0.039664626
192	0x3d60d9a8	0.054895073
193	0x3d0d8bd9	0.034557197
194	0xbd713016	-0.05888375
195	0x3c3f300f	0.011669173
196	0x3d5e3559	0.054250095
197	0xbb6235f2	-0.0034517017
198	0xbabaa701	-0.0014240445
199	0xbbcf7411	-0.006330975
200	0x3c2e3ea1	0.010635049
201	0x3d2c7f1e	0.042113416
202	0x3cbf1e57	0.023329897
203	0xbb345d42	-0.0027521406
204	0x3cce7d9d	0.025206381
205	0x3d4463d3	0.047946762
206	0x3d5dc563	0.05414332
207	0xbacefe55	-0.001579235
208	0xbcb44382	-0.022004846
209	0xb9003763	-0.00012227664
210	0x3c8a082d	0.016849602
211	0x3cc8040c	0.024415992
212	0x3d0d712d	0.03453176
213	0xbcac8ff6	-0.02106474
214	0x3d496790	0.04917103
215	0xbd54929a	-0.051897623
216	0xbd5e8e03	-0.05433465
217	0xbd3eef9e	-0.046615236
218	0xbd11a5a1	-0.035558347
219	0xbd5e5883	-0.05428363
220	0x3c30c7c4	0.010789815
221	0x3ce29b95	0.027662078
222	0xbd0c1ce6	-0.034207247
223	0xbc95147f	-0.01819825
224	0xbd6caacd	-0.057780076
225	0xbcad3571	-0.021143647
226	0x3c70f666	0.014707183
227	0x3c8fe28f	0.017564086
228	0x3c3b6f2c	0.01144008
229	0x3cc9b71f	0.024623452
230	0xbd59de1f	-0.053190347
231	0x3cae00e5	0.02124066
232	0xbcf6ba61	-0.03011817
233	0xbd138a7d	-0.036020745
234	0x3d2c7c1e	0.042110555
235	0xbad052ae	-0.0015893781
236	0xbce1d6b1	-0.027568193
237	0x3ccb43d9	0.024812626
238	0x3d1d94bb	0.03847192
239	0x3c279f3e	0.010230837
240	0xbd5e2f10	-0.0542441
241	0xbc223a4e	-0.009901596
242	0xbcfd76e9	-0.03094049
243	0x3cc576f1	0.024104567
244	0x3d3ae64e	0.045629792
245	0x3c0f4f9e	0.00874701
246	0xbcd1a04b	-0.025589129
247	0xbd5663e2	-0.05234135
248	0x3cf0f113	0.029411828
249	0x3d44c987	0.048043754
250	0xbc2aa8f6	-0.01041626
251	0x3bdd9c3e	0.0067630103
252	0xbd66e790	-0.05637318
253	0x3d51fb8c	0.051265284
254	0x3c3aff45	0.0114134
255	0x3cd3f78e	0.02587488

bias f4 [300]
0	0xbce5c5de	-0.028048452
1	0xbd572e86	-0.052534603
2	0xbc6e443c	-0.0145426355
3	0xbd22975d	-0.039695133
4	0xbd647ce2	-0.05578316
5	0xbd1beb0c	-0.038065955
6	0xb8f96fa5	-0.00011894041
7	0x3afabbb8	0.0019129431
8	0xbd120dad	-0.035657573
9	0xbba523b0	-0.0050396547
10	0x3d4e7e45	0.05041339
11	0xbd7815c1	-0.06056762
12	0xbd0d64a0	-0.03451979
13	0x3cc9a05f	0.024612604
14	0xba8fc0c5	-0.0010967484
15	0x3c48b43c	0.0122500025
16	0xbd5a3c59	-0.05328021
17	0xbca150bd	-0.01969182
18	0xbd639d0d	-0.055569697
19	0xb9751a29	-0.00023374766
20	0xbc8d3f97	-0.017242236
21	0xbc326325	-0.010887896
22	0x3c3b0dc4	0.011416856
23	0x3d1223b7	0.03567859
24	0x3c9dfe82	0.019286398
25	0x3d0c3f04	0.034239784
26	0x3bc826bb	0.0061081327
27	0xbb8f449d	-0.004372193
28	0x3c7b09b5	0.015322139
29	0x3cb8ee61	0.022574605
30	0x3be2ca82	0.0069211135
31	0xbd65a3a4	-0.056064263
32	0x3d4f47cf	0.05060559
33	0x3c819054	0.015815891
34	0xbd41f4f1	-0.047352735
35	0xbd41e892	-0.047340937
36	0xbacc16e6	-0.0015570789
37	0x3d07092d	0.032967735
38	0xbcf9499a	-0.030430604
39	0xbce06679	-0.027392613
40	0x3cb72ff2	0.02236173
41	0x3d066f4b	0.03282098
42	0xbc047ab1	-0.008085893
43	0x3c613e7e	0.013747809
44	0xbd199785	-0.037498016
45	0xbd077764	-0.033072844
46	0xbc841e56	-0.016127747
47	0xbd464e3a	-0.048414446
48	0x3c98453c	0.018587701
49	0x3c69e68e	0.01427616
50	0xbd456516	-0.048192106
51	0x3c03a78a	0.00803555
52	0xbc0205a3	-0.007935914
53	0xbd27b74c	-0.04094629
54	0x3cc22922	0.023701254
55	0xbd3fdca3	-0.046841275
56	0x3d179683	0.037008774
57	0xbb1a32a7	-0.0023528726
58	0xbc01bec1	-0.007919014
59	0x3caeced6	0.021338861
60	0x3d50a342	0.050936945
61	0x3c50534c	0.012715172
62	0xbb9dbb5f	-0.004813596
63	0xbd417f9d	-0.047240842
64	0xbd55b549	-0.05217484
65	0xbd195961	-0.037438754
66	0xbb793abd	-0.0038029396
67	0xbcbe486c	-0.023227893
68	0xbc7c4bae	-0.015398903
69	0xbd493309	-0.049120937
70	0x3d5efb95	0.054439146
71	0xbb560e3a	-0.0032662288
72	0x3b971a0a	0.0046112584
73	0xbbcaaa22	-0.006184832
74	0x3be0c6ca	0.006859635
75	0x3d114b14	0.03547199
76	0x3ccde7c7	0.025134934
77	0xbd71eb38	-0.059062213
78	0x3d5bc594	0.053655222
79	0x3b85c5d0	0.004082419
80	0x3d026c9b	0.031841855
81	0xbc71366d	-0.014722449
82	0x3cc615d0	0.024180323
83	0xbd121581	-0.03566504
84	0x3d1757bb	0.0369489
85	0xbccde1a9	-0.025132017
86	0x3c67c5d5	0.014146288
87	0x3cc2ff52	0.023803387
88	0x3d3ac5e1	0.04559887
89	0xb78aaac0	-1.6530394e-05
90	0x3d1992a1	0.03749335
91	0x3d1e7e6e	0.03869479
92	0xbc329c54	-0.010901529
93	0x3d5bc114	0.05365093
94	0xbc88ee74	-0.016715266
95	0xbd70a6e0	-0.058752894
96	0xb9824694	-0.00024848117
97	0xbbe2e585	-0.0069243335
98	0x3d1eb34d	0.038745213
99	0x3d1cf7ac	0.038322136
100	0x3ad62cf6	0.0016340304
101	0xbcc68c6f	-0.024236886
102	0xbd01ef53	-0.031722378
103	0xbd5e6137	-0.05429193
104	0xbcc0cd97	-0.023535533
105	0x3cc7275a	0.024310756
106	0xbd299d4a	-0.04140977
107	0x3c52ab80	0.012858272
108	0xbc1e966e	-0.00967942
109	0x3c728c91	0.014804021
110	0x3c12bf24	0.008956704
111	0xbce97f37	-0.028503044
112	0x3d069eeb	0.0328664
113	0xbd02fe73	-0.031980943
114	0xbc547ef8	-0.012969725
115	0x3c0219b7	0.007940701
116	0xbc97ed22	-0.01854569
117	0xbcd42aa8	-0.025899246
118	0xbd2ba3c8	-0.04190424
119	0x3d536e53	0.051618885
120	0x3d194007	0.037414577
121	0x3d164062	0.036682494
122	0xbcc0cb84	-0.023534544
123	0xbcffaed0	-0.031211287
124	0xbd3a7d33	-0.045529556
125	0xbc9a90cb	-0.01886787
126	0xbd3184a6	-0.043339394
127	0xbd548ce2	-0.05189217
128	0xbca51663	-0.020152276
129	0xbc93e79b	-0.018054774
130	0xbd0e7846	-0.03478267
131	0x3c48a58b	0.0122465
132	0xbcc5f27d	-0.024163479
133	0xbce6b4f1	-0.028162451
134	0x3d230dc6	0.039808057
135	0xbb563369	-0.0032684451
136	0x3d2573ec	0.040393755
137	0xbc2f4b7e	-0.010699151
138	0xbcde7c8d	-0.027159
139	0xbd6c2f94	-0.05766256
140	0x3cff52c7	0.031167401
141	0xbd6f0521	-0.0583545
142	0x3cca1dbc	0.024672382
143	0xbd5cffd2	-0.053954907
144	0xbd3c3e0a	-0.045957603
145	0xbcd7f909	-0.026363866
146	0x3c71ccfc	0.014758345
147	0x3c7b1fc8	0.015327401
148	0x3d533ee2	0.05157364
149	0xbd5e5298	-0.054277986
150	0x3c09954e	0.008397413
151	0x3c3f993b	0.011694248
152	0x3c5ccf30	0.013477132
153	0xbd1074c5	-0.03526761
154	0x3d219bda	0.039455272
155	0xbada13f3	-0.0016638025
156	0x3cbd7e67	0.023131562
157	0xbca68261	-0.020325841
158	0x3cf22719	0.029559659
159	0x3d4448d2	0.04792101
160	0xbd6c356d	-0.05766814
161	0xbcb3b830	-0.021938413
162	0xbd2934f5	-0.04131027
163	0x3d5a31e5	0.05327024
164	0xbc0737fe	-0.008253096
165	0xbd280020	-0.041015744
166	0xbc4d699d	-0.012537387
167	0x3b5c40c2	0.0033607935
168	0x3d361d10	0.04446131
169	0x3d2ec3e0	0.04266727
170	0x3d2ab519	0.041676614
171	0x3d29cf69	0.041457567
172	0x3d14f694	0.036367968
173	0x3d0a5227	0.033769753
174	0x3cb5f379	0.022210823
175	0xbc273b33	-0.010206985
176	0xbd0199c7	-0.031640794
177	0xbd1cc54d	-0.0382741
178	0xbd21aab6	-0.039469443
179	0x3d1703ce	0.036868863
180	0xbd46ec1d	-0.04856502
181	0x3c0e6dad	0.008693141
182	0x3cda2cc3	0.026632672
183	0xbcb62e1b	-0.022238782
184	0x3d677c3f	0.056514975
185	0x3d399786	0.04531052
186	0x3d14a168	0.03628674
187	0x3d410bd3	0.047130417
188	0x3b5f71d7	0.0034094953
189	0x3c362576	0.01111733
190	0xbbf7b47a	-0.0075593563
191	0x3d0dbd3a	0.03460429
192	0x3d401e8f	0.046904143
193	0x3cdcaca7	0.026937796
194	0x3d189ddb	0.037259918
195	0x3ca1f33c	0.019769304
196	0x3b756392	0.0037443382
197	0x3ba993f1	0.0051751067
198	0xbd12833b	-0.035769682
199	0xbd2bc2f3	-0.041933965
200	0xbd12c13b	-0.03582881
201	0x3c8d7394	0.017267026
202	0xbca62d84	-0.020285375
203	0xbd33ac59	-0.043865535
204	0xbbaf4e63	-0.0053499206
205	0xbcecd513	-0.028910195
206	0xbc7e2103	-0.0155108
207	0x3d2d4d00	0.04230976
208	0xbd36150b	-0.044453662
209	0x3d46261a	0.04837618
210	0xbd408f7f	-0.04701185
211	0x3c020b91	0.007937328
212	0xbd4b4f9c	-0.04963647
213	0xbcbd4421	-0.023103775
214	0xbca3c1da	-0.019989897
215	0x3a5326b4	0.00080547784
216	0x3d2987c4	0.04138924
217	0x3d35e280	0.04440546
218	0x3be4bb4f	0.0069803367
219	0x3cd62cb8	0.02614437
220	0xbd51c48e	-0.05121284
221	0x3cbd2aa5	0.023091624
222	0xbd5d53b5	-0.054034907
223	0x3cb19c02	0.021680836
224	0x3d075045	0.033035535
225	0x3d48758a	0.04894022
226	0xbd31c8c1	-0.043404344
227	0xbc977a01	-0.018490793
228	0x3d0168b1	0.031593982
229	0x3d385bd1	0.045009438
230	0x3a749d3b	0.00093312905
231	0x3d0b655b	0.034032207
232	0x3d438369	0.047732744
233	0x3d540b80	0.05176878
234	0xbd631866	-0.05544319
235	0xbc875a89	-0.016522663
236	0xbd741cdd	-0.05959784
237	0xbd03effe	-0.032211296
238	0x3d2dd354	0.042437866
239	0x3c1be89c	0.009515908
240	0xbc2d7112	-0.01058604
241	0xbd42e1e4	-0.047578707
242	0xbd2b3b05	-0.041804332
243	0x3d613e52	0.054991074
244	0x3d140071	0.036133233
245	0x3d1f9ea4	0.03896965
246	0x3ceed31c	0.0291534
247	0xbd504091	-0.050842825
248	0xbd689126	-0.05677905
249	0xbc9e91cb	-0.019356629
250	0xbc30f6ce	-0.01080103
251	0xbbbe5bf7	-0.005809303
252	0xbc029c2c	-0.007971805
253	0xbb813850	-0.0039434806
254	0x3d1943ec	0.03741829
255	0xbbb8eeea	-0.005643715

weight f4 [200, 300]
0	0xbc04eaf0	-0.008112654
1	0x3d286c47	0.041118886
2	0x3acad94a	0.0015476134
3	0x3c7e4d53	0.015521365
4	0x3d0d7590	0.034535944
5	0x3d02a038	0.031891078
6	0x3d8c870d	0.068616964
7	0x3d371da8	0.044706017
8	0xbd3ba373	-0.045810174
9	0x3d2949d3	0.04133017
10	0xbcdc24bd	-0.026872987
11	0xbd689368	-0.056781203
12	0x3c46ee4b	0.012141774
13	0x3d0b3576	0.03398653
14	0x3bc27c40	0.005935222
15	0x3c551528	0.013005532
16	0xbc9d6c7b	-0.019216767
17	0xbd2be141	-0.041962866
18	0xbcca66b8	-0.024707183
19	0x3caaabd1	0.020833882
20	0xbb1e018f	-0.0024109816
21	0x3c5d4863	0.013506028
22	0x3d36b046	0.0446017
23	0xbd53aefb	-0.051680546
24	0x3ce9239c	0.028459363
25	0x3c4c80b3	0.012481856
26	0xbc8ee6b2	-0.017443988
27	0x3d2014bc	0.039082274
28	0x3d3947c9	0.045234475
29	0xbc9e5a4f	-0.019330172
30	0xbd3a68ba	-0.04551003
31	0xbcca42e4	-0.024690099
32	0x3d0367e6	0.032081507
33	0xbd655b39	-0.0559952
34	0xbd6d9727	-0.05800548
35	0xbcf83d8a	-0.030302782
36	0xbcb8c8ab	-0.022556623
37	0x3d2236ab	0.039602917
38	0xbd0b2f3d	-0.033980597
39	0x3d3c10d4	0.045914486
40	0x3d0f5a48	0.03499821
41	0x3d1be587	0.03806069
42	0x3c2d9dcb	0.010596703
43	0xbcd5125b	-0.02600973
44	0xbd0c9b21	-0.03432763
45	0x3cb53571	0.02212021
46	0xbd321e54	-0.043485954
47	0x3cb6504e	0.02225509
48	0xbd394888	-0.045235187
49	0x3d7757ad	0.06038635
50	0xbd4c2ffe	-0.049850456
51	0xbce5b79b	-0.028041651
52	0x3c82f011	0.015983613
53	0x3d6b7a87	0.057489898
54	0x3bf3e6c6	0.007443282
55	0x3bf8ac59	0.007588905
56	0x3d0c951a	0.03432188
57	0xbc17a6ca	-0.009256074
58	0x3c661823	0.014043841
59	0x3d08c36f	0.033389505
60	0xbd0f3d34	-0.034970477
61	0xbc2f0033	-0.0106812
62	0xbbd3b360	-0.006460592
63	0x3d371283	0.04469539
64	0x3d41f56a	0.047353186
65	0x3b8cb821	0.004294411
66	0x3d308604	0.043096557
67	0x3c688c96	0.014193675
68	0xbc7fe35b	-0.015618171
69	0xbd3be7d2	-0.045875378
70	0xbcd72e6c	-0.026267253
71	0xbd1dec08	-0.038555175
72	0xbced7912	-0.028988395
73	0x3d2ece72	0.04267735
74	0xbae7bb66	-0.001767975
75	0x3d1cf137	0.038315978
76	0xbca81799	-0.020519065
77	0x3d51d8e3	0.05123223
78	0xbcd545df	-0.026034294
79	0x3d45860b	0.048223536
80	0xbc869271	-0.01642725
81	0x3cf488fa	0.029850472
82	0xbd377277	-0.044786897
83	0xbc321be4	-0.010870907
84	0xbc9cdfc9	-0.019149678
85	0xbc8c31fa	-0.017113674
86	0xbca70791	-0.02038935
87	0x3a8e6d33	0.0010866284
88	0x3d065316	0.03279408
89	0x3d288a31	0.041147415
90	0xbbaca8da	-0.005269152
91	0x3c8d8606	0.017275821
92	0xbc81cf4c	-0.015845917
93	0x3d16a734	0.03678055
94	0xbbd839c7	-0.0065986845
95	0x3d65c449	0.056095395
96	0x3c3e85a4	0.011628542
97	0x3d44bbea	0.04803077
98	0x3b1bb668	0.0023759846
99	0xbd3655a8	-0.044515282
100	0x3d701262	0.05861128
101	0x3c9a0d67	0.018805219
102	0x3baa1c88	0.0051913895
103	0x3ca495a9	0.020090895
104	0x3d28d1fb	0.041215878
105	0xbd63fb3f	-0.05565953
106	0xbd2da79a	-0.042396165
107	0xbc8b0fb4	-0.016975261
108	0xbd775242	-0.06038118
109	0x3d436301	0.04770184
110	0x3d61baa8	0.05510965
111	0x3d3d3c4b	0.046200078
112	0x3d5843f0	0.052799165
113	0x3b2b6011	0.002614979
114	0x3d2e0162	0.042481788
115	0xb99b50a7	-0.00029623994
116	0xbd487537	-0.04893991
117	0x3ccdb956	0.02511279
118	0xbd281f67	-0.041045573
119	0x3c44dc11	0.012015359
120	0x3b6c75e1	0.0036081003
121	0xbad4eb99	-0.001624453
122	0x3d73587a	0.05941055
123	0x3d2caece	0.042158894
124	0xbc99784e	-0.018734124
125	0x3bc0f97c	0.005889116
126	0x3d3ae241	0.04562593
127	0x3c020938	0.007936768
128	0xbc09c73e	-0.008409319
129	0x3d267afa	0.040644623
130	0xbc25a3c9	-0.01010985
131	0xbcf9975f	-0.030467687
132	0x3d2a7736	0.041617595
133	0x3d475074	0.04866071
134	0xbc7194c3	-0.01474494
135	0x3b109b5f	0.0022065265
136	0x3d43b998	0.047784418
137	0x3bf3cb4a	0.0074400054
138	0x3cba4445	0.022737632
139	0xbc599b49	-0.013281652
140	0xbd12d6f4	-0.035849527
141	0x3d524dcd	0.051343728
142	0x3d3582df	0.04431426
143	0x3cb1b2b7	0.021691663
144	0xbd2d63d0	-0.042331517
145	0xbd2e6fd3	-0.042587113
146	0x3cbb667e	0.02287602
147	0x3d630225	0.055421967
148	0x3d53e359	0.051730487
149	0x3bc1ca65	0.00591402
150	0xbc883f09	-0.01663162
151	0x3ce4ca88	0.027928606
152	0xbd412de0	-0.04716289
153	0xbd0e811e	-0.034791104
154	0x3c004ebc	0.007831272
155	0xbd185d2b	-0.037198227
156	0x3d5df93d	0.05419277
157	0xbcf0aa9d	-0.02937823
158	0x3c2dbaec	0.010603648
159	0x3c8af2b6	0.016961437
160	0xbd2c75fb	-0.042104702
161	0x3cb7b79c	0.022426419
162	0x3d5c52ef	0.05379003
163	0xbcadb919	-0.021206426
164	0xbd6678bd	-0.05626749
165	0x3c9fd99c	0.019512944
166	0xbcaf132e	-0.02137145
167	0x3d66ac95	0.05631693
168	0x3bc57c39	0.0060267714
169	0x3d4225a8	0.047399193
170	0x3c832bb8	0.016012058
171	0xbd530f54	-0.05152829
172	0xbcc9073f	-0.024539588
173	0x3bd85c87	0.006602827
174	0x3d2231d4	0.0395983
175	0xbb84c12d	-0.0040513487
176	0xbd3163f7	-0.043308225
177	0x3d134547	0.03595474
178	0x3d7cbf4a	0.061705865
179	0x3d0abe9a	0.033873178
180	0xbc852f80	-0.016258001
181	0xbcdfaa9b	-0.02730303
182	0xbc9bfc53	-0.019041216
183	0x3d44021c	0.047853574
184	0x3b9d9daf	0.004810057
185	0xbcd32c61	-0.025777997
186	0xbcf29428	-0.029611662
187	0x38573d9e	5.131738e-05
188	0x3c8e2544	0.017351754
189	0xbbd41e7c	-0.0064733606
190	0x3d4a0c62	0.049328215
191	0x3d1f64ea	0.0389146
192	0xbd0213af	-0.031757053
193	0xbd5ad167	-0.053422358
194	0x3c8c829f	0.017152129
195	0xbd20ce4c	-0.03925924
196	0x3d4676ef	0.048453268
197	0xbbadbb48	-0.0053018667
198	0xbb44be96	-0.0030020825
199	0xbb1dff11	-0.002410833
200	0x3d943477	0.072365694
201	0xbcc721eb	-0.024308166
202	0x3d41cbdf	0.047313567
203	0x3c413015	0.011791249
204	0x3d694aef	0.056956228
205	0xbd4a0305	-0.049319286
206	0xbbed8c53	-0.007249394
207	0xbcc2b55e	-0.023768123
208	0x3cf72c43	0.030172473
209	0xbd1b4663	-0.037908923
210	0x3c34ab2f	0.0110271415
211	0x3d338d02	0.043835647
212	0xbb91d71d	-0.0044506923
213	0x3c3c19f7	0.0114808
214	0x3d359e32	0.04434032
215	0x3d5478b8	0.05187294
216	0xbd342091	-0.04397637
217	0x3d0484ae	0.032353096
218	0xbcabc86e	-0.020969596
219	0x3d2dac52	0.042400666
220	0x3d54ec35	0.051983077
221	0x3d0a185d	0.03371464
222	0x3b80ca0b	0.0039303354
223	0xbbc20420	-0.005920902
224	0xbbefc451	-0.007317104
225	0xbd417479	-0.047230218
226	0xbd6d2f8e	-0.05790668
227	0xbc309d14	-0.010779638
228	0xbcb835a6	-0.022486519
229	0x3bf6ef11	0.007535823
230	0x3d8447ae	0.06458984
231	0x3b984a59	0.004647535
232	0x3d6dd786	0.058066867
233	0xbd1c4f6b	-0.038161676
234	0xbcc28e4c	-0.023749493
235	0x3be5d747	0.0070141884
236	0x3d19eb6f	0.037578043
237	0x3c5a2c3b	0.013316209
238	0xbd4c17ae	-0.04982727
239	0xbc662af3	-0.014048326
240	0xbc8d937d	-0.017282242
241	0x3c94fbfe	0.018186565
242	0xbcad7841	-0.021175506
243	0xbca0ba88	-0.019620195
244	0xbce9f378	-0.028558478
245	0x3d0910b3	0.03346319
246	0x3d2da177	0.042390313
247	0x3d43cb01	0.04780102
248	0xbb1c78b3	-0.0023875653
249	0xbcb70624	-0.022341795
250	0x3d440634	0.04785748
251	0x3d34bb84	0.04412414
252	0x3cf4f7ea	0.02990337
253	0x3d0c23ee	0.034213953
254	0x3c8e2d08	0.017355457
255	0x3d5b07bc	0.053474173

bias f4 [200]
0	0x3cdaa541	0.026690127
1	0xbc06b37b	-0.008221502
2	0xbd215eac	-0.039396927
3	0xbcffb646	-0.031214844
4	0x3bac150c	0.0052515324
5	0x3d06cf35	0.03291245
6	0x3cb63f07	0.02224685
7	0x3bfddeb6	0.0077474965
8	0x3d605127	0.054764893
9	0x3cd1fa45	0.025632033
10	0xbb3f7671	-0.0029214884
11	0x3aa014a5	0.0012213184
12	0xbc43ed7f	-0.011958479
13	0x3d402784	0.046912685
14	0xbb89c710	-0.0042046383
15	0x3c26e7e9	0.010187128
16	0x3cb84ad5	0.02249662
17	0xbd3d2248	-0.04617527
18	0xbbe52576	-0.006992991
19	0x3cb1aa9a	0.021687794
20	0x3ce7a818	0.028278396
21	0xbc0fc1e6	-0.008774256
22	0xbd445006	-0.04792788
23	0xbd6de831	-0.058082763
24	0x3d500aae	0.050791435
25	0x3cacb2a9	0.021081286
26	0xbd2586d8	-0.0404118
27	0x3a4cb498	0.0007808893
28	0x3d5e9318	0.0543395
29	0xbd29ff71	-0.041503374
30	0xbd74def9	-0.059782956
31	0xbb9541bd	-0.0045549558
32	0x3b9edaff	0.0048478837
33	0x3d1220e0	0.035675883
34	0x3d4c8974	0.049935773
35	0x3c73df83	0.014884832
36	0xbd2e3dae	-0.04253929
37	0x3d0a2c87	0.03373387
38	0x3c894d1d	0.016760403
39	0x3cd36c79	0.02580856
40	0x3b7c4419	0.0038492738
41	0x3d5e61ab	0.054292362
42	0x3d5a01b9	0.0532243
43	0xbd47e68c	-0.04880385
44	0xbcf55495	-0.029947558
45	0xbd40a04b	-0.047027867
46	0x3d73e7bd	0.059547175
47	0x3b9bb0d6	0.004751305
48	0xbc12f4f2	-0.008969532
49	0xbc15f720	-0.0091531575
50	0xbd5a16e4	-0.053244486
51	0x3c1f1057	0.009708486
52	0x3d1723fd	0.036899555
53	0xbcf9d1be	-0.03049552
54	0x3d263406	0.040576957
55	0x3c0ca791	0.008584873
56	0xbd0c7601	-0.034292225
57	0xbd0ace22	-0.03388799
58	0xbd2b2843	-0.041786443
59	0xbd222a16	-0.039590918
60	0xbc78e07a	-0.015190238
61	0x3c9fe27d	0.019517178
62	0xbc6e65e2	-0.014550658
63	0xbd57ad26	-0.05265536
64	0x3cd57a05	0.02605916
65	0xbd612381	-0.0549655
66	0xbd1abd32	-0.037778087
67	0x3d099ee8	0.03359881
68	0xbca84165	-0.020538995
69	0xbd17596e	-0.03695052
70	0xbd14f373	-0.036364984
71	0x3d317b09	0.043330226
72	0xbca78040	-0.020446897
73	0xbd235dac	-0.039884254
74	0x3b4da718	0.0031380113
75	0x3d6ffa00	0.058588028
76	0xbcc575b3	-0.024103975
77	0xbd24670d	-0.04013734
78	0x3d2ab099	0.041672323
79	0xbcfaeb09	-0.030629652
80	0x3c774e9a	0.015094424
81	0xbd3c6f96	-0.046004854
82	0xbd254961	-0.040353183
83	0xbce3622e	-0.027756777
84	0x3d02c54e	0.031926446
85	0x3bf82b15	0.007573495
86	0xbd58ecbf	-0.052960154
87	0x3d65a374	0.056064084
88	0x3c4633e3	0.012097332
89	0x3d47db11	0.048792902
90	0xbc9ea451	-0.019365462
91	0x3be6f476	0.007048185
92	0xbd32ad37	-0.04362222
93	0x3c99949e	0.018747624
94	0xbc53a9d2	-0.012918906
95	0xbcdda739	-0.027057277
96	0x3cdefbaa	0.027219612
97	0xbbaab9e7	-0.0052101496
98	0xbd2cb2f1	-0.04216284
99	0x3ccaa6be	0.024737712
100	0xbc752411	-0.014962212
101	0x3b1d6e9f	0.0024022234
102	0x3d574788	0.052558452
103	0x3d27d6e8	0.040976435
104	0x3d65b42a	0.05608002
105	0x3ccf8578	0.025332198
106	0xbb88ef37	-0.0041789073
107	0xbcaa606a	-0.020797927
108	0xbc95a4b3	-0.018267011
109	0xbcb51eef	-0.022109477
110	0x3d575ca6	0.05257859
111	0xbd0cad7d	-0.03434514
112	0xbd611fa1	-0.054961804
113	0x3c5a18e9	0.013311603
114	0xbd2139f6	-0.039361916
115	0x3d22c892	0.03974206
116	0xbc1b6276	-0.009483924
117	0x3b07349f	0.002063073
118	0xbd29f4c1	-0.04149318
119	0x3c1bbc01	0.009505273
120	0xbd03809e	-0.03210508
121	0x3d48db04	0.049036995
122	0xbc8a6bd2	-0.016897116
123	0xbd200838	-0.039070338
124	0x3d0828ce	0.03324204
125	0x3d051d24	0.032498494
126	0x3c070e10	0.008243099
127	0xbb9b619b	-0.00474186
128	0xbc24b97d	-0.0100539895
129	0x3c3c19fc	0.0114808045
130	0x3d65f3fb	0.05614088
131	0x3ceb1120	0.02869469
132	0x3b60da05	0.0034309637
133	0x3d27122d	0.04078882
134	0xbd59f33a	-0.053210475
135	0xbd1d6626	-0.038427494
136	0x3d4863e2	0.04892338
137	0x3c96524c	0.01834979
138	0x3d499665	0.049215693
139	0x3d1b626e	0.037935667
140	0xbca189e5	-0.019719074
141	0x3cc900f4	0.024536587
142	0xbd410d3f	-0.047131773
143	0x3ca9cc14	0.020727195
144	0x3cca851e	0.024721678
145	0xbd642be4	-0.05570592
146	0x3d6215fb	0.055196743
147	0xbd34cea3	-0.044142377
148	0xbbcb0a33	-0.006196284
149	0xbb5729c0	-0.0032831281
150	0x3d1f5000	0.038894653
151	0xbc16ace9	-0.009196498
152	0xbbd6c420	-0.0065541416
153	0xbcad005e	-0.02111834
154	0xbd030c72	-0.03199429
155	0xbd575a38	-0.052576274
156	0xbd15bc3a	-0.03655646
157	0xbb273b58	-0.002551755
158	0x3d329fa9	0.043609295
159	0x3d16d0da	0.03682027
160	0xbc916be9	-0.01775165
161	0xbcc28510	-0.02374509
162	0x3c44358c	0.011975657
163	0xbbbb0792	-0.0057076896
164	0x3d23be43	0.03997637
165	0x3cdb9265	0.026803205
166	0xbc920922	-0.01782662
167	0x3d662991	0.056191985
168	0x3b74ce23	0.0037354312
169	0x3d5cc7ee	0.053901605
170	0x3ce19b7e	0.027539965
171	0xbd460b4c	-0.048350617
172	0xbb54760c	-0.0032418994
173	0xbc79eb06	-0.015253788
174	0x3b48d98f	0.0030647253
175	0xbc4e045a	-0.01257428
176	0x3d1f322c	0.038866207
177	0x3d596e6b	0.05308382
178	0xbd5ad405	-0.053424854
179	0xbd2942a3	-0.041323315
180	0xbc39d24a	-0.011341641
181	0x3ccdf87b	0.025142899
182	0xbcb63cb9	-0.022245752
183	0x3d3ea60a	0.046545066
184	0xbd2a32e6	-0.041552447
185	0xbd0c8a04	-0.03431131
186	0xbcb019e2	-0.021496717
187	0xbc251b88	-0.010077365
188	0xbd306a29	-0.043069992
189	0x3b7a4908	0.0038190503
190	0xbd05d1e3	-0.032670867
191	0x3d394fda	0.045242168
192	0x3ccdba77	0.025113327
193	0xbb7641d2	-0.0037575853
194	0x3d553580	0.052052975
195	0xbbd0dbea	-0.006373872
196	0xbd6d1158	-0.05787787
197	0x3cfaa5b5	0.030596593
198	0x3c68ec20	0.014216453
199	0x3c991c26	0.01869018

weight f4 [200, 300]
0	0xbc4fd624	-0.012685332
1	0x3c75298d	0.01496352
2	0xbcaf14c2	-0.021372203
3	0x3d022dfe	0.031782143
4	0xbd42ed4b	-0.04758958
5	0xbd092769	-0.03348485
6	0x3b3a78db	0.0028453383
7	0x3c4e1f1c	0.012580659
8	0x3d42bef1	0.047545377
9	0xbd6e7123	-0.058213364
10	0x3d58172b	0.05275647
11	0xbcf65d57	-0.030073805
12	0xbd014b4e	-0.031565957
13	0xbc0ddc6d	-0.008658511
14	0x3c67782b	0.014127771
15	0xbd632e05	-0.05546381
16	0xbc8b69fa	-0.017018307
17	0x3cd03824	0.025417395
18	0x3d1950ac	0.03743045
19	0x3ac0b510	0.0014702398
20	0xbce9f88e	-0.028560903
21	0xbd0711e9	-0.032976065
22	0xbd84522c	-0.064609855
23	0xbd66bcf2	-0.056332536
24	0x3bed399a	0.0072395327
25	0x3d28badd	0.04119383
26	0xbca2c0ea	-0.01986738
27	0xbd14073d	-0.036139715
28	0x3c097d0a	0.008391628
29	0xbb553572	-0.0032533077
30	0xbd5a2fdc	-0.0532683
31	0xbd1d67fd	-0.03842925
32	0xbd61151d	-0.054951776
33	0x3d0074f7	0.031361546
34	0xbb94bcc8	-0.004539106
35	0x3d246f23	0.04014505
36	0x3c8ef84c	0.017452382
37	0xbcd20d3b	-0.025641074
38	0x3cbb52f8	0.022866711
39	0xbc0008a0	-0.007814556
40	0x3c7112bb	0.014713938
41	0xbb7e74ab	-0.0038826864
42	0xbd09891e	-0.03357803
43	0xbd4bc819	-0.049751375
44	0x3cb9f4e4	0.02269978
45	0xbd13a94f	-0.036050137
46	0x3d63540e	0.055500083
47	0xbb9e33ff	-0.0048279758
48	0x3cc6aaf1	0.024251433
49	0x3d02bf4b	0.031920712
50	0xbc3edc70	-0.011649236
51	0xbccf4f0d	-0.025306249
52	0xbc056a3d	-0.008143005
53	0x3cd4e621	0.02598864
54	0xbd4837ba	-0.04888127
55	0xbbed9123	-0.0072499677
56	0xbc0b5f30	-0.008506581
57	0xbcdac942	-0.026707295
58	0xbc4aa772	-0.012369024
59	0xbd4dd096	-0.05024775
60	0x3d62f8ed	0.055413175
61	0xbd4f33ee	-0.050586633
62	0x3d3496bb	0.04408906
63	0xbd623578	-0.055226773
64	0xbd65f762	-0.056144126
65	0xbd3b887d	-0.045784462
66	0x3ce76d5e	0.028250393
67	0xbba7a74e	-0.00511638
68	0xbd596b61	-0.05308092
69	0xbcb0f1de	-0.021599706
70	0x3c2d62be	0.010582624
71	0xbd16350d	-0.036671687
72	0x3bebb88e	0.0071936315
73	0x3ce66185	0.028122673
74	0xbd0a2dfb	-0.033735257
75	0xbaa57bc7	-0.001262539
76	0xbcec496a	-0.0288436
77	0xbcd0206a	-0.025406081
78	0x3d51c12d	0.051209617
79	0xbd80ca8c	-0.06288633
80	0x3c5d3bb5	0.013503005
81	0x3d20c876	0.039253674
82	0x3c82212b	0.015884956
83	0x3cdd353d	0.027002925
84	0xbbab5a6c	-0.005229285
85	0x3d7cd5ab	0.061727207
86	0x3b9e5add	0.004832609
87	0x3ce54f5c	0.027991943
88	0x3d2a5670	0.04158634
89	0xbc3ec947	-0.011644668
90	0x3d137e01	0.03600884
91	0xbd15ce9a	-0.036573984
92	0xba1d2745	-0.00059949263
93	0x3b429a7e	0.0029694135
94	0xbcb4d8d1	-0.022076042
95	0x3d1aa341	0.037753347
96	0xbd114eca	-0.03547553
97	0xbc9581b9	-0.018250333
98	0x3cd8de2f	0.026473133
99	0xbc8ebce9	-0.017424064
100	0xbd11ac14	-0.035564497
101	0xbaeee5d5	-0.0018226454
102	0x3c5877c5	0.013212149
103	0x3c19bc56	0.009383282
104	0x3c4574ac	0.0120517425
105	0x3d052584	0.03250648
106	0x3d54c9cc	0.05195026
107	0xbd1afcc3	-0.03783871
108	0xbd1820d5	-0.037140686
109	0x3ca4471c	0.020053439
110	0x3d1ab68f	0.037771758
111	0x3b1c1968	0.0023818854
112	0x3cf41875	0.029796818
113	0xbd1bc039	-0.038025115
114	0x3d12e13c	0.03585933
115	0xbd1c3923	-0.038140427
116	0xbd1df1b7	-0.038560595
117	0x3ae30453	0.0017320014
118	0x3ba355ff	0.004984617
119	0x3d450bbe	0.0481069
120	0x3bf16d39	0.0073677567
121	0xbce4ffbf	-0.02795398
122	0x3cbb6a05	0.022877702
123	0x3d55bbe5	0.052181143
124	0xbd169970	-0.036767423
125	0xbd6f452a	-0.05841557
126	0xb9f47b4a	-0.00046631164
127	0xbc9353c0	-0.017984271
128	0xbc2a8a76	-0.010408988
129	0x3d462311	0.048373286
130	0x3cda6521	0.02665955
131	0xbcee0b11	-0.029058011
132	0x3cc11322	0.023568694
133	0x3cf7f6aa	0.030268986
134	0xbccb44ed	-0.02481314
135	0x3d4ee1f6	0.050508462
136	0xbd33e6e2	-0.04392136
137	0x3d64f223	0.055894982
138	0x3cc9a5ad	0.024615133
139	0x3d0a6dad	0.033796
140	0xbd290a71	-0.041269723
141	0xbc2e93c1	-0.010655344
142	0x3d13567c	0.03597115
143	0xbd0eeb74	-0.034892514
144	0xbd706695	-0.05869158
145	0x3d6a99fb	0.057275753
146	0xbd322b94	-0.04349859
147	0xbcf262a2	-0.029588047
148	0xbd231520	-0.03981507
149	0xbccc2a9f	-0.024922667
150	0x3d53e88f	0.051735457
151	0x3d3be7c6	0.045875333
152	0x3cbc862a	0.023013193
153	0xbd16d213	-0.036821436
154	0xbcbac6ea	-0.022799928
155	0x3d6ad7c5	0.05733468
156	0xbd26d618	-0.04073152
157	0xbc32ca18	-0.010912441
158	0xbc76048e	-0.015015734
159	0xbc8b3eae	-0.016997661
160	0xbc147ac4	-0.009062473
161	0xbd0753a0	-0.033038735
162	0x3ba19e7b	0.0049322224
163	0x3c7de6a4	0.015496884
164	0xbd2bf59a	-0.04198227
165	0x3c6725d2	0.014108138
166	0x3d0b9963	0.034081828
167	0x3b2204c3	0.0024722076
168	0x3d557a05	0.05211832
169	0xbcd92f7a	-0.026511896
170	0xbd5ac582	-0.053411014
171	0xbcc46f95	-0.023978988
172	0xbc99c2dd	-0.018769676
173	0x3d1f3b3d	0.038874853
174	0x3d697959	0.05700049
175	0x3cd6595c	0.026165657
176	0xbce4e04d	-0.027938986
177	0x3d136e8b	0.035994094
178	0xbd778720	-0.0604316
179	0x3d2c9c15	0.04214104
180	0xbc5e71d8	-0.013576947
181	0xbba4ba27	-0.005027074
182	0xbd0f9c4d	-0.03506117
183	0xbd3e6d46	-0.04649093
184	0x3ca837b6	0.020534378
185	0x3c2c20d5	0.010505875
186	0x3d2ba7b0	0.041907966
187	0x3d158172	0.0365004
188	0x3cf3a93d	0.029743785
189	0x3c8a4d63	0.016882604
190	0x3cd0e87a	0.025501478
191	0x3cb382ec	0.021913014
192	0xbd33409f	-0.0437628
193	0x3bab67ed	0.005230895
194	0x3c940efe	0.018073555
195	0xbd32bafa	-0.043635346
196	0x3d01022d	0.031496216
197	0x3cab3e9d	0.02090388
198	0xbcd40075	-0.025879124
199	0xbc92c59d	-0.017916495
200	0x3c04124e	0.008061005
201	0x3bff3148	0.007787857
202	0x3d1404d3	0.036137413
203	0x3ca0bc2b	0.019620975
204	0xbd0e7ecf	-0.034788903
205	0x3be0d212	0.00686098
206	0xbbf89be1	-0.0075869416
207	0xbd3bc8f2	-0.045845933
208	0x3c96c000	0.0184021
209	0xbd0bfbf7	-0.03417584
210	0xbd091e8f	-0.03347641
211	0xbd691d56	-0.056912743
212	0x3d68a9fc	0.056802735
213	0x3d2102d8	0.039309353
214	0x3ba44de5	0.0050141686
215	0xbd21b8d3	-0.039482903
216	0xbccb6f60	-0.024833381
217	0xbd1acf03	-0.037795078
218	0xbcd711b8	-0.026253566
219	0xbc03beb0	-0.008041069
220	0x3c837f67	0.016051961
221	0xbcb2d024	-0.021827765
222	0xbcc0252e	-0.023455229
223	0x3cd9adfb	0.026572218
224	0x3cbd1843	0.023082858
225	0x3cbaa350	0.022782952
226	0xbc8f16b6	-0.017466884
227	0x3cefd82d	0.029277885
228	0xbd1f7ad1	-0.038935486
229	0xbb8776e3	-0.0041340454
230	0x3d424660	0.047430396
231	0xbd007ff4	-0.031372026
232	0x3d2a1500	0.041523933
233	0x3d1df188	0.03856042
234	0xbd66540d	-0.0562325
235	0x3cd3fa9f	0.025876341
236	0x3d5122a0	0.05105841
237	0x3c500764	0.012697075
238	0xbbef71ac	-0.007307252
239	0xbd275db9	-0.040860865
240	0xbc20014d	-0.009765935
241	0x3d506391	0.050876204
242	0x3d2e86a9	0.04260889
243	0xbd420e1e	-0.047376744
244	0xbd277bde	-0.040889613
245	0xbd5374d3	-0.051625084
246	0x3cf07cf0	0.02935645
247	0x3c9ab8be	0.01888692
248	0x3bfaec24	0.0076575447
249	0xbc173be0	-0.009230584
250	0x3d15a8f6	0.036538087
251	0x3ccaefd4	0.024772562
252	0x3c33d8bb	0.010976966
253	0xbc684425	-0.014176403
254	0xbd339a6a	-0.043848433
255	0xbd13d710	-0.03609377

weight f4 [200]
0	0x3f83bf31	1.0292722
1	0x3f84eba2	1.038441
2	0x3f806f93	1.003405
3	0x3f823a3b	1.017402
4	0x3f803e5e	1.0019033
5	0x3f80cc2d	1.006231
6	0x3f8297f1	1.0202619
7	0x3f82add1	1.0209295
8	0x3f828974	1.0198197
9	0x3f848129	1.0351917
10	0x3f80cce9	1.0062534
11	0x3f80434b	1.0020536
12	0x3f80df2f	1.006811
13	0x3f81e05c	1.0146594
14	0x3f820093	1.0156425
15	0x3f81a2c1	1.0127794
16	0x3f827bf4	1.0194077
17	0x3f81a032	1.0127013
18	0x3f80e635	1.0070254
19	0x3f807e77	1.0038594
20	0x3f80259e	1.001148
21	0x3f8022fc	1.0010676
22	0x3f81203a	1.008796
23	0x3f80b856	1.0056255
24	0x3f811414	1.0084252
25	0x3f8133e4	1.0093961
26	0x3f82c211	1.0215474
27	0x3f813ed6	1.0097301
28	0x3f81551e	1.0104101
29	0x3f80897d	1.0041958
30	0x3f81afdf	1.0131797
31	0x3f7f48a0	0.9972019
32	0x3f807565	1.0035826
33	0x3f8176ef	1.0114421
34	0x3f81290d	1.0090653
35	0x3f80c429	1.0059863
36	0x3f8170a2	1.0112498
37	0x3f83f694	1.0309625
38	0x3f819fc3	1.012688
39	0x3f8004f3	1.000151
40	0x3f824935	1.0178591
41	0x3f80401e	1.0019567
42	0x3f829371	1.0201246
43	0x3f7ed0c8	0.99537325
44	0x3f80a2f7	1.0049733
45	0x3f82b12d	1.021032
46	0x3f8339ac	1.0251975
47	0x3f80bbc3	1.00573
48	0x3f80ffda	1.007808
49	0x3f8120cb	1.0088133
50	0x3f84760d	1.0348526
51	0x3f814d6e	1.0101755
52	0x3f82ddfc	1.0223994
53	0x3f82bceb	1.0213903
54	0x3f80ee9c	1.0072818
55	0x3f8011cc	1.0005431
56	0x3f80115d	1.0005299
57	0x3f817ba8	1.0115862
58	0x3f7ed180	0.9953842
59	0x3f836fdd	1.0268513
60	0x3f8149e1	1.0100671
61	0x3f802f41	1.0014421
62	0x3f810240	1.0078812
63	0x3f8264a2	1.0186961
64	0x3f81fc0c	1.0155044
65	0x3f80e8e0	1.0071068
66	0x3f80b539	1.0055305
67	0x3f82d34c	1.0220733
68	0x3f8199ca	1.0125058
69	0x3f8076ee	1.0036294
70	0x3f823634	1.0172791
71	0x3f810c46	1.008187
72	0x3f81c2f6	1.0137622
73	0x3f811a6d	1.008619
74	0x3f812e78	1.0092306
75	0x3f7f873c	0.99815726
76	0x3f80f2fb	1.0074152
77	0x3f80b286	1.0054481
78	0x3f818b58	1.0120649
79	0x3f7fc237	0.99905723
80	0x3f810d0e	1.0082109
81	0x3f806295	1.0030085
82	0x3f81aa0a	1.0130017
83	0x3f8031a1	1.0015146
84	0x3f7f8344	0.9980967
85	0x3f81b881	1.0134431
86	0x3f81cb6d	1.0140206
87	0x3f830367	1.0235413
88	0x3f80e8d6	1.0071056
89	0x3f8178af	1.0114955
90	0x3f809e40	1.0048294
91	0x3f8102a9	1.0078937
92	0x3f81e986	1.0149391
93	0x3f803cc1	1.0018541
94	0x3f81f0d2	1.0151618
95	0x3f802919	1.0012542
96	0x3f8151c4	1.0103078
97	0x3f814bf4	1.0101304
98	0x3f8128f0	1.0090618
99	0x3f81df8e	1.0146348
100	0x3f806050	1.0029392
101	0x3f815422	1.01038
102	0x3f82d6bb	1.022178
103	0x3f806f87	1.0034035
104	0x3f82d0af	1.0219935
105	0x3f8337df	1.0251426
106	0x3f80e7e5	1.0070769
107	0x3f80c413	1.0059837
108	0x3f808842	1.0041583
109	0x3f80d32f	1.0064448
110	0x3f808710	1.0041218
111	0x3f809217	1.0044583
112	0x3f810d94	1.0082269
113	0x3f80d6e4	1.006558
114	0x3f85aaa3	1.0442699
115	0x3f826086	1.0185707
116	0x3f830152	1.0234778
117	0x3f81a467	1.0128297
118	0x3f816fdd	1.0112263
119	0x3f80fdc9	1.0077449
120	0x3f809cc8	1.0047846
121	0x3f8072e6	1.0035064
122	0x3f809a5a	1.0047104
123	0x3f837209	1.0269176
124	0x3f818ff7	1.012206
125	0x3f80adff	1.0053099
126	0x3f806a99	1.0032531
127	0x3f80cdb1	1.0062772
128	0x3f80be8a	1.0058148
129	0x3f817789	1.0114604
130	0x3f81eefa	1.0151055
131	0x3f8085bb	1.0040811
132	0x3f818e8c	1.0121627
133	0x3f80590e	1.0027177
134	0x3f819b07	1.0125436
135	0x3f82aa91	1.0208303
136	0x3f822c6c	1.0169806
137	0x3f814b41	1.0101091
138	0x3f8167ac	1.0109763
139	0x3f81dc37	1.0145329
140	0x3f8113a0	1.0084114
141	0x3f832b55	1.0247599
142	0x3f80cdca	1.0062802
143	0x3f808264	1.0039792
144	0x3f808afd	1.0042416
145	0x3f80f09c	1.0073428
146	0x3f817304	1.0113225
147	0x3f83883a	1.0275948
148	0x3f7f1bb9	0.99651676
149	0x3f82ce4f	1.021921
150	0x3f81725d	1.0113026
151	0x3f821df6	1.0165393
152	0x3f847958	1.0349531
153	0x3f8137a3	1.0095104
154	0x3f819742	1.0124285
155	0x3f80c02f	1.005865
156	0x3f819104	1.012238
157	0x3f82093c	1.0159068
158	0x3f8006d6	1.0002086
159	0x3f8238d3	1.0173591
160	0x3f828c57	1.0199078
161	0x3f813645	1.0094687
162	0x3f804101	1.0019838
163	0x3f81e6d4	1.0148568
164	0x3f811ac6	1.0086296
165	0x3f807c92	1.0038016
166	0x3f80d1ef	1.0064067
167	0x3f8366d7	1.0265759
168	0x3f811a9a	1.0086243
169	0x3f808a70	1.0042248
170	0x3f812f4d	1.009256
171	0x3f80dcab	1.0067343
172	0x3f8078a6	1.0036819
173	0x3f80d143	1.0063862
174	0x3f800e1d	1.0004307
175	0x3f829abe	1.0203474
176	0x3f82bfe4	1.021481
177	0x3f81d4e5	1.0143095
178	0x3f8106c2	1.0080187
179	0x3f81513a	1.0102913
180	0x3f80adba	1.0053017
181	0x3f80b73b	1.0055918
182	0x3f80dde9	1.0067722
183	0x3f800621	1.000187
184	0x3f8040ba	1.0019753
185	0x3f812d26	1.0091903
186	0x3f829798	1.0202513
187	0x3f8237a6	1.0173233
188	0x3f8061b1	1.0029813
189	0x3f8372c4	1.0269399
190	0x3f81eca1	1.0150338
191	0x3f808ddc	1.0043292
192	0x3f80887c	1.0041652
193	0x3f8255be	1.0182416
194	0x3f80d078	1.006362
195	0x3f80a31b	1.0049776
196	0x3f8353d6	1.025996
197	0x3f813a41	1.0095903
198	0x3f82e0dc	1.0224872
199	0x3f8111b4	1.0083528

bias f4 [200]
0	0x3c06e4ea	0.008233288
1	0xbc118c39	-0.008883529
2	0x3b3b5d2b	0.0028589468
3	0x3be3c3ac	0.006950816
4	0x3bff5161	0.0077916835
5	0xbb494ad9	-0.0030714779
6	0xbbaba914	-0.0052386615
7	0xbc07dcb8	-0.00829237
8	0x3bb2c038	0.005455043
9	0x3be7d190	0.0070745423
10	0x3c318efa	0.010837311
11	0x3bb3ea02	0.0054905424
12	0xbbfe23ce	-0.007755733
13	0xbbdf1978	-0.006808456
14	0xbbfb5e61	-0.007671163
15	0x3c18fa42	0.00933701
16	0x3c23e3af	0.0100030145
17	0xba9bdbd8	-0.001189108
18	0x3bebe5e9	0.0071990383
19	0x3bd920be	0.0066262176
20	0x3a2e7f68	0.0006656558
21	0xba8d9b18	-0.0010803668
22	0x3bd63e9f	0.0065382267
23	0x3abc9deb	0.0014390325
24	0x3bca8c23	0.0061812564
25	0xbbb88094	-0.005630562
26	0x3be68a47	0.007035527
27	0x3c162da5	0.009166156
28	0xbb8f5077	-0.004373606
29	0xbc1e82c7	-0.009674734
30	0xbc56cf0c	-0.013110887
31	0x3b77b549	0.0037797263
32	0x3bbfb7d8	0.0058507733
33	0xbc270f56	-0.0101965275
34	0xbbd49fef	-0.006488792
35	0xbb135f0f	-0.002248708
36	0x3aa39196	0.0012479301
37	0x3c024b6a	0.00795255
38	0xbc0186fa	-0.007905716
39	0xbbf77acd	-0.007552481
40	0x3bf67c6c	0.0075221565
41	0x3bb532ce	0.005529738
42	0xbbc8025e	-0.006103798
43	0xba8616cf	-0.0010230186
44	0x3bbdca43	0.0057919337
45	0xbb110914	-0.0022130655
46	0x3c01d74b	0.007924865
47	0x3b01032e	0.0019685733
48	0xbb05bb05	-0.0020405662
49	0xbb257ee8	-0.0025252644
50	0xbbc35878	-0.005961474
51	0x3c1805c3	0.009278717
52	0xbbd83855	-0.006598512
53	0xbc216152	-0.009849863
54	0xbc47581c	-0.012167003
55	0x3bc1baea	0.0059121745
56	0x3bbde8ef	0.00579559
57	0xbbeb2a47	-0.0071766707
58	0x3b20580d	0.0024466545
59	0x3c22b6d0	0.009931281
60	0x3c192757	0.009347758
61	0xbb9fb5b5	-0.004873956
62	0xbbf4c092	-0.007469245
63	0x3bf0c6e8	0.00734793
64	0x3c94024b	0.0180675
65	0xbc2ba37e	-0.010475991
66	0x3c272db0	0.010203764
67	0xbb9f9806	-0.0048704175
68	0xbbd030d2	-0.006353476
69	0xbbee8b0a	-0.0072797583
70	0x3a41978a	0.0007384947
71	0xbba6ea72	-0.005093866
72	0xbb9e1456	-0.0048242016
73	0x3c17382f	0.009229704
74	0x3ba79cd8	0.005115133
75	0x3bd32bda	0.0064444365
76	0x39f34dae	0.00046406448
77	0x3b4b2eda	0.0031003268
78	0x3c0e2912	0.008676784
79	0xbabc513a	-0.0014367469
80	0xbc01783d	-0.007902202
81	0xbb208675	-0.0024494205
82	0xbb69c45c	-0.0035670018
83	0xbb906677	-0.004406746
84	0xbb5ba8a6	-0.003351727
85	0x3c07512f	0.008259102
86	0x3c35f3e1	0.011105509
87	0x3af3b98e	0.0018594728
88	0xbc0b3d6c	-0.008498531
89	0x3c375006	0.011188513
90	0xbb75a272	-0.0037480858
91	0xbc074ccd	-0.008258057
92	0xbbc857a2	-0.0061139623
93	0xbbbab3b7	-0.005697693
94	0x3c05699c	0.008142855
95	0x3baf5456	0.00535063
96	0xbad2c77e	-0.0016081182
97	0xbbf14f30	-0.007364176
98	0xbc15a97d	-0.009134647
99	0x3c01711a	0.007900501
100	0x3b2ee005	0.002668382
101	0xbc172483	-0.009225014
102	0xbc4aabc5	-0.012370055
103	0x3bcb61bb	0.0062067187
104	0x3c14dfd4	0.009086568
105	0xbc1c4279	-0.009537333
106	0xbc3bf1b2	-0.011471199
107	0x3c06c46e	0.008225543
108	0x3b7d9bc5	0.0038697582
109	0x3b8eb8cc	0.0043555256
110	0xbbe90aa3	-0.0071118637
111	0x3c19eaac	0.009394329
112	0xbc36814f	-0.011139228
113	0xbc16a38d	-0.009194267
114	0x3c34f303	0.011044267
115	0x3c06d1c8	0.008228727
116	0xbc2d1e76	-0.0105663445
117	0x3bfd27cd	0.007725692
118	0xbc6aa036	-0.014320424
119	0x3bce3237	0.006292607
120	0x3c30f25f	0.010799973
121	0xbacaa340	-0.0015460029
122	0x3c0a3782	0.008436086
123	0x3c2cece8	0.01055453
124	0x3bc3ab84	0.005971374
125	0x3b262082	0.0025348966
126	0xbc0b9f2f	-0.008521839
127	0x3bd3bee9	0.0064619672
128	0x3be60b62	0.0070204
129	0xbbf7939a	-0.0075554373
130	0xbbd47852	-0.00648407
131	0xbba6cbfd	-0.0050902353
132	0xbbf507c7	-0.007477734
133	0xb91c19bb	-0.00014886905
134	0xbc0968e3	-0.008386823
135	0xbbbb904f	-0.00572399
136	0xbbdd647b	-0.006756363
137	0xbbfbb69b	-0.0076816804
138	0xbc1bbd0c	-0.0095055215
139	0xbc9ff2b6	-0.019524913
140	0xbbcb06ef	-0.006195895
141	0xbbf0a8b6	-0.0073443307
142	0xbbd263e6	-0.0064206
143	0x3b558d7d	0.0032585554
144	0xbb58cf2e	-0.0033082473
145	0x3c07fdd4	0.008300263
146	0x3b9860c4	0.0046502072
147	0x3c1756d5	0.009237011
148	0x3b8cb74d	0.004294312
149	0xbb354437	-0.0027659067
150	0xbc05b491	-0.008160726
151	0x3ba174a7	0.004927236
152	0xbc111e7c	-0.008857366
153	0x3b886b8d	0.0041632117
154	0x3c037fa5	0.008026038
155	0xbbbad38e	-0.005701489
156	0xb988b6f5	-0.00026076255
157	0x3bf7b17c	0.0075589996
158	0x3a133557	0.0005615553
159	0xb7b77a53	-2.1872262e-05
160	0xbbafed4e	-0.005368865
161	0xbc1381f1	-0.009003148
162	0x3b38143a	0.0028088228
163	0xbb91ba5c	-0.0044472646
164	0x3bea13e9	0.0071434868
165	0xbbc7d922	-0.0060988823
166	0xbba92b43	-0.005162628
167	0xbc0013ec	-0.00781725
168	0x38d9be02	0.00010382758
169	0xbab30369	-0.0013657633
170	0x3be6c16f	0.007042102
171	0x3b8bef4c	0.00427047
172	0x3bbba7b7	0.0057267803
173	0x3b621004	0.003449441
174	0x3b84d635	0.004053856
175	0xbbfdb4f3	-0.007742518
176	0xbc184063	-0.009292695
177	0x3c1b8101	0.009491206
178	0xbc12ab93	-0.008952039
179	0xba6a8797	-0.0008946596
180	0xbb54c2f3	-0.0032464832
181	0x3c2e40a4	0.010635529
182	0xbc1a4e4b	-0.009418081
183	0x3b66fa81	0.0035244527
184	0xbbc0c4ae	-0.005882821
185	0xbc3debec	-0.011591893
186	0x3bd41f37	0.0064734477
187	0x3bbc9284	0.0057547707
188	0x3bb84d5a	0.0056244554
189	0x3c411e1e	0.011786966
190	0xbbefab46	-0.0073141186
191	0xbb91f9ab	-0.0044548116
192	0x3bf59405	0.007494452
193	0xbb92ce61	-0.0044801687
194	0x3b5b5df5	0.003347275
195	0x3ad49439	0.001621849
196	0x3c0029f7	0.007822505
197	0xbc0fa665	-0.008767699
198	0x3ba4fd57	0.0050350833
199	0xbbf0a6c4	-0.0073440988
