testbed/models/output_layer.pt (torch, 182680 bytes, 3 tensors)

weight f4 [200, 214]
0	0x3d00a075	0.031403024
1	0xbd356128	-0.04428211
2	0xbc3d691c	-0.011560705
3	0x3cce1abc	0.025159232
4	0xbd10664d	-0.03525381
5	0x3d0cbcc1	0.034359697
6	0xbd05f026	-0.032699727
7	0x3d732cd4	0.059368923
8	0x3d3be28b	0.045870345
9	0x3d47fd71	0.048825685
10	0xbd86e5ee	-0.06586824
11	0x3b7e74ae	0.003882687
12	0xbd2157ee	-0.039390497
13	0x3d616bad	0.05503433
14	0xbd470b82	-0.04859496
15	0xbd577f4a	-0.052611627
16	0xbcab5a1d	-0.020916993
17	0x3d36d4fd	0.044636715
18	0xbd84ebd3	-0.064902924
19	0x3d71347e	0.05888795
20	0xbccc0639	-0.024905311
21	0x3d71c251	0.059023205
22	0x3d12a807	0.035804775
23	0x3ce1d2c5	0.027566323
24	0xbd150578	-0.03638217
25	0x3c65f8c7	0.014036364
26	0x3c865bca	0.01640119
27	0x3d1bfaa1	0.038080815
28	0xbd57e762	-0.0527109
29	0xbd440376	-0.047854863
30	0x3d7867d8	0.060645908
31	0xbd223623	-0.03960241
32	0xbd0ebf28	-0.03485027
33	0xbd0751fd	-0.033037174
34	0x3d5806fb	0.052741032
35	0x3c6a1f0a	0.014289627
36	0xbd6b7d15	-0.057492334
37	0xbd2cb567	-0.042165186
38	0x3d6a5e9f	0.057219144
39	0xbd25eac4	-0.040507093
40	0x3d31a08c	0.043366
41	0xbd752225	-0.059847016
42	0xbd88ffe3	-0.066894315
43	0x3d94e3b7	0.07269996
44	0x3cc99a1d	0.02460962
45	0xbd834495	-0.06409565
46	0xbd79acd9	-0.060955856
47	0xbd8a4140	-0.06750727
48	0x3d292e4f	0.04130393
49	0xbd6d9802	-0.058006294
50	0xbd064f1b	-0.032790285
51	0xbd4ef642	-0.05052782
52	0x3cddcd17	0.027075334
53	0xbcf6c04a	-0.030120987
54	0xbd692c72	-0.056927152
55	0xbce8b629	-0.028407173
56	0xbd041d37	-0.032254424
57	0xbd44aacc	-0.048014447
58	0xbbdb9e26	-0.0067022024
59	0xbd8b8474	-0.06812373
60	0xbcdd7e64	-0.027037807
61	0xbb00429b	-0.001957095
62	0xbd58f09f	-0.05296385
63	0xbc7d1dbd	-0.015448985
64	0x3b0fc090	0.0021934845
65	0x3cd3c191	0.025849136
66	0x3d61ac94	0.055096224
67	0xbcda5c02	-0.0266552
68	0x3d91f0db	0.07126018
69	0xbd0b8e22	-0.034071095
70	0xbd19bd0f	-0.037533816
71	0x3bc1f9fe	0.005919694
72	0x3d736df1	0.05943102
73	0x3d03fafb	0.032221776
74	0xbc5dea60	-0.013544649
75	0x3cbd6686	0.023120176
76	0x3d92462e	0.07142292
77	0xbcf6495c	-0.030064277
78	0xbcf02a56	-0.029317062
79	0xbd020739	-0.03174517
80	0xbcb3b3c5	-0.021936307
81	0x3d365212	0.044511862
82	0x3c7d614c	0.015465092
83	0x3d33bcb2	0.043881126
84	0x3d6ccb73	0.05781121
85	0xbd777dc4	-0.060422674
86	0x3cdd540b	0.027017614
87	0xbc911dc0	-0.017714381
88	0x3d59037f	0.05298185
89	0x3c0b7f1d	0.008514193
90	0xbd00dc0c	-0.031459853
91	0xbc131e2b	-0.008979361
92	0x3d760ddd	0.060071815
93	0x3cf0a51c	0.029375605
94	0xbd62e4b3	-0.055393886
95	0x3d83eade	0.06441282
96	0xbd889c79	-0.0667047
97	0x3d503a30	0.050836742
98	0xbd02f0f6	-0.03196808
99	0x3ca0d1de	0.019631322
100	0x3d7d4fb2	0.06184358
101	0xbbb59038	-0.005540874
102	0x3d6fe9f8	0.05857274
103	0x3cacccbb	0.021093717
104	0x3cd78e28	0.026312903
105	0x3b875300	0.0041297674
106	0xbcfd06d9	-0.030887054
107	0xbd631933	-0.055443954
108	0xbd2537d7	-0.040336456
109	0x3acf6654	0.0015823343
110	0xbc854343	-0.016267424
111	0x3d88c3cc	0.0667797
112	0xbc2e63bd	-0.010643897
113	0xbc046849	-0.008081504
114	0xbcb08285	-0.021546612
115	0x3d4ba669	0.049719248
116	0xbd174490	-0.03693062
117	0x3cd49b25	0.025952885
118	0xbcb08ab3	-0.021550512
119	0xbd901888	-0.07035929
120	0xbc886f60	-0.01665467
121	0xbd618ffa	-0.055068947
122	0xbd6331e1	-0.05546749
123	0x3d344686	0.04401257
124	0x3cf5c051	0.02999893
125	0xbcf542ca	-0.029939074
126	0x3d5cf88d	0.053947974
127	0x3d4b2af1	0.0496015
128	0xbd4107bb	-0.047126513
129	0x3d73beeb	0.059508245
130	0x3cd7f56c	0.026362143
131	0x3d5445ef	0.051824506
132	0xbd3c6701	-0.04599667
133	0x3d88309d	0.06649897
134	0x3d5ddcb8	0.054165572
135	0x3d2a1c0b	0.04153065
136	0x3d33d878	0.043907613
137	0x3d854b83	0.06508543
138	0xbd40e8d4	-0.047097042
139	0x3d5fdf64	0.0546564
140	0x3cb2d9db	0.021832397
141	0x3d234f30	0.03987044
142	0x3d5398bc	0.05165933
143	0xbd3f7d1b	-0.04675017
144	0xbd2b01b1	-0.04174966
145	0x3cdd35b0	0.02700314
146	0x3d664649	0.056219373
147	0x3d347b26	0.044062756
148	0x3d389339	0.045062277
149	0xbd710607	-0.05884364
150	0x3d44e3bd	0.04806875
151	0xbc1ae1db	-0.009453262
152	0xbd3dbc77	-0.046322312
153	0x3d79157f	0.060811516
154	0xbd0a008e	-0.033691935
155	0x3cd2b31d	0.025720173
156	0x3c8b5303	0.017007357
157	0x3cb7940f	0.022409467
158	0x3d6a2283	0.05716182
159	0x3c9f85e0	0.019473016
160	0xbd443d84	-0.04791023
161	0x3c860293	0.01635865
162	0x3d30ce65	0.043165583
163	0x3d1c3e1e	0.038145177
164	0xbd0e4203	-0.034730922
165	0x3d2cdae4	0.042200938
166	0x3d841722	0.06449725
167	0xbd899072	-0.06717004
168	0xbd4d54c9	-0.050129686
169	0x3cc0b0e9	0.023521857
170	0xbd326a6c	-0.043558523
171	0xbd8d0aef	-0.06886851
172	0xbb5f1824	-0.0034041489
173	0x3a276ea7	0.0006387033
174	0x3cded9b4	0.027203418
175	0x398e7128	0.0002716866
176	0xbd3d2dd2	-0.046186276
177	0x3d0db3f3	0.03459544
178	0xbd848cd4	-0.06472173
179	0x3d25e5d5	0.040502388
180	0x3c25b058	0.010112844
181	0x3d70d098	0.05879268
182	0xbd05c1dd	-0.032655586
183	0xbc7e8d9f	-0.015536695
184	0xbcaa3098	-0.020775124
185	0xbd6056dd	-0.05477034
186	0xbd2a70bf	-0.04161143
187	0x3d24d58b	0.040242713
188	0x3d2442e9	0.040102873
189	0xbc9b2ce7	-0.01894231
190	0x3a0ab70b	0.0005291558
191	0xbc75f8ac	-0.015012901
192	0xbd3847fd	-0.04499053
193	0xbceca833	-0.028888797
194	0xbcbf005c	-0.023315601
195	0x3d5d1303	0.05397321
196	0x3d4aceb5	0.049513537
197	0x3d806379	0.06268973
198	0x3d24efb3	0.040267657
199	0xbca5a332	-0.02021942
200	0xbd88ea5f	-0.06685328
201	0x3cbff044	0.023429997
202	0xbd331de3	-0.043729674
203	0x3d0fab1f	0.035075303
204	0xbd03b0b1	-0.032150928
205	0x3d39174d	0.045188237
206	0xbd6ec2c6	-0.05829122
207	0x3d86f25d	0.06589196
208	0x3d6e11b2	0.058122344
209	0xbd2051f9	-0.039140675
210	0xbd1c9ec2	-0.03823734
211	0x3d6caf74	0.057784513
212	0x3d6b4a88	0.057444125
213	0xbbedadb3	-0.0072533726
214	0x3c6ec5e4	0.014573548
215	0x3d83f0c0	0.06442404
216	0xbbfb018e	-0.0076600974
217	0x3c070b06	0.008242374
218	0x3cb89c9a	0.022535611
219	0xbd31dc99	-0.04342327
220	0xbd550fe9	-0.052017126
221	0x3d127e8d	0.03576522
222	0xbd56cd6a	-0.052441992
223	0xbd6cf33c	-0.057849154
224	0xbd5459f9	-0.051843617
225	0x3d215e56	0.039396606
226	0x3d0eef7e	0.034896366
227	0x3cefe407	0.029283537
228	0xbcf04e56	-0.029334228
229	0x3d8e0535	0.06934587
230	0xbc9625e6	-0.018328618
231	0x3cda41ef	0.026642768
232	0xbd5dbd3d	-0.05413555
233	0xbca976aa	-0.020686466
234	0x3c20f55a	0.009824121
235	0xbd7edd2c	-0.062222645
236	0xbd191ecb	-0.037382882
237	0xbd37242c	-0.04471223
238	0x3cb91389	0.022592323
239	0x3d2a3113	0.041550707
240	0xbd7c0a64	-0.061533347
241	0x3d118f3e	0.035536997
242	0x3c7996ad	0.015233678
243	0x3d866930	0.06563032
244	0xbc57b44c	-0.013165545
245	0x3d835637	0.064129286
246	0xbd26b119	-0.040696237
247	0xbd0657b0	-0.03279847
248	0x3cbaf430	0.022821516
249	0x3c9b8ad4	0.018987097
250	0x3b1424e6	0.0022605
251	0xbcba00bc	-0.022705428
252	0x3ccfa88d	0.025348926
253	0xbd6b4b88	-0.05744508
254	0x3d096f94	0.033553675
255	0xbd3d5e4e	-0.046232514

bias f4 [200]
0	0xbd59698b	-0.05307917
1	0xbca8e349	-0.02061619
2	0xbc4c78ef	-0.012480005
3	0xbc10d1e0	-0.008839101
4	0x3d43bf4b	0.047789853
5	0x3ba57446	0.0050492613
6	0x3c95f97c	0.01830744
7	0xbd58390c	-0.05278878
8	0xbd2586f2	-0.040411897
9	0x3bd67a2d	0.006545326
10	0x3d638ad0	0.055552304
11	0x3d842d73	0.06453981
12	0xbd782eba	-0.060591437
13	0xbcd7d211	-0.026345285
14	0x3d641bc6	0.05569055
15	0x3d27bc28	0.040950924
16	0x3c4ba3fc	0.012429234
17	0xbccbd701	-0.024882795
18	0xbbc2a229	-0.005939741
19	0xbd0407a7	-0.03223386
20	0xbc886af5	-0.016652564
21	0x3d64d025	0.055862565
22	0xbd5c9b1b	-0.053858858
23	0x3d6230c3	0.055222284
24	0xbcbe8163	-0.023255056
25	0xbcd0f604	-0.025507934
26	0x3c312ca4	0.010813866
27	0xbd285b4b	-0.04110269
28	0x3b3cea6b	0.0028826247
29	0xbc3dbfa5	-0.011581336
30	0xbcb53a3e	-0.022122499
31	0x3d43d26a	0.04780809
32	0xbd069199	-0.032853696
33	0x3caeac81	0.02132249
34	0xbd87b6e6	-0.06626682
35	0xbc972787	-0.018451465
36	0x3d54d0ef	0.051957067
37	0x3c6c1dea	0.014411429
38	0xbd387a6e	-0.045038633
39	0xbd3c08fc	-0.045907006
40	0x3ae8dbcb	0.0017765699
41	0xbd0e591b	-0.034752946
42	0x3d12b8cf	0.03582078
43	0x3d73d3ac	0.059528038
44	0xbd2b1585	-0.04176857
45	0xbd975751	-0.07389701
46	0x3cdbef3c	0.026847474
47	0x3d68d3f3	0.056842756
48	0xbd0967e0	-0.03354633
49	0x3cc2b1d8	0.023766443
50	0x3c020b2d	0.007937235
51	0x3aab72e6	0.0013080507
52	0xbcf37566	-0.029719066
53	0x3cb81dfa	0.022475231
54	0xbcefc2e4	-0.029267736
55	0xbd2941c8	-0.0413225
56	0x3d7e4b4d	0.06208353
57	0x3bf2b19a	0.0074064257
58	0x3d8813de	0.06644414
59	0xbc8e0498	-0.017336175
60	0x3d303049	0.0430148
61	0xbd305134	-0.04304619
62	0x3d4a0343	0.049319517
63	0xbc9572bf	-0.018243192
64	0x3d1dea99	0.038553808
65	0xbd054fe9	-0.03254691
66	0xbd0e5bca	-0.034755506
67	0x3c44fbbe	0.012022911
68	0x3d97ad54	0.074061066
69	0x3cf13d36	0.029448133
70	0x3d5d2963	0.053994548
71	0xbbc39783	-0.0059689893
72	0x3ccbcefa	0.024878968
73	0xbd8f4b98	-0.0699684
74	0xbcfa0634	-0.030520536
75	0x3d442554	0.04788716
76	0xbd3c73aa	-0.046008743
77	0x3d74f3d9	0.059802864
78	0xbd13188b	-0.035912078
79	0x3ce2c36e	0.027681079
80	0x3c954b38	0.018224344
81	0xbc521bac	-0.01282398
82	0x3cbe2bb7	0.023214204
83	0x3d362f2d	0.044478584
84	0xbcefdba1	-0.029279532
85	0xbd062d8b	-0.032758277
86	0xbce17cbf	-0.027525304
87	0xbd76325c	-0.06010662
88	0x3d81301e	0.06308006
89	0x3c8430b5	0.016136507
90	0x3d81b795	0.063338436
91	0xbd11edf4	-0.03562732
92	0xbd32a1bc	-0.043611273
93	0x3ad29010	0.0016064662
94	0x3cc3ee9a	0.023917485
95	0x3d7be6bc	0.061499342
96	0x3d231cf7	0.039822545
97	0xbd25fcbc	-0.04052423
98	0x3d668bb7	0.056285586
99	0xbd5302ca	-0.05151633
100	0x3d3dd354	0.046344116
101	0xbba8b5ee	-0.005148641
102	0xbccfb5e9	-0.025355296
103	0xbbe87362	-0.007093833
104	0xbc97ef64	-0.018546768
105	0x3c903765	0.01760454
106	0x3c1f0601	0.009706021
107	0xbd0f250e	-0.034947447
108	0x3c7523af	0.014962121
109	0xbc121f39	-0.008918577
110	0xbcb2974b	-0.021800658
111	0xbb8075bb	-0.0039202846
112	0x3cd1bcce	0.025602724
113	0x3d59dc33	0.053188514
114	0xbd2e7348	-0.04259041
115	0x3cb53b74	0.022123076
116	0x3b5b55a4	0.0033467794
117	0x3ca50b5a	0.020147014
118	0x3c7b9a82	0.015356662
119	0x3c93f8d8	0.018062994
120	0x3ce77ac6	0.028256785
121	0xbd63d06b	-0.055618685
122	0xbd284dad	-0.041089702
123	0x3b9ba46a	0.0047498243
124	0xbca3fc31	-0.020017715
125	0x3d73f6c3	0.059561502
126	0xbcdf43a3	-0.027253931
127	0x3d628905	0.055306453
128	0xbb28448d	-0.0025675625
129	0xbd3ce86f	-0.046120103
130	0x3c3613e4	0.011113141
131	0xbd2fe043	-0.042938482
132	0xba2c8cd1	-0.00065822626
133	0xbd319958	-0.04335913
134	0x3d0c72bf	0.034289118
135	0xbcb04194	-0.021515645
136	0x3d2c17aa	0.042014755
137	0x3ce311d4	0.027718462
138	0x3b153d4f	0.0022772138
139	0xbd4e8b54	-0.050425842
140	0xbd7c1ae1	-0.06154907
141	0xbd2266dd	-0.03964888
142	0x3b274549	0.0025523475
143	0xbd2ed722	-0.042685635
144	0xbd3065a6	-0.04306569
145	0x3c61fc6a	0.01379309
146	0xbd3714f7	-0.044697728
147	0x3ceb3c1a	0.028715182
148	0x3d971141	0.07376338
149	0xbd45d6a4	-0.0483004
150	0x3d2203b6	0.03955432
151	0x3d256d89	0.040387664
152	0x3d24790f	0.040154513
153	0xbb1deb59	-0.0024096577
154	0xbd221aa6	-0.039576195
155	0x3ab0c514	0.0013486468
156	0x3d91267f	0.07087421
157	0xbc8315c1	-0.016001584
158	0xba720141	-0.0009231754
159	0xbd4a64d2	-0.049412556
160	0xbcd1e6ed	-0.02562281
161	0xbd8b0dc4	-0.06789735
162	0xbd0858cc	-0.03328781
163	0x3c0b3f81	0.008499027
164	0x3d8ad963	0.067797445
165	0x3cac0f14	0.021003284
166	0xbc091a04	-0.008368019
167	0xbd04f145	-0.032456655
168	0x3be12764	0.006871151
169	0x3d0b88be	0.034065954
170	0xbd386e04	-0.045026794
171	0xbd595003	-0.05305482
172	0xbce8bc01	-0.02840996
173	0x3d71257d	0.058873642
174	0x3d7f3d51	0.062314335
175	0xbd2c8f32	-0.04212875
176	0xbd1602ef	-0.03662389
177	0x3d6cc6c8	0.05780676
178	0x3d0c70c4	0.03428723
179	0x3b83df42	0.004024417
180	0x3d62d9ed	0.05538361
181	0xbd2e2068	-0.042511374
182	0xbcf25365	-0.029580781
183	0xbd5c24ed	-0.053746153
184	0x3d61ea17	0.055154886
185	0xbd95b0a2	-0.07309081
186	0xbc28021e	-0.010254411
187	0xbcb34d92	-0.021887574
188	0x3d66606b	0.056244295
189	0xbcaa5db8	-0.020796642
190	0xbb5a67a2	-0.003332593
191	0xbd63aa50	-0.055582345
192	0xb915faa7	-0.00014303123
193	0x3b823956	0.00397412
194	0x3bd18c50	0.0063949004
195	0x3c09c66c	0.008409124
196	0x3c5cb790	0.013471499
197	0xbd5568b0	-0.05210179
198	0x3c8cd11e	0.017189559
199	0xbd763f08	-0.060118705

weight f4 [1, 200]
0	0xbc9a1c75	-0.018812397
1	0xbceeb212	-0.029137645
2	0x3d74bbaf	0.0597493
3	0xbd5cde26	-0.053922795
4	0xbd869aab	-0.06572469
5	0xbd2960fb	-0.041352253
6	0x3d93b899	0.072129436
7	0xbd8af80d	-0.06785593
8	0x3d35ffe0	0.044433475
9	0x3d3767a1	0.044776563
10	0xbd261352	-0.04054577
11	0x3c53ba24	0.012922797
12	0x3d5a651b	0.053319078
13	0x3d70502e	0.058670215
14	0xbd1af8a9	-0.037834797
15	0xbd2b4f5e	-0.041823737
16	0xbd83d84c	-0.0643774
17	0xbc523f8a	-0.012832532
18	0x3d02e2d5	0.031954605
19	0xbabf1363	-0.0014577921
20	0x3d5dc080	0.05413866
21	0x3d067dd3	0.03283484
22	0xbd86e2e8	-0.06586248
23	0xbd83830c	-0.064214796
24	0x3dacce2c	0.08437762
25	0x3dda64d6	0.10663764
26	0x3cc32931	0.023823353
27	0x3e123917	0.1427959
28	0x3cbec523	0.023287361
29	0xbcdd00c9	-0.026977913
30	0xbcd32608	-0.02577497
31	0x3da8ec6b	0.08248218
32	0x3d04c879	0.032417748
33	0x3d3ab73f	0.045584913
34	0xb89d8f19	-7.5129974e-05
35	0xbd264569	-0.04059354
36	0xbcdc583c	-0.026897542
37	0xbd6e90b1	-0.058243457
38	0x3ca75229	0.02042492
39	0x3d94c014	0.072631985
40	0xbced212c	-0.028946482
41	0xbb86bb7b	-0.004111705
42	0x3d587141	0.052842382
43	0xbc51261a	-0.012765432
44	0x3c33c152	0.010971384
45	0x3a8a3cdf	0.0010546705
46	0xbd48697c	-0.048928723
47	0x3d193105	0.037400264
48	0x3d7c061b	0.06152926
49	0xbd316f6c	-0.04331915
50	0x3d729971	0.059228364
51	0xbd038322	-0.03210748
52	0x3d5186ba	0.051153876
53	0xbc4012d9	-0.011723244
54	0xbd33d7bd	-0.043906916
55	0x3daf3810	0.08555615
56	0x3da9682d	0.08271823
57	0x3d07ef78	0.03318736
58	0x3d8f7c8f	0.070061795
59	0x3c8b47bc	0.017001979
60	0xbbf0b69b	-0.007345987
61	0xbd57770f	-0.052603777
62	0x3d4b1b63	0.049586665
63	0xbd50d344	-0.05098273
64	0xbba8d93c	-0.0051528495
65	0x3d91bbe6	0.07115917
66	0xbce58ba3	-0.028020686
67	0xbcf29f4a	-0.02961697
68	0x3d55241f	0.0520364
69	0x3d0376f0	0.03209585
70	0xbc57996e	-0.013159139
71	0xbba31552	-0.004976907
72	0xbd5fbef3	-0.054625463
73	0xbd8a44da	-0.06751414
74	0x3da934c7	0.082620196
75	0xbd7358cd	-0.05941086
76	0xbd81051e	-0.06299804
77	0x3d2a2739	0.041541312
78	0xbd1269a3	-0.035745274
79	0xbd1e5afc	-0.03866099
80	0x3c6e332c	0.0145385675
81	0xbd45f62d	-0.048330475
82	0x3d89a724	0.06721333
83	0x3db1c12a	0.08679421
84	0xbb6d1980	-0.003617853
85	0x3da17ae3	0.07884767
86	0xbd554911	-0.052071635
87	0xbcc63094	-0.024193086
88	0x3d8fbeef	0.070188396
89	0xbd839b5a	-0.06426115
90	0x3d8094ef	0.06278407
91	0xbd662f7a	-0.05619762
92	0x3d5e74d6	0.054310642
93	0x3d3a0dd8	0.04542336
94	0x3da3cec0	0.07998419
95	0xbcafecb7	-0.02147518
96	0x3d9b1f35	0.07574312
97	0xbcf36f88	-0.029716268
98	0xbc284399	-0.010270023
99	0x3ce705e7	0.028201057
100	0x3d5252e1	0.05134857
101	0xbd4e9d31	-0.05044288
102	0x3d95efab	0.07321104
103	0xbce84c43	-0.028356677
104	0xbc997b6f	-0.018735616
105	0xbcdcd31e	-0.026956137
106	0x3d86e62d	0.06586871
107	0xbd36670f	-0.044531878
108	0x3d143c1c	0.036190137
109	0xbcfcf95e	-0.030880626
110	0xbb990bc8	-0.004670594
111	0x3db17fa5	0.086669244
112	0x3d8350af	0.064118735
113	0x3d40bbbe	0.047054045
114	0x3d5bc589	0.05365518
115	0xbd14e045	-0.036346693
116	0x3d2b72e0	0.0418576
117	0xbcf7a3c0	-0.03022945
118	0xbd7a4009	-0.061096225
119	0x3d80f47f	0.06296634
120	0xbcaab457	-0.020837946
121	0xbd089d2c	-0.033353016
122	0x3d136567	0.035985377
123	0xbd2ae8dd	-0.041725982
124	0xbd8a27d4	-0.06745878
125	0x3d6f14c0	0.058369398
126	0xbc8c3707	-0.017116083
127	0xbcc24236	-0.023713212
128	0x3bfe3f67	0.007759023
129	0xbbdc1f55	-0.0067176023
130	0x3d54b445	0.05192973
131	0x3d8d203e	0.06890915
132	0xbd81b778	-0.06333822
133	0xbcc8857b	-0.024477711
134	0x3d028b1c	0.031870946
135	0x3d207b79	0.039180253
136	0x3d294c8f	0.041332778
137	0xbc9228f9	-0.017841803
138	0x3cfd7dc5	0.03094376
139	0x3ded205d	0.115784384
140	0xbccfdb22	-0.025373045
141	0xbd54d188	-0.051957637
142	0x3c7f0a04	0.015566353
143	0xbc3feb20	-0.011713773
144	0xbd4bc06d	-0.04974406
145	0x3bd94ae4	0.006631242
146	0xbcbc117f	-0.022957562
147	0x3dbd66b2	0.09248103
148	0x3d25dceb	0.040493887
149	0xbd2ac59c	-0.04169236
150	0xbd7f53fa	-0.062335946
151	0x3d85eb35	0.06539003
152	0x3d2163ac	0.039401695
153	0x3caa322e	0.02077588
154	0xbc83915f	-0.01606053
155	0x3cb0a8fa	0.02156495
156	0x3cd4ef60	0.02599305
157	0xbd0f7ecf	-0.035033043
158	0xbc90e962	-0.01768941
159	0xbd6c96e9	-0.057761107
160	0x3da216fb	0.079145394
161	0x3ce10835	0.027469734
162	0x3d9413ee	0.07230364
163	0xbd522a66	-0.051309966
164	0x3d9b807f	0.07592868
165	0x3d7fd7a3	0.062461507
166	0x3d15be66	0.03655853
167	0xbd4daf84	-0.050216213
168	0xbd74e34a	-0.059787072
169	0xbcf856d3	-0.030314839
170	0x3c641e35	0.013923218
171	0xbd405828	-0.046959072
172	0xbce2ffc6	-0.027709853
173	0x3dc67ed6	0.09692161
174	0x3d81cd65	0.06338004
175	0x3cfe24a6	0.031023335
176	0x3dbef95c	0.09324905
177	0x3d408793	0.047004294
178	0x3cd1489f	0.025547324
179	0xbd349d38	-0.044095248
180	0x3d919b9c	0.07109758
181	0x3cf223ed	0.029558146
182	0x3ccd3c60	0.025053203
183	0x3d60c8e7	0.054879095
184	0x3d878130	0.066164374
185	0xbc975db6	-0.018477302
186	0xbcd9d162	-0.0265891
187	0xbc51e2bf	-0.012810408
188	0x3d5fb9a4	0.0546204
189	0x3d7502dd	0.059817184
190	0x3daa3e96	0.083127186
191	0xbd38ee39	-0.04514906
192	0xbd49f157	-0.049302425
193	0xbd8c5e0b	-0.06853875
194	0xbca0a73d	-0.019610995
195	0xbd3fcbbd	-0.04682516
196	0xbd52fcb8	-0.051510543
197	0x3d9da28f	0.07697021
198	0x3d670109	0.05639747
199	0xbca835c4	-0.02053345
