inference/models_t2/gnn_layer_0.pt (torch, 696467 bytes, 7 tensors)

weight f4 [200, 200]
0.043499105 0.016148705 -0.00568567 0.011138895 0.0285034 -0.02359717 0.038482238 0.03470099
-0.026042955 0.02688068 0.009612859 0.06253802 0.018220171 0.045090012 -0.028634539 -0.0256491
0.008779693 -0.051929433 0.060245115 0.016659122 0.046225596 0.065908246 -0.06478376 -0.0015127215
0.059146788 -0.07179488 -0.060786214 -0.028108213 0.014729842 0.0021515787 0.04571456 -0.002468427
-0.057152517 -0.0082297865 -0.021980772 0.02694022 -0.0035380237 0.021005832 -0.03191115 -0.0066921394
0.0075091613 0.059639197 -0.061094005 -0.05993713 0.002273672 0.047468994 -0.049715664 -0.043163337
0.017408613 -0.049260978 0.032076493 0.026237529 0.054508083 -0.03840961 -0.04515633 -0.028123515
0.018906545 -0.043235585 -0.036069855 -0.05319896 -0.013145313 0.059282098 0.017629948 -0.034412086
0.03654227 0.028611053 0.013895364 -0.022760822 0.0031822803 -0.044507846 -0.070919886 0.020745715
-0.07031524 -0.057098474 -0.013628915 -0.03999283 -0.075125776 -0.018332714 0.009925657 -0.04269146
0.031373486 -0.06909579 -0.025031855 0.064195044 0.0742341 0.07072205 0.043924943 0.051849503
-0.055753857 -0.025585767 0.056518335 -0.066856615 -0.04980883 0.032468982 0.021174552 0.061032835
0.008538186 0.04209664 -0.03761251 -0.0049598105 -0.047300417 -0.016025564 -0.052546952 -0.05583224
0.07223674 0.022233432 -0.04625715 0.010490635 0.06238982 -0.016438287 0.005725958 0.057051208
-0.018523775 0.03039304 -0.010908788 -0.0043369294 -0.06549989 -0.010886741 0.06112489 -0.04787142
-0.047881518 0.015879756 0.038615517 0.016535962 0.004712197 0.044824235 0.03351196 -0.020093529
-0.047149368 0.05648894 -0.05388174 0.019080821 -0.04719692 -0.014761478 -0.0040103775 0.05004734
-0.023122914 0.018539373 0.010113994 -0.060921904 0.010470873 -0.05272012 0.0015390739 -0.042939316
-0.009019897 0.0068769893 0.0545217 0.03149496 0.03357786 0.058854252 -0.015299106 0.03288739
-0.009778524 -0.0055690953 0.04820037 0.047451213 -0.0008362297 -0.018586086 -0.018744104 -0.06866121
-0.034689907 0.06273613 0.044329118 0.031571086 0.0053877444 0.015955107 0.010815925 0.01862411
-0.005264066 0.020214811 0.059344262 0.06630713 0.040520243 -0.0029081726 -0.03480701 0.012880388
0.051264856 0.0112163015 0.03534639 0.010841669 0.024720186 0.035308946 -0.0314092 -0.07380161
-0.016890125 0.022469694 0.016741388 0.007794531 0.012881044 0.06922671 0.01959048 -0.0071946904
-0.022947183 0.036901876 -0.026738232 -0.039130613 0.06254634 -0.04837951 0.012395592 -0.06602908
0.040469177 0.011220049 -0.0050780373 0.028103895 -0.01532558 -0.01761304 -0.031721365 -0.035606537
-0.013856663 0.06218262 0.01324438 0.031619728 -0.032068554 0.06433598 0.018237501 0.02308578
0.028749613 0.030209431 0.0036542523 0.039840154 -0.012035993 0.06500043 -0.045289394 0.00055101694
0.019243974 -0.02065523 -0.07348961 -0.013330863 0.019445654 0.043726698 -0.034798298 0.014054894
-0.035580873 0.037641868 0.024110895 -0.014312211 -0.040827088 -0.0130841145 -0.03014326 -0.04114309
-0.012224757 -0.007715696 -0.0030570354 0.017122872 0.015996145 -0.012837257 -0.058513325 -0.04894641
0.062005315 0.060702242 -0.02684309 -0.06362692 0.04692455 -0.03578046 0.064465605 0.06017462
00000000: 1e2c 323d 4a4a 843c db4e babb e97f 363c
00000010: f67f e93c da4e c1bc 8d9f 1d3d a022 0e3d
00000020: 0958 d5bc df34 dc3c 417f 1d3c ef13 803d
00000030: 7842 953c 4eb0 383d fb92 eabc 101e d2bc
00000040: b4d8 0f3c f5b3 54bd 95c3 763d b678 883c
00000050: 0d57 3d3d e7fa 863d 59ad 84bd 8346 c6ba
00000060: e743 723d 3209 93bd f7fa 78bd 3243 e6bc
00000070: 6f55 713c 8001 0d3b 313f 3b3d 55c5 21bb
00000080: c218 6abd 3ad6 06bc 0511 b4bc bcb1 dc3c
00000090: 30de 67bb 6c14 ac3c 44b5 02bd bc49 dbbb
000000a0: 690f f63b 3b48 743d b53d 7abd a380 75bd
000000b0: e301 153b d96e 423d a7a2 4bbd 0acc 30bd
000000c0: 829c 8e3c e1c5 49bd a462 033d 16f0 d63c
000000d0: de43 5f3d 6553 1dbd d8f5 38bd 4963 e6bc
000000e0: e6e1 9a3c cc17 31bd fcbd 13bd 27e7 59bd
000000f0: 705f 57bc c9d1 723d ae6c 903c b0f3 0cbd
00000100: 59ad 153d ba61 ea3c 61a9 633c e774 babc
00000110: ce8d 503b dc4d 36bd 723e 91bd ebf2 a93c
00000120: 7001 90bd 17e0 69bd d04b 5fbc 86cf 23bd
00000130: 8bdb 99bd 7d2e 96bc 399f 223c 3edd 2ebd
00000140: 7c81 003d 1882 8dbd 9b0f cdbc b178 833d
00000150: 0c08 983d b9d6 903d a4ea 333d 2560 543d
00000160: 285e 64bd 3e99 d1bc c57f 673d 1fec 88bd
00000170: 5804 4cbd 32fe 043d 4176 ad3c 91fd 793d
00000180: bfe3 0b3c 876d 2c3d 930f 1abd e885 a2bb
00000190: 15be 41bd 0b48 83bc 793b 57bd 59b0 64bd
000001a0: dbf0 933d e322 b63c 2378 3dbd eae0 2b3c
000001b0: 788c 7f3d 96a9 86bc d1a0 bb3b 87ae 693d
000001c0: 2cbf 97bc d3fa f83c c6ba 32bc cd1c 8ebb
000001d0: ce24 86bd 4d5e 32bc 185e 7a3d d214 44bd
000001e0: 691f 44bd 4316 823c 4e2b 1e3d 6d76 873c
000001f0: c668 9a3b 9e99 373d d643 093d 2f9b a4bc
00000200: b21f 41bd f260 673d 19b3 5cbd 624f 9c3c
00000210: 8f51 41bd 20da 71bc 7c69 83bb 71fe 4c3d
00000220: 446c bdbc e2df 973c 2ab5 253c 3f89 79bd
00000230: 068e 2b3c 0df1 57bd c0ba c93a 23e1 2fbd
00000240: 31c8 13bc 5e58 e13b 2552 5f3d dc00 013d
00000250: f088 093d 2811 713d 1aa9 7abc eeb4 063d
00000260: 1a36 20bc f57c b6bb c06d 453d 345c 423d
00000270: 6d36 5bba d941 98bc 3c8d 99bc 409e 8cbd
00000280: 0117 0ebd cd7b 803d 7392 353d af50 013d
00000290: ad8b b03b 49b4 823c 4735 313c 9791 983c
000002a0: 307e acbb 8899 a53c f812 733d 08cc 873d
000002b0: 8ef8 253d 0a97 3ebb cc91 0ebd 4308 533c
000002c0: 19fb 513d 94c4 373c 60c7 103d 41a1 313c
000002d0: fd81 ca3c 1da0 103d efa6 00bd 4c25 97bd
000002e0: 295d 8abc 5d12 b83c 3c25 893c 4469 ff3b
000002f0: 040b 533c bcc6 8d3d 377c a03c 70c1 ebbb
00000300: bbfb bbbc 6c26 173d 230a dbbc 6c47 20bd
00000310: 4c18 803d 9829 46bd e216 4b3c 413a 87bd
00000320: 02c3 253d 4cd4 373c aa65 a6bb 243a e63c
00000330: 2418 7bbc 3949 90bc 43ee 01bd 29d8 11bd
00000340: 0f07 63bc 34b3 7e3d f5fe 583c b083 013d
00000350: 515a 03bd 95c2 833d d066 953c 641e bd3c
00000360: 4f84 eb3c c579 f73c 2e7c 6f3b 6e2f 233d
00000370: 9d32 45bc f21e 853d 5f81 39bd 1f72 103a
00000380: 8aa5 9d3c 2835 a9bc b881 96bd b169 5abc
00000390: 7e4c 9f3c c41a 333d a988 0ebd 8046 663c
000003a0: 40bd 11bd 5c2e 1a3d 3684 c53c c47d 6abc
000003b0: 4e3a 27bd c15e 56bc ffee f6bc a885 28bd
000003c0: 594a 48bc f3d3 fcbb 8b58 48bb 4445 8c3c
000003d0: 590a 833c 5c53 52bc abab 6fbd 087c 48bd
000003e0: 49f9 7d3d eaa2 783d 0ae6 dbbc d54e 82bd
000003f0: f533 403d 888e 12bd 8b06 843d aa79 763d

bias f4 [200]
0.047340926 -0.009420782 -0.017258812 0.0154559 -0.05539039 0.025755282 -0.008207983 -0.04423965
0.0027257337 -0.028277192 -0.029056186 0.0459094 0.04550818 -0.05876135 0.015572947 -0.059148006
-0.05555634 0.037992455 0.031509973 -0.02478827 0.0195527 0.0058818404 0.033452746 0.043057885
-0.029705385 0.05471878 -0.025709182 -0.013753296 0.023877328 -0.008541263 0.053425714 -0.048521306
0.054792944 -0.050493512 -0.018969292 0.002851477 0.04432059 -0.0051067327 -0.009370171 -0.038227268
-0.041140582 -0.009700889 0.027167436 0.04826286 -0.04736522 0.033767287 0.033113007 -0.057561345
-0.02346333 0.028939737 -0.03687297 -0.040026326 0.06024489 -0.045779727 0.06315475 0.052442268
0.011948908 0.020351706 0.0034096502 -0.010524326 0.060270976 -0.07373179 0.052896045 0.032697283
-0.05590196 -0.007328637 0.062472276 0.01811803 0.043502685 -0.009080341 0.054569636 0.02273406
-0.022559227 0.031096086 -0.04137385 -0.052381817 0.021594496 -0.058024257 0.06404617 0.013697584
0.00868644 0.02038776 -0.032727182 -0.016259573 0.032582678 0.0586209 0.04693134 0.07050636
-0.03318821 -0.028860444 -0.038374286 -0.033622667 -0.025168607 0.059462637 -0.026145125 0.037345875
0.011927986 -0.043019872 -0.030132834 -0.008854704 -0.017324127 0.06886851 0.027965778 -0.0009912906
-0.059757873 0.049088374 0.02998016 0.03110748 -0.012506005 0.01187471 0.032430757 -0.034810018
-0.011978148 -0.032297906 0.043874238 -0.0033391162 -0.0023791825 0.05036366 -0.017519508 0.01326323
-0.022036113 -0.021390347 -0.05685806 -0.033654906 -0.07406028 0.027908677 -0.066227585 0.0442096
-0.067034744 0.027642842 0.054620232 -0.022013014 -0.06939492 0.03650251 -0.056299523 0.01395176
-0.07029843 -0.00320765 -0.032586914 0.006669061 0.01078011 0.04383835 -0.012313232 0.014466478
-0.037053768 0.041356113 0.03519704 0.06763213 0.011622982 0.025805842 0.008923487 0.047823433
0.0041439156 0.060392372 0.048489515 -0.07439008 0.0068176384 -0.04884769 -0.010469955 -0.012029449
0.009339704 -0.067756124 -0.018873625 0.003215137 0.03322435 -0.04586628 -0.008592054 0.021095445
0.048988603 0.028551592 -0.066180445 -0.035935845 0.02531774 -0.051739015 0.017041236 0.01744333
-0.062153764 0.027061503 0.031476386 -0.06699362 -0.050003774 -0.03085251 0.008549208 -0.013678227
0.014128702 -0.067797266 -0.048560996 -0.048744753 0.053040344 -0.043479834 0.046186604 0.04015174
0.020045517 0.05077087 0.06758803 -0.0063019744 -0.03314473 -0.0132213775 0.05682091 -0.05678378
00000000: 8fe8 413d a059 1abc 5a62 8dbc be3a 7d3c
00000010: 09e1 62bd befc d23c c77a 06bc a334 35bd
00000020: 39a2 323b 92a5 e7bc 3d07 eebc 7f0b 3c3d
00000030: c966 3a3d beaf 70bd ad25 7f3c 2e45 72bd
00000040: 0b8f 63bd fa9d 1b3d 9a10 013d c510 cbbc
00000050: fc2c a03c 74bc c03b bf05 093d 775d 303d
00000060: b558 f3bc cd20 603d 109c d2bc 8155 61bc
00000070: 639a c33c a7f0 0bbc ecd4 5a3d 47be 46bd
00000080: 916e 603d 49d2 4ebd 7d65 9bbc d8df 3a3b
00000090: 8289 353d 6156 a7bb 5985 19bc 3294 1cbd
000000a0: 0783 28bd 7af0 1ebc 3e8e de3c 47af 453d
000000b0: 0802 42bd 914f 0a3d 81a1 073d 72c5 6bbd
000000c0: 2b36 c0bc 0713 ed3c 1d08 17bd a5f2 23bd
000000d0: 59c3 763d 8683 3bbd 4757 813d b4cd 563d
000000e0: 5ac5 433c 9fb8 a63c 7074 5f3b 396e 2cbc
000000f0: b3de 763d b100 97bd 86a9 583d 96ed 053d
00000100: 74f9 64bd 1025 f0bb eee2 7f3d 436c 943c
00000110: df2f 323d b6c5 14bc 6984 5f3d c83c ba3c
00000120: 21ce b8bc 38bd fe3c a077 29bd 518e 56bd
00000130: f1e6 b03c d8aa 6dbd a32a 833d d56b 603c
00000140: 9251 0e3c 3b04 a73c f00c 06bd cc32 85bc
00000150: 6a75 053d 781c 703d 143b 403d a365 903d
00000160: 5cf0 07bd bd6c ecbc 5b2e 1dbd ecb7 09bd
00000170: 652e cebc 188f 733d 4d2e d6bc fdf7 183d
00000180: 996d 433c 9b35 30bd 22d9 f6bc 5213 11bc
00000190: 54eb 8dbc ef0a 8d3d 7d18 e53c 31ee 81ba
000001a0: acc4 74bd e410 493d f498 f53c 1dd5 fe3c
000001b0: fde5 4cbc 258e 423c 1dd6 043d f394 0ebd
000001c0: fe3f 44bc cf4a 04bd 79b5 333d 13d5 5abb
000001d0: 0fec 1bbb 204a 4e3d 1285 8fbc 054e 593c
000001e0: 1485 b4bc cf3a afbc ffe3 68bd bad9 09bd
000001f0: ebac 97bd bda0 e43c 54a2 87bd 2015 353d
00000200: 8349 89bd 3e73 e23c 77b9 5f3d a354 b4bc
00000210: ec1e 8ebd a883 153d 549a 66bd ec95 643c
00000220: a0f8 8fbd 7037 52bb db79 05bd 2388 da3b
00000230: 0f9f 303c d78f 333d 70bd 49bc ce04 6d3c
00000240: b1c5 17bd 0765 293d c52a 103d b782 8a3d
00000250: 526e 3e3c c666 d33c d133 123c 81e2 433d
00000260: afc9 873b fe5d 773d f19c 463d d459 98bd
00000270: 7f66 df3b 8414 48bd 2d8a 2bbc 2b17 45bc
00000280: 8f05 193c b9c3 8abd dc9c 9abc 0cb5 523b
00000290: 4216 083d 48de 3bbd b0c5 0cbc 5bd0 ac3c
000002a0: 46a8 483d 07e5 e93c 9d89 87bd 7731 13bd
000002b0: 2667 cf3c 4aec 53bd 109a 8b3c 50e5 8e3c
000002c0: f294 7ebd 16b0 dd3c 62ed 003d f333 89bd
000002d0: c2d0 4cbd 67be fcbc fa11 0c3c a41a 60bc
000002e0: 127c 673c 4bd9 8abd e5e7 46bd 94a8 47bd
000002f0: d540 593d e917 32bd 2a2e 3d3d 2776 243d
00000300: 7f36 a43c 1ef5 4f3d 986b 8a3d cb80 cebb
00000310: c5c2 07bd 7a9e 58bc 0bbd 683d 1c96 68bd

weight f4 [300, 200]
0.03991911 -0.020464452 0.03296149 0.06843929 0.025382705 -0.024183618 0.0651827 -0.054791585
0.03091494 0.014495813 -0.0632883 -0.019252019 -0.026908036 -0.031037832 -0.053059064 -0.017310057
0.08217841 -0.0568374 -0.03377877 -0.0138096465 0.056436036 0.04957418 -0.027160354 -0.031168422
-0.014737435 0.06316877 -0.04948514 -0.012618695 0.019229876 -0.0013901356 -0.06493904 -0.06250496
0.04281692 0.033849888 0.03634313 0.016158009 -0.060942974 0.05400558 -0.0029707297 -0.020787114
-0.061987355 0.020588892 -0.05904748 -0.03603944 0.0035819137 -0.026613096 -0.022424074 0.025203928
0.023582302 -0.057359863 -0.047317415 -0.00807018 -0.07633829 0.020934641 -0.011803176 0.03752301
-0.05757986 -0.046775464 0.012511709 0.035535064 -0.055786014 0.043773368 0.047968715 0.019248407
0.04818724 -0.046693128 0.021086562 -0.02501574 -0.009808964 -0.06167394 -0.012134775 0.004166878
-0.038480088 0.038330846 -0.04425079 0.019725256 0.025332363 -0.026173333 0.0136982 -0.04034224
0.0032417653 0.06740615 -0.05329793 -0.05106922 0.017150352 0.033801503 -0.029249493 -0.016137002
0.08097709 0.05103428 0.0445408 -0.06972002 0.03965846 -0.019214083 0.02217905 -0.011901749
-0.06041868 -0.022272365 -0.05170132 -0.04840211 0.01887578 0.012026119 0.07150761 -0.0144892195
-0.05690595 0.04406039 -0.070182994 -0.017341161 -0.015708538 -0.048619874 -0.0059808157 -0.036284342
-0.031854108 0.04639294 0.00842337 -0.001714578 0.05789159 0.06723126 0.02655082 0.052948505
-0.048165374 -0.06829148 -0.042761546 0.037353177 0.04894523 -0.024611056 0.05004196 -0.0011789849
0.009454422 -0.041905507 0.036778588 0.008578308 0.059123676 -0.0052327714 0.031203726 -0.06506819
-0.05627335 0.047619313 0.051546622 0.006391399 0.047327444 -0.0340736 0.04830731 -0.029145822
-0.015425593 -0.031582274 -0.07294682 -0.011960293 -0.053936787 0.025571955 0.036992054 0.017194431
0.04816793 -0.06389416 -0.012806812 -0.01868895 0.0049546026 -0.0630162 -0.027485987 -0.04662087
-0.020345328 0.010380944 -0.0017156202 0.06938721 -0.021524852 0.06008672 0.018461253 0.011048643
-0.0002625419 0.007110379 -0.011900408 -0.00360889 0.037496362 -0.042008284 -0.038718536 -0.058297507
0.043023594 -0.01091344 0.026649946 0.014147964 -0.017558381 -0.036063857 -0.06721767 -0.06050385
0.06317591 -0.034175113 0.018369662 -0.05648364 0.0031528664 0.012200291 -0.013766358 -0.051952574
0.020913545 -0.06922842 -0.063848734 -0.012760201 0.036981944 0.035738006 -0.033539582 -0.014079202
0.017799504 0.00032889322 0.004331773 0.010257914 0.011191688 0.045632105 0.005960942 0.043074045
0.009615707 0.054057375 -0.04128937 0.019884033 0.031564903 0.042345956 -0.03553554 0.024943015
-0.07030696 0.027937815 0.06671178 0.024211626 -0.06780541 -0.0038769455 -0.06160363 0.06439275
-0.06796851 0.049219463 -0.034355927 0.01107931 0.004378989 0.06279524 0.006984213 -0.00010736464
-0.04031259 -0.048630722 0.021273097 0.02694293 -0.06398789 0.030102719 -0.06971434 0.025098924
0.026044492 0.05533017 0.03783038 0.0038376437 0.039180722 0.037528407 -0.008973218 -0.006094738
0.08312654 -0.025956903 -0.061873715 -0.033322625 -0.063521385 0.0025548243 0.025660003 0.059982575
00000000: 3882 233d 11a5 a7bc a102 073d e629 8c3d
00000010: 64ef cf3c b91c c6bc 827e 853d 246d 60bd
00000020: 5441 fd3c d97f 6d3c 4c9d 81bd 69b6 9dbc
00000030: 3e6e dcbc 0d43 febc 7654 59bd d2cd 8dbc
00000040: 274d a83d 55ce 68bd 9c5b 0abd db41 62bc
00000050: 7929 673d 4c0e 4b3d 647f debc eb54 ffbc
00000060: 4875 71bc a15e 813d eeb0 4abd a5be 4ebc
00000070: f987 9d3c 3635 b6ba c2fe 84bd 9a02 80bd
00000080: cb60 2f3d 2ea6 0a3d 89dc 143d cd5d 843c
00000090: 579f 79bd f434 5d3d 93b0 42bb bd49 aabc
000000a0: 74e6 7dbd 09aa a83c c5db 71bd 189e 13bd
000000b0: 8abe 6a3b b503 dabc b1b2 b7bc 7878 ce3c
000000c0: ac2f c13c 2df2 6abd e8cf 41bd ca38 04bc
000000d0: 4057 9cbd 207f ab3c 1c62 41bc bab1 193d
000000e0: dcd8 6bbd a197 3fbd e9fd 4c3c 378d 113d
000000f0: e07f 64bd b44b 333d d87a 443d d6ae 9d3c
00000100: fc5f 453d 4b41 3fbd babd ac3c cfed ccbc
00000110: c7b5 20bc d09d 7cbd efd0 46bc 4e8a 883b
00000120: 4c9d 1dbd ce00 1d3d 5140 35bd dc96 a13c
00000130: d185 cf3c 7569 d6bc 6a6e 603c e83d 25bd
00000140: cc73 543b 3c0c 8a3d ee4e 5abd f52d 51bd
00000150: e57e 8c3c 7273 0a3d a29c efbc bf31 84bc
00000160: 51d7 a53d 5209 513d 6a70 363d 5fc9 8ebd
00000170: e970 223d da66 9dbc d7b0 b53c 8eff 42bc
00000180: 9479 77bd 8974 b6bc c3c4 53bd 4a41 46bd
00000190: 61a1 9a3c 3309 453c 9572 923d 3164 6dbc
000001a0: 3716 69bd ab78 343d 1abc 8fbd 0d0f 8ebc
000001b0: 31af 80bc a225 47bd b8fa c3bb e49e 14bd
000001c0: 7479 02bd 8606 3e3d 2d02 0a3c b1bb e0ba
000001d0: bb1f 6d3d 8bb0 893d 1b81 d93c 88e0 583d
000001e0: 0e49 45bd 67dc 8bbd bb26 2fbd a5ff 183d
000001f0: cb7a 483d 209d c9bc ccf8 4c3d 2b88 9aba
00000200: b8e6 1a3c 1ca5 2bbd 25a5 163d 088c 0c3c
00000210: ab2b 723d ab77 abbb f59e ff3c 7942 85bd
00000220: e27e 66bd 780c 433d 8d22 533d f16e d13b
00000230: 6cda 413d c290 0bbd e3dd 453d 38c3 eebc
00000240: a0bb 7cbc 6a5c 01bd 2465 95bd 1bf5 43bc
00000250: d2ec 5cbd 477c d13c fb84 173d 56db 8c3c
00000260: bc4b 453d f1da 82bd aad3 51bc 9219 99bc
00000270: 385a a23b a30e 81bd 4b2a e1bc 86f5 3ebd
00000280: 3fab a6bc d614 2a3c a9de e0ba e21a 8e3d
00000290: e354 b0bc 7e1d 763d 0e3c 973c 5e05 353c
000002a0: c7a5 89b9 2ffe e83b eef9 42bc 2183 6cbb
000002b0: c995 193d e110 2cbd 5497 1ebd 5ec9 6ebd
000002c0: 8239 303d 49ce 32bc fd50 da3c ddcc 673c
000002d0: 98d6 8fbc b2b7 13bd 6ba9 89bd e3d2 77bd
000002e0: 5f62 813d 34fb 0bbd f97b 963c 645b 67bd
000002f0: 52a0 4e3b bbe3 473c 4a8c 61bc 39cc 54bd
00000300: e252 ab3c a1c7 8dbd 20c3 82bd 2910 51bc
00000310: 617a 173d 0462 123d cd60 09bd 74ac 66bc
00000320: 44d0 913c 4d6f ac39 8cf1 8d3b cf10 283c
00000330: 575d 373c bbe8 3a3d 0154 c33b 696e 303d
00000340: 338b 1d3c 446b 5d3d 0b1f 29bd d7e3 a23c
00000350: 334a 013d f472 2d3d b78d 11bd 4b55 cc3c
00000360: 18fd 8fbd d8dd e43c 30a0 883d 7657 c63c
00000370: 90dd 8abd 5a14 7ebb 1754 7cbd 59e0 833d
00000380: 1333 8bbd 599a 493d cdb8 0cbd ff85 353c
00000390: 9f7d 8f3b ca9a 803d d3db e43b f428 e1b8
000003a0: d01e 25bd 0231 47bd eb44 ae3c 6bb7 dc3c
000003b0: 150c 83bd fa99 f63c 64c6 8ebd 429c cd3c
000003c0: 425b d53c e3a1 623d 07f4 1a3d fa80 7b3b
000003d0: f77b 203d 63b7 193d 6704 13bc 5eb6 c7bb
000003e0: 3f3e aa3d 92a3 d4bc 4b6f 7dbd 4e7d 08bd
000003f0: 8017 82bd d76e 273b ed34 d23c 4ab0 753d

bias f4 [300]
0.03252788 -0.059604056 -0.033193663 -0.013547478 0.033599395 0.07084524 0.0638078 0.056158185
-0.056997642 -0.025179861 -0.008256511 0.016850535 -0.002694452 -0.063487634 -0.006754671 -0.047238845
-0.058716226 -0.011291163 -0.027981164 -0.021652803 0.06456986 -0.025597854 0.037262563 -0.0020363003
-0.03181296 -0.057312705 0.049956325 -0.05382461 0.056355268 -0.04907702 0.034061197 -0.041762915
-0.028822625 0.03614885 -0.036974814 -0.04988799 -0.0075396467 -0.05353115 -0.038142063 -0.004629658
0.06466863 -0.03978912 0.04198409 0.055779886 -0.015790647 -0.053593185 0.015656885 0.021001067
0.040169884 0.037751388 0.05869967 -0.03452356 -0.018516928 0.053579245 -0.053855952 0.06482651
0.051588792 0.050943192 0.05964355 -0.040560316 -0.008813672 0.06455655 -0.028348092 0.030805271
0.013578573 -0.00049249333 -0.010337669 0.021737142 -0.04804656 -0.040065296 0.028275786 0.065658286
-0.05395667 -0.04139118 0.06325579 0.049513474 -0.04311365 -0.028802024 -0.048801612 -0.013605844
-0.056459893 -0.06800392 -0.049178723 0.004242081 0.054376833 -0.012945691 -0.05413161 0.042974196
0.012448879 0.040852964 -0.048550144 0.032318123 0.0155040445 0.005186494 -0.050060354 0.022799691
-0.012023929 -0.056067895 0.027830279 -0.030461513 0.061898015 -0.00089182827 0.04304231 -0.06801196
0.03157487 -0.045353398 0.06111008 0.050996836 -0.0025042472 0.06529736 0.046630763 0.06930403
0.0654459 0.050010588 -0.05406248 -0.0596569 -0.017321814 0.040939298 0.027346158 0.054282814
-0.04637539 0.017639069 -0.038374178 0.025696108 -0.052069463 0.058611084 0.019029835 0.05451564
0.061150435 0.05690714 -0.0019334202 0.0367012 -0.05420445 0.006202651 0.058593705 0.0029704277
0.06030714 0.015589382 0.0017964463 0.061874084 0.011423823 0.02881038 0.046771374 0.018348254
0.047027573 -0.060982604 0.018140791 0.0430799 0.038935475 0.023819786 0.012891763 -0.054754097
0.00062154315 0.013755653 0.016380776 -0.026978714 0.0083212275 0.01757369 -0.03266607 0.028300991
-0.013141584 -0.0006539092 -0.05409796 0.030625498 -0.031478982 -0.04883944 -0.0300949 0.021879954
0.037104324 -0.018931322 -0.06165258 -0.0024902457 0.05972805 -0.04137576 0.06656609 0.067154124
-0.01183734 0.045929734 0.07279943 -0.048490543 -0.04188511 0.011731623 0.018012634 0.021541711
0.05979887 -0.0034190926 0.04020736 0.0017129472 0.05413187 0.036551554 -0.029690988 -0.04982799
0.026589563 -0.05977533 0.021213239 -0.06851557 -0.037009206 -0.055182334 -0.013445418 -0.013185591
-0.028701603 -0.056894127 0.013970842 0.04766413 -0.067484014 0.04020533 0.054428626 0.00022426501
-0.071926616 -0.06892834 -0.067823716 0.012573387 0.029945498 0.007866389 -0.007853157 -0.021367826
-0.013841163 0.03229008 0.07066237 -0.04804166 -0.014587107 0.061549578 0.052097023 0.03829311
-0.059704825 0.057260282 0.004288309 -0.06419976 0.049850322 -0.03358091 -0.040577196 0.023313275
0.01785515 -0.043793157 0.021925494 -0.06957659 -0.025803372 0.042631242 -0.018037988 -0.065780275
0.051174667 0.01206607 -0.012557392 0.038863536 0.0590084 0.036154572 -0.053070176 -0.025090573
-0.05292773 0.060804408 0.04821981 -0.037107665 -0.061702803 0.011115048 0.031691834 -0.02405995
00000000: f43b 053d 6223 74bd 14f6 07bd 3ef6 5dbc
00000010: 859f 093d 4f17 913d aaad 823d 2006 663d
00000020: 5c76 69bd ff45 cebc 5146 07bc 220a 8a3c
00000030: 6795 30bb ce05 82bd 4a56 ddbb 857d 41bd
00000040: 6d80 70bd 92fe 38bc c138 e5bc 3861 b1bc
00000050: 343d 843d 97b2 d1bc a1a0 183d 7373 05bb
00000060: 4e4e 02bd bac0 6abd 019f 4c3d 3277 5cbd
00000070: c8d4 663d fc04 49bd c183 0b3d 970f 2bbd
00000080: 6d1d ecbc d110 143d e772 17bd 5957 4cbd
00000090: 240f f7bb 7b43 5bbd da3a 1cbd 63b4 97bb
000000a0: fd70 843d ebf9 22bd 82f7 2b3d 7379 643d
000000b0: 635b 81bc 8784 5bbd de42 803c 6e0a ac3c
000000c0: 2d89 243d 33a1 1a3d 116f 703d 9468 0dbd
000000d0: d0b0 97bc e975 5b3d 0f98 5cbd c3c3 843d
000000e0: c54e 533d cfa9 503d cc4c 743d 9322 26bd
000000f0: 3867 10bc 3936 843d 423a e8bc 565b fc3c
00000100: aa78 5e3c ab1a 01ba 545f 29bc 1712 b23c
00000110: 78cc 44bd 821b 24bd 9fa2 e73c da77 863d
00000120: ab01 5dbd cc89 29bd 408c 813d a4ce 4a3d
00000130: f097 30bd 39f2 ebbc 33e4 47bd 0ceb 5ebc
00000140: 7d42 67bd a445 8bbd a16f 49bd 2801 8b3b
00000150: 3eba 5e3d 2a1a 54bc 1bb9 5dbd b605 303d
00000160: 62f6 4b3c 7055 273d 84dc 46bd 0260 043d
00000170: ad04 7e3c 77f3 a93b 160c 4dbd 6bc6 ba3c
00000180: 0300 45bc 73a7 65bd 53fc e33c 6c8a f9bc
00000190: c688 7d3d 95c9 69ba 224d 303d db49 8bbd
000001a0: a754 013d 7cc4 39bd 904e 7a3d 0fe2 503d
000001b0: 4c1e 24bb 9fba 853d e6ff 3e3d 45ef 8d3d
000001c0: 8008 863d e7d7 4c3d 9e70 5dbd cb5a 74bd
000001d0: 7ae6 8dbc f7af 273d 0d05 e03c a857 5e3d
000001e0: 1ff4 3dbd cf7f 903c 3e2e 1dbd a580 d23c
000001f0: ca46 55bd 2d12 703d 75e4 9b3c cb4b 5f3d
00000200: e178 7a3d 7617 693d d16a fdba ff53 163d
00000210: 7c05 5ebd 9c3f cb3b f4ff 6f3d 82ab 423b
00000220: 9f04 773d 9b6a 7f3c bc76 eb3a ae6f 7d3d
00000230: fd2a 3b3c bf03 ec3c 5793 3f3d 144f 963c
00000240: fc9f 403d e5c8 79bd ff9b 943c 8d74 303d
00000250: ce7a 1f3d b621 c33c f937 533c d545 60bd
00000260: 0eef 223a 645f 613c fa30 863c 7702 ddbc
00000270: c255 083c b3f6 8f3c dbcc 05bd 7bd7 e73c
00000280: cc4f 57bc 1b6b 2bba d395 5dbd 53e2 fa3c
00000290: 1bf0 00bd dd0b 48bd 9489 f6bc 973d b33c
000002a0: b4fa 173d dc15 9bbc 6a87 7cbd 6433 23bb
000002b0: 66a5 743d a179 29bd cd53 883d 1a88 893d
000002c0: 67f1 41bc d120 3c3d de17 953d 059e 46bd
000002d0: b98f 2bbd fe35 403c 3b8f 933c 3e78 b03c
000002e0: a9ef 743d db12 60bb 79b0 243d f884 e03a
000002f0: 61b9 5d3d 15b7 153d 843a f3bc 6f18 4cbd
00000300: 5bd2 d93c fad6 74bd 63c7 ad3c e451 8cbd
00000310: f796 17bd df06 62bd 2c4a 5cbc 6108 58bc
00000320: a01f ebbc d109 69bd f5e5 643c 763b 433d
00000330: 0f35 8abd 58ae 243d 8df0 5e3d ae28 6b39
00000340: 434e 93bd 4d2a 8dbd 29e7 8abd 9b00 4e3c
00000350: 4350 f53c 07e2 003c 87aa 00bc 940b afbc
00000360: 0cc6 62bc 9a42 043d 6fb7 903d 55c7 44bd
00000370: c3fe 6ebc 691b 7c3d b063 553d 3cd9 1c3d
00000380: 0c8d 74bd c289 6a3d f184 8c3b 2a7b 83bd
00000390: da2f 4c3d 238c 09bd 4634 26bd 7bfb be3c
000003a0: f744 923c 7460 33bd 189d b33c 2c7e 8ebd
000003b0: 9861 d3bc 199e 2e3d 67c4 93bc cfb7 86bd
000003c0: 879c 513d c4b0 453c 85bd 4dbc 5f2f 1f3d
000003d0: cbb2 713d d116 143d 1d60 59bd bf8a cdbc
000003e0: bfca 58bd 0b0e 793d 2382 453d 35fe 17bd
000003f0: 14bc 7cbd e41b 363c 4ccf 013d 5f19 c5bc

weight f4 [300, 200]
0.034414187 -0.0690575 -0.060823586 0.015155218 0.020432508 0.03134066 0.003352066 -0.031154107
-0.05322798 0.029121907 0.045582943 -0.063103765 -0.010643716 0.035016257 -0.054920077 0.036191486
-0.06028585 0.052834593 0.044451825 0.02033238 0.005687234 -0.039828423 -0.005959606 0.025229273
-0.0064356267 -0.06466354 -0.07291027 0.0054450845 -0.04493845 0.017530827 0.07144889 -0.017509323
-0.06693744 0.056300778 -0.058716565 0.034083605 0.07078817 -0.048738208 0.014150789 0.021126756
0.018370867 -0.07434896 -0.028005945 -0.021743963 0.073781386 -0.0259211 0.018366208 0.06079658
0.023509128 0.014307761 -0.04429954 0.020960556 -0.014557163 0.025482316 -0.012858818 0.024797143
-0.021058165 0.010797706 0.06576914 -0.05242388 0.024482388 0.039957054 0.045520447 0.039507434
-0.025824219 -0.040191453 0.06170918 -0.015086345 -0.035497785 0.043775424 0.013326509 -0.042277396
-0.056420375 0.019607712 0.028545933 0.026832642 0.016051762 -0.024968144 0.04957911 0.047735322
0.053873036 -0.056617193 0.0033622414 0.01799498 0.055445965 0.089714274 0.023840856 0.03530819
0.0051899273 0.06266133 0.0066479915 0.04485047 0.023550829 0.032857317 -0.027641961 0.010855221
-0.05659774 0.04423128 -0.041713376 -0.035775833 -0.06449827 -0.018892093 0.036377948 -0.03987487
-0.030680008 0.033883113 -0.057796445 0.06669626 0.011707505 -0.04714794 -0.005984463 0.011963245
0.051030003 0.023124477 0.067664966 0.0009914471 0.039381906 -0.07435548 -0.057185795 0.015722614
-0.005564133 -0.049924344 0.06982779 0.0022234374 -0.040052596 0.0045442097 0.017788224 0.019601474
0.06798541 -0.0637483 0.002354395 0.03722808 0.010087578 -0.051996585 -0.018108906 -0.0330458
0.013815759 -0.018178986 0.04830137 -0.057864945 0.019177249 -0.025161885 -0.04576557 -0.03517898
-0.057942208 -0.0014471079 -0.061106145 0.035202105 -0.05218428 -0.0074186246 0.023644865 0.060075153
0.011279444 0.024615323 0.029032126 -0.058611818 0.028697912 0.04097468 0.068761684 -0.052149236
0.025824996 -0.018630294 -0.044453148 0.057678696 -0.004822714 -0.04290361 -0.03148905 -0.06855809
-0.035042364 0.06292026 -0.04249841 -0.06542623 -0.04200858 -0.07156298 0.013064036 -0.02732575
0.048390117 0.026438382 0.011651889 -0.050800968 -0.04000112 0.06211612 -0.057593744 -0.047961276
0.046401158 -0.049833838 0.042893473 0.049683187 0.0116707375 -0.0637218 -0.027866548 -0.03335038
0.0055697006 -0.036533486 0.047240507 -0.05668909 0.060553983 -0.048966885 -0.022343507 0.07409369
-0.038701203 0.010877013 -0.05874693 -0.007642902 0.06180435 0.013162813 -0.033882383 0.03228158
0.033928655 0.058214977 0.03953377 -0.07295004 0.014833294 -0.061477467 -0.023493672 0.03814306
-0.016018772 -0.02785644 0.046677724 -0.011713294 0.048453093 -0.06569223 -0.0009808716 0.0032356773
0.00044521497 -0.012036179 0.07041762 0.043809444 0.0038292499 -0.024993692 0.026675604 -0.04598287
0.01154721 -0.014756706 -0.050766703 0.04807654 0.062097084 0.001064512 -0.057577822 -0.0073559857
0.008902166 -0.0545409 0.06592284 0.03089049 0.052783564 0.0009925815 -0.05083638 0.044386428
0.060984157 -0.010641438 0.05235006 0.0030329763 0.033071153 -0.05883546 -0.05581015 -0.06464721
00000000: e4f5 0c3d 056e 8dbd 2722 79bd 974d 783c
00000010: 1362 a73c 105f 003d 56ae 5b3b e636 ffbc
00000020: 9505 5abd 1191 ee3c 2eb5 3a3d 8c3c 81bd
00000030: fb62 2ebc 356d 0f3d e0f3 60bd 863d 143d
00000040: 4cee 76bd 1669 583d 1e13 363d 1790 a63c
00000050: fa5b ba3b 2123 23bd cc48 c3bb 9fad ce3c
00000060: f3e1 d2bb 516e 84bd fb51 95bd ae6c b23b
00000070: 6111 38bd cf9c 8f3c cc53 923d b66f 8fbc
00000080: 7f16 89bd a59b 663d c880 70bd 409b 0b3d
00000090: 63f9 903d b7a1 47bd b6d8 673c 0512 ad3c
000000a0: 807e 963c 4444 98bd b96c e5bc 6520 b2bc
000000b0: b21a 973d 7d58 d4bc bb74 963c d605 793d
000000c0: 3796 c03c 196b 6a3c 6f73 35bd 79b5 ab3c
000000d0: 2b81 6ebc 4ac0 d03c cbad 52bc 6123 cb3c
000000e0: 2c82 acbc dde8 303c f9b1 863d 6cba 56bd
000000f0: 4a8f c83c 02aa 233d a673 3a3d 8cd2 213d
00000100: 508d d3bc cb9f 24bd c4c2 7c3d b82c 77bc
00000110: 2066 11bd dc4d 333d 6e57 5a3c 102b 2dbd
00000120: 0d19 67bd 5aa0 a03c 29d9 e93c 21d0 db3c
00000130: fc7e 833c fe89 ccbc 7713 4b3d 1d86 433d
00000140: f9a9 5c3d 6ee7 67bd 0d59 5c3b 356a 933c
00000150: 4f1b 633d 1ebc b73d e64d c33c 529f 103d
00000160: 4410 aa3b 9554 803d 65d7 d93b 20b5 373d
00000170: abed c03c 6595 063d 6571 e2bc 19da 313c
00000180: 08d3 67bd dc2b 353d a5db 2abd ae89 12bd
00000190: ab17 84bd 97c3 9abc 0b01 153d d553 23bd
000001a0: a454 fbbc 05c9 0a3d f7bb 6cbd 0c98 883d
000001b0: d6d0 3f3c 331e 41bd 5019 c4bb 7d01 443c
000001c0: d604 513d 8b6f bd3c ee93 8a3d 72f3 813a
000001d0: ec4e 213d b047 98bd a73b 6abd b6cc 803c
000001e0: 5553 b6bb 787d 4cbd df01 8f3d 17b7 113b
000001f0: 310e 24bd 98e7 943b 9cb8 913c 4593 a03c
00000200: ef3b 8b3d 788e 82bd 324c 1a3b 797c 183d
00000210: 5e46 253c 5ffa 54bd 2159 94bc 085b 07bd
00000220: 7e5b 623c 19ec 94bc a8d7 453d cb03 6dbd
00000230: 9b19 9d3c 4c20 cebc ae74 3bbd d617 10bd
00000240: cf54 6dbd e2ac bdba 704a 7abd 1530 103d
00000250: 2fbf 55bd ef17 f3bb e0b2 c13c 5d11 763d
00000260: 6bcd 383c 13a6 c93c c8d4 ed3c f212 70bd
00000270: e217 eb3c 11d5 273d edd2 8c3d 709a 55bd
00000280: f18e d33c 8f9e 98bc 8114 36bd 7f40 6c3d
00000290: db07 9ebb b2bb 2fbd a9fa 00bd 2f68 8cbd
000002a0: 9588 0fbd 56dc 803d d012 2ebd 30fe 85bd
000002b0: 3011 2cbd 9d8f 92bd 8a0a 563c 40da dfbc
000002c0: b734 463d 4e95 d83c 91e7 3e3c ad14 50bd
000002d0: 37d8 23bd 796d 7e3d 6be7 6bbd 0b73 44bd
000002e0: 240f 3e3d 911e 4cbd 11b1 2f3d 9980 4b3d
000002f0: 9f36 3f3c 9380 82bd 6348 e4bc 689a 08bd
00000300: 0982 b63b 23a4 15bd 437f 413d d232 68bd
00000310: 7407 783d 8091 48bd bb09 b7bc 6fbe 973d
00000320: 2785 1ebd 8035 323c 9fa0 70bd 4f71 fabb
00000330: 8f26 7d3d d7a8 573c 41c8 0abd b139 043d
00000340: c6f8 0a3d d472 6e3d 2aee 213d d566 95bd
00000350: 5807 733c cccf 7bbd cd75 c0bc e63b 1c3d
00000360: cd39 83bc 3033 e4bc 2431 3f3d 1ee9 3fbc
00000370: c076 463d a689 86bd 9790 80ba a80d 543b
00000380: be6b e939 6533 45bc 1d37 903d 8871 333d
00000390: 27f4 7a3b 92bf ccbc cc86 da3c 8958 3cbd
000003a0: 8230 3d3c 1cc6 71bc bff0 4fbd e8eb 443d
000003b0: 8359 7e3d 1887 8b3a b9d6 6bbd 7b0a f1bb
000003c0: 64da 113c 4766 5fbd 8e02 873d 0e0e fd3c
000003d0: 9433 583d 8219 823a cf39 50bd 8bce 353d
000003e0: 86ca 793d 6d59 2ebc 046d 563d e6c4 463b
000003f0: 9e75 073d 74fd 70bd 2f99 64bd c265 84bd

weight f4 [300]
0.9936971 1.0060781 1.0035318 1.0025375 0.9987353 0.9993035 1.0005438 1.0079736
0.9908418 1.0033939 0.9960207 1.0002538 0.99625236 1.0100876 1.0050162 0.9955087
1.0000105 1.0092933 1.0005524 1.0015241 1.0091347 0.9948651 1.0020604 1.0033853
0.99974424 1.0015404 1.0006583 1.0052288 0.9990878 0.992303 0.9965582 1.0032682
0.9987213 0.9995679 0.99482733 0.99550605 0.99913675 1.0039171 1.0005937 0.9998146
0.9978098 1.00029 0.9983499 1.00284 0.9992987 0.9997803 1.0016266 1.0000553
1.0025127 0.9973978 0.9968097 1.0032059 1.0130514 0.98828137 0.99085695 0.9932859
1.0036112 1.0035696 0.99961835 1.0074579 1.0019358 1.0016056 1.002669 1.0071872
1.0038018 1.0015272 1.0034499 1.0053577 1.0063225 0.9955015 0.99570465 1.0020341
1.0043033 1.0067728 1.0041529 0.9993243 1.0004083 1.0009965 0.9980597 0.98867404
1.0029023 1.00265 0.9968008 0.9997567 0.9957818 1.0015066 0.9992038 1.0047575
1.0005691 0.99992746 0.99609363 1.0081924 0.9999561 0.9964607 1.0139682 0.99488497
0.9996147 1.0012372 0.9930933 1.0080844 0.99832875 0.9929185 0.9934343 0.99967957
1.0007257 1.0002623 1.0019177 0.9913235 1.0028539 0.9998338 1.0039629 0.9886173
1.002557 0.9920849 1.0020016 0.99738264 0.9960261 0.9961623 1.0063986 0.99711734
0.99880695 0.9949258 0.9995729 0.9967445 1.003029 0.99642503 0.9903701 0.998303
1.0161755 0.9968291 0.99857926 0.993989 0.9996421 1.0001876 1.0078446 0.99613166
1.0032033 1.0031317 1.0026454 1.0064583 1.0158973 0.9932593 1.0036995 1.0084292
1.0020199 1.0059093 1.0049292 0.99715203 1.0026567 0.99839383 1.004104 0.99656874
0.9969482 0.99567986 1.0032868 1.0058998 0.9956956 0.9955389 0.9953132 0.99456674
1.0136366 0.9996451 1.0128089 1.0045192 0.99820364 0.99890125 0.9901899 1.00006
1.00679 1.0014273 1.0036336 0.9922271 1.0078892 0.993101 1.002061 1.000399
1.0000131 1.004463 1.0024815 1.0028708 1.0026193 0.99314886 1.0000075 1.0002363
0.99920315 0.9919445 1.0022817 1.0020037 0.9989727 1.0015393 1.0138438 0.9965911
0.99503094 0.9939371 0.992638 0.9976677 0.9973947 1.0011914 0.99680126 1.0039377
1.0022116 1.0034668 1.0013915 1.0189484 0.9983832 0.99781734 1.0053885 0.99224585
1.0015625 0.9933696 0.9995575 0.994416 0.99911565 0.99888545 1.0021819 1.0038246
0.9984092 0.9991285 1.0036399 1.0011173 1.0022572 0.9936439 1.0004429 0.9909786
1.0041907 0.99545944 0.99922746 0.995769 1.004355 0.9966056 1.0026035 0.9962595
0.99886435 1.0016774 1.0011513 1.0092636 1.0024478 0.9975495 1.0067724 1.0001744
0.9960881 0.99987143 1.0074369 1.0066828 1.0005873 1.0008103 1.0034903 1.0041282
1.0054042 0.99621785 1.0000368 1.0029074 1.0036303 1.00495 0.9987463 1.0050417
00000000: ef62 7e3f 2bc7 803f bb73 803f 2653 803f
00000010: 1ead 7f3f 5bd2 7f3f d211 803f 4705 813f
00000020: cfa7 7d3f 366f 803f 36fb 7e3f 5108 803f
00000030: 650a 7f3f 8d4a 813f 5fa4 803f a8d9 7e3f
00000040: 5800 803f 8630 813f 1a12 803f f131 803f
00000050: 532b 813f 7baf 7e3f 8443 803f ee6e 803f
00000060: 3def 7f3f 7a32 803f 9215 803f 56ab 803f
00000070: 38c4 7f3f 9207 7e3f 701e 7f3f 186b 803f
00000080: 33ac 7f3f afe3 7f3f 01ad 7e3f 7cd9 7e3f
00000090: 6dc7 7f3f 5b80 803f 7413 803f daf3 7f3f
000000a0: 7770 7f3f 8109 803f dc93 7f3f 105d 803f
000000b0: 0ad2 7f3f 9af1 7f3f 4d35 803f d001 803f
000000c0: 5652 803f 7655 7f3f ec2e 7f3f 0d69 803f
000000d0: abab 813f 0200 7d3f cda8 7d3f fc47 7e3f
000000e0: 5576 803f f874 803f fde6 7f3f 61f4 803f
000000f0: 6f3f 803f 9d34 803f 7557 803f 83eb 803f
00000100: 947c 803f 0b32 803f 0c71 803f 90af 803f
00000110: 2dcf 803f 30d9 7e3f 80e6 7e3f a742 803f
00000120: 038d 803f eedd 803f 1588 803f b8d3 7f3f
00000130: 610d 803f a720 803f d780 7f3f be19 7d3f
00000140: 1a5f 803f d656 803f 562e 7f3f 0ef0 7f3f
00000150: 8eeb 7e3f 5e31 803f d2cb 7f3f e59b 803f
00000160: a612 803f 3ffb 7f3f feff 7e3f 730c 813f
00000170: 1ffd 7f3f 0c18 7f3f b6c9 813f c8b0 7e3f
00000180: c0e6 7f3f 8a28 803f 5d3b 7e3f e908 813f
00000190: 7992 7f3f e82f 7e3f b651 7e3f 00eb 7f3f
000001a0: c817 803f 9808 803f d73e 803f 60c7 7d3f
000001b0: 845d 803f 1cf5 7f3f db81 803f 0616 7d3f
000001c0: ca53 803f 47f9 7d3f 9741 803f 7854 7f3f
000001d0: 91fb 7e3f 7e04 7f3f abd1 803f 1543 7f3f
000001e0: d0b1 7f3f 75b3 7e3f 02e4 7f3f a62a 7f3f
000001f0: 4163 803f b615 7f3f e588 7d3f c990 7f3f
00000200: 0a12 823f 3130 7f3f e4a2 7f3f 1076 7e3f
00000210: 8be8 7f3f 2606 803f 0d01 813f 7c02 7f3f
00000220: f768 803f 9f66 803f af56 803f a0d3 803f
00000230: ec08 823f 3e46 7e3f 3a79 803f 3514 813f
00000240: 3042 803f a3c1 803f 85a1 803f 5b45 7f3f
00000250: 0e57 803f bd96 7f3f 7b86 803f 211f 7f3f
00000260: ff37 7f3f e0e4 7e3f b46b 803f 53c1 803f
00000270: e8e5 7e3f a3db 7e3f d9cc 7e3f ed9b 7e3f
00000280: d8be 813f bee8 7f3f b9a3 813f 1694 803f
00000290: 468a 7f3f feb7 7f3f 167d 7d3f f701 803f
000002a0: 7fde 803f c52e 803f 1177 803f 9802 7e3f
000002b0: 8302 813f de3b 7e3f 8943 803f 130d 803f
000002c0: 6e00 803f 3e92 803f 5051 803f 125e 803f
000002d0: d455 803f 013f 7e3f 3f00 803f be07 803f
000002e0: c7cb 7f3f 13f0 7d3f c44a 803f a841 803f
000002f0: adbc 7f3f 7132 803f a2c5 813f 9820 7f3f
00000300: 59ba 7e3f a972 7e3f 861d 7e3f 2667 7f3f
00000310: 4255 7f3f 0a27 803f 5e2e 7f3f 0881 803f
00000320: 7848 803f 9a71 803f 992d 803f e76c 823f
00000330: 0b96 7f3f f570 7f3f 92b0 803f d303 7e3f
00000340: 3333 803f 784d 7e3f 00e3 7f3f 0c92 7e3f
00000350: 0bc6 7f3f f5b6 7f3f 7f47 803f 537d 803f
00000360: bf97 7f3f e3c6 7f3f 4677 803f 9d24 803f
00000370: f749 803f 725f 7e3f 830e 803f c6b0 7d3f
00000380: 5289 803f 6ed6 7e3f 5fcd 7f3f b8ea 7e3f
00000390: b48e 803f 8b21 7f3f 5055 803f dd0a 7f3f
000003a0: 93b5 7f3f f736 803f ba25 803f 8d2f 813f
000003b0: 3650 803f 675f 7f3f ebdd 803f b705 803f
000003c0: a1ff 7e3f 93f7 7f3f b1f3 803f fbda 803f
000003d0: 3f13 803f 8d1a 803f 5f72 803f 4687 803f
000003e0: 16b1 803f 2208 7f3f 3501 803f 455f 803f
000003f0: f576 803f 34a2 803f d6ad 7f3f 35a5 803f

bias f4 [300]
0.002286251 -0.0014146565 0.00026017515 0.0004904221 0.0017044522 -0.0025577296 0.0015032168 0.00081178546
0.0030918545 0.00035261307 0.0025887873 0.0053242045 0.00029485676 0.0009639995 0.0009365091 0.0048293513
0.0014331955 -0.001520867 0.0007638775 -0.0013864967 -0.0008407235 -0.0061883167 -0.00158474 -0.0008989887
-0.0063175336 -0.0041148993 -0.0019189103 0.0018896427 0.00026706528 -0.0024245062 0.001530202 -0.0011774716
0.0050576287 0.0013446397 -0.0010727302 -9.223434e-05 -0.001890405 0.0008083326 -0.00105752 -0.0030461056
0.0013517266 1.4008845e-05 -0.0022196295 0.0021801973 -0.00338361 -0.00058432115 -0.0024156508 -0.0019681947
-0.0012927763 -0.006423368 0.0014244047 0.0010976129 -0.0011861637 -0.0046713417 -0.0022019236 0.0011211514
0.0018262104 -9.962627e-05 -0.0024590578 -0.0019120853 0.0021389422 0.00015688443 -0.00037533575 0.0015123583
0.001848161 0.0010961695 -0.005635377 0.0028849351 0.00049908075 0.0016506546 -0.0055829217 -0.00028752282
-0.0041315965 6.504122e-05 0.0002610082 -0.0032084773 -0.0028391504 0.004211515 -0.0040886775 -0.0048996094
0.0017776146 0.0009679678 0.0040813764 -0.005288159 -0.0013626239 0.0006815186 -0.003325216 -0.0023280995
0.0031796445 0.0029647022 0.0012753158 -2.3322802e-05 0.0039939894 -0.0016818361 -0.0033020806 -0.0028343177
-0.0020701906 0.004426345 -0.0041991025 -0.0003712449 0.0037423486 0.0006133355 0.0005171603 0.0012212843
0.0026772332 0.003132047 0.0008483575 0.0023808777 0.0018904001 0.0005149341 -0.00073657883 -0.0050977604
-0.00019171732 0.002462784 -0.0017255857 0.0005028606 0.0026937127 0.0041726106 -0.0024296036 0.0011568249
0.0015681364 -0.0026436937 0.0008937052 -0.0010356028 -0.0027567102 -0.0033341765 -0.0064198636 0.0016387667
-0.00036019398 -0.004591545 0.00091402524 -0.003728766 0.0023123962 -0.000230029 -8.775964e-05 -0.0026179343
0.0007583449 -0.0022229971 -0.003194567 0.0005712691 -0.0029680058 -0.0006127137 -0.0018564474 -0.001568576
-0.0021689464 0.0015212913 -0.001743564 -0.005949084 -0.00030633283 0.0024810033 0.00052244955 -0.002494343
0.002360029 5.6188816e-05 -0.0010356882 -0.0019676227 0.0028514408 0.00045299254 -0.0013200013 -0.0017522052
-0.0016676799 -0.0019052596 -0.00034803184 0.00018308942 0.0053837216 0.0031166072 0.0020642078 -0.0032573363
-0.0043534464 0.0014410958 0.0019657474 -0.0007160096 0.001462051 0.0022083467 0.0011492082 0.00040907838
9.191323e-05 -0.0007978468 0.0028045708 0.005183715 -0.00054238935 -3.0532534e-05 -0.00051272195 0.0018601661
0.0029906589 -0.0032518387 -0.002608452 -0.002007355 -0.0016220788 0.0027550827 -0.0026990534 -0.0009077133
-0.0028245042 0.002256093 -0.0035426887 -0.0011220407 0.0022610952 -0.0033097188 0.0008696846 -0.00013851064
0.000111499125 -0.0008465627 0.001661407 0.00017612455 -0.00035863195 0.0016032995 -0.0013517848 -0.0010562044
0.00032900547 -0.0019258801 0.0033886826 -0.00127013 -0.0020583915 -0.0001456943 -0.0030354138 -0.0027193818
0.0025131982 0.010421617 -0.00075034914 0.0012826484 -0.00021764771 0.0012800914 -0.004148819 -0.0023684409
-0.0042166524 0.004988051 0.0016963535 -0.0034452921 0.0010417011 -0.0008235729 0.0022188777 -0.0032790236
0.0068208263 0.0009931042 0.0003891559 -0.0019118198 -0.0025898283 -0.006189176 0.0017670598 0.0012851147
-0.0011508228 0.0031525749 -0.0027034613 0.0028369816 -3.2905697e-05 0.00053195376 -0.001321966 -0.0024689056
-0.00011900029 0.0015148004 -0.0013620927 0.001202597 -0.00039807596 0.002771677 0.0010721674 0.0017315303
00000000: edd4 153b ff6b b9ba 1e68 8839 ac8f 003a
00000010: ed67 df3a 959f 27bb 9607 c53a 00ce 543a
00000020: b6a0 4a3b edde b839 a5a8 293b aa76 ae3b
00000030: 0197 9a39 e9b4 7c3a 1080 753a 893f 9e3b
00000040: 10da bb3a d457 c7ba f43e 483a 1cbb b5ba
00000050: 0064 5cba 5dc7 cabb 0db7 cfba 1caa 6bba
00000060: 5003 cfbb 47d6 86bb f283 fbba e3ad f73a
00000070: e504 8c39 77e4 1ebb 0f91 c83a 6455 9aba
00000080: 77ba a53b 9f3e b03a da9a 8cba ef6d c1b8
00000090: 77c7 f7ba 48e6 533a 7c9c 8aba 2ca1 47bb
000000a0: 6b2c b13a 8807 6b37 3477 11bb a4e1 0e3b
000000b0: 8ebf 5dbb 212d 19ba e54f 1ebb d4fc 00bb
000000c0: 6072 a9ba 1e7b d2bb 17b3 ba3a c7dd 8f3a
000000d0: 0d79 9bba 0e12 99bb 264e 10bb 99f3 923a
000000e0: 745d ef3a 72ee d0b8 2528 21bb f09e faba
000000f0: 7f2d 0c3b 5881 2439 b6c8 c4b9 533a c63a
00000100: fe3d f23a 58ad 8f3a f8a8 b8bb 2e11 3d3b
00000110: bed4 023a c75a d83a f1f0 b6bb a9be 96b9
00000120: 5862 87bb bd66 8838 edd7 8839 5145 52bb
00000130: 0a11 3abb c000 8a3b 50fa 85bb e78c a0bb
00000140: d9fe e83a 38bf 7d3a 11bd 853b 4b48 adbb
00000150: 129a b2ba f0a7 323a deeb 59bb 0793 18bb
00000160: 9561 503b 734b 423b 7f28 a73a 56a5 c3b7
00000170: 03e0 823b 0e71 dcba b867 58bb f6bf 39bb
00000180: 09ac 07bb e00a 913b a098 89bb a6a3 c2b9
00000190: 3142 753b 40c8 203a 0a92 073a 8013 a03a
000001a0: 8574 2f3b 0743 4d3b 4f64 5e3a 8008 1c3b
000001b0: 4dc7 f73a a4fc 063a f816 41ba 1d0b a7bb
000001c0: ba07 49b9 a966 213b 0c2d e2ba 67d2 033a
000001d0: 0089 303b 65ba 883b fc39 1fbb 9aa0 973a
000001e0: ed89 cd3a d241 2dbb 8a47 6a3a 10bd 87ba
000001f0: eca9 34bb 3382 5abb b85d d2bb e3cb d63a
00000200: 6bd8 bcb9 ac74 96bb 329b 6f3a 505e 74bb
00000210: 928b 173b f133 71b9 990b b8b8 a691 2bbb
00000220: aacb 463a b4af 11bb f15b 51bb 38c1 153a
00000230: e082 42bb 859e 20ba 0a54 f3ba ad98 cdba
00000240: e224 0ebb 1166 c73a 4d88 e4ba 89f0 c2bb
00000250: 4c9b a0b9 5498 223b fff4 083a 2278 23bb
00000260: b7aa 1a3b 48ac 6b38 eebf 87ba 3bf3 00bb
00000270: 3ddf 3a3b a17f ed39 e503 adba 40aa e5ba
00000280: 0d96 daba e7b9 f9ba 0b78 b6b9 b1fb 3f39
00000290: ee69 b03b fe3f 4c3b a947 073b 0979 55bb
000002a0: 5ba7 8ebb 27e3 bc3a c5d3 003b 97b2 3bba
000002b0: 4aa2 bf3a e9b9 103b 07a1 963a 9279 d639
000002c0: 8ac1 c038 9826 51ba e4cc 373b 27dc a93b
000002d0: 222f 0eba 0f10 00b8 3068 06ba d1d0 f33a
000002e0: eefe 433b cd1c 55bb 90f2 2abb d48d 03bb
000002f0: ef9b d4ba 9e8e 343b 9ae2 30bb 9cf3 6dba
00000300: 511b 39bb f6da 133b 742c 68bb 7011 93ba
00000310: e22e 143b dee7 58bb 8cfb 633a 2b3d 11b9
00000320: a3d4 e938 dceb 5dba 91c3 d93a 13ae 3839
00000330: c406 bcb9 ce25 d23a 5f2e b1ba 5770 8aba
00000340: 5e7e ac39 d06d fcba a914 5e3b 7e7a a6ba
00000350: 14e6 06bb 84c5 18b9 cbed 46bb a837 32bb
00000360: 78b4 243b 6ebf 2a3c 14b3 44ba 8a1e a83a
00000370: 5d38 64b9 bdc8 a73a d1f2 87bb d837 1bbb
00000380: d82b 8abb ce72 a33b 2e58 de3a 69ca 61bb
00000390: b089 883a 0be5 57ba 976a 113b e3e4 56bb
000003a0: 3d81 df3b 0c2b 823a 9f07 cc39 0796 faba
000003b0: 1cba 29bb 92ce cabb b09c e73a 4b71 a83a
000003c0: 35d7 96ba 6e9b 4e3b 8e2c 31bb a7ec 393b
000003d0: 3904 0ab8 d072 0b3a d145 adba 5dcd 21bb
000003e0: cb8f f9b8 448c c63a 3f88 b2ba 76a0 9d3a
000003f0: dab4 d0b9 06a5 353b f887 8c3a 84f4 e23a
