inference/models_t2/lstmcell_rate_link.pt (torch, 970778 bytes, 4 tensors)

weight_ih f4 [600, 200]
0	0xbc2e4235	-0.010635902
1	0x3d6f4b2c	0.0584213
2	0x3d8ee95d	0.06978104
3	0x3d363ce1	0.044491652
4	0x3d86822e	0.065677986
5	0x3c8a57a2	0.01688749
6	0x3d1c20c9	0.038117204
7	0xbd8dd1d9	-0.06924791
8	0xbd5b351b	-0.053517442
9	0x3d5e4bca	0.054271497
10	0x3d868f37	0.06570285
11	0xbd95abca	-0.07308157
12	0xbcf36732	-0.029712293
13	0xbd0ef8c4	-0.03490521
14	0x3d58638a	0.052829303
15	0xbc7aa496	-0.015298029
16	0xbc983cb4	-0.018583633
17	0x3d2119d8	0.039331287
18	0xbc32dc96	-0.01091685
19	0xbcb8dcf0	-0.022566289
20	0xbd1f42df	-0.038882133
21	0xbc7bf960	-0.01537928
22	0xbc066ad2	-0.008204179
23	0x3cbf236e	0.023332324
24	0xbcf8315b	-0.030296972
25	0xbc05295a	-0.008127535
26	0xbcf4f9d0	-0.029904276
27	0xbcda7246	-0.026665818
28	0xbd52217c	-0.051301464
29	0x3d12bf00	0.035826683
30	0xbbd137cc	-0.0063848253
31	0x3d2a0f65	0.041518588
32	0x3d8295f5	0.06376258
33	0x3cb50628	0.022097662
34	0xbd09ef3f	-0.03367543
35	0xbc8cb1e2	-0.017174665
36	0xbc814310	-0.015779048
37	0x3d7929ec	0.060830995
38	0xbcaed7c7	-0.021343125
39	0x3d4dc75a	0.050238945
40	0xba93b3da	-0.001126881
41	0x3d12ef09	0.035872493
42	0x3d8a5527	0.06754523
43	0xbdac4dd2	-0.084132805
44	0x3d4942f1	0.049136106
45	0xbd98eaae	-0.074666366
46	0x3ad700ae	0.0016403401
47	0xbd11aa1f	-0.03556263
48	0x3da27456	0.079323456
49	0xbcc0a723	-0.023517197
50	0x3d5e1550	0.054219544
51	0x3d72abf9	0.059246037
52	0xbd80ec34	-0.06295052
53	0xbd16c6ba	-0.036810614
54	0xbd80d54f	-0.062906854
55	0xbd13712b	-0.035996597
56	0x3cf98bef	0.030462233
57	0xbd917216	-0.07101838
58	0x3c09b975	0.008406033
59	0xbd2c60a3	-0.042084347
60	0xbd6335b7	-0.05547115
61	0x3cb412ae	0.021981563
62	0xb9f53ed1	-0.00046776843
63	0x3d39d7d1	0.045371834
64	0x3d7dce2b	0.061964195
65	0x3d19c3a9	0.03754011
66	0xbc1ef9b1	-0.009703086
67	0x3c2dda48	0.010611124
68	0xbce0d856	-0.027446907
69	0xbd8d3fd0	-0.06896937
70	0xbd2792b2	-0.040911384
71	0xbd33ecab	-0.043926876
72	0xbd778dca	-0.060437955
73	0x3d3780f4	0.044800714
74	0x3d61cb73	0.055125665
75	0x3d9770ad	0.07394538
76	0x3d8ff721	0.07029558
77	0x3bebd4b2	0.007196986
78	0x3aaab8b7	0.001302502
79	0xbd09bcca	-0.03362731
80	0xbd4a6040	-0.049408197
81	0x3d5024d8	0.050816387
82	0x3d85507b	0.06509491
83	0xbc243208	-0.010021694
84	0xbd042c18	-0.032268614
85	0x3c8c0d68	0.017096236
86	0xbd4b140a	-0.049579658
87	0x3d0a91cf	0.03383046
88	0xbd632bfe	-0.055461876
89	0x3cc06692	0.02348641
90	0xbd9df19f	-0.07712101
91	0xbd7ce92e	-0.061745815
92	0xbd663b36	-0.05620881
93	0xbcc4bc87	-0.024015678
94	0x3d45d4ef	0.048298772
95	0x3d8ce0e8	0.06878835
96	0x377ef2bf	1.51960985e-05
97	0x3ca430ce	0.020042803
98	0x3c669a42	0.014074864
99	0x3d12361c	0.035696134
100	0x3ce78dbe	0.02826583
101	0xbc2e900a	-0.010654459
102	0xbd90c292	-0.07068361
103	0x3d4c3fe4	0.04986562
104	0x3d873c77	0.0660333
105	0x3d01cc4e	0.03168898
106	0xbd017601	-0.031606678
107	0x3d2bfb7d	0.041987885
108	0xbcb8a65c	-0.022540264
109	0x3d516630	0.051122844
110	0xbc8a0c4d	-0.016851569
111	0xbd182568	-0.03714505
112	0x3bcba3eb	0.006214609
113	0xbd2454be	-0.04011988
114	0x3dab7963	0.08372762
115	0x3c8f3748	0.017482415
116	0xbd1a4573	-0.03766389
117	0x3d951a64	0.07280424
118	0xbbe83551	-0.007086434
119	0xbd42c45e	-0.04755055
120	0x3d630b85	0.055430908
121	0xbc1d0911	-0.009584681
122	0xbbe2d1a7	-0.006921965
123	0x3c97c063	0.018524354
124	0xbd4de728	-0.050269276
125	0xbcce3c21	-0.025175156
126	0x3d5635ba	0.05229733
127	0xbd74b085	-0.059738655
128	0x3d401ab9	0.046900485
129	0xbd7b1100	-0.06129551
130	0xbcb6cbfd	-0.022314066
131	0xbbaa17c0	-0.0051908195
132	0x3d4bf65a	0.049795486
133	0x3d9a1e8a	0.07525356
134	0xbcf33091	-0.029686244
135	0x3d2f3a30	0.0427801
136	0x3ba4e02c	0.005031606
137	0xbd6248ae	-0.055245094
138	0xbb61416b	-0.0034371268
139	0x3c1db9f2	0.009626852
140	0xbd83efba	-0.064422086
141	0xbcea5adb	-0.028607776
142	0x3ced4811	0.028965028
143	0xbd5efc55	-0.05443986
144	0x3ce8fa0e	0.028439548
145	0x3d6c0502	0.057621963
146	0xbd03e4bc	-0.03220056
147	0xbc4b1b20	-0.012396604
148	0xbcd1f77b	-0.025630703
149	0x3d6be4a7	0.057591107
150	0x3d1fe569	0.039037142
151	0x3d492dcd	0.049115945
152	0x3cb3bc73	0.021940446
153	0xbd96eecf	-0.07369768
154	0x3d7b0bdf	0.061290618
155	0xbcc72e5c	-0.024314098
156	0xbd8460ce	-0.064637765
157	0xbd2b70f6	-0.041855775
158	0xbcf7f1ac	-0.030266605
159	0x3d34a8a3	0.044106137
160	0xbd1eb855	-0.03875001
161	0xbd5bcc63	-0.053661715
162	0x3c1e43c5	0.009659712
163	0xbd1733cb	-0.036914628
164	0x3b78616d	0.0037899867
165	0x3d0d5908	0.034508735
166	0xbd6bc500	-0.05756092
167	0x3d39cc87	0.045361068
168	0x3d9078bd	0.07054279
169	0x3c0ae27e	0.0084768515
170	0xbcdc9096	-0.026924413
171	0xbcd9dcfa	-0.026594628
172	0xbcb75662	-0.022380058
173	0x3d290fa0	0.041274667
174	0x3d458f27	0.048232224
175	0x3d6d037a	0.057864644
176	0xbd1cfc57	-0.038326588
177	0xbd735506	-0.059407257
178	0x3c7ab072	0.015300857
179	0xbd8b6f78	-0.0680837
180	0x3cf470b0	0.02983889
181	0x3d8dc9ae	0.06923233
182	0xbd801114	-0.062532574
183	0x3d586f51	0.052840535
184	0x3d52a407	0.05142596
185	0x3d75d140	0.06001401
186	0x3d8a8dcd	0.067653276
187	0xbbd2a35e	-0.0064281663
188	0xbd812c02	-0.06307222
189	0x3c3319b4	0.010931421
190	0xbcf22bea	-0.029561955
191	0x3c94b7e0	0.018154085
192	0xbaf30fa5	-0.0018544091
193	0xbc746ab1	-0.014918015
194	0xba5d80e9	-0.000844969
195	0xbd027ca1	-0.031857137
196	0x3cd9a3f5	0.026567439
197	0x3c2d3246	0.010571068
198	0xbcee864b	-0.02911677
199	0xbd6da082	-0.0580144
200	0xbd356959	-0.04428992
201	0xbd5d0837	-0.053962912
202	0x3cb33d53	0.021879828
203	0xbbec535c	-0.0072120856
204	0xbd12de59	-0.03585658
205	0xbd8c5f84	-0.06854156
206	0xbd930771	-0.07179154
207	0xbd6e54cd	-0.05818634
208	0x3a3c9951	0.0007194477
209	0xbd8f0a3d	-0.06984375
210	0x3bd35a3f	0.006449967
211	0xbd5e199b	-0.054223638
212	0xbd074755	-0.033027012
213	0xbcd28a24	-0.025700636
214	0xbd1c8c2a	-0.03821961
215	0x3c57ed48	0.013179131
216	0x3d32b162	0.043626197
217	0x3d1f61d0	0.03891164
218	0x3cb4d49e	0.02207404
219	0x3c2ea306	0.010658985
220	0x3a6aca50	0.00089565385
221	0xbbbaa72c	-0.005696198
222	0x3d258228	0.04040733
223	0xbd29b96c	-0.041436598
224	0x3d70d238	0.05879423
225	0xbd56909e	-0.05238401
226	0xbd807ca1	-0.06273771
227	0xbc5d470c	-0.013505708
228	0xbc947d86	-0.01812626
229	0xbd370c88	-0.044689685
230	0x3cbe9358	0.023263618
231	0xbd59ee7b	-0.05320595
232	0xbd14e52a	-0.03635136
233	0x3ce32ba7	0.027730776
234	0xbd4ca17d	-0.049958695
235	0x3d31e818	0.043434232
236	0x3c42c662	0.011888118
237	0xbd29cb78	-0.04145381
238	0xbaad6d7c	-0.0013231481
239	0xba9ca047	-0.0011949622
240	0x3c050f6c	0.008121353
241	0xbd4544fb	-0.048161488
242	0xbba31b80	-0.0049776435
243	0x3d1c3842	0.03813959
244	0x3c591618	0.0132498965
245	0x3d3841cb	0.04498462
246	0xbbed0e74	-0.007234389
247	0xbcb75449	-0.022379057
248	0x3d84daeb	0.06487068
249	0x3ca4f833	0.020137882
250	0xbd14d880	-0.036339283
251	0xbd669cc1	-0.056301836
252	0xbd332a74	-0.04374166
253	0xbc949df6	-0.018141728
254	0xbc2b3d34	-0.010451604
255	0xbcc63479	-0.024194943

weight_hh f4 [600, 200]
0	0xbd3657bf	-0.044517275
1	0xbc9ac86f	-0.018894402
2	0xbd11d973	-0.035607766
3	0x3cd3bc35	0.02584658
4	0x3d84fee3	0.06493928
5	0xbb8a852d	-0.0042273016
6	0xbd55f4a6	-0.052235268
7	0x3d298892	0.04139001
8	0x3d36c27f	0.04461908
9	0xbd03f7c4	-0.03221871
10	0xbd63b4ea	-0.055592455
11	0x3cde182b	0.027111134
12	0xbd675408	-0.056476623
13	0x3d5bea19	0.05369005
14	0x3c87e5ca	0.016589064
15	0xbc953a0f	-0.018216161
16	0x3d621236	0.05519315
17	0xbc23bc5f	-0.009993642
18	0xbcc13ee3	-0.023589557
19	0x3d67dd66	0.056607626
20	0x3c3a3278	0.011364572
21	0x3d2a26d5	0.04154094
22	0xbd284d44	-0.04108931
23	0x3cd9c255	0.026581923
24	0xbd19e9d5	-0.037576515
25	0xbc814a66	-0.015782546
26	0x3d32ede7	0.043683913
27	0x3cc04f9e	0.023475464
28	0x3c4ebc9a	0.012618208
29	0xbd027654	-0.031851128
30	0x3ce4f8ee	0.02795073
31	0xbce0bc04	-0.027433403
32	0x3ca6e575	0.020373086
33	0x3d38993f	0.045068022
34	0x3db246d2	0.08704914
35	0x3cf7201d	0.03016668
36	0x3d6c5c23	0.057705056
37	0xbc7c7b51	-0.01541026
38	0xbd0f2c6c	-0.034954473
39	0xbd1021ce	-0.03518849
40	0xbbb4dfa9	-0.0055198264
41	0xbd7bc6e6	-0.06146898
42	0xbc071823	-0.008245501
43	0x3d1a1702	0.0376196
44	0x3cf8a611	0.030352624
45	0xbcca4ebd	-0.024695748
46	0x3d42d354	0.04756482
47	0x3da1a6c6	0.07893138
48	0x3cf04ae3	0.029332584
49	0x3da8e1a2	0.08246161
50	0xbd98d03e	-0.07461594
51	0x3bdb5ed0	0.006694652
52	0x3c67d730	0.014150426
53	0x3d5e7890	0.054314196
54	0x3d064a8c	0.032785937
55	0xbd056c8b	-0.032574218
56	0x3ac5c020	0.0015087165
57	0xbd2c621b	-0.04208575
58	0xbd769c28	-0.060207516
59	0xbda00428	-0.07813293
60	0x3ca3a047	0.019973887
61	0x3d75d946	0.06002166
62	0x3cb6392e	0.022244062
63	0xbd17f122	-0.037095197
64	0x3d0da995	0.034585554
65	0xbd83379c	-0.06407091
66	0x3d751dbc	0.05984281
67	0x3d635915	0.055504877
68	0x3d2c5a97	0.04207858
69	0xbb3636f8	-0.002780376
70	0x3d8d6914	0.06904808
71	0x3c86f67c	0.016474955
72	0x3d927441	0.0715108
73	0x3c140624	0.009034667
74	0x3d3f53aa	0.046710648
75	0xbac06bbb	-0.0014680544
76	0x3cc01dff	0.023451803
77	0x3c993476	0.018701773
78	0xbbc74200	-0.006080866
79	0x3cec9c6c	0.028883182
80	0x3cec0bc3	0.028814202
81	0xbc43e14e	-0.011955572
82	0xbd0aaefb	-0.03385828
83	0x3d0e0ab8	0.03467819
84	0x3d33699d	0.043801893
85	0x3acafa7f	0.0015486031
86	0x3d741291	0.05958802
87	0x3d220db5	0.039563853
88	0x3d25162a	0.04030434
89	0x3d009a3b	0.031397086
90	0xbd341415	-0.043964464
91	0x3cbd6112	0.023117576
92	0xbd445312	-0.047930785
93	0xbd75053a	-0.059819438
94	0x3d86b285	0.06577019
95	0xbd5b59b0	-0.05355233
96	0xbbaac124	-0.0052110124
97	0xbbf0609d	-0.007335736
98	0x3d0c5a53	0.034265827
99	0x3c16e880	0.009210706
100	0x3cbf9045	0.023384223
101	0xbbcfdb8a	-0.00634331
102	0xb94164a0	-0.000184434
103	0x3d717d99	0.05895767
104	0x3d373877	0.044731583
105	0xbd60a14a	-0.054841317
106	0x3c8759c4	0.016522296
107	0x3daeab5c	0.08528778
108	0xbd85f6dc	-0.06541225
109	0xbd3b3c90	-0.045712054
110	0x3d5f08ee	0.054451875
111	0xbc3e3661	-0.011609645
112	0xbd148d55	-0.036267597
113	0xbd2edec7	-0.042692926
114	0x3d2e16ec	0.04250233
115	0xbd5c9f04	-0.053862587
116	0x3d649fd9	0.055816505
117	0x3d49390f	0.04912668
118	0x3d377cc2	0.044796713
119	0x3da6505f	0.08120798
120	0xbd2283a1	-0.039676312
121	0x3cb81719	0.022471951
122	0x39d0f161	0.00039852693
123	0x3b72ebc8	0.0037066806
124	0x3d86dd9b	0.06585237
125	0xbd3030c9	-0.043015275
126	0xbc2e81e6	-0.010651087
127	0xbd413b79	-0.04717586
128	0x3d732741	0.059363607
129	0x3c4b5b5c	0.0124119185
130	0x3d7157bd	0.058921564
131	0x3d96cd85	0.073634185
132	0xbbb5b286	-0.0055449633
133	0x3bff28e5	0.0077868574
134	0xbd54452c	-0.05182378
135	0x3d6286f4	0.055304483
136	0x3c3f7d10	0.011687532
137	0xbca1a1c5	-0.019730458
138	0x3d4e229a	0.050325967
139	0xbd9ce526	-0.07660894
140	0xbd71b549	-0.059010778
141	0x3aaa1ae2	0.0012977982
142	0xbd1cb120	-0.038254857
143	0xbb1a32f8	-0.0023528915
144	0x3c58cfa3	0.013233098
145	0xbd8908da	-0.066911414
146	0xbd21fee1	-0.039549712
147	0xbda385f2	-0.079845324
148	0xbd339529	-0.043843422
149	0xbd44871a	-0.047980405
150	0x3b33f06c	0.0027456535
151	0x3d422a80	0.047403812
152	0x3ca1472b	0.019687256
153	0x3d4f93e3	0.050678145
154	0xbd8fd035	-0.07022134
155	0x3b234f8f	0.0024919247
156	0xbca0a047	-0.019607676
157	0xbd253050	-0.040329278
158	0x3cfbb91a	0.030727912
159	0x3cd453b4	0.025918819
160	0xbc9681a9	-0.018372374
161	0x3d292a8e	0.04130035
162	0x3d9cd23c	0.076572865
163	0xbd342a65	-0.043985743
164	0x3c3250b8	0.010883503
165	0x3c7553ff	0.0149736395
166	0x3d9120d4	0.070863396
167	0xbbf0cfec	-0.007349005
168	0xbca0580f	-0.01957324
169	0x3cc20ca6	0.023687672
170	0x3d5836b4	0.052786544
171	0xbd1ed614	-0.03877838
172	0x3b9ddc08	0.0048174895
173	0xbd8a0e3f	-0.067409985
174	0xbcffd803	-0.031230932
175	0x3cac1ed0	0.021010786
176	0x3b11386a	0.002215887
177	0xbc83e82a	-0.016101915
178	0xbcea1c38	-0.028577909
179	0xbc46bc5e	-0.012129871
180	0xbd7196d3	-0.058981728
181	0x3cc7a265	0.024369428
182	0xbd2b5ec5	-0.041838426
183	0xbd0cdbe8	-0.034389406
184	0xbd3a0550	-0.045415223
185	0xbd16674b	-0.0367196
186	0x3d35d3b6	0.044391356
187	0xbd9192a8	-0.071080506
188	0xbd6442c2	-0.055727728
189	0x3a4ba108	0.0007767831
190	0x3d3106e4	0.043219462
191	0xbb172d9b	-0.0023067954
192	0xbb381749	-0.002809005
193	0x3d9c0fd1	0.07620204
194	0xbcd00992	-0.025395188
195	0xbd2eb760	-0.04265535
196	0xbb0aa8fe	-0.0021157856
197	0x3d69174d	0.056906987
198	0xbd462ae8	-0.048380762
199	0x3d8b5178	0.06802648
200	0xbccdd2d3	-0.025124943
201	0xbc0ded5b	-0.008662547
202	0x3d234e08	0.03986934
203	0x3c6c931e	0.014439372
204	0xbc005246	-0.0078321155
205	0xbd066bfe	-0.032817833
206	0xbcfd9095	-0.030952731
207	0x3d0c3514	0.034230307
208	0x3d83963f	0.064251415
209	0x3c9c9753	0.019115126
210	0x3baf1045	0.0053425157
211	0xbd2e070b	-0.042487185
212	0xbd66eb6d	-0.056376863
213	0xbc60e2bb	-0.013725932
214	0x3b0a7879	0.0021128936
215	0xbd9d65d8	-0.07685441
216	0x3d004012	0.031311102
217	0x3d47980a	0.04872898
218	0xbc75fe20	-0.015014201
219	0x3d665f03	0.056242954
220	0xbd3d6891	-0.0462423
221	0x3a8924fa	0.001046329
222	0xbc2207c8	-0.0098895505
223	0xbd7bc527	-0.061467316
224	0x3d16685c	0.03672062
225	0xbc3a93f9	-0.0113878185
226	0xbd9043ba	-0.07044168
227	0x3d6fd4b4	0.05855246
228	0x3c5a4c56	0.013323864
229	0xbcdd1ca1	-0.02699119
230	0xbb97b5d0	-0.004629828
231	0xbb5865c3	-0.003301964
232	0xbcaf12d4	-0.021371283
233	0x3bed9d7d	0.00725144
234	0xbca7474b	-0.020419737
235	0xbd52147e	-0.051289074
236	0xbcfd9cac	-0.030958496
237	0xbd1c4592	-0.038152285
238	0x3bcd41ee	0.006263963
239	0x3d590885	0.05298664
240	0xbcefa59d	-0.029253775
241	0xbcb9bc35	-0.022672752
242	0x3d89e4f7	0.06733125
243	0x3cca9592	0.024729524
244	0xbd14ceb3	-0.036329936
245	0x3bbc8480	0.0057531
246	0x3d3cb411	0.046070162
247	0xbd244696	-0.04010638
248	0x3d73e43f	0.059543844
249	0xbcc45084	-0.023964174
250	0xbd2e1821	-0.04250348
251	0xbd338e99	-0.043837164
252	0x3c448057	0.011993489
253	0x3d2fc257	0.042909946
254	0xbd5dda06	-0.054163
255	0xbd133a5a	-0.03594432

bias_ih f4 [600]
0	0x3d8d09b6	0.06886618
1	0x3d2fb1e2	0.04289425
2	0xbd330c14	-0.04371269
3	0xbc68cf98	-0.01420965
4	0xbc26b2b0	-0.010174438
5	0xbd23113c	-0.039811358
6	0xbcdfd15e	-0.027321514
7	0x3d422ae0	0.04740417
8	0xbd891701	-0.06693841
9	0x3d1a0401	0.037601475
10	0x3cad0a4f	0.02112308
11	0xbc6ff09b	-0.014644767
12	0x3d48820f	0.04895216
13	0x3cae2b43	0.021260863
14	0x3d3a0258	0.04541239
15	0x3d0a9365	0.033831973
16	0x3d807247	0.06271797
17	0xbd6c7f36	-0.057738505
18	0x3d8283d1	0.06372798
19	0x3d153150	0.03642398
20	0x3c834918	0.016026065
21	0xbd426bfe	-0.04746627
22	0xbc22cabf	-0.009936034
23	0x3d597032	0.053085513
24	0xbc53875d	-0.012910691
25	0xbd036477	-0.032078233
26	0x3d2a2a90	0.041544497
27	0xbccc1b15	-0.024915257
28	0xbc3d8df6	-0.011569491
29	0x3d7a9ecb	0.061186593
30	0x3c6f1e1d	0.014594582
31	0xbb8f46ad	-0.004372439
32	0xbcddcbff	-0.027074812
33	0xba448e5f	-0.00074980216
34	0xbd0d767b	-0.03453682
35	0xbda3d136	-0.07998888
36	0x3cac0afa	0.021001328
37	0xbd874bb6	-0.066062376
38	0x394a8580	0.00019313954
39	0xba9848d5	-0.0011618385
40	0x3c45b0be	0.012066064
41	0x3c5d58e6	0.013509965
42	0xbd67255c	-0.056432113
43	0xbd93236f	-0.07184493
44	0xbb9460d0	-0.0045281425
45	0xbd8cee66	-0.068814084
46	0xbd36634f	-0.0445283
47	0xbcf7e323	-0.030259674
48	0x3d2df90b	0.042473834
49	0xbd79755b	-0.060902935
50	0x3d4a8f77	0.049453225
51	0x3d08b4c6	0.033375524
52	0x3d9f886a	0.07789691
53	0xbced2d14	-0.028952159
54	0x3c8a3b9b	0.016874125
55	0x3c1df6be	0.009641347
56	0xbcbcab22	-0.023030821
57	0x3d71170e	0.058859877
58	0x3d9c6c1b	0.07637807
59	0x3d8bde86	0.06829552
60	0x3d8797dc	0.06620762
61	0xbd411b52	-0.047145195
62	0xbc109fa3	-0.008827123
63	0xbb8d2fd5	-0.0043086805
64	0x3cd3ee1f	0.02587038
65	0x3bf9abf9	0.0076193777
66	0xbd20fa54	-0.03930123
67	0x3d3040eb	0.04303066
68	0x3bdd3e25	0.006751793
69	0x3d7531ae	0.05986183
70	0x3c485ed2	0.012229638
71	0xbd81fecb	-0.06347426
72	0xbd500e1c	-0.050794706
73	0x3d118412	0.035526343
74	0x3d4adbc2	0.049525984
75	0x3c937331	0.017999263
76	0x3d0eef18	0.034895986
77	0x3d6d25ea	0.057897486
78	0xbd1e5764	-0.03865756
79	0x3a4324a8	0.0007444122
80	0x3c25b040	0.010112822
81	0xbd626e76	-0.055281125
82	0x3d888703	0.066663764
83	0xbc8398c3	-0.016064053
84	0x3d02a832	0.031898685
85	0xbcd7bbc3	-0.026334649
86	0xbb95e476	-0.004574354
87	0x3d8080f3	0.06274595
88	0x3da60bbf	0.08107709
89	0x3d8dab28	0.06917411
90	0x3c7f62e5	0.015587543
91	0xbd793073	-0.06083722
92	0x3cb4712d	0.022026623
93	0xbd0de2e3	-0.034640204
94	0x3d7821d1	0.060579125
95	0xbd3e68ae	-0.04648655
96	0x3cfb216e	0.030655589
97	0x3d2965fb	0.04135702
98	0x3c468807	0.012117392
99	0xbcf2abc6	-0.029622924
100	0xbd23d2a7	-0.039995816
101	0xbd0016a3	-0.031271588
102	0xbcf51c52	-0.02992073
103	0x3d22c652	0.039739914
104	0xbd3230c7	-0.04350355
105	0xbcd135ae	-0.025538292
106	0xbd7650b0	-0.060135543
107	0xbd0984b4	-0.03357382
108	0x3da6ec70	0.081505656
109	0x3d29fec5	0.041502733
110	0x3d255a3a	0.04036925
111	0x3cbfba01	0.023404123
112	0xbd7fab8e	-0.062419467
113	0x3c385d64	0.011252735
114	0xbd79b8ba	-0.060967185
115	0xbd6373e2	-0.055530436
116	0x3b86ff2f	0.0041197757
117	0xbb468c3d	-0.003029599
118	0x3c5951f3	0.013264167
119	0xbd1568d3	-0.03647692
120	0xbd083627	-0.03325477
121	0xbbe748d5	-0.007058243
122	0xbd4dcac5	-0.050242204
123	0xbd02ef5e	-0.03196656
124	0xbb82b751	-0.003989138
125	0xbd350a2c	-0.044199154
126	0xbad9c05a	-0.0016613111
127	0xbcb2237c	-0.021745436
128	0x3d821f0b	0.06353577
129	0x3d458480	0.048222065
130	0xbd211472	-0.03932614
131	0x3b012687	0.0019706802
132	0xbd072f05	-0.033003826
133	0x3d9a2d54	0.07528177
134	0xbd88bb81	-0.066763885
135	0x3d9f0bc6	0.077659175
136	0x3d93120b	0.07181176
137	0x3d4ffc85	0.05077793
138	0x3d06c31d	0.03290092
139	0x3d2bc100	0.041932106
140	0x3ca0c1ae	0.019623604
141	0x3cf82c23	0.030294484
142	0x3d86c864	0.0658119
143	0x3d377a6d	0.04479449
144	0x3c5d7707	0.013517148
145	0x3d24ae83	0.04020549
146	0xbc7e5dea	-0.015525321
147	0x3d8112c5	0.06302408
148	0x3d58e4ee	0.0529527
149	0xbc7b9dde	-0.015357463
150	0x3c293272	0.0103269685
151	0xbd116228	-0.035494
152	0x3c797771	0.015226231
153	0x3a9e787e	0.0012090353
154	0xbc4535dc	-0.012036767
155	0x3d34bddb	0.044126373
156	0xbcfa0901	-0.030521872
157	0xbc46573d	-0.01210576
158	0x3ba39168	0.004991699
159	0x3d8f4350	0.06995261
160	0x3d5361a1	0.051606778
161	0x3d0cabe0	0.0343436
162	0x3c978c89	0.01849963
163	0xbd9ce426	-0.07660703
164	0xbbfd32b7	-0.007726993
165	0x3d730b0e	0.059336714
166	0xbc9a98b0	-0.018871635
167	0x3d8048c1	0.06263877
168	0x3c419036	0.011814168
169	0x3cdcc0ee	0.026947465
170	0x3d844ee1	0.064603575
171	0x3d82cd43	0.06386807
172	0x3d85095e	0.06495927
173	0x3bf98bd8	0.0076155476
174	0x3d766197	0.060151663
175	0x3ad6b3a2	0.0016380439
176	0xbcd39a20	-0.025830328
177	0xbcafff19	-0.021483945
178	0xbd61d05b	-0.055130344
179	0x3ba46680	0.0050171018
180	0x3d82c73c	0.06385657
181	0xbced663e	-0.028979417
182	0xbd5dba32	-0.054132648
183	0x3d1c81f3	0.038209867
184	0x3d780efc	0.060561165
185	0xbd27ec8c	-0.040997073
186	0x3abce9f5	0.0014412986
187	0xbc5dec3d	-0.013545093
188	0x3ccf80f2	0.02533004
189	0x3d985a36	0.07439081
190	0x3d836fbc	0.06417796
191	0xbce591fd	-0.028023714
192	0xbccfdeb3	-0.025374746
193	0xbd7b85f2	-0.061407037
194	0x3d47c8fb	0.048775654
195	0x3d96b016	0.073578045
196	0x3c126b2c	0.008936685
197	0x3d552511	0.052037302
198	0xbcb66e55	-0.022269407
199	0x3c57600d	0.013145459
200	0x3d3a9553	0.045552563
201	0xbbad7641	-0.005293638
202	0x3d04b2d5	0.03239711
203	0x3ca00f00	0.019538403
204	0x3d63f1b2	0.05565042
205	0x3d36bd2a	0.044613995
206	0x3cb56fd5	0.022148052
207	0xbd78f00d	-0.060775805
208	0x3d30c306	0.04315474
209	0xbcd62c15	-0.026144067
210	0xbcc4d608	-0.02402784
211	0x3c519c17	0.012793562
212	0xbd3fe88d	-0.046852637
213	0xbd099031	-0.033584777
214	0xbd40302e	-0.046920948
215	0x3c2e4098	0.010635518
216	0x3cca8320	0.024720728
217	0xbcc2b1bb	-0.02376639
218	0x3d7d2990	0.061807215
219	0xbd3aa561	-0.045567874
220	0xbcd05267	-0.025429917
221	0x3d5773ed	0.05260079
222	0x3ab792ad	0.0014005505
223	0x3bd2be82	0.0064314017
224	0xbd507899	-0.05089626
225	0x3cdbfcc8	0.026853934
226	0xbd27eb44	-0.04099585
227	0xbd29d8a6	-0.041466378
228	0xbd40d2c8	-0.047076017
229	0x3d581fa9	0.05276457
230	0x3d09885e	0.033577316
231	0x3d772a71	0.06034321
232	0xbd52a2ae	-0.051424675
233	0x3ca6a3fc	0.020341866
234	0xbd52f14f	-0.05149966
235	0x3b0f5ce0	0.0021875426
236	0x3caa8449	0.020815032
237	0xbcff4048	-0.031158581
238	0x3cc943e5	0.024568507
239	0xbd7a418e	-0.061097674
240	0xbbb7d55f	-0.0056101526
241	0x3d3d1a3b	0.046167593
242	0xbd4d4e7e	-0.050123684
243	0x3d2a2291	0.04153687
244	0x3d812896	0.06306569
245	0x3ca41627	0.020030094
246	0x3d746beb	0.05967323
247	0x3ce171ad	0.027520025
248	0xbd7c92bf	-0.061663385
249	0x3d18c840	0.03730035
250	0x3ccf64a3	0.025316542
251	0xbcbeb110	-0.02327779
252	0xbd3bc180	-0.045838833
253	0xbc2e5d03	-0.010642293
254	0x3c976ce9	0.01848455
255	0x3b1b6dd3	0.0023716583

bias_hh f4 [600]
0	0x3d44d67f	0.048056122
1	0xbb1a3562	-0.0023530354
2	0xbaacaf4e	-0.0013174803
3	0xb98eebf1	-0.0002726014
4	0x3d278b08	0.040904075
5	0x3d992b8a	0.074790075
6	0x3d3f97fd	0.046775807
7	0x3d791e7e	0.060820095
8	0x3bade35c	0.0053066444
9	0xbc88f8d5	-0.016720215
10	0xbcc0342e	-0.023462381
11	0xbd42d682	-0.04756785
12	0xbcc13bc3	-0.023588067
13	0xbd0ffcc4	-0.035153165
14	0x3d8eefda	0.06979342
15	0x3cee1153	0.029060995
16	0x3c61d2b5	0.013783147
17	0xbd544aaf	-0.051829036
18	0x3cefecf0	0.029287785
19	0x3cc89c03	0.024488455
20	0x3d2c0bab	0.042003315
21	0xbcfcf9b9	-0.030880796
22	0x3c76c6f8	0.015062086
23	0xbd390f50	-0.04518062
24	0xbd269666	-0.040670775
25	0xbd36328d	-0.044481803
26	0x3d6ca35c	0.05777298
27	0x3c2c3542	0.0105107445
28	0x3d8d4cbd	0.06899402
29	0xbd1cff5b	-0.038329463
30	0xbcfccea9	-0.030860262
31	0x3d153562	0.036427863
32	0xbcbfe4c3	-0.023424512
33	0x3d0f96cb	0.035055917
34	0xbd583f42	-0.052794702
35	0xbd6c7442	-0.05772806
36	0x3ba2690e	0.004956371
37	0x3a38c9cc	0.0007049113
38	0xbd7f57ce	-0.062339596
39	0xbd5cd87a	-0.053917386
40	0x3d881215	0.06644074
41	0x3d81cda3	0.0633805
42	0x3d27e076	0.040985547
43	0x3d3596c4	0.044333234
44	0xbb9a9a6e	-0.0047181165
45	0x3c0b0df6	0.008487215
46	0x3d59a67c	0.053137287
47	0x3cc4c7f1	0.02402112
48	0x3d7c14af	0.061543163
49	0xbd7d4ef4	-0.061842874
50	0x3d01eb55	0.03171857
51	0xbcc90bc9	-0.024541752
52	0x3d6f7620	0.058462262
53	0xbd4c3b7d	-0.04986142
54	0x3d83881a	0.06422444
55	0xbd56bb9e	-0.05242502
56	0x3cf8a579	0.030352341
57	0x3d2002d2	0.03906519
58	0xbd50cccb	-0.050976556
59	0x3d4c0dde	0.049817912
60	0xbcda8872	-0.02667639
61	0x3d31552b	0.043294113
62	0xbd39ae2e	-0.045332126
63	0xbd635351	-0.05549938
64	0x3d45f5a9	0.048329983
65	0xbcc0d40e	-0.023538616
66	0x3d030cab	0.031994503
67	0x3d8614c9	0.06546933
68	0x3c136b55	0.008997758
69	0xbccf4ea1	-0.025306048
70	0xbcf785cc	-0.030215167
71	0xbd1740e4	-0.03692712
72	0xbd347b76	-0.044063054
73	0x3d827683	0.063702606
74	0x3d20e5aa	0.039281525
75	0x3c62eea8	0.013850845
76	0xbaa8e625	-0.0012885971
77	0xbd31e444	-0.04343058
78	0x3d09d5a4	0.03365101
79	0xbad60a19	-0.0016329914
80	0xbceb078b	-0.02869012
81	0x3d9dbefc	0.07702443
82	0x3d403252	0.04692299
83	0x3d98d29e	0.07462047
84	0xbb80bd3b	-0.003928808
85	0xbc8bf971	-0.017086716
86	0xbbf8b507	-0.0075899395
87	0x3d04ce43	0.03242327
88	0x3d39114a	0.045182504
89	0x39dd4c73	0.00042209364
90	0x3b4c2367	0.003114903
91	0x3d6749a7	0.056466725
92	0x3cc0b107	0.023521913
93	0xbd1bb3fe	-0.03801345
94	0xbc375bf3	-0.011191356
95	0xbcd361ed	-0.02580353
96	0xbd168b7e	-0.036754124
97	0xbd0b38dc	-0.033989772
98	0x3c7a4352	0.0152748395
99	0x3d6303d1	0.05542356
100	0x3d86bba9	0.06578762
101	0x3d631d74	0.05544801
102	0x3d74e5c9	0.059789453
103	0x3d43a1a7	0.047761586
104	0x3b79b1c6	0.0038100346
105	0xbd53f69c	-0.051748857
106	0x3c140bc6	0.00903601
107	0xbc519aa7	-0.01279322
108	0x3d9d7aed	0.07689462
109	0x3d0d456c	0.034490034
110	0x3b7554d8	0.0037434604
111	0xbc92ece4	-0.017935224
112	0xbd06fad5	-0.032954056
113	0x3d880e20	0.06643319
114	0x3c9fd3f9	0.019510256
115	0x3d82445a	0.06360693
116	0xbd96e199	-0.07367248
117	0x3d0087e2	0.031379588
118	0x3d6b13dc	0.057391986
119	0x3cce698d	0.025196815
120	0x3cd05a58	0.025433704
121	0xba5b9260	-0.00083759986
122	0xbd597069	-0.05308572
123	0xbadf355d	-0.0017029453
124	0xbc1ac2bc	-0.009445842
125	0xbc32bdff	-0.010909556
126	0xbd774ee2	-0.060377963
127	0x3d4ad943	0.049523603
128	0x3d57bdd2	0.05267126
129	0x3ca6eee8	0.020377591
130	0xbd02a41d	-0.031894792
131	0x3d6e99ee	0.058252268
132	0xbbf7991c	-0.007556094
133	0x3cf7431c	0.030183367
134	0x3d157dc8	0.036496907
135	0x3d120a0a	0.035654105
136	0xbccbaa84	-0.024861582
137	0x3d495652	0.049154587
138	0x3d8cb17c	0.0686979
139	0x3d1d6a45	0.038431425
140	0x3d50fb10	0.05102068
141	0xbd08394d	-0.03325777
142	0x3d4c6d40	0.049908876
143	0xbd66fec3	-0.056395303
144	0xbd3bebc3	-0.045879137
145	0x39aed9fd	0.0003335028
146	0x3d60ab23	0.05485071
147	0x3d384f1b	0.044997316
148	0xbc75df3e	-0.015006838
149	0xbd847a0a	-0.064685896
150	0xbcf4eb42	-0.029897336
151	0x3d6c00f8	0.05761811
152	0x3d6050f4	0.054764703
153	0xbd6a0950	-0.057137787
154	0x3d09a500	0.033604622
155	0xbd43ccae	-0.04780262
156	0xbd39326a	-0.045214094
157	0x3d6df4a6	0.058094643
158	0x3b671cb3	0.0035264909
159	0x3bdbac01	0.006703854
160	0xbd75b49e	-0.059986703
161	0xbd3f7e0c	-0.046751067
162	0xbd8707e8	-0.06593305
163	0xbd826edf	-0.06368803
164	0x3d351c8e	0.044216685
165	0xbc6096ae	-0.0137078
166	0x3b6a82d6	0.003578355
167	0xbd42fa4c	-0.047601983
168	0xbd0cfe6e	-0.03442233
169	0xbd2df4c9	-0.042469773
170	0x3d893f90	0.06701577
171	0xbd8e9cbb	-0.06963488
172	0xbd4804f8	-0.048832864
173	0xbd150e98	-0.03639087
174	0x3d9d2041	0.076721676
175	0xbd83cc48	-0.06435448
176	0x3cbffb52	0.023435269
177	0x3c780967	0.01513896
178	0x3c14985b	0.0090695275
179	0xbcea53eb	-0.028604468
180	0x3d46e7ae	0.04856079
181	0xbcde949e	-0.027170476
182	0xbcb6429d	-0.02224856
183	0x3d53e582	0.051732548
184	0x3c0113d2	0.007878261
185	0xbd83b1df	-0.064304106
186	0x3d10d556	0.035359703
187	0xbd33fbd1	-0.043941323
188	0x3d855e17	0.06512087
189	0xbd15e976	-0.0365996
190	0xbcad8a24	-0.021184035
191	0xbd572825	-0.05252852
192	0x3d3fd566	0.046834372
193	0xbc8faa00	-0.017537117
194	0xbd067721	-0.032828454
195	0x3d18ca6d	0.037302423
196	0x3d8178c5	0.06321863
197	0x3d1cf87c	0.03832291
198	0xbd604aed	-0.054758955
199	0xbd28c4a8	-0.04120317
200	0x3c275ae8	0.010214545
201	0x3c4f589e	0.012655405
202	0x3ce673f3	0.02813146
203	0xbcb583a4	-0.022157498
204	0xbd89be6f	-0.067257755
205	0xbc9241f8	-0.017853722
206	0x3c8cc215	0.01718239
207	0xbd80c82d	-0.062881805
208	0xbd8d3e92	-0.068967
209	0x3c9082c1	0.017640473
210	0xbd1dc7cb	-0.038520616
211	0xbc8b2c56	-0.016988914
212	0xbc860f3a	-0.016364682
213	0xbd789bdb	-0.06069551
214	0xbd29648d	-0.04135566
215	0x3d200c0e	0.039073996
216	0xbcdc7dc8	-0.026915446
217	0xbd54f9d7	-0.05199608
218	0x3ce483d6	0.027894896
219	0x3d81e227	0.06341963
220	0x3cadf933	0.021236992
221	0xbb08e0c2	-0.002088592
222	0xbc9f3869	-0.019436078
223	0x3c7f647d	0.015587923
224	0xbd6e9342	-0.058245905
225	0x3d3ea7ea	0.046546854
226	0x3c955c9c	0.018232636
227	0x3d2a4083	0.04156543
228	0xbc997c02	-0.01873589
229	0xbd45d1da	-0.048295833
230	0x3d2e5da0	0.042569757
231	0x3d89a14c	0.06720218
232	0x3d630eab	0.05543391
233	0xbd1e61bf	-0.038667437
234	0x3d030767	0.03198948
235	0x3c27e251	0.010246829
236	0xbcce6c12	-0.025198016
237	0xbd45399c	-0.048150644
238	0xbd8a3931	-0.0674919
239	0x3d40f4f5	0.04710861
240	0xbccb0aac	-0.024785362
241	0x3d599d4b	0.053128522
242	0xbd233192	-0.039842196
243	0xbd0de6e0	-0.034644008
244	0x3d1c4bd7	0.038158264
245	0x3cf7ee71	0.030265065
246	0xbd5ad957	-0.053429928
247	0xbd4f76cb	-0.0506504
248	0x3d81d880	0.06340122
249	0x3d716e96	0.058943354
250	0xbc7189b9	-0.014742308
251	0x3c4ea4d3	0.012612539
252	0x3d85de0d	0.065364935
253	0xbb2b60a8	-0.002615014
254	0x3d5040f2	0.050843187
255	0x3c7e7f34	0.015533257
