testbed/backends/m4/models_v11/lstmcell_rate_link.pt (torch, 970778 bytes, 4 tensors)

weight_ih f4 [600, 200]
00000000: cef7 f53a 32bd 8a3d 63f6 8b3d 11f8 dd3c
00000010: 50e2 9e3d 1ee4 d73c 1e6a 443d 1609 86bd
00000020: 7760 84bd 42b4 823d 9129 8a3d 80cb 99bd
00000030: 8bb7 dbbc 4391 59bd da17 783d 095d 82bc
00000040: cb47 e7bb 0949 103d a8db 33bc 135c cebc
00000050: fdb2 11bd 6f5f 19bc b1e8 8fbc f010 1d3d
00000060: d3c8 a3bc eafd 3abc cb1d 04bd d3c4 e5bc
00000070: f5b7 46bd 8378 213d 138a f4b7 4687 af3c
00000080: 36a9 7a3d f392 df3c 8aa2 36bd 5f57 b5bc
00000090: a45a dfbb 0f1d 5a3d 4a5f f8bc 66d4 183d
000000a0: 1507 2839 b649 303d d1f7 573d 516c a4bd
000000b0: 98a7 fd3c 7d9f 63bd eab4 973b dadb 2fbd
000000c0: 97be 803d f195 dcbc 6dc2 7a3d 8455 5d3d
000000d0: f8a5 8fbd 52b7 33bd b250 94bd 9422 f9bc
000000e0: 8b7c 283d 486c 9dbd 4fc7 d23b b5ad f2bc
000000f0: 9089 6ebd 114a 9c3c c7a3 003c bcd1 e93c
00000100: d64d 9d3d 77fa 303d 87f3 0cbc c49a 213c
00000110: e408 f1bc 7137 8abd 2ab9 54bd e5fd fcbc
00000120: 8b1a 63bd 540f 253d 909f 533d 3a62 963d
00000130: 77b7 8f3d e3e4 a63c 9a99 0dbb 5da5 03bd
00000140: 4ee7 21bd 2a78 5a3d df4d 823d 43c6 25bd
00000150: a747 d1bc 7905 873c bbe9 13bd 25b3 263d
00000160: 2fcd 75bd a822 9d3c b59f 81bd 8761 7fbd
00000170: a6c5 0fbd f73a 1abd 38c2 503d f758 843d
00000180: 25f9 27bc d60a 933c 6056 233c af1e 263d
00000190: 582e d63c 3988 c03a b6b5 8cbd 8dc1 3e3d
000001a0: eef8 8a3d efcb 033d a45a 09bd 60d4 253d
000001b0: 8ff3 a1bc f275 5e3d 565c 26bd f66b 92bc
000001c0: 7185 4e3c 492f 08bd df1c 983d 712e a83c
000001d0: 90c3 f2bc 771e 763d 0389 71ba e2c5 63bd
000001e0: 8ca9 303d 3289 2dbc e18d 0dbc 7beb f13c
000001f0: 58ae 4abd a0be a7bc b4a6 2d3d fbdf 70bd
00000200: a59d 073d 87d4 90bd 0db5 2fbd 5492 1f3c
00000210: e52c 583d 199c 863d 0961 fcbc a0c6 143d
00000220: f8f0 303c 0b66 92bd 17be b6bb 602f 963c
00000230: 58f2 93bd 49a1 d6bc 4fe2 dd3c 9354 7bbd
00000240: e529 0e3d b096 683d 509c 10bd 828e eab9
00000250: 9f07 f9bc 6425 823d 04f2 f83c 365f 723d
00000260: d9b5 713c a33b 83bd 94f0 603d ead1 aabc
00000270: ecac 66bd ce5c 40bd add0 a8bc 9e4f 8f3d
00000280: 486d 45bd 8515 3cbd 9dee 2e3c e644 31bd
00000290: e99f 05bc 80ca ed3c bb2a 8dbd 9705 3b3d
000002a0: 8017 6a3d 0bed fd3b 9a4c 15bc 773f b4bc
000002b0: a2b0 10bd 1c3d dd3c 692c 643d 34cf 823d
000002c0: b8ce 38bd 928c 4ebd 87f2 923c 71da 51bd
000002d0: f739 1d3d e208 873d 02a7 89bd a695 313d
000002e0: 929f 143d ae87 5a3d 927e 993d bfc5 7e3b
000002f0: 7b38 9abd a520 c33c a1f8 04bd 33b0 983c
00000300: e9e0 9fbb f554 11bc 5fe9 40bc a895 11bd
00000310: 2995 293d c7de 7b3c b3d6 ffbc 73ed 9abd
00000320: d1fa 1ebd 8d63 7dbd a454 f13c 8506 cbbc
00000330: 4cf5 00bd 9acb 9dbd 289f 61bd 5c62 6dbd
00000340: 368a ffbb 2032 82bd bac9 493c 7b2b 8abd
00000350: cd18 f9bc c91f 15bd 0d1a 32bd e299 be3b
00000360: 1e8b 273d baf8 143d 712d 2d3c 481e 0b3c
00000370: 71d0 1abc 0c76 e23b 2953 1b3d bc68 0abd
00000380: 3ea7 6b3d 0f3d 7bbd 5af4 6bbd f628 5fbc
00000390: da86 87bc 1868 32bd 6bdf a93c 2f2f 98bd
000003a0: 93da 1fbd 7b98 d93c bb92 6abd 68c3 273d
000003b0: 1125 7b3c b75a 17bd 8bb6 1fbc 0982 01bb
000003c0: 826e 913c a580 5abd 23da 6cbc a496 1c3d
000003d0: 14f4 c83b 8680 3b3d ac10 7d3b 88f9 0fbc
000003e0: 353e 9e3d ff32 193c 3738 17bd c99f 56bd
000003f0: 6516 2ebd 8827 05bd b727 503a 7e3b b3bc
0.0018765868 0.067743674 0.06834104 0.027095826 0.077580094 0.026353892 0.047952764 -0.06544702
-0.06463712 0.06382038 0.067462094 -0.07509518 -0.026820919 -0.053117048 0.06056962 -0.015913503
-0.007058119 0.0352259 -0.010977663 -0.025190389 -0.035571087 -0.009361132 -0.01756701 0.03834623
-0.019993221 -0.011413077 -0.032254975 -0.028047955 -0.04851528 0.03942157 -2.9151362e-05 0.021426808
0.06119653 0.02729175 -0.044588603 -0.022136388 -0.006816225 0.05325037 -0.030318875 0.037311934
0.00016024367 0.043039046 0.05272657 -0.08028472 0.030963704 -0.05557202 0.004629721 -0.042934276
0.06286352 -0.026926966 0.061220575 0.054036632 -0.07014078 -0.043876 -0.07241954 -0.030411996
0.0411344 -0.07686669 0.006432451 -0.029623846 -0.05823666 0.019078286 0.007851548 0.028542392
0.07680862 0.043207612 -0.008602983 0.009863559 -0.029423185 -0.06748856 -0.0519344 -0.030882785
-0.055445235 0.04029782 0.051665843 0.07342954 0.07017415 0.020372814 -0.0021606446 -0.032140125
-0.03952723 0.053337254 0.06362509 -0.04047228 -0.025546862 0.016482102 -0.036111575 0.04069819
-0.06001013 0.019181564 -0.0632929 -0.06234887 -0.0351006 -0.03765389 0.05096647 0.06462281
-0.010252272 0.017949503 0.009969324 0.040556606 0.026145145 0.0014689035 -0.06870596 0.046571303
0.06785761 0.032176908 -0.033533707 0.04048574 -0.019769458 0.0543117 -0.040615402 -0.017873745
0.012605057 -0.03324822 0.07427382 0.020529957 -0.029634267 0.060087647 -0.0009213837 -0.055608638
0.043130443 -0.010591792 -0.008639784 0.029531231 -0.049482673 -0.02047664 0.04239531 -0.058807354
0.033109326 -0.070717864 -0.042897273 0.009739477 0.05277719 0.06572742 -0.030807989 0.036322236
0.010799639 -0.071483694 -0.0055768597 0.018333137 -0.07223958 -0.026199954 0.027085451 -0.061359953
0.034707922 0.05678433 -0.03530532 -0.00044738135 -0.030399142 0.06354788 0.03038884 0.05917283
0.0147528285 -0.06407859 0.054916933 -0.020852048 -0.056317255 -0.046963505 -0.020607317 0.06997608
-0.04819992 -0.04591896 0.010677007 -0.043278597 -0.008155801 0.029027224 -0.06892916 0.045659628
0.057151318 0.007749205 -0.0091125015 -0.022002919 -0.0353247 0.027006678 0.055706415 0.06387177
-0.045119017 -0.050427027 0.017937912 -0.051233713 0.038385358 0.06593491 -0.06721307 0.043355606
0.03628499 0.05335205 0.074948445 0.003887519 -0.07530304 0.023819277 -0.032463674 0.018638706
-0.0048791063 -0.008870353 -0.01177439 -0.035543114 0.041402016 0.0153729385 -0.031230306 -0.07564821
-0.038813416 -0.061862517 0.029459305 -0.024783382 -0.031483933 -0.077048495 -0.055083424 -0.05795513
-0.0077984584 -0.06357217 0.012316162 -0.067465745 -0.030407334 -0.036407266 -0.043481875 0.005816684
0.040904157 0.036370017 0.010569916 0.008491106 -0.00944911 0.006911045 0.037921105 -0.03379129
0.05753254 -0.061337527 -0.05760608 -0.013620606 -0.016543794 -0.043556303 0.020736417 -0.074308746
-0.039026808 0.026561966 -0.05726884 0.04095784 0.015328662 -0.036951747 -0.0097481115 -0.0019761345
0.01775289 -0.05334534 -0.014456305 0.0382296 0.006132612 0.045776866 0.0038614674 -0.00878752
0.07726709 0.009350537 -0.036918845 -0.052398477 -0.042501826 -0.032508403 0.0007940488 -0.021878954

weight_hh f4 [600, 200]
00000000: 74db 48bd 14a4 a3bc db6d 32bd 96a0 0d3c
00000010: 8323 783d 5a99 bcbb e2b5 93bd 2a50 103d
00000020: 39ca 1c3d 14d2 90bc 2d07 4ebd 0f16 193c
00000030: 14db 77bd 2709 7a3d 98c0 383c 23a4 adbb
00000040: 11ea 753d 441d 62bc 1b86 3bbc cd04 3b3d
00000050: f49d 55ba 78af f63c 736c 13bd 9fca 063d
00000060: fdbe 45bd 97df 45bc ed26 403d 28dd a43c
00000070: e657 c43c 42d7 cdbc d4b7 a83c 459c 13bd
00000080: 8b6c 093d 3508 263d a208 853d 5a49 233d
00000090: d8c0 443d 0978 a9bc 7673 e7bc d945 ddbc
000000a0: 7e23 c8bc 667d 7fbd 55f4 bcbc 687e 423d
000000b0: 407a 183d 6022 12bd 5da5 aa3c f41b 673d
000000c0: b9b5 e13c fa66 a23d f780 80bd 3545 c2bb
000000d0: 952c de3c 918d 693d 1f0f 533c d7fe 91bc
000000e0: 4a5f ec3b 6b7f 4fbd c815 81bd ce0a 91bd
000000f0: acfa 763c ae09 6d3d 8415 9c3c 6934 83bd
00000100: c3fe bb3c 963f 58bd 2a7b 6b3d 0f8f 643d
00000110: de09 3e3d a719 9abc 5b53 743d 26ed 063d
00000120: fbeb 8f3d dadc 223b f5a2 223d 4e1c 91bc
00000130: 3820 9c3c 631c 213d 8e7f 35bc 7db2 e53c
00000140: 1d5a 1b3d 3535 00ba 65d3 debb c6b3 e13c
00000150: 9ddb 1e3d bf73 913b 8f19 6e3d ef45 3b3d
00000160: cffb 163d e232 183d e36d 52bd 540e b03c
00000170: b9b5 05bd 1e95 8abd 85ba 5b3d ae24 5bbd
00000180: a8e1 a639 efde b3bb 6e64 233d 955d 093c
00000190: 9f53 b33c 6ac6 09bc fa2d eb3b 8e85 673d
000001a0: b6b3 533d 5bc6 72bd eab1 47bc 0307 9c3d
000001b0: f066 a3bd e088 3bbd c21d 533d 1ac3 383b
000001c0: 9c86 d6bc 08b4 4dbd 6b15 523d ac53 41bd
000001d0: 8799 403d 91b5 383d 5834 503d f945 8e3d
000001e0: 24ff 23bd 2495 6b3c a106 8ebb 59fc 1bbb
000001f0: 9309 903d dc3c 31bd c4c5 a7bb 0f2c 0abd
00000200: 2c7d 543d 79ad 473a 4e3f 773d eb77 993d
00000210: 5fd3 e23b 47aa 82ba a718 49bd 2213 1f3d
00000220: c538 8e3c 5608 92bc 6989 2a3d 3d2b 89bd
00000230: d6b4 37bd ec68 d53b 5306 2ebd 7638 77bc
00000240: 892e 9b3c d849 87bd 6a2d 3abd 83de 99bd
00000250: 2af6 28bd fcfb 4bbd 2182 bb3a 4520 223d
00000260: 57a5 d23c 5429 6f3d ce99 92bd 75ee 8fba
00000270: 0467 67bc 5b29 3bbd 69a3 103d c419 a6bb
00000280: fcd3 80bc 501f 453d c4d9 903d 8042 23bd
00000290: 9305 663b 5bef 4d3c a87f 883d 1309 ecbb
000002a0: 1286 5ebc 00ab 863c c4f4 cf3c 999d 42bd
000002b0: 7d22 d43b a5c1 82bd 6264 c3bc 297a e53c
000002c0: c8c4 953b 97be edbb a384 7cbc d93a fcbb
000002d0: 1766 79bd 105c db3c 0295 18bd 13e5 abbc
000002e0: 8b0a 7dbd 8803 02bd b440 4a3d 386b 93bd
000002f0: 8bc3 5bbd 5a74 bdbb 5de5 1a3d a9c9 25bc
00000300: fda6 01ba c822 af3d 1d68 d0bc 3c5c 42bd
00000310: f49c 0abc 70dc 7d3d 83f2 4cbd be26 933d
00000320: 2236 9bbc 17d3 6ebc d613 183d 8363 923a
00000330: bff0 49bc b461 0bbd 5ae6 40bd a244 f93c
00000340: 9aaf 853d 0cd0 ef3c 7664 0c3c 3a61 49bd
00000350: 43be 46bd 6f6e 67b9 fcac 4fbc 1747 7cbd
00000360: a451 143d 9f6f 213d 4eb8 97bc ab66 393d
00000370: 20b9 48bd ba77 bcbc fee7 09bc c73b 6bbd
00000380: c880 143d 3be7 5fbc 008e 99bd cad2 713d
00000390: 863c 963b 1820 b1bc 7458 3ebc 0e45 46bb
000003a0: 8c45 69bc 1ad2 823c eaab afbc 06d5 5bbd
000003b0: 9091 07bd 6243 54bd adee 283c 43d0 4c3d
000003c0: 0bb6 4ebd 8650 b0bc e916 6e3d f51e d33c
000003d0: 2212 0dbd 3b32 ff3b a353 aa3c d7bc aabc
000003e0: 6247 573d 5efb f0bc 45e8 34bd 0735 50bd
000003f0: 29a8 df3b 47d2 1d3d 548d 9cbd 2fc7 dbbc
-0.04903741 -0.0199757 -0.043561798 0.008644244 0.06058074 -0.0057555856 -0.07212426 0.0352327
0.038278792 -0.017678298 -0.050299812 0.009343638 -0.060511664 0.061043885 0.011276387 -0.0052991076
0.060037676 -0.013800923 -0.011445547 0.045658875 -0.0008148842 0.030112967 -0.035992097 0.03290808
-0.048277844 -0.012077234 0.046912123 0.020124987 0.023967694 -0.025127057 0.020595469 -0.036037702
0.03355078 0.04053517 0.06495787 0.039864875 0.048035473 -0.02068712 -0.028253298 -0.027010845
-0.024430986 -0.06237545 -0.023065725 0.04748383 0.03722596 -0.035677314 0.020830804 0.056423143
0.027552472 0.079297975 -0.06274598 -0.0059286603 0.027120868 0.057019774 0.012882023 -0.017821712
0.007213508 -0.050658625 -0.063029826 -0.07082139 0.015074413 0.05787056 0.019053228 -0.06406481
0.022948628 -0.052795015 0.057490505 0.055800494 0.04639613 -0.01881106 0.059649806 0.032941006
0.070274316 0.0024850876 0.03970619 -0.017713692 0.019058332 0.039333712 -0.011077775 0.028039211
0.037927736 -0.0004890741 -0.0068001025 0.027551543 0.03878366 0.004438847 0.058129843 0.04572099
0.036861237 0.0371579 -0.051374327 0.021491207 -0.032644007 -0.06766723 0.053644676 -0.053501777
0.00031830114 -0.0054892222 0.0398907 0.008384128 0.02189046 -0.008409122 0.0071771117 0.056523852
0.051685058 -0.059271198 -0.012188414 0.07618525 -0.07978618 -0.04578483 0.05154205 0.0028192461
-0.026187234 -0.05022052 0.051289957 -0.047198936 0.047021415 0.04509503 0.05083117 0.0694694
-0.040038243 0.01437882 -0.0043342863 -0.0023801534 0.07033076 -0.04327093 -0.005120011 -0.033733424
0.051877186 0.0007617097 0.060363106 0.07493576 0.00692217 -0.000996896 -0.049095776 0.038836606
0.017361054 -0.01782624 0.04163495 -0.066977 -0.044850193 0.006512752 -0.0424865 -0.015089145
0.018943088 -0.066058815 -0.045453466 -0.07513144 -0.041250385 -0.049800858 0.0014305749 0.039581556
0.025713606 0.058389023 -0.07158242 -0.00109811 -0.014123682 -0.045693737 0.03531209 -0.0050689895
-0.015726082 0.048125565 0.070727855 -0.03985834 0.0035098537 0.012569274 0.066649735 -0.00720323
-0.01358177 0.016438961 0.025385268 -0.047513578 0.006473838 -0.06384591 -0.023851577 0.028012352
0.0045705773 -0.007255386 -0.015412482 -0.007697445 -0.060888376 0.026777297 -0.03725148 -0.020983255
-0.061777633 -0.03174165 0.049378112 -0.07198185 -0.05365328 -0.0057816925 0.037816394 -0.01011888
-0.00049458427 0.08551556 -0.02544027 -0.047451243 -0.008460272 0.061977804 -0.050035965 0.07185124
-0.018946711 -0.014576695 0.037128292 0.0011168573 -0.012325465 -0.034028724 -0.04709468 0.030428234
0.06527634 0.02927401 0.008568874 -0.049164988 -0.04852129 -0.00022071016 -0.01267552 -0.061591234
0.03621067 0.03941309 -0.0185205 0.045263927 -0.049004674 -0.023006309 -0.008417128 -0.057430055
0.036255628 -0.0136659695 -0.074977875 0.059038915 0.0045848517 -0.021621749 -0.011617769 -0.0030253562
-0.014237773 0.015969325 -0.02144428 -0.05366995 -0.033097804 -0.051822074 0.010310811 0.0500033
-0.05046658 -0.021522772 0.058127318 0.025771597 -0.03444112 0.0077879704 0.020791834 -0.020841999
0.05255831 -0.029416736 -0.044166822 -0.05083182 0.006825466 0.038530614 -0.07644144 -0.026828377

bias_ih f4 [600]
00000000: 5117 883d 7fe7 1f3d 0413 17bd a1a2 9bbc
00000010: 2ff0 76bc 289b 37bd 1c7b c3bc a1a4 343d
00000020: f135 87bd 04a1 1a3d 141a c23c 8f4b a1bc
00000030: 850d 7f3d b1fb b23c 8853 113d 3edc 1f3d
00000040: fbfb 893d 702e 52bd 1195 903d 999b f73c
00000050: f14e 893c 595e 24bd abfa 36bc 550c 253d
00000060: 7daf d9ba 2aae 08bd d784 1e3d 300a 91bc
00000070: 6035 cdbc 0d16 7b3d 9b2c 853c 53bb 9b3a
00000080: db0e 6abc 95bb 87bc 08c9 01bd 6e16 82bd
00000090: a6a4 fe3c 430d 83bd b178 0f3c bebf d43b
000000a0: 5dd9 3b3c 1211 043b fa92 6bbd 4093 83bd
000000b0: da20 83ba a236 94bd 2be7 3fbd 8d8b e8bc
000000c0: 4039 6d3d e4f8 52bd ac5c 523d 380c 103d
000000d0: 20a4 8c3d bef5 d4bc 35d7 ef3c 3ce5 0a3b
000000e0: 8c98 b2bc dbf2 5b3d f7e2 8f3d b772 5b3d
000000f0: e532 863d bd1f 6bbd be91 09bc a56a c43a
00000100: ff7b a53c d5dc b73b bb77 40bd f684 453d
00000110: 268b f33b b3ba 823d 10cf 073d c142 89bd
00000120: dd09 56bd f26e 163d f1c7 503d f783 8d3c
00000130: d3a4 2e3d 9127 1c3d edde 2fbd 7402 83ba
00000140: 080b c53c 3372 94bd e408 903d 1659 53bc
00000150: 80da dd3c 54a8 a1bc 3dd4 23bc e3fe 883d
00000160: 8d25 9e3d 88b2 9f3d 5011 293c 83ce 81bd
00000170: 17de a43c bba0 93bc 24fa 903d 1535 62bd
00000180: 5e42 103d c157 103d bf72 95b7 bde5 24bd
00000190: 51ed 09bd 2aa0 08bd bcb0 f1bc addb 233d
000001a0: 3556 2bbd bae6 a3bc b21f 84bd 79dd e0bc
000001b0: 7e5a 9e3d d7c9 383d 843f 423d 5736 2b3d
000001c0: 7a84 55bd ae69 373c 281e 88bd fb77 6dbd
000001d0: 24d9 1a3c 9b1d 0abb 5aa5 2c3c a9aa 1dbd
000001e0: b609 13bd cc3e 82bc bfb6 58bd 787f f9bc
000001f0: cb6d cfbb fc97 42bd 4b74 c939 48c1 a0bc
00000200: 85c1 873d 53f1 493d d470 12bd 429d b43a
00000210: 31d4 1bbd a0a8 943d 2717 85bd 1ec1 943d
00000220: b8c3 943d fdb5 4e3d 217a e53c 2734 903c
00000230: 314d 0d3c 9911 073d 4750 833d 5705 2e3d
00000240: 5dea 353c 97eb 2e3d f944 8fbc ac33 653d
00000250: 30cf 513d 39c8 47bc 1277 293c 7ff8 06bd
00000260: c191 953b c356 9739 2708 8fbc 0457 6f3d
00000270: d64d 04bd 84f3 1fbc 6878 323c 9957 883d
00000280: 095e 553d 7a26 143d 1791 a43c ab57 90bd
00000290: 0a91 cd3b c8ef 513d 64e3 acbc ac09 533d
000002a0: 165e 5a3c 6339 d63c 67ae 573d 5098 833d
000002b0: 54d7 5d3d 3176 ab3c 0cde 683d 6fe6 0e3b
000002c0: a4ec b5bc 5576 adbc 9696 6fbd 72a4 fd3a
000002d0: b465 903d 0972 bbbc 713b 62bd 92eb 123d
000002e0: 631f 573d 0a61 14bd 514d 553c b744 ebbb
000002f0: f5d6 bf3c d529 8d3d 78bb 533d fc3b 1cbd
00000300: ca29 a9bc aedb 67bd 57ee 5f3d a5de 853d
00000310: 3390 133c 20fe 2b3d f1bb 62bc 2744 783c
00000320: 9f7b 0a3d 35b6 1dbc 41c6 a03c cb80 0c3d
00000330: 98f5 7a3d a1c7 493d 7958 a83c 8d16 8bbd
00000340: 240e 2e3d f5c5 44bd 8711 0cbd 651e 363b
00000350: 0481 20bd eaef d1bc 5d83 bdbc 5700 413c
00000360: 0000 983c 189a a7bc 9b24 753d 79e8 29bd
00000370: fe6b fcbc bd83 653d 8887 a8b9 6d40 703b
00000380: e6fe 59bd 0029 0c3d d1be 26bd 8c7c fdbc
00000390: d3fb 55bd b112 533d 2a88 1b3d 1181 5a3d
000003a0: f1f7 4ebd bf05 a43c e20c 36bd 764f 89bb
000003b0: 23b2 9a3c 5ac9 1cbd 467e 0c3d 2f4b 8bbd
000003c0: a923 2fba 41c6 5c3d c57e 39bd 68ea 013d
000003d0: fa1c 7d3d fc6e c83c 59f5 6a3d 8049 1e3d
000003e0: b6c4 82bd 23ce 1e3d d1aa a13c c0fd 09bd
000003f0: ac8a 26bd d754 f2bc 507a c63c 7d05 0bbb
0.06645072 0.03903913 -0.03688337 -0.018998446 -0.015071913 -0.044825703 -0.023862414 0.044102315
-0.066020854 0.037751213 0.023694076 -0.01968935 0.062268753 0.021848531 0.035480052 0.0390284
0.067375146 -0.051313818 0.07059682 0.030225562 0.016761275 -0.04012904 -0.011168162 0.040294964
-0.0016608086 -0.03336922 0.038700905 -0.017705053 -0.025049865 0.061300326 0.016256621 0.0011881388
-0.014285768 -0.016568938 -0.03168586 -0.063519344 0.03108437 -0.06399014 0.008756802 0.006492584
0.011465398 0.0020151776 -0.057513215 -0.0642457 -0.0010004297 -0.07236983 -0.04685132 -0.028386855
0.057915926 -0.05150689 0.05135791 0.035167903 0.06867242 -0.025996085 0.029277423 0.0021193763
-0.021801256 0.053698402 0.07025712 0.053576197 0.06552676 -0.057403315 -0.008396564 0.0014985396
0.020200728 0.005611042 -0.046989184 0.048222505 0.0074323593 0.06383266 0.033156455 -0.067021854
-0.0522555 0.0367269 0.05097193 0.01727484 0.042637657 0.03812367 -0.042937208 -0.0009995238
0.024053112 -0.07248344 0.07032946 -0.012899658 0.027081728 -0.019733585 -0.009999332 0.06689241
0.07722006 0.07797724 0.010319069 -0.06338217 0.020125432 -0.018020978 0.070789605 -0.055226404
0.035219543 0.03523994 -1.7815617e-05 -0.040258158 -0.03367359 -0.03335587 -0.029503219 0.04000442
-0.04183026 -0.02000748 -0.06451358 -0.027449356 0.07732104 0.045114364 0.047423854 0.04179987
-0.052128293 0.01119463 -0.06646377 -0.05797575 0.009451184 -0.0021074775 0.01053747 -0.038492832
-0.035897933 -0.015899085 -0.052908655 -0.03045629 -0.006330227 -0.047508225 0.00038424353 -0.019623414
0.06628708 0.04930241 -0.035752133 0.0013779777 -0.03804416 0.07258725 -0.064985566 0.07263397
0.07263893 0.050466526 0.028012337 0.017602993 0.008624361 0.032975767 0.06411796 0.04248556
0.01110324 0.042705145 -0.017488943 0.05595748 0.05122298 -0.012193733 0.01034333 -0.032951828
0.0045644944 0.00028865607 -0.017459942 0.058432594 -0.032300793 -0.0097626485 0.010892965 0.06657333
0.052091632 0.036169507 0.020088715 -0.07047971 0.0062733935 0.051254064 -0.021104522 0.051522896
0.013328096 0.026150411 0.052656557 0.06425536 0.05416043 0.020930381 0.056852385 0.002180483
-0.022207566 -0.02117459 -0.05849322 0.0019351377 0.07050648 -0.022881525 -0.05523247 0.03586919
0.052520167 -0.036225356 0.013018922 -0.0071798223 0.02341793 0.068927445 0.051692456 -0.038143143
-0.02064981 -0.056605987 0.054670658 0.06536607 0.009006548 0.0419904 -0.013838754 0.015152968
0.0338093 -0.009625961 0.019625785 0.034302514 0.061269373 0.049262647 0.02055 -0.067914106
0.042493954 -0.04804035 -0.034196403 0.0027789113 -0.03918554 -0.025627095 -0.023133928 0.011779866
0.018554688 -0.02045922 0.059849363 -0.04148147 -0.030813213 0.05603384 -0.00032144436 0.0036659495
-0.053221606 0.03421879 -0.04070932 -0.030943178 -0.05224211 0.051531497 0.037971653 0.053345744
-0.050529424 0.020022271 -0.04444588 -0.0041903807 0.01888377 -0.03827796 0.03430011 -0.068014495
-0.0006681034 0.053900007 -0.045286912 0.031717688 0.061795212 0.024466984 0.057362888 0.038644314
-0.06385176 0.038770806 0.019734772 -0.03368926 -0.04065959 -0.02958147 0.024228245 -0.0021212988

bias_hh f4 [600]
00000000: ecf1 3a3d a26f cbbb d59a b43b 23da a5bb
00000010: be7b 133d 78e6 8e3d 30c3 4d3d 3f98 6b3d
00000020: adf5 cb3b 15bf 87bc 6d24 abbc 2d80 57bd
00000030: b04a 28bc 9494 0dbd 2f31 753d 9c51 0c3d
00000040: 5111 973c e9f9 39bd 7019 143d f8d4 953c
00000050: a00e 2f3d 47de c0bc e696 623c 2d73 6dbd
00000060: d403 f1bc 387c 3bbd a3fd 603d 692b 913c
00000070: 3162 633d 1988 1cbd fb30 efbc 09fc 2b3d
00000080: 7240 2ebc 4c96 9d3c cf91 4cbd 30ff 28bd
00000090: c466 763c bafd 353b 4544 5cbd 557e 3dbd
000000a0: 26d7 863d f585 543d d272 233d eab7 543d
000000b0: 4607 9cba ea95 a13b a022 503d 871f d43c
000000c0: 70aa 9d3d 8cd2 56bd 8fb8 093d 025d babc
000000d0: 04ae 493d e61f 40bd 45ef 9c3d bf8a 75bd
000000e0: 095c 013d 9fde 0a3d 88df 69bd 8cc3 0f3d
000000f0: a51c e0bc c050 073d c2ea 37bd e389 4bbd
00000100: 85bc 2e3d b647 d1bc 861e c73c acb6 903d
00000110: e291 1e3c 80c7 aebc b72e 18bc e6c8 25bd
00000120: 3777 3abd e9eb 843d d9d1 263d 980f 573c
00000130: 9772 d33b 5c71 81bd 4b9c f03c 6b4f 5dbb
00000140: a0a9 71bc 5308 753d d535 4f3d c14d 9f3d
00000150: b849 0fbc b8cb 2bbc a83c 55bc 9ac9 153d
00000160: 2645 293d 0526 173c bf21 0dbb f8dc 5c3d
00000170: e81d b13c dd42 afbc af94 80ba 8e7d 0dbd
00000180: f4d9 03bd 0d47 24bd 55c2 4d3b 0c74 373d
00000190: 65ae 933d cd93 5a3d b09b 763d 09b7 443d
000001a0: adae b33b f24e 3dbd 2fa4 983b 1c83 dabb
000001b0: fae8 943d 8c10 1c3d 0aeb 303c bb6e f139
000001c0: 36a7 b9bc 90ef 873d ca98 653c f884 7a3d
000001d0: b6f6 8bbd a34e 043d c9e8 5f3d bbe6 bd3c
000001e0: 84b3 ba3c 2e92 1ebc 635c 64bd 3f13 4ab9
000001f0: 071e 41bc 90f5 68bc aeed 6ebd 818a 533d
00000200: 3c03 633d 40c8 af3c 0601 e8bc 572c 6c3d
00000210: 7861 4ebc 6930 e13c 5bc6 1c3d 1de9 fa3c
00000220: 5de3 c4bc ca0f 483d 52ae 823d 800d 673c
00000230: 88ed 233d 9c7b fabc 447d 453d d973 70bd
00000240: 0fcf 45bd 60aa 393b 29a0 583d ec5c 1b3d
00000250: bf1b 89bc bffe 7bbd cfc8 f4bc a16a 763d
00000260: 71a5 343d 8cce 6dbd 50dc e63c 8533 09bd
00000270: 7d7b 40bd 698d 773d e976 1a3c d0d8 593b
00000280: 4ab8 73bd 7703 38bd eec6 83bd 02c5 6bbd
00000290: 4575 6e3d b281 b2bc e458 b03a 2482 70bd
000002a0: ecca 06bd 9638 31bd ae8f 613d a0d1 8dbd
000002b0: 6040 74bd 2d0a bdbc c95e 963d 1bb0 82bd
000002c0: d1a8 dd3c 411b 7d3c e0ff ba3b aec9 01bd
000002d0: 5424 623d 69a0 acbc 5245 bfbc 214f 4a3d
000002e0: 36ae 2ab9 07d8 73bd 8841 403d 3be9 19bd
000002f0: 8b73 813d 254a 2cbd e1e8 09bd a14d 80bd
00000300: 9c2f 533d 8baa 50bc aba3 dcbc 904f ee3c
00000310: 8c9d 813d 01a3 e73c a6c2 3dbd de8b 20bd
00000320: 8361 c8ba 975d 083c f9a8 7b3c ea43 f2bb
00000330: 0879 7cbd d359 58bc 8e55 7f3c c166 8fbd
00000340: f598 8ebd 3575 8bbb 536e 47bd 6036 ddbc
00000350: bc80 0ebc c503 58bd 05ec 8fbc 34bc 243d
00000360: 6e80 07bd 2f6e 47bd e179 d43c dd40 8a3d
00000370: a8df 813c 6239 b03a ba53 adbc 8e15 523c
00000380: 8f19 78bd 9dd2 5c3d 55b5 973c f05a 553d
00000390: b4cd c3bc d2de 4abd 665d 403d 0e99 763d
000003a0: 68b9 663d b0b0 1fbd d4eb 1f3d f98c 7d3b
000003b0: 3a3e debc ca62 62bd fc95 6cbd 31a0 243d
000003c0: 558e a2bc 5c49 793d d961 0fbd 021f 36bd
000003d0: 0118 173d 9023 0e3d c54f 64bd 12e6 21bd
000003e0: 80ba 7a3d 7974 773d b67e a6bc 9c3c 103b
000003f0: aa79 903d 6b92 b0bc b3c7 673d 8fe2 343c
0.04564087 -0.006208376 0.0055116215 -0.0050614043 0.03600668 0.06977552 0.050234973 0.05751824
0.006224355 -0.016570607 -0.020891393 -0.052612472 -0.010271713 -0.034565523 0.05986136 0.034257516
0.018440874 -0.04540435 0.03615707 0.018290028 0.042738557 -0.02354349 0.013829922 -0.05797117
-0.02942077 -0.04577276 0.054929387 0.017720895 0.055513564 -0.03821573 -0.02919816 0.041988406
-0.010635482 0.019236706 -0.04994374 -0.04125899 0.01503915 0.002776964 -0.053776044 -0.046263058
0.06584005 0.051885564 0.039904423 0.051933207 -0.0011904023 0.004931201 0.05081427 0.02589394
0.07698524 -0.052446887 0.033623274 -0.022749428 0.04923822 -0.04690542 0.076628245 -0.05994677
0.031581912 0.033903714 -0.05709794 0.035098597 -0.027357409 0.033035994 -0.044901617 -0.049692046
0.042660255 -0.02554689 0.024306547 0.07066092 0.009678336 -0.021335363 -0.009288481 -0.040474795
-0.04552385 0.06490309 0.04072747 0.013126276 0.006452869 -0.0632045 0.029371401 -0.003376926
-0.014749914 0.05982239 0.050588448 0.07778502 -0.008745603 -0.010485582 -0.01301495 0.036569215
0.04132571 0.009225373 -0.0021535007 0.05392167 0.021620706 -0.021394188 -0.0009809936 -0.034543566
-0.03219028 -0.04010682 0.0031396348 0.044788405 0.072109975 0.05336361 0.06020707 0.04802612
0.0054834695 -0.046217866 0.004658244 -0.0066684615 0.07270999 0.038101718 0.010798225 0.00046049603
-0.02266274 0.0663749 0.0140134785 0.061161965 -0.06834166 0.032301556 0.05466536 0.02318131
0.022790678 -0.009678407 -0.05575217 -0.00019271391 -0.011786944 -0.014218703 -0.058332138 0.05164576
0.055423006 0.021457791 -0.0283208 0.057659473 -0.012596481 0.027488904 0.038275104 0.030628735
-0.024034197 0.048843183 0.06380905 0.01410234 0.04002145 -0.03057652 0.048215166 -0.05870423
-0.04829317 0.0028330311 0.052887116 0.037930414 -0.016736863 -0.06152224 -0.02988091 0.060160283
0.04410309 -0.058058307 0.028181225 -0.0334964 -0.046992768 0.060437594 0.009427764 0.0033240803
-0.059501924 -0.04492518 -0.06434427 -0.05756093 0.058217306 -0.02179036 0.0013454226 -0.05871786
-0.032908365 -0.043266855 0.055068664 -0.069247484 -0.059631705 -0.023076141 0.073422976 -0.06381246
0.027058037 0.015448392 0.005706772 -0.031686477 0.055210426 -0.021072583 -0.023348484 0.04939187
-0.00016277362 -0.05953219 0.046937495 -0.03757594 0.06320866 -0.042062897 -0.033669356 -0.062648065
0.051559076 -0.012735973 -0.026933512 0.029090673 0.06328878 0.028275969 -0.04632821 -0.039195888
-0.001528785 0.008323095 0.01536011 -0.00739335 -0.061638862 -0.0132050095 0.015584363 -0.070020206
-0.06962768 -0.0042559155 -0.048689198 -0.027003467 -0.008697685 -0.05273797 -0.017568598 0.040218547
-0.033081464 -0.048689064 0.025937023 0.06750653 0.015853718 0.0013444836 -0.021158088 0.012822522
-0.06057125 0.053911794 0.018519083 0.052088678 -0.023901798 -0.049528904 0.04696407 0.060204558
0.05632916 -0.03898686 0.039043263 0.0038688763 -0.027129281 -0.055269994 -0.057760224 0.040191833
-0.01984326 0.060860977 -0.035005424 -0.044463165 0.036888126 0.034701884 -0.055740137 -0.039526053
0.061213017 0.06041381 -0.020324092 0.0022008782 0.070544556 -0.021554193 0.056586932 0.011040344
