flowsim/model/gnn_layer_2.pt (torch, 896885 bytes, 7 tensors)

weight f4 [300, 300]
0	0x3c2492e3	0.010044786
1	0xbd10900c	-0.035293624
2	0xbd6e9de8	-0.05825606
3	0x3cb3af2c	0.021934114
4	0xbbb9e6f6	-0.0056732846
5	0xbd281930	-0.041039646
6	0x3d827b1c	0.063711375
7	0xbc91515e	-0.017738994
8	0xbd4243a3	-0.047427785
9	0xbb76d3b9	-0.0037662818
10	0xbcf47696	-0.029841702
11	0x3d9387e1	0.07203651
12	0xbd3661ec	-0.04452698
13	0x3be16235	0.0068781623
14	0x3bce66bd	0.0062988685
15	0xbd496252	-0.04916603
16	0xbd4a65a1	-0.049413327
17	0xbc347e56	-0.011016449
18	0xbd60d357	-0.05488905
19	0xbd77509d	-0.060379613
20	0x3c828a2b	0.015935024
21	0x3cc6c719	0.024264859
22	0xbca4612f	-0.020065872
23	0x3d1e6f2f	0.03868025
24	0xbcbffb49	-0.023435252
25	0xbcca058b	-0.024660846
26	0x3ad34164	0.001611751
27	0x3cb4061a	0.021975566
28	0xbd0fc62b	-0.035101097
29	0xbbfdc627	-0.007744569
30	0x3d392f58	0.045211166
31	0x3c13ef4f	0.009029224
32	0x390a8abb	0.00013212387
33	0x3c419fd4	0.011817891
34	0xbcc84113	-0.024445092
35	0xbb33d7d6	-0.002744188
36	0xbd6ec01d	-0.058288682
37	0x3d891ad5	0.06694571
38	0xbafb7840	-0.0019185618
39	0x3cd087bc	0.025455348
40	0x3ba1bee9	0.0049360883
41	0xbd4a50fa	-0.04939363
42	0xbc79d7a5	-0.015249168
43	0xbd4a45f8	-0.049383134
44	0x3cfa5b96	0.03056125
45	0x3cc024cc	0.023455046
46	0x398de1dd	0.00027061897
47	0xbd2a19f7	-0.04152867
48	0xbce0308a	-0.027366895
49	0x3d66e3c2	0.05636955
50	0xbd8d36ae	-0.06895195
51	0x3d2f0984	0.042733684
52	0x3d456d96	0.048200212
53	0xbd669b40	-0.0563004
54	0xbb48e6a6	-0.0030655055
55	0x3c89b2fb	0.016808977
56	0x3d25ef96	0.04051169
57	0xbc37f198	-0.011227034
58	0xbd3042a7	-0.043032315
59	0xbd1c6d0a	-0.038189925
60	0x3d29afb5	0.041427333
61	0x3c963ae6	0.018338632
62	0x3cd36ea7	0.0258096
63	0x3c40feb2	0.011779474
64	0xbaf291ba	-0.0018506565
65	0xbd0e45e7	-0.034734633
66	0xbc93e9ea	-0.018055875
67	0x3d27518c	0.040849254
68	0x3cef6135	0.029221157
69	0xbc7ecf3f	-0.015552341
70	0x3c95632e	0.01823577
71	0xbd1df12d	-0.03856008
72	0x3cd997fc	0.02656173
73	0x3cc34ef8	0.023841366
74	0x3cfc9b36	0.03083573
75	0xbb856e9d	-0.004072024
76	0xbc971227	-0.018441273
77	0xbbdeba28	-0.006797094
78	0xbd196159	-0.037446354
79	0xbcb460d7	-0.022018833
80	0x3d3094d4	0.043110684
81	0x3da64900	0.081193924
82	0xbcc59281	-0.02411771
83	0x3c658f75	0.014011254
84	0xbc884ee0	-0.016639173
85	0x3cc85edb	0.024459293
86	0x3c69cb7f	0.014269709
87	0x3cc3378e	0.023830201
88	0xbcbb1fe6	-0.022842359
89	0x3c428854	0.0118733235
90	0xbd519b75	-0.051173646
91	0xbd6eb752	-0.058280297
92	0xbbf46d3f	-0.007459312
93	0x3dae5c0e	0.08513652
94	0xbcb9656c	-0.02263137
95	0x3c81ebf5	0.015859583
96	0x3c43ab30	0.01194267
97	0xbd946197	-0.07245176
98	0x3c925bcc	0.017866038
99	0xbcdde3b6	-0.02708612
100	0x3d8ab171	0.067721255
101	0x3d2e43db	0.04254518
102	0xbc63366c	-0.013867956
103	0x3d677515	0.056508143
104	0xbb0d7042	-0.0021581803
105	0x3cb4576e	0.022014346
106	0xbcb76361	-0.022386255
107	0x3a8d4cd5	0.0010780344
108	0x3b47e199	0.0030499457
109	0x3d02eb08	0.031962425
110	0xbd0ec2e0	-0.034853816
111	0xbd084e08	-0.03327754
112	0x3c9c3bfe	0.019071575
113	0xbd5f5d07	-0.054532077
114	0xbc9903ad	-0.01867851
115	0xbd71678c	-0.05893664
116	0xbd23ef79	-0.0400233
117	0xbc852f79	-0.016257988
118	0xbd77215a	-0.06033454
119	0xbd702738	-0.058631152
120	0xbd6c4948	-0.057687074
121	0x3ca6c98d	0.020359779
122	0x3d22b27a	0.03972099
123	0x3d12f00e	0.035873465
124	0xbd5f5b94	-0.054530695
125	0xbd6c981c	-0.05776225
126	0x3c84d058	0.016212627
127	0xbd258efb	-0.04041956
128	0xbbc2819c	-0.005935861
129	0x3c9958f8	0.018719181
130	0x3cc13223	0.023583477
131	0x3c91c81d	0.017795617
132	0xbcac6ab8	-0.021046981
133	0xbc951356	-0.018197697
134	0x3cb87de1	0.022520961
135	0x3d0f89ca	0.035043515
136	0x3bba22e7	0.00568043
137	0x3caf2fe1	0.021385135
138	0xbb11da6a	-0.002225543
139	0xbd1f6ff8	-0.03892514
140	0xbd7a3dd0	-0.061094105
141	0xbcaa2931	-0.020771595
142	0xbcc25462	-0.023721877
143	0x3d82f881	0.063950546
144	0xbd6872d6	-0.05675014
145	0x3ce08cce	0.02741089
146	0xbd17d342	-0.037066706
147	0xbd43e16a	-0.047822393
148	0x3c8af702	0.016963486
149	0xbd339256	-0.04384073
150	0x3d45c396	0.04828223
151	0x3d1124d7	0.035435524
152	0xbd7db81e	-0.061943166
153	0x3ca883d2	0.02057067
154	0xbce5e721	-0.028064312
155	0x3cc3c9e4	0.02389998
156	0x3a032b56	0.0005003711
157	0xbd5478a8	-0.05187288
158	0xbbfcc37d	-0.0077137337
159	0xbce36ea5	-0.02776272
160	0xbc977649	-0.01848902
161	0x3d1c4598	0.038152307
162	0x3c33acc7	0.010966486
163	0xbc6d6218	-0.014488719
164	0xbca0160c	-0.019541763
165	0x3b22d01e	0.0024843286
166	0xbcb09af0	-0.021558255
167	0x3c126311	0.008934752
168	0x3d8964cb	0.06708678
169	0x3cee8efc	0.029120915
170	0x3d3d65e8	0.046239763
171	0xbcf9f3e9	-0.030511813
172	0x3b4bb966	0.0031085848
173	0x3d77c590	0.060491145
174	0x3d3a8b76	0.045543157
175	0x3d3afdb7	0.045652118
176	0x3d7e44f5	0.06207748
177	0xbc61b29e	-0.013775496
178	0xbd5cb5ae	-0.0538842
179	0xbd52254b	-0.051305097
180	0x3cbcea7a	0.023061026
181	0x3cad66b1	0.021167131
182	0xbca55e40	-0.020186543
183	0x3dab505e	0.08364938
184	0x3c44a6df	0.012002676
185	0x3d79b8fa	0.060967423
186	0x3d02896c	0.031869337
187	0x3cdd4018	0.027008101
188	0x3d9f95fc	0.07792279
189	0xbd594f4e	-0.053054146
190	0xbd27c200	-0.040956497
191	0x3c4cd571	0.01250206
192	0x3d19b483	0.037525665
193	0x3cc08c3b	0.023504367
194	0xbd0c2100	-0.03421116
195	0xbd1d3d21	-0.038388375
196	0xbd937efc	-0.07201955
197	0x3c3e6ed3	0.011623102
198	0xbd3d3754	-0.046195343
199	0xbcf2040d	-0.029542947
200	0x3cf2b32a	0.029626448
201	0xbcdd8cd1	-0.027044686
202	0xbc4bbb58	-0.012434803
203	0x3d2fc4ca	0.042912282
204	0x3d2f8e3a	0.042860247
205	0xbc5bea2e	-0.013422532
206	0xbc9c4ebb	-0.01908051
207	0xbd25965b	-0.040426593
208	0xbd10d8e0	-0.035363078
209	0x3d09e2a0	0.033663392
210	0x3d504818	0.050850004
211	0xbda84566	-0.08216362
212	0x3c90af1d	0.017661626
213	0x3c4be10c	0.012443792
214	0xbd02888d	-0.031868506
215	0xbd4e6326	-0.050387524
216	0x3d60081f	0.054695245
217	0x3d4fdb00	0.050745964
218	0xbd016c2c	-0.0315973
219	0xbcaa4377	-0.020784123
220	0xbd198a8f	-0.037485655
221	0x3b706a64	0.0036684508
222	0xbc52083b	-0.012819345
223	0x3b5c4e43	0.0033615984
224	0x3d276482	0.040867336
225	0xbd01cd7e	-0.031690113
226	0x3c397817	0.011320136
227	0xbc8cd881	-0.01719308
228	0xbc9f0d49	-0.019415515
229	0x3d037621	0.03209508
230	0x3cdb53dd	0.026773388
231	0xbc68845e	-0.014191715
232	0xbd185db4	-0.037198737
233	0x3ca62e2e	0.020285692
234	0xbca57acf	-0.020200161
235	0x3d40c733	0.04706497
236	0xbd1fe3c5	-0.039035577
237	0x3d19dc5d	0.03756367
238	0x3d4384c2	0.04773403
239	0x3c6b8cd5	0.014376839
240	0xbd89ea5c	-0.06734154
241	0xbcaa32d4	-0.02077619
242	0xbc79312a	-0.0152094755
243	0x3d62d7a8	0.055381447
244	0x3adaa6cd	0.0016681791
245	0xbcd36adc	-0.02580779
246	0xbd43b3ed	-0.047779012
247	0xbc6ce9ea	-0.014460066
248	0x3d3d883f	0.046272513
249	0x3d1c6641	0.038183454
250	0xbacf87c4	-0.0015833308
251	0x3c67ccd6	0.014147958
252	0xbd1a0644	-0.03760363
253	0xbd18604e	-0.03720122
254	0xbdaf3491	-0.08554948
255	0x3b2df11e	0.0026541422

bias f4 [300]
0	0x39dcbff8	0.00042104698
1	0x3c0f4f23	0.008746895
2	0xbd3c9d07	-0.04604819
3	0x3c81ec42	0.015859727
4	0xbd590d62	-0.05299128
5	0xba210f99	-0.0006143987
6	0xbaae5b9b	-0.0013302447
7	0xbd03a405	-0.032138843
8	0xbd5fcbea	-0.054637827
9	0xbd080ee8	-0.03321734
10	0xbce62842	-0.028095368
11	0xbd0440dc	-0.032288417
12	0x3d089387	0.033343818
13	0x3be9c2b9	0.0071338085
14	0xbd421386	-0.0473819
15	0xbd6a7f42	-0.05725027
16	0xbd003f26	-0.031310223
17	0xbc69a24d	-0.014259887
18	0xbd46a0d0	-0.048493207
19	0xbc342101	-0.010994197
20	0xbd1f7bab	-0.0389363
21	0xbb1486db	-0.0022663388
22	0x3ca7a45c	0.020464115
23	0xbd541ff9	-0.051788304
24	0xbc8a4dd1	-0.016882809
25	0xbd3fe997	-0.046853628
26	0x3d452ef1	0.04814047
27	0xbd499b51	-0.049220387
28	0xb7935ccf	-1.7566983e-05
29	0x3d06dd88	0.032926112
30	0xbc459fb6	-0.012062004
31	0xba466bdf	-0.00075691746
32	0xbd2c39e7	-0.042047407
33	0xbd81c9c4	-0.06337312
34	0xbc851d77	-0.016249401
35	0xbd63533a	-0.055499293
36	0x3cd6f6f5	0.026240805
37	0xbb40f4d3	-0.0029442802
38	0xbc8109db	-0.01575177
39	0x3ce1cd51	0.027563723
40	0xbd6018a7	-0.05471101
41	0xbc1ecbe3	-0.009692165
42	0xbcd93a18	-0.02651696
43	0xbcdc9806	-0.02692796
44	0x3d47f98d	0.048821975
45	0xbd5b3c2e	-0.05352419
46	0xbcf39002	-0.029731754
47	0x3d48b4fa	0.049000718
48	0x3c712011	0.014717118
49	0xbd01a3f0	-0.031650484
50	0xbd0db0f8	-0.0345926
51	0x3d6ea9fc	0.05826758
52	0x3ca8a768	0.020587638
53	0xbd08be15	-0.0333844
54	0xbd673a37	-0.056452002
55	0xbcbc7dba	-0.02300917
56	0xbd6a7011	-0.05723578
57	0xbc8ff9bb	-0.017575135
58	0x3d1d3311	0.03837878
59	0x3c5bf83e	0.013425885
60	0x3d814b47	0.06313186
61	0xbd78574e	-0.060630135
62	0xbd82b8f3	-0.063829325
63	0x3b83963a	0.004015711
64	0xbd0e54aa	-0.03474871
65	0xbd040110	-0.032227576
66	0xbd0b253b	-0.033971053
67	0xbd04f73d	-0.032462347
68	0xbd2cb02f	-0.04216021
69	0xbb21a863	-0.0024667017
70	0x3c350c11	0.01105024
71	0x3d0ebf6f	0.034850534
72	0xbd4ab7ac	-0.04949157
73	0x3b1c9095	0.0023889889
74	0xbc5eef3b	-0.013606842
75	0xbd71fdee	-0.059080057
76	0x3d077ce4	0.03307809
77	0xbc40c4e3	-0.011765691
78	0x3d0fa52d	0.035069633
79	0xba20402e	-0.0006113079
80	0xbbe2a514	-0.0069166515
81	0x3c40d3ad	0.011769217
82	0xbc958d67	-0.018255902
83	0x3d630551	0.055424992
84	0xbd1ff51f	-0.039052125
85	0x3cc8c846	0.02450956
86	0xbd0c0cfb	-0.034192067
87	0xbc895bf3	-0.016767478
88	0xbcea6ae7	-0.028615428
89	0x3c8cefcc	0.017204188
90	0x3d2f9f32	0.04287643
91	0x3badfd4d	0.005309737
92	0xbd72d9dc	-0.0592898
93	0x3b9b9990	0.0047485307
94	0xbd23639c	-0.039889917
95	0xbcbf4a83	-0.02335096
96	0x3c43e724	0.011956964
97	0xbb83bacd	-0.004020071
98	0xbd16d483	-0.03682376
99	0x3c736aa1	0.014856965
100	0xbcf0bfcc	-0.02938833
101	0xbd2cbb7e	-0.042170994
102	0xbd45f11c	-0.048325643
103	0xbd587ad7	-0.052851524
104	0x3c30d643	0.0107932715
105	0xbd338f23	-0.043837678
106	0x3d11da67	0.035608675
107	0xbd21cb3a	-0.039500453
108	0xbd83413f	-0.06408929
109	0xbc9addbf	-0.018904565
110	0x3d113c42	0.035457857
111	0x3d0e2f7e	0.03471326
112	0x3cd2f6e2	0.025752489
113	0xbd36196a	-0.04445783
114	0xbcddf0f8	-0.027092442
115	0xbd6f0032	-0.058349796
116	0x3d2fa82e	0.042884998
117	0xbd125aac	-0.035731003
118	0xbb0ac482	-0.0021174257
119	0x3d1a51cb	0.03767566
120	0x3d0657dd	0.032798637
121	0xbd756150	-0.059907258
122	0x3c014295	0.00788941
123	0x3c029c8e	0.007971896
124	0x3c39e31a	0.011345649
125	0x3d4b412c	0.0496227
126	0x3d1ca504	0.03824331
127	0x3cf622cb	0.030045887
128	0x3d298981	0.0413909
129	0x3cd14675	0.025546292
130	0x3ce152af	0.027505247
131	0xbb712844	-0.0036797682
132	0x3d38306f	0.044968065
133	0xbbcc98c2	-0.006243796
134	0xbc29d92b	-0.010366718
135	0x3c632550	0.013863876
136	0x3d3ee8c3	0.046608698
137	0xbd3daf79	-0.046309922
138	0xbd165467	-0.036701586
139	0xbc118e98	-0.008884095
140	0xbc872866	-0.016498756
141	0xbc2ad864	-0.010427568
142	0xbc80cfb4	-0.01572404
143	0xbcf736d8	-0.030177519
144	0xbd54f66a	-0.05199281
145	0x3cd5c22a	0.026093561
146	0xbd2beade	-0.041972034
147	0xbc8120c2	-0.01576269
148	0xbd48d97e	-0.04903554
149	0x3d4152ab	0.04719798
150	0x3b07c21b	0.002071506
151	0xbaf91697	-0.0019003925
152	0xbd70a300	-0.0587492
153	0xbd4abbb8	-0.04949543
154	0xbc08c505	-0.008347754
155	0x3d16fb79	0.036860917
156	0x3c78d865	0.015188311
157	0x3d433565	0.047658343
158	0x3d3f538c	0.046710536
159	0xbbc327ff	-0.0059556956
160	0x3c8f82d1	0.017518433
161	0xbd707af0	-0.058710992
162	0xbd080d47	-0.033215787
163	0x3d01b55a	0.03166709
164	0xbd1b6065	-0.037933726
165	0xbd55f5fd	-0.052236546
166	0xbd39cfa3	-0.045364033
167	0xbc450294	-0.01202454
168	0x3ce09070	0.027412623
169	0x3c8aff3c	0.016967408
170	0xbd5c395a	-0.053765632
171	0xbcf3c438	-0.02975665
172	0xbbff4a7f	-0.007790863
173	0x3d754f57	0.059890117
174	0xbd2c7b2e	-0.04210966
175	0xbd076ce4	-0.03306283
176	0xbcb67e0f	-0.022276906
177	0xbb9c8462	-0.0047765234
178	0xbd2ca0ca	-0.042145528
179	0xb89dbaea	-7.521159e-05
180	0x3d1cc272	0.038271375
181	0xbd387c86	-0.04504063
182	0xbcc2c063	-0.023773378
183	0xbc0afd96	-0.008483311
184	0xbd5d2d7a	-0.053998448
185	0xbc0f9c1e	-0.008765249
186	0xbc76c5a0	-0.015061766
187	0x3cb8846b	0.02252408
188	0xbd34b470	-0.04411739
189	0x3cd417bf	0.02589023
190	0xbd340314	-0.043948248
191	0xbd806e5f	-0.062710516
192	0x3cbe4c0a	0.023229618
193	0x3c5b2d73	0.013377535
194	0x3b631f96	0.0034656278
195	0x3d102b74	0.03519769
196	0xbcb1babc	-0.021695487
197	0xbce618e2	-0.028088037
198	0xbd1ee434	-0.03879185
199	0xbcd8afa4	-0.02645094
200	0x3c07a50b	0.008279095
201	0x3ceac7d2	0.028659735
202	0x3adc88bd	0.0016825419
203	0x3bc42609	0.0059859795
204	0xbc9d8b3b	-0.01923143
205	0xbcc259db	-0.023724487
206	0x3ba5edaa	0.005063732
207	0xbd6c758d	-0.057729293
208	0xbc333264	-0.010937307
209	0xbd1b1bd8	-0.03786835
210	0x3c1d8aee	0.009615643
211	0x3ce6b29f	0.028161345
212	0x3d449396	0.04799231
213	0xbca0498b	-0.019566318
214	0x3d1e38d1	0.038628403
215	0x3b67da83	0.0035378046
216	0xbc94e9fd	-0.01817798
217	0x3d077601	0.03307152
218	0x3cc1e5c8	0.023669139
219	0xbda28136	-0.07934801
220	0xba7a24a1	-0.00095422013
221	0x3d075401	0.033039097
222	0x3d410694	0.047125414
223	0xbd09f97d	-0.033685196
224	0xbbdc47dd	-0.006722434
225	0xbd003528	-0.031300694
226	0xbce5be67	-0.028044892
227	0xbc99bb85	-0.018766174
228	0x3d595b6f	0.053065713
229	0x3c4238cf	0.011854365
230	0x3b290ae4	0.0025793845
231	0xbd56a2fd	-0.05240153
232	0xbd078e72	-0.03309483
233	0x3cbaa8dd	0.022785598
234	0xbc76f168	-0.015072204
235	0xbcd2b701	-0.025722029
236	0x3ca0c02f	0.01962289
237	0x3b3e54e4	0.0029042298
238	0xbd0f89fd	-0.035043705
239	0x3d54417d	0.051820267
240	0x3d09b871	0.033623163
241	0xbd866019	-0.06561298
242	0xbc7c534b	-0.015400718
243	0x3bc075c4	0.0058734138
244	0x3d0fe11e	0.035126798
245	0x3cbb2d33	0.022848701
246	0xbb19e3cc	-0.0023481725
247	0xbbb449f2	-0.005501979
248	0x3ca1aa79	0.019734608
249	0xbd711b4e	-0.05886393
250	0x3cae76af	0.021296827
251	0x3ce8ee49	0.028433936
252	0xbb02a446	-0.001993434
253	0xbd048d6a	-0.032361425
254	0x3d16f80f	0.03685766
255	0xbd710601	-0.058843616

weight f4 [200, 300]
0	0xbd70ed32	-0.058819957
1	0xbd48cdc7	-0.04902437
2	0xbcaa7180	-0.020806074
3	0xbd5b52b6	-0.053545676
4	0x3d53fdb6	0.05175563
5	0x3d1523cd	0.036411095
6	0xbd041bfe	-0.032253258
7	0x3c231ad4	0.009955127
8	0x3cd48e93	0.025946891
9	0xbcba9c83	-0.022779709
10	0xbcd52df9	-0.026022898
11	0x3ab6ffe2	0.0013961757
12	0x3c3afce4	0.011412833
13	0x3d10d703	0.0353613
14	0x3b4b1648	0.0030988622
15	0xbccbb7c2	-0.024867896
16	0xbd627f84	-0.05529739
17	0xbd886234	-0.06659356
18	0x3bf9992f	0.007617138
19	0x3d2408cb	0.040047448
20	0x3d4322ff	0.047640797
21	0x3d58bafd	0.0529127
22	0xbc8cc20b	-0.01718237
23	0x3c955d9a	0.01823311
24	0x3cd941e5	0.026520679
25	0xbbb9a322	-0.005665199
26	0xbd214975	-0.039376695
27	0xbd2e5cda	-0.04256902
28	0x3cc7e6d8	0.024402067
29	0xbd002e80	-0.031294346
30	0xbbfaef1c	-0.0076578986
31	0x3d010fce	0.031509213
32	0x3d25c6ed	0.040472914
33	0x3ca7a5fb	0.020464888
34	0x3ad1cc5d	0.001600634
35	0xbbe059d7	-0.0068466472
36	0x3c0a6a5d	0.008448211
37	0xbd7b6863	-0.061378848
38	0xbc820319	-0.015870618
39	0xbc8087b2	-0.015689705
40	0xbc494b7e	-0.012286065
41	0x3d0df4b0	0.03465718
42	0x3d5fe49a	0.05466137
43	0x3b15d54e	0.0022862735
44	0xbccf7164	-0.025322624
45	0x3ce63fd6	0.028106611
46	0xbd3f3cba	-0.046688773
47	0xbca7771b	-0.020442536
48	0xbc6925cb	-0.014230202
49	0xbd840e15	-0.064479984
50	0xbc3cd308	-0.011524923
51	0x3d165603	0.03670312
52	0xbcf2a994	-0.029621877
53	0x3af4f1de	0.0018687805
54	0xbc975d82	-0.018477205
55	0xbd04626e	-0.032320432
56	0xbca0ea09	-0.019642847
57	0x3d1489aa	0.0362641
58	0x3d23d400	0.0399971
59	0x3d1e3254	0.038622215
60	0xbc7248fd	-0.01478791
61	0x3cdfedff	0.027335165
62	0x3d5c85bf	0.053838488
63	0x3ce7488f	0.02823284
64	0xbcd70bcc	-0.026250742
65	0x3c848f66	0.016181659
66	0xbd03e041	-0.032196287
67	0xbc46a9f1	-0.012125478
68	0x3c983bdb	0.018583229
69	0xbc86c8ad	-0.016453112
70	0xbd4f14d9	-0.05055699
71	0x3cbaa33e	0.022782918
72	0x3ccd5a74	0.025067545
73	0x3d44fe9b	0.048094373
74	0x3cbe53a3	0.02323324
75	0xbc3777ef	-0.011198028
76	0x3d6a20c0	0.05716014
77	0xbcfe255a	-0.03102367
78	0x3c15c790	0.009141818
79	0x3c216a22	0.009851964
80	0xbce189c1	-0.027531506
81	0xbcd62e30	-0.02614507
82	0xbd45a1ed	-0.048250128
83	0xbd151b06	-0.036402725
84	0xbc92292e	-0.017841902
85	0xbd393625	-0.045217652
86	0x3cc039e3	0.023465103
87	0xbd32e551	-0.043675724
88	0xbd25496f	-0.040353235
89	0x3cec4958	0.028843567
90	0x3d13a43b	0.036045294
91	0xbc938467	-0.01800747
92	0xbd310cc5	-0.04322507
93	0x3cef47ff	0.029209135
94	0x3d482d18	0.04887113
95	0x3d1228ef	0.03568357
96	0x3cd3489a	0.025791455
97	0x3d5f1bae	0.054469757
98	0x3d412b70	0.047160566
99	0x3c57ff19	0.013183379
100	0xbd397946	-0.04528167
101	0xbb6259d5	-0.0034538407
102	0x3d6fe623	0.058569085
103	0xbbcd55f3	-0.0062663495
104	0xbd831212	-0.06399931
105	0xbaff8595	-0.0019494767
106	0xbd63dbbe	-0.055629484
107	0x3ca2d4ee	0.019876923
108	0xbc912531	-0.01771793
109	0xbd16291d	-0.036660302
110	0x3d21e955	0.039529163
111	0x3d0c29d6	0.034219585
112	0x3b790619	0.003799802
113	0xbd55be6b	-0.05218355
114	0xbccd0939	-0.025028812
115	0x3d3d7465	0.04625358
116	0x3b50d0fd	0.0031862848
117	0x3d74e4c8	0.059788495
118	0x3d80f414	0.06296554
119	0x3c74a34c	0.014931511
120	0xbcc79ac4	-0.02436579
121	0x3d4bcf1d	0.049758065
122	0xbd272619	-0.040807817
123	0xbcda3eb1	-0.026641222
124	0xbbb89b69	-0.0056337607
125	0xbcb04be6	-0.021520566
126	0xbd4a2be4	-0.049358264
127	0x3c380a38	0.011232905
128	0x3cc8b58e	0.024500635
129	0x3d11216a	0.035432257
130	0xbc891b3d	-0.016736621
131	0x3d586834	0.05283375
132	0xbc4bec01	-0.012446404
133	0xbcd05973	-0.025433278
134	0xbd52a8a1	-0.05143035
135	0x3c279cb9	0.010230237
136	0x3d0c26b2	0.03421659
137	0xbcd5c7c4	-0.026096232
138	0xbd4481ba	-0.04797528
139	0xbca5a131	-0.020218464
140	0xbd3d706d	-0.046249796
141	0x3cd874d4	0.026422895
142	0xba1249cd	-0.0005580455
143	0xbcfdd3a3	-0.030984705
144	0x3b020a6b	0.0019842635
145	0xbd4f9e11	-0.050687853
146	0xbd2c1794	-0.042014673
147	0xbc3c8e92	-0.011508601
148	0x3c75b113	0.014995831
149	0xbd3a228b	-0.0454431
150	0x3caaa0b0	0.020828575
151	0x3c5ba003	0.013404849
152	0xbc63c46f	-0.013901814
153	0xbd44ca90	-0.04804474
154	0xbc0b94e7	-0.008519388
155	0xbce6f777	-0.028194172
156	0x3d208269	0.03918687
157	0xbd8aabd5	-0.067710556
158	0xbc742735	-0.014901926
159	0xbb70259d	-0.0036643513
160	0x3cf1f99a	0.029537965
161	0xbd038735	-0.032111365
162	0x3c7dedca	0.015498588
163	0xbc605440	-0.013691962
164	0xbd2264a6	-0.039646767
165	0xbb97b0aa	-0.0046292143
166	0x3ccca763	0.02498216
167	0x3d68968b	0.056784194
168	0xbd538637	-0.05164167
169	0xbc6f5aa3	-0.014609012
170	0x3d309938	0.04311487
171	0xbd4240a6	-0.047424935
172	0xbcdefaf7	-0.027219279
173	0x3ca37fa0	0.019958317
174	0x3cb30902	0.021854881
175	0x3d05f76e	0.03270667
176	0xbd2b4ab7	-0.0418193
177	0x3c5fe657	0.013665757
178	0x3d2a3b64	0.041560546
179	0xbd57e044	-0.05270411
180	0x3c993979	0.018704163
181	0xbd5b1b73	-0.053492974
182	0xbd132345	-0.035922308
183	0xbcc5b830	-0.024135679
184	0xbcaab170	-0.020836562
185	0xbd139082	-0.036026485
186	0x3d20ab2c	0.039225742
187	0xbca60723	-0.020267075
188	0xbd883ffc	-0.06652829
189	0x3cb437d6	0.02199928
190	0xbd099dd2	-0.033597775
191	0xbd00c297	-0.031435575
192	0xbcd3115b	-0.025765112
193	0xbd6723a4	-0.056430474
194	0xbcc36f52	-0.023856793
195	0x3d6d3bbe	0.057918303
196	0xbd97e573	-0.07416811
197	0xbd588065	-0.05285682
198	0x3c57bba1	0.013167293
199	0xbd76fca8	-0.060299546
200	0xbd3e935f	-0.046527263
201	0xbbc15259	-0.005899709
202	0xbd67ca4a	-0.056589402
203	0xbd30ba9e	-0.043146722
204	0xbd27b3ee	-0.04094308
205	0x3c8bf7b1	0.017085882
206	0xbcb9278b	-0.022601863
207	0xbcb1bd0a	-0.021696586
208	0xbbd1d3cc	-0.006403422
209	0x3d5fc458	0.054630607
210	0xbca6236c	-0.020280562
211	0x3c41fda0	0.011840254
212	0xbd2dd920	-0.042443395
213	0x3a18818f	0.00058176456
214	0x3888ab40	6.516883e-05
215	0x3d130a8e	0.035898738
216	0xbc9bfce5	-0.019041488
217	0xbd21c4cc	-0.03949432
218	0x3ccd2d2d	0.025045956
219	0xbcaf80f4	-0.021423794
220	0x3c2ebc72	0.010665046
221	0xbd3bcfff	-0.045852657
222	0xbbb476d6	-0.0055073304
223	0x3d159a78	0.036524266
224	0xbc4fe0e4	-0.012687895
225	0x3cce3dea	0.025176007
226	0xbd2cf36d	-0.042224336
227	0x3d0d46ef	0.034491476
228	0x3cf26810	0.029590636
229	0x3cf6041e	0.03003126
230	0x3b309b94	0.00269482
231	0xbd46adf7	-0.04850575
232	0xbbcaa713	-0.0061844676
233	0xbc59f175	-0.013302197
234	0x3c656b47	0.014002628
235	0x3c01d1d1	0.007923559
236	0xbc900308	-0.01757957
237	0x3c07bee7	0.008285261
238	0xba60902d	-0.0008566406
239	0xbc038921	-0.0080283
240	0x3d2eed35	0.042706687
241	0x3d0b8a93	0.0340677
242	0x3d549292	0.051897593
243	0x3c984ba4	0.018590756
244	0xbd89ba0c	-0.06724939
245	0xbd6b5bdc	-0.05746065
246	0x3d83c43a	0.064339116
247	0xbc91dfb2	-0.017806862
248	0x3d30c057	0.04315218
249	0xbab8b1ab	-0.0014091035
250	0xbcce917d	-0.025215859
251	0x3ce99e48	0.028517857
252	0x39be71ee	0.00036324508
253	0x3c986f48	0.01860775
254	0x3c66a093	0.01407637
255	0xbb39577c	-0.0028280905

bias f4 [200]
0	0xbd040f7c	-0.03224133
1	0xbcb1953d	-0.021677608
2	0xbd8d1723	-0.068891786
3	0xbbc760b0	-0.006084524
4	0xbd4dfc0e	-0.050289206
5	0xbd7ba891	-0.061440054
6	0xbd4d2de3	-0.05009259
7	0xbcc34d0d	-0.023840452
8	0x3d3d9e59	0.04629359
9	0x3c936513	0.017992532
10	0xbd05e588	-0.0326896
11	0xbd160679	-0.036627267
12	0xbd0ba92a	-0.034096874
13	0x3d381d4d	0.04494982
14	0x3b0f2811	0.002184395
15	0x3d0fff0f	0.035155352
16	0x3d783c05	0.060604114
17	0xbd32d810	-0.043663085
18	0xbd0ff8cb	-0.035149377
19	0xbd5a8ea3	-0.053358685
20	0x3d87df33	0.06634369
21	0x3b3ab8a1	0.0028491395
22	0x3cc91938	0.024548158
23	0x3cce8146	0.025208127
24	0xbd14efcb	-0.036361497
25	0x3cd6f02b	0.026237568
26	0x3bd62b5f	0.006535932
27	0x3c325379	0.010884159
28	0xbc69abd6	-0.01426216
29	0xbcb980b7	-0.022644384
30	0x3d83aad0	0.06429064
31	0xbd0ada50	-0.033899605
32	0x3b1c556e	0.002385463
33	0x3d9cc133	0.07654037
34	0xbd1e4456	-0.03863939
35	0x3d30dc9d	0.043179143
36	0x3d42c191	0.04754788
37	0xbd7bf817	-0.061515894
38	0xbc920b95	-0.017827788
39	0xbd0c9003	-0.034317028
40	0xbc859122	-0.016304556
41	0x3d86a98b	0.065753065
42	0x3bc91fb9	0.006137815
43	0x3d45b8ee	0.048272066
44	0xbce1d7db	-0.027568748
45	0xbc448303	-0.011994126
46	0x3c4b5dcb	0.012412499
47	0x3d80e83f	0.062942974
48	0x3c7e2adc	0.015513148
49	0xbc982613	-0.018572843
50	0xbccadec1	-0.02476442
51	0xbba59c29	-0.005054016
52	0xbd242225	-0.040071625
53	0x3d402f48	0.04692009
54	0x3c5c3695	0.013440748
55	0xbd9e5d7e	-0.07732676
56	0xbc8b145c	-0.016977482
57	0xbd1de91c	-0.03855239
58	0xbc0fd18d	-0.008777988
59	0xbadb60ea	-0.0016737257
60	0x3d0eff0a	0.034911193
61	0x3be2c0a2	0.0069199363
62	0x3c70f81a	0.0147075895
63	0xbd1cd9d2	-0.038293667
64	0xbc5dae2c	-0.013530295
65	0x3c9e7ab8	0.019345626
66	0xbced4b96	-0.028966706
67	0xbc129213	-0.00894596
68	0x3ce8f855	0.028438726
69	0xbc9d2cef	-0.019186465
70	0x3d2d76d2	0.042349644
71	0xbd866513	-0.06562247
72	0xbd271eab	-0.04080073
73	0x3cfae68a	0.030627508
74	0xbd9178cf	-0.071031205
75	0x3b83e188	0.004024688
76	0x3d205c53	0.039150547
77	0xbb7bd1dd	-0.0038424649
78	0xbc8795ea	-0.016550977
79	0x3cb9d566	0.022684764
80	0x3d35d583	0.044393074
81	0xbca64b88	-0.020299688
82	0x3d5fa350	0.054599106
83	0xbd0aadc6	-0.03385713
84	0xbd37fbe5	-0.04491796
85	0x3d82cdb6	0.063868925
86	0xbcef0951	-0.029179247
87	0x3d504e2c	0.0508558
88	0xbc63cde9	-0.013904073
89	0xbcc4aae0	-0.02400726
90	0xbd4c4c20	-0.049877286
91	0x3b1d02c7	0.0023957954
92	0x3d8cc9c7	0.068744235
93	0xbd58aeba	-0.052901007
94	0x3b973835	0.0046148547
95	0x3d6842dd	0.05670439
96	0xbd03a33b	-0.03213809
97	0xbd90b77c	-0.07066247
98	0x3ca251fc	0.019814484
99	0xbc9a7d72	-0.018858645
100	0x3d01a678	0.031652898
101	0x3d54ff6c	0.0520014
102	0xbca4ccf4	-0.02011726
103	0xbcc98620	-0.024600089
104	0xbc0c34a5	-0.008557473
105	0xbc26859f	-0.010163694
106	0xbcb96b6e	-0.022634234
107	0xbd6954e4	-0.056965724
108	0xbd39ea7e	-0.045389645
109	0x3d293a52	0.041315384
110	0xbd55a940	-0.052163363
111	0x3d2e1bc0	0.042506933
112	0x3d8363a6	0.06415491
113	0x3b85d772	0.004084521
114	0x3cac01e0	0.020996988
115	0x3d31ca60	0.04340589
116	0xbc8f896e	-0.017521586
117	0x3d0d7388	0.034534007
118	0xbd87a759	-0.06623716
119	0x3d269f5e	0.04067933
120	0xbd30ac63	-0.04313315
121	0x3b4ed6c7	0.0031561123
122	0x3d93dbd6	0.07219665
123	0xbd7f546f	-0.06233638
124	0x3d0c9183	0.03431846
125	0x3cad0520	0.021120608
126	0xbc1cb165	-0.0095637785
127	0xbae09677	-0.0017134686
128	0xb9af8d2d	-0.00033483785
129	0x3cc1c615	0.023654023
130	0xbd3e235a	-0.046420433
131	0xbcf13349	-0.0294434
132	0x3d81b3d1	0.063331254
133	0x3cdcf435	0.026971916
134	0x3d48ad8d	0.048993636
135	0x3d2c93b3	0.042133044
136	0xbd1b89aa	-0.037973084
137	0xbbf3b704	-0.0074375886
138	0x3d5d70cf	0.05406266
139	0xbd50f324	-0.051013127
140	0xbccd1599	-0.025034713
141	0x3cbda3ce	0.023149397
142	0x3d122b85	0.035686035
143	0xbd27c107	-0.04095557
144	0x3caf5918	0.021404788
145	0xbd879654	-0.0662047
146	0x3d44c77a	0.0480418
147	0x3d2e64fe	0.042576782
148	0x3bca090f	0.0061656306
149	0x3c1290a1	0.008945615
150	0xbc7060bc	-0.014671501
151	0xbd48997f	-0.04897451
152	0x3be384e4	0.006943332
153	0xbd0d6870	-0.034523427
154	0xbcb158e6	-0.021648835
155	0x3c86983f	0.016430018
156	0x3b52c840	0.0032162815
157	0x3d050b6d	0.0324816
158	0xbc59532e	-0.0132644605
159	0xbb60f6d9	-0.003432682
160	0x3d3e3b4f	0.04644328
161	0xbd898187	-0.067141585
162	0x3c73ac68	0.014872648
163	0x3a3d7a07	0.00072279613
164	0x3d4690f4	0.04847808
165	0xbd325f5d	-0.043547977
166	0xbb91dd17	-0.004451405
167	0xbd745864	-0.05965461
168	0x3b83385f	0.0040045227
169	0x3b8669e2	0.0041019777
170	0x3d330931	0.043709937
171	0xbd19f1a7	-0.037583973
172	0x3d1865b9	0.037206385
173	0x3d4badea	0.049726404
174	0xbcfb307d	-0.03066277
175	0xbd18f27c	-0.037340626
176	0x3d049814	0.032371596
177	0xbd13bfdd	-0.036071647
178	0x3ce82f52	0.028342877
179	0x3bd25608	0.006418947
180	0x3d16209c	0.036652192
181	0x3c635533	0.013875294
182	0xbc84201d	-0.016128594
183	0xbd821935	-0.06352464
184	0xbd09d33d	-0.03364872
185	0x3a0cec5b	0.0005375796
186	0x3c97efbb	0.01854693
187	0x3d424b81	0.047435287
188	0xbbc1859e	-0.005905821
189	0xbd04e538	-0.032445163
190	0x3d3b5d91	0.04574353
191	0x3cd9912b	0.02655848
192	0xbd0af471	-0.033924524
193	0xbd1033c6	-0.035205625
194	0x3d1ff50d	0.039052058
195	0x3b82b5ee	0.003988973
196	0xbd0cf90f	-0.03441721
197	0xbcb277ea	-0.021785695
198	0xbd2cb1b8	-0.042161673
199	0x3d51451a	0.05109129

weight f4 [200, 300]
0	0xb9e3a67d	-0.00043420857
1	0x39c9556e	0.00038401358
2	0x3db0d745	0.086348094
3	0x3d316040	0.04330468
4	0x3b8cb078	0.0042934977
5	0x3cd37fc4	0.02581776
6	0xbc70d9e8	-0.01470039
7	0x3d5f99da	0.054590084
8	0x3c9f3174	0.01943276
9	0xbc68937e	-0.014195321
10	0x3d34e730	0.04416579
11	0x3d03b152	0.032151528
12	0xbc90067e	-0.01758122
13	0xbc94816b	-0.018128118
14	0xbd3e52df	-0.04646575
15	0xbcb2708a	-0.021782178
16	0x3d50c650	0.050970376
17	0xbc915eec	-0.017745458
18	0xbc0df52e	-0.008664412
19	0xbd207b46	-0.039180063
20	0xbd1d96bd	-0.038473833
21	0xbcb36e9d	-0.02190333
22	0xbc6aebd5	-0.014338453
23	0x3c7dd4ca	0.015492627
24	0xbd9675d8	-0.07346696
25	0x3cf67383	0.030084377
26	0x3d0d8288	0.034548312
27	0xbcb05331	-0.021524044
28	0xbd2f403d	-0.04278587
29	0x3c980444	0.018556722
30	0xbbf26beb	-0.0073981187
31	0xbd8e5350	-0.06949484
32	0xbd875ab8	-0.066091
33	0xbd0f28eb	-0.03495113
34	0x3b87239b	0.0041241175
35	0x3d815a45	0.06316046
36	0xbd311c93	-0.04324014
37	0xbd118599	-0.0355278
38	0x3d0f51c5	0.03499009
39	0x3d677049	0.056503568
40	0x3d178b54	0.036998108
41	0xbd657ab5	-0.056025226
42	0xbd730a6c	-0.05933611
43	0xbb74a46d	-0.003732945
44	0x3d1fa4d6	0.03897556
45	0xbd1c0e5b	-0.038099628
46	0x3c64f562	0.013974519
47	0xba68de3c	-0.0008883213
48	0xbc8c5f44	-0.01713527
49	0x3b72f2b7	0.003707094
50	0xbc41503e	-0.011798916
51	0xbc02ab8e	-0.007975472
52	0xbd6a7858	-0.057243675
53	0xbda27786	-0.079329535
54	0x3d7f169f	0.062277433
55	0xbd2a2f59	-0.04154906
56	0x3d59db9d	0.053187955
57	0xbd2b5d00	-0.04183674
58	0x3ce6acf7	0.028158648
59	0xbc95786e	-0.018245902
60	0x3d85bd5a	0.065302566
61	0xbab980ce	-0.0014152767
62	0x3d63f262	0.055651076
63	0xbcce6df9	-0.025198923
64	0xb6302c7f	-2.6251944e-06
65	0x3d80f111	0.0629598
66	0x3c3a3057	0.011364064
67	0xbd45b7a6	-0.048270844
68	0x3cf11014	0.029426612
69	0x3c9e5ad3	0.019330418
70	0xbbdd5930	-0.0067550167
71	0xbd5a9874	-0.053368047
72	0x3d7fb73b	0.0624306
73	0x3d50eae8	0.051005274
74	0x3c8b398b	0.016995212
75	0x3d15384b	0.03643064
76	0xbcfeb441	-0.031091811
77	0x3c8ca0c2	0.017166499
78	0xbd115b5e	-0.035487525
79	0xbca462d7	-0.020066662
80	0x3cba0726	0.022708487
81	0x3d1c3e76	0.038145505
82	0x3bf72bea	0.0075430768
83	0xbcc5fbdf	-0.024167953
84	0xbca3c386	-0.019990694
85	0xbd0c7ae1	-0.034296874
86	0xbd1dbc51	-0.03850967
87	0x3d4874be	0.04893946
88	0x3cadeabb	0.021230092
89	0x3cccf7e9	0.025020557
90	0xbd0f05b5	-0.034917552
91	0x3d6d90f0	0.05799955
92	0xbd8a49fe	-0.06752394
93	0x3cd738ce	0.026272204
94	0xbc874ebf	-0.016517041
95	0xbb8bb0cc	-0.004263019
96	0x3d7a7542	0.061146982
97	0xbcb740be	-0.022369739
98	0xbd658967	-0.05603924
99	0x3cc76b12	0.024343047
100	0xbadd78b3	-0.0016896933
101	0x3d4c98c0	0.04995036
102	0xbd676bd1	-0.056499306
103	0x3c896548	0.016771927
104	0xbd84aca5	-0.06478242
105	0xbceaeb09	-0.028676527
106	0x3d26fce6	0.040768526
107	0xbbd37e19	-0.006454241
108	0xbccf19d0	-0.025280863
109	0xbd3fdf8c	-0.04684405
110	0x3ce3098b	0.027714511
111	0xbd3cb349	-0.046069417
112	0x3d70bda5	0.05877461
113	0xba9dac8b	-0.0012029571
114	0xbce32871	-0.027729245
115	0x3be78ac1	0.0070661013
116	0x3d3d79f8	0.046258897
117	0x3d5aa0a2	0.053375848
118	0x3d40e9db	0.047098022
119	0x3cb82074	0.022476412
120	0xbc76632e	-0.015038295
121	0x3d1286eb	0.0357732
122	0xbcebd00f	-0.028785734
123	0xbc88079c	-0.016605191
124	0x3c906681	0.017627003
125	0xbc806dc2	-0.015677337
126	0x3c5f638c	0.013634574
127	0xbd507ac1	-0.050898317
128	0x3a1f20d3	0.000607026
129	0xbd1794d3	-0.037007164
130	0xbc6ee6cb	-0.0145813925
131	0xbd7b76a9	-0.06139246
132	0x3c5c7d09	0.013457545
133	0xbce1a776	-0.027545672
134	0xbd7fc800	-0.062446594
135	0xbc070c8f	-0.00824274
136	0x3c8bf8f6	0.017086487
137	0x3d2bf61c	0.041982755
138	0xbcdfe021	-0.027328553
139	0x3d09eac4	0.033671156
140	0x3d1aa5c0	0.037755728
141	0xbc5ac0db	-0.013351644
142	0x3b82bc36	0.0039897216
143	0xbb128579	-0.0022357388
144	0x3cc3bbbd	0.023893232
145	0xbc06b2db	-0.008221353
146	0x3d348167	0.04406872
147	0x3b2c748e	0.002631459
148	0xbd70dd57	-0.058804836
149	0x3d50b7fa	0.050956704
150	0xbceebae9	-0.02914186
151	0x3c61bd5b	0.013778056
152	0x3d786bf6	0.060649835
153	0xbca7eb70	-0.020498008
154	0x3d389c22	0.045070775
155	0xbd485a42	-0.0489142
156	0x3d02e848	0.031959802
157	0xbca5eaed	-0.020253623
158	0xbd01a9f4	-0.03165622
159	0x3d34a00d	0.04409795
160	0xbc229fd5	-0.009925802
161	0x3d2f5c0d	0.042812396
162	0xbd8018ac	-0.06254706
163	0x3d16f5fc	0.036855683
164	0xbc57b70f	-0.013166203
165	0xbd129f60	-0.035796523
166	0x3d7acd6f	0.061231073
167	0x3d1e858d	0.038701583
168	0xbc99e9c9	-0.018788235
169	0xbd1718ed	-0.036889005
170	0x3cbdb7fa	0.023159016
171	0xbad70481	-0.001640454
172	0xbbdc7845	-0.0067282044
173	0x3d28a34c	0.041171357
174	0xbc7d98f7	-0.015478364
175	0xbcc39352	-0.023873959
176	0xbc4c7c25	-0.01248077
177	0xbd0bdc1e	-0.034145467
178	0xbc4d5075	-0.0125313895
179	0xbd3d197e	-0.04616689
180	0xbbf91dd6	-0.0076024337
181	0xbd46e931	-0.048562232
182	0xbd11697c	-0.03550099
183	0x3d5652c0	0.05232501
184	0xbc8cca5c	-0.017186336
185	0x3b611a77	0.003434805
186	0x37dabe3a	2.6076206e-05
187	0xbcbf84ff	-0.023378847
188	0xbc0a4ef8	-0.008441679
189	0x3d226a20	0.03965199
190	0x3cce6ab6	0.025197368
191	0xbd05cf0d	-0.032668162
192	0x3d10a349	0.03531197
193	0xb98e732e	-0.00027170166
194	0x3c0cfe4b	0.00860555
195	0x3bea1793	0.0071439235
196	0x3d1a88f4	0.037728265
197	0x3d0e0995	0.034677107
198	0x3b815100	0.0039464235
199	0x3d05641a	0.032566167
200	0x3d87ae3d	0.0662503
201	0xba8913eb	-0.0010458207
202	0xbc958164	-0.018250175
203	0xbd2a44bb	-0.041569453
204	0x3cbfd1eb	0.023415526
205	0xbd9be139	-0.07611317
206	0x3d3c2ed2	0.04594309
207	0x3d0ad470	0.033894002
208	0x3d80c490	0.06287491
209	0x3c4b4de2	0.012408705
210	0xbc3f540d	-0.011677754
211	0x3b9bab38	0.0047506355
212	0x3cb3be2a	0.021941263
213	0xbd0030fa	-0.031296708
214	0x3bcb5245	0.0062048757
215	0xbd223ea8	-0.039610535
216	0xbcc81fda	-0.02442925
217	0xbcde06df	-0.027102886
218	0x3cabf342	0.020990018
219	0xbc5e6d7c	-0.013575908
220	0x3c04410f	0.008072152
221	0xbd2e3511	-0.042531077
222	0x3d480ab8	0.048838347
223	0xbcdfcd84	-0.027319677
224	0xbd4efd90	-0.050534785
225	0xbc0164e6	-0.007897591
226	0x3b5076db	0.0031809125
227	0xbd54237b	-0.05179165
228	0x3d7eb0bd	0.06218027
229	0xbd49d906	-0.049279235
230	0xbc0b80b3	-0.008514571
231	0xbc8e22a4	-0.017350502
232	0xbc5f2cc4	-0.013621513
233	0x3d0f1ecb	0.034941476
234	0xbd891ed4	-0.06695333
235	0xbc3751c5	-0.011188929
236	0xbd5ceb56	-0.05393537
237	0xbd20c290	-0.03924805
238	0x3bd08ab9	0.0063641933
239	0xbd4b70ec	-0.049668238
240	0xbd13ad00	-0.036053658
241	0xbbf4f098	-0.00747497
242	0x3d403a9f	0.046930905
243	0x3cfab6c9	0.030604737
244	0xbd280a93	-0.04102571
245	0x3c43f21d	0.01195958
246	0x3cb05345	0.021524081
247	0xbcdaa2b3	-0.02668891
248	0xbd64de18	-0.055875868
249	0xbcdc9985	-0.026928673
250	0x3d910aa6	0.07082109
251	0x3d7abd27	0.061215546
252	0x3cbb5086	0.022865545
253	0xbd3ce369	-0.046115313
254	0x3b2c16b4	0.002625865
255	0xbd3e8f5e	-0.046523444

weight f4 [200]
0	0x3f813c12	1.0096457
1	0x3f81a2c4	1.0127797
2	0x3f821f65	1.0165831
3	0x3f821cbb	1.0165018
4	0x3f8011b6	1.0005405
5	0x3f7d6da1	0.98995405
6	0x3f811ffc	1.0087886
7	0x3f80c9f0	1.0061626
8	0x3f805b23	1.0027813
9	0x3f80ea00	1.0071411
10	0x3f822979	1.0168906
11	0x3f7ec050	0.99512196
12	0x3f85fcfd	1.0467831
13	0x3f80bd4c	1.0057769
14	0x3f80143c	1.0006175
15	0x3f804bbd	1.0023113
16	0x3f80022b	1.0000662
17	0x3f82297e	1.0168912
18	0x3f8146de	1.0099752
19	0x3f803e6c	1.001905
20	0x3f83f4b7	1.0309056
21	0x3f828d9b	1.0199465
22	0x3f846094	1.0341973
23	0x3f80d4f1	1.0064985
24	0x3f825d56	1.0184734
25	0x3f81466a	1.0099614
26	0x3f823c8e	1.017473
27	0x3f7d5bd1	0.98968226
28	0x3f7f9d0a	0.99849
29	0x3f808c6c	1.0042853
30	0x3f809597	1.0045651
31	0x3f841539	1.0318977
32	0x3f80146b	1.0006231
33	0x3f7fe423	0.99957484
34	0x3f7bf761	0.98424345
35	0x3f8044d3	1.0021003
36	0x3f7f2750	0.9966936
37	0x3f803698	1.0016661
38	0x3f806cde	1.0033224
39	0x3f805075	1.0024554
40	0x3f7fe263	0.99954814
41	0x3f824c70	1.0179577
42	0x3f83f555	1.0309244
43	0x3f80d580	1.0065155
44	0x3f7dde51	0.9916735
45	0x3f80e36b	1.0069402
46	0x3f811904	1.0085759
47	0x3f8124ff	1.0089415
48	0x3f80d5be	1.0065229
49	0x3f7ea680	0.9947281
50	0x3f7d2340	0.9888191
51	0x3f79c6c9	0.9756895
52	0x3f8125b3	1.008963
53	0x3f80e6a3	1.0070385
54	0x3f836adb	1.0266985
55	0x3f8176e9	1.0114413
56	0x3f80d4da	1.0064957
57	0x3f82af8e	1.0209825
58	0x3f7f33ff	0.99688715
59	0x3f818854	1.0119729
60	0x3f7ef198	0.9958739
61	0x3f7f3377	0.99687904
62	0x3f8089e2	1.0042078
63	0x3f7afb60	0.9803982
64	0x3f7ffce3	0.9999525
65	0x3f817bcf	1.0115908
66	0x3f7f5a50	0.9974718
67	0x3f803244	1.001534
68	0x3f80f738	1.0075445
69	0x3f804be8	1.0023165
70	0x3f825cf2	1.0184615
71	0x3f7e740c	0.99395823
72	0x3f7f203e	0.9965857
73	0x3f803727	1.0016831
74	0x3f81daf4	1.0144944
75	0x3f7daf06	0.9909519
76	0x3f7c29e8	0.98501444
77	0x3f812fe8	1.0092745
78	0x3f7fa962	0.9986783
79	0x3f814ac4	1.0100942
80	0x3f816928	1.0110216
81	0x3f82527c	1.0181422
82	0x3f7fbe5d	0.99899846
83	0x3f7a50d5	0.9777959
84	0x3f80b31a	1.0054657
85	0x3f80b5aa	1.005544
86	0x3f811382	1.0084078
87	0x3f8315a1	1.0240976
88	0x3f810074	1.0078263
89	0x3f81d44c	1.0142913
90	0x3f7f7033	0.9978058
91	0x3f8159f9	1.0105582
92	0x3f805531	1.0025998
93	0x3f8084ca	1.0040524
94	0x3f7b94f9	0.9827419
95	0x3f820518	1.0157804
96	0x3f821d66	1.0165222
97	0x3f81deec	1.0146155
98	0x3f80e9e9	1.0071384
99	0x3f80499b	1.0022463
100	0x3f7f7843	0.9979288
101	0x3f7d5e4b	0.98972005
102	0x3f813ada	1.0096085
103	0x3f81e34f	1.0147494
104	0x3f7f0ad2	0.99625885
105	0x3f7ff5fb	0.9998471
106	0x3f81491a	1.0100434
107	0x3f82ba84	1.021317
108	0x3f806a37	1.0032414
109	0x3f7b61f5	0.98196346
110	0x3f80c0f1	1.0058881
111	0x3f7d9f19	0.9907089
112	0x3f7d30f4	0.9890282
113	0x3f8304bd	1.0235821
114	0x3f8123c8	1.0089045
115	0x3f808b0c	1.0042434
116	0x3f7af52c	0.9803035
117	0x3f809445	1.0045248
118	0x3f7efb4c	0.996022
119	0x3f80150b	1.0006422
120	0x3f7c2026	0.98486555
121	0x3f86c9d1	1.053034
122	0x3f7cbd6f	0.9872655
123	0x3f812ddd	1.0092121
124	0x3f813490	1.0094166
125	0x3f7d9e3e	0.99069583
126	0x3f82c85b	1.0217394
127	0x3f82633f	1.0186538
128	0x3f809cea	1.0047886
129	0x3f7a7748	0.9783826
130	0x3f86cd76	1.0531452
131	0x3f7d3a75	0.98917323
132	0x3f8162a1	1.0108224
133	0x3f804e19	1.0023834
134	0x3f7e0f51	0.9924212
135	0x3f7ecf0c	0.9953468
136	0x3f7e0aa1	0.9923497
137	0x3f7d7bb2	0.9901687
138	0x3f7f9845	0.9984172
139	0x3f8261b5	1.0186068
140	0x3f83c487	1.029435
141	0x3f7e802a	0.9941431
142	0x3f7f780c	0.9979255
143	0x3f809125	1.0044295
144	0x3f7e27ad	0.9927929
145	0x3f804f88	1.0024271
146	0x3f826c20	1.0189247
147	0x3f80b5ba	1.0055459
148	0x3f82cd29	1.021886
149	0x3f827828	1.0192919
150	0x3f8044d0	1.0021
151	0x3f83167b	1.0241235
152	0x3f7e7530	0.99397564
153	0x3f7d91d1	0.99050623
154	0x3f812ce2	1.0091822
155	0x3f7e0e9a	0.9924103
156	0x3f80d9e5	1.0066496
157	0x3f812807	1.009034
158	0x3f7c9c12	0.98675644
159	0x3f84b347	1.0367211
160	0x3f7edc42	0.99554837
161	0x3f807a43	1.0037311
162	0x3f826a31	1.0188657
163	0x3f833bfb	1.025268
164	0x3f805789	1.0026714
165	0x3f83ff22	1.0312235
166	0x3f7f6fd6	0.99780023
167	0x3f80d165	1.0063902
168	0x3f81dffa	1.0146477
169	0x3f8018ab	1.0007528
170	0x3f7bb7f4	0.98327565
171	0x3f81d9c6	1.0144584
172	0x3f83c8b4	1.0295625
173	0x3f835687	1.0260781
174	0x3f7f71a3	0.9978277
175	0x3f7eb083	0.99488086
176	0x3f819b1b	1.012546
177	0x3f800e98	1.0004454
178	0x3f7ca315	0.98686343
179	0x3f7fe145	0.9995311
180	0x3f7cba21	0.9872151
181	0x3f8138a8	1.0095415
182	0x3f82c01b	1.0214876
183	0x3f811712	1.0085166
184	0x3f81a25a	1.0127671
185	0x3f8054a0	1.0025826
186	0x3f825e23	1.0184978
187	0x3f814db7	1.0101842
188	0x3f800cce	1.0003908
189	0x3f8139ff	1.0095824
190	0x3f8559cd	1.041803
191	0x3f820125	1.0156599
192	0x3f81e410	1.0147724
193	0x3f82610b	1.0185865
194	0x3f7c97c0	0.9866905
195	0x3f7c497c	0.9854963
196	0x3f807206	1.0034797
197	0x3f7ec4bc	0.9951894
198	0x3f821c87	1.0164956
199	0x3f816255	1.0108134

bias f4 [200]
0	0xba2287ba	-0.00062000344
1	0xbb8f426a	-0.004371931
2	0x3af170cf	0.001842046
3	0x3b43e3aa	0.0029890337
4	0xbbb31fd6	-0.0054664416
5	0xbc81e304	-0.01585532
6	0x3b62bd7a	0.00345978
7	0x3c3f4d10	0.011676088
8	0xbbad911f	-0.005296841
9	0xbafcf954	-0.001930038
10	0xbbe969e9	-0.007123221
11	0x3b6ebdbe	0.0036429013
12	0xbb92d4fc	-0.004480956
13	0x3bec387d	0.0072088824
14	0xbaaf9de9	-0.0013398501
15	0x3b915b97	0.004435967
16	0xbae6b013	-0.0017600082
17	0xbbaea8f1	-0.005330198
18	0xbc103413	-0.008801478
19	0x3c2c2587	0.010506994
20	0x3b151b0c	0.0022751717
21	0x3c2ecad2	0.010668473
22	0x3c8c5704	0.017131336
23	0xbc3c84d7	-0.011506281
24	0x3bcc71c0	0.006239146
25	0xbc05900e	-0.008152021
26	0x3b3199df	0.002709977
27	0xbb953518	-0.0045534484
28	0xbb1a61d5	-0.0023556848
29	0xbb2bf45a	-0.0026238174
30	0xbbe86836	-0.007092501
31	0xba8f5faf	-0.001093855
32	0x3aee62f2	0.0018187447
33	0x3c13f1ac	0.009029787
34	0x3c1a9ffb	0.009437556
35	0xbab87ac6	-0.0014074675
36	0xbb676e2e	-0.0035313475
37	0xbaefa8ab	-0.001828452
38	0xbb3323ad	-0.0027334497
39	0xbc2da88a	-0.010599265
40	0xbb9a13ae	-0.004702053
41	0xbace30ff	-0.0015731155
42	0x3bb41397	0.0054954994
43	0xbb1da20b	-0.0024052884
44	0xbc6c9619	-0.014440083
45	0xbb8e4fa8	-0.004342992
46	0xbbf2d3c4	-0.0074104983
47	0xba1a8a25	-0.0005895219
48	0xba2c27d8	-0.00065672165
49	0x3be36abe	0.006940215
50	0xbc032c15	-0.008006115
51	0xbb46cf9b	-0.0030336145
52	0xbbdfd352	-0.0068306113
53	0x3991462e	0.00027708843
54	0x3933a615	0.0001713264
55	0xbbcb9273	-0.0062125265
56	0xbb72a6af	-0.003702562
57	0xbcab2795	-0.020892898
58	0x3b4c308e	0.003115687
59	0x3af39d9c	0.00185864
60	0xbb362455	-0.0027792652
61	0xb8fbce96	-0.00012007092
62	0x3c3bcffb	0.011463161
63	0xba8951e2	-0.0010476673
64	0xb8b7e84d	-8.7693894e-05
65	0xb83969f6	-4.420612e-05
66	0x3b47c443	0.0030481971
67	0xbbe2bfb8	-0.0069198273
68	0x3bb46c9c	0.0055061113
69	0xbb534827	-0.003223905
70	0x3b568d46	0.0032738014
71	0xbc0c4e61	-0.008563609
72	0xba96c9b9	-0.001150421
73	0x3baa40e6	0.005195725
74	0xbafca45f	-0.0019275061
75	0x3b495500	0.003072083
76	0x3bb5ac5b	0.005544228
77	0x3bf98fd0	0.0076160207
78	0xb9ca1f27	-0.00038551653
79	0x3b97d084	0.0046330113
80	0x3bbd81f5	0.0057833144
81	0xbc0aa7a3	-0.008462819
82	0x3a751e09	0.0009350484
83	0xbb99d7fe	-0.0046949377
84	0xbbea0962	-0.007142232
85	0x3ba9dc2b	0.005183717
86	0x3be8591a	0.0070907
87	0xbc111762	-0.008855673
88	0x3c391872	0.011297332
89	0xbc036b38	-0.008021168
90	0x3abd0049	0.0014419641
91	0xbab774b9	-0.0013996578
92	0xb8fd07d1	-0.00012065436
93	0x3aea8375	0.001789196
94	0xbbef3c3c	-0.0073008817
95	0x3bcf6dd9	0.0063302335
96	0x3b582745	0.003298239
97	0xbc5a99e7	-0.013342357
98	0x3b19352e	0.0023377645
99	0xbbcee65d	-0.0063140825
100	0xbb8ad30f	-0.004236586
101	0x3bd9b713	0.0066441386
102	0x3b376111	0.002798144
103	0xbbe14ec7	-0.006875846
104	0x3af65c6f	0.0018795858
105	0xbc09aa8f	-0.008402481
106	0x3c6dde16	0.014518281
107	0x3b9c1f63	0.004764484
108	0x3bdc6cad	0.0067268224
109	0xbc53caf2	-0.012926804
110	0x3ac89d6c	0.0015305704
111	0x3b1e1a12	0.0024124426
112	0x3bce4f6a	0.006296088
113	0x3bf81c71	0.00757175
114	0x3bb57518	0.0055376403
115	0x3c10b0e9	0.008831241
116	0xbbce910a	-0.006303911
117	0x3adcbe3c	0.0016841362
118	0xbc28e50b	-0.010308514
119	0x3ba5aa81	0.005055726
120	0x3bc99388	0.0061516203
121	0x3c80c613	0.01571945
122	0x3c889e71	0.016677113
123	0x3b9d98c7	0.0048094722
124	0x393fa1dd	0.00018275478
125	0x3b8fc90e	0.0043879813
126	0xbc58f372	-0.013241636
127	0xbc2bd5b7	-0.010487965
128	0xbbaf893f	-0.005356937
129	0xb955fa90	-0.00020406605
130	0x3a35f0e0	0.0006940495
131	0x3a0ecca8	0.0005447366
132	0xbc3a4380	-0.011368632
133	0xbb9bfa78	-0.004760083
134	0xba0c9e2e	-0.0005364147
135	0xbc3e67a1	-0.011621387
136	0x3b0e3b88	0.0021702964
137	0xbbac11aa	-0.005251129
138	0xbaa9551c	-0.0012919041
139	0xbc0b5e16	-0.008506319
140	0x3c29e2b2	0.01036899
141	0x3b2e4bd5	0.0026595492
142	0x3a01777c	0.0004938764
143	0x3c0b3bd2	0.008498149
144	0x394844ed	0.00019099163
145	0xbc0c2820	-0.008554488
146	0x3be2db3f	0.006923109
147	0x3b6dad5b	0.0036266658
148	0xbbdcee9b	-0.006742311
149	0x3c66004c	0.014038157
150	0x3acb08a8	0.0015490251
151	0x3b1e7e2a	0.0024184086
152	0x3b266108	0.0025387425
153	0x3b0f827c	0.0021897843
154	0xbc34b450	-0.011029318
155	0x3c65cec2	0.014026346
156	0x3bab8956	0.0052348776
157	0xbbd3f8bb	-0.00646886
158	0x3c0d14d8	0.008610927
159	0xbc23713c	-0.009975728
160	0x3ba3fa05	0.00500417
161	0xbc04aada	-0.008097375
162	0xbc1cbc6d	-0.009566409
163	0xbbe8ad1a	-0.0071007134
164	0x3c3ae49b	0.011407043
165	0xbbbaa299	-0.0056956527
166	0x3b971730	0.0046109185
167	0xbbcf6606	-0.006329301
168	0x3aca1772	0.0015418364
169	0xbabd50d1	-0.0014443641
170	0xb8c7c238	-9.5252355e-05
171	0xbc3e248d	-0.011605394
172	0x3c15dc2e	0.009146733
173	0x3bb132b4	0.0054076556
174	0xbc0af181	-0.008480431
175	0x3b89a247	0.004200253
176	0x3b3475cf	0.002753604
177	0x3bc86052	0.006114998
178	0x3b38a256	0.0028172932
179	0xbc1243d1	-0.0089273015
180	0x3ae4a23c	0.0017443369
181	0x3b8987e8	0.0041971095
182	0xbba7650f	-0.0051084827
183	0x3b830ebf	0.0039995606
184	0x392e9ad9	0.00016651618
185	0x3a700816	0.00091564783
186	0xbb02922a	-0.0019923546
187	0x3b9ae515	0.0047270157
188	0xbc89673a	-0.016772855
189	0x3b208bb4	0.0024497332
190	0xbc1ac84a	-0.009447167
191	0xbbb26442	-0.0054440806
192	0x3b550f4b	0.0032510336
193	0x3a26eb91	0.00063674996
194	0xbb0425a4	-0.0020164037
195	0xbb3bf08a	-0.0028677308
196	0x3c3a94f9	0.011388057
197	0x3c17605b	0.0092392815
198	0x3c549666	0.012975311
199	0x3c5892fb	0.013218637
