flowsim/model/lstmcell_time_link.pt (torch, 493210 bytes, 4 tensors)

weight_ih f4 [600, 1]
000000 fd 3f 8a 3c bd d3 5a bd b6 01 7e bd 97 12 dd bc
       0.016876215 -0.053424586 -0.06201335 -0.026986403
000010 38 7b f0 3b 7e 39 37 3d 0b 9c 2c bd 9e 77 2f bd
       0.0073389076 0.044732563 -0.042141 -0.042838685
000020 e5 37 4a 3d 47 24 0b 3d d5 d8 38 3d c5 a4 f0 bc
       0.04936971 0.033970144 0.045128662 -0.029375443
000030 90 08 43 bd 28 2d 9d 3d 34 c2 c5 bd 03 db 40 bc
       -0.047615588 0.076746285 -0.09656182 -0.011770966
000040 c3 43 25 bd 92 b3 45 3d 04 19 1d bd 5f 1c 0f 3d
       -0.040347826 0.048266955 -0.038353935 0.034939166
000050 33 9e e3 bd 89 83 01 3d 5c a7 70 3d c8 35 66 3d
       -0.111141585 0.031619582 0.058753356 0.056203634
000060 9e 37 bc 3c b8 e5 7f bc 4e 2b 33 bd f7 00 e0 bd
       0.02297574 -0.015618734 -0.04374247 -0.10937684
000070 3e d2 8b bd d7 e2 1d 3d 30 79 12 3d ba 16 16 bd
       -0.0682721 0.03854641 0.035760105 -0.036642767
000080 e9 a9 ce bd f6 ff c1 bd aa 1c 19 bd 67 cb 60 3d
       -0.100910015 -0.09472649 -0.03738085 0.05488148
000090 1e c6 84 3d 90 59 b0 3d 18 92 69 bd 5f ad 88 bd
       0.064831 0.08610833 -0.05702409 -0.06673693
0000a0 ad d5 29 3d 97 fc b3 3c b8 c1 e7 bc c0 58 ed bd
       0.041463543 0.02197103 -0.028290614 -0.11589193
0000b0 e6 80 d5 bd 95 4c 18 be 22 0a 5f bd 19 c4 77 3d
       -0.10424976 -0.14872964 -0.054453023 0.060489748
0000c0 fc d4 94 bd 6c e2 35 bd e7 b0 13 3d 1f 51 2d bc
       -0.07267186 -0.044405386 0.03605738 -0.010578423
0000d0 bd ea 03 be 7f 07 b3 bd 01 60 6b 3d d2 1b 84 bc
       -0.12882514 -0.08741664 0.057464603 -0.016126547
0000e0 55 fa 92 3c 7f da da 3c ae eb 11 bd 81 ab 37 3d
       0.017941633 0.026715515 -0.035625152 0.044841293
0000f0 46 f1 bf bc 4c 08 53 bd 76 b6 47 3d db b3 0b bd
       -0.023430478 -0.051521584 0.048757993 -0.03410707
000100 7a 06 2b 3b c6 67 2e bd 57 96 f9 bd 41 50 6b bc
       0.002609639 -0.042579435 -0.12186878 -0.014362396
000110 50 9c bf bc d1 1a c6 bd 97 c5 68 3c f6 70 a9 bd
       -0.023389965 -0.096730836 0.014207265 -0.08273499
000120 fb 40 c8 3c 1c b8 43 39 71 d3 42 bd f0 c2 76 bc
       0.024445048 0.00018665235 -0.047564927 -0.015061125
000130 d5 de ef bc 32 85 5a bc 8d 8e 98 bd 88 0f 9e bc
       -0.02928106 -0.01333742 -0.074490644 -0.019294515
000140 24 5a f0 bd 04 78 0d 3c 57 34 13 3d 71 8b 59 3d
       -0.11735943 0.008634571 0.035938587 0.053111497
000150 f6 fc 7d bc 4b 1f b6 bc 60 93 9c bd ab fd e4 3c
       -0.015502205 -0.022231719 -0.07645297 0.02795299
000160 08 d1 de 3c 19 cf 07 bc be d1 32 3b 6d 78 06 3b
       0.027199283 -0.008289122 0.002728566 0.0020518557
000170 15 5d b7 ba 11 06 f5 3c f9 13 31 3d b7 ac 56 bd
       -0.0013989533 0.02991012 0.043231938 -0.052410807
000180 3b 10 14 3d 0b a3 87 3b 57 56 95 bb b5 7f 5a bd
       0.03614829 0.0041393093 -0.0045574117 -0.053344447
000190 7b b3 51 3c c1 f7 87 bd 16 2b b0 bc 97 9d c1 bc
       0.012799139 -0.06639052 -0.02150492 -0.023634715
0001a0 01 8a aa bd 2e 00 89 3d 71 5a 96 3b e9 5d 65 bd
       -0.083271034 0.066894874 0.004588418 -0.055997763
0001b0 6f 53 07 be 82 99 3d 3d 2e 09 7d 3d e8 36 48 bd
       -0.13215421 0.046288975 0.061776333 -0.048880488
0001c0 f1 80 a0 bd 09 8f d2 bd 5a a3 db 3c 61 1a 6c bc
       -0.078370936 -0.10281188 0.02681129 -0.014410586
0001d0 a8 10 9e 3c af 22 ea 3c 12 ca 49 bd 1e 5a 29 bd
       0.019295052 0.028580992 -0.049264975 -0.041345708
0001e0 77 71 20 3d e0 66 3d bd 78 03 51 3d c9 52 a8 bd
       0.03917071 -0.046240687 0.0510287 -0.08218915
0001f0 69 f8 9e bd 68 8f 8b bd 90 02 59 bd 92 b1 83 bc
       -0.07762224 -0.06814462 -0.05298096 -0.016075883
000200 bf b4 c3 bd ed 87 ef bd 66 d1 8b bd d2 6d 58 3b
       -0.09555959 -0.11695848 -0.06827049 0.0033024442
000210 ca 39 e5 3c f8 76 42 3d ac b1 2b bd 23 33 ed 3c
       0.027981658 0.04747674 -0.041917488 0.028955048
000220 08 c3 a6 bd 20 b2 0a 3d a7 5c e2 bd 29 e7 43 3d
       -0.08142668 0.03386128 -0.11052828 0.047827873
000230 b7 61 01 be 58 86 4e 3d d1 8f 4f bd e5 42 24 3d
       -0.12634932 0.05042109 -0.050674263 0.040102858
000240 ec 67 bb 3c f2 6c a9 3d ed 3b b5 3d 03 e3 ca bd
       0.022876702 0.08272733 0.088493206 -0.0990658
000250 11 b7 7e 3d 7b 68 fe bc a0 fb b5 3c a5 36 f3 bc
       0.062186304 -0.03105568 0.02221471 -0.029689142
000260 7f 64 36 3c a1 cf 0a bc 39 c5 54 bd 8b f6 8f 3d
       0.011132359 -0.008472354 -0.0519459 0.07029446
000270 b7 f3 c3 bd 3d c6 f2 3c 70 9b a0 3c 53 8a c6 3d
       -0.09567969 0.029635543 0.019605368 0.09694352
000280 15 96 14 be 6a ac c2 bd 0a 10 27 bb de f3 15 be
       -0.14510377 -0.095055416 -0.0025491738 -0.14643809
000290 81 21 da bd 02 5c df 3c 57 8a 87 bb dd 66 a7 ba
       -0.106509216 0.027265552 -0.0041363644 -0.0012771745
0002a0 a4 6b 3f bb c6 17 09 be 33 f1 58 3d 51 cb aa 3d
       -0.0029208446 -0.13387975 0.0529644 0.08339561
0002b0 c6 9e c8 3b 24 73 b7 bc 75 ce 62 3c ff 4b a1 3d
       0.006122443 -0.02239377 0.0138431685 0.07875823
0002c0 c1 63 38 3d 44 1e 82 3c 76 3a 7d 3d 33 a5 4d bd
       0.045017008 0.015883572 0.06182333 -0.050206374
0002d0 4e 4a 08 be 61 54 25 bc ca 7f ab 3c ea e3 6c 3d
       -0.13309595 -0.010090918 0.020934958 0.057834543
0002e0 95 eb 1a bd b4 86 02 be c7 75 31 3d 0a bb 4b 3d
       -0.037822325 -0.12746698 0.04332521 0.04973892
0002f0 21 0c 27 3d df 6b 9d bd 4f da 74 bd fb 5a 3b 3d
       0.04078305 -0.076865904 -0.059778508 0.045741063
000300 12 14 2f 3d 77 b1 90 3d f5 e9 22 3d b8 50 80 bd
       0.04274375 0.07065099 0.0397739 -0.06265396
000310 c3 24 54 bd 6e 21 c4 3b e0 cb 52 bd f6 db 61 bb
       -0.05179287 0.0059854304 -0.05146396 -0.0034463382
000320 6a b3 35 3c 27 83 3d bb 90 5e 77 3b 27 37 8b 3b
       0.011090139 -0.0028917284 0.0037745573 0.004248518
000330 38 bc 31 3d 7d 17 d3 bc e0 6c 06 bc 0d be 01 bd
       0.04339239 -0.025768036 -0.008204669 -0.031675387
000340 23 c0 26 3b 73 68 d2 3d ba a2 af 3c 95 24 4a bd
       0.0025444112 0.10273828 0.021439899 -0.049351294
000350 7b c5 99 3d 11 76 cc bc 24 1b 80 bc fb 10 59 3c
       0.075083695 -0.024958642 -0.015637942 0.013248677
000360 ea ff e5 bc 7c 8e 92 bc 0e 0b 8e bd bb 92 b4 bc
       -0.02807613 -0.017890207 -0.06935702 -0.022042623
000370 47 ca 83 3d 0f c0 4f b9 2b a7 d2 bd 66 d8 2d 3d
       0.06435066 -0.00019812606 -0.10285791 0.0424427
000380 49 42 8a bd 14 60 1d 3d a3 0c 5e 3d c4 1f 4e 3d
       -0.06750924 0.038421705 0.05421127 0.050323263
000390 0c 81 8b bb 2d 7b 58 bd 36 9c 99 3d 28 51 39 3d
       -0.004257327 -0.052851845 0.07500498 0.045243412
0003a0 71 03 c6 bd 24 3d a0 bc 2e 3c 26 bb ab 46 71 bc
       -0.09668625 -0.019560404 -0.002536546 -0.014726321
0003b0 46 50 2b bd d7 fa b7 bd 8f 6a b9 3c ea f3 b7 3c
       -0.0418246 -0.08983391 0.022633819 0.022455174
0003c0 72 34 7a 3d 6c 91 8c bd ca 0c 67 bd 83 59 11 bd
       0.061085172 -0.068636745 -0.05640868 -0.035485756
0003d0 c9 e3 87 3d f2 c7 81 3d 48 64 ad 3d ce b9 91 bd
       0.066352434 0.06336965 0.08466393 -0.071155176
0003e0 1c ac 9f 3d 65 94 69 3d 06 a6 fc 3c 6d 34 bc ba
       0.07796499 0.057026286 0.030840885 -0.0014358886
0003f0 e3 04 1b 3d da 6b a7 3c 5e a8 c3 3d a2 4a 02 3c
       0.037846457 0.02043717 0.09553598 0.007952364

weight_hh f4 [600, 200]
000000 53 61 1d bd 13 25 d4 bd 98 79 41 bd a4 ca 82 bc
       -0.038422894 -0.10358634 -0.0472351 -0.015965767
000010 36 3c f8 bc 05 03 40 3c c6 64 61 3d 0d 56 e7 3c
       -0.030302148 0.01171947 0.055027746 0.028239274
000020 47 ae 2a bd d1 de 73 3c a9 16 bc 3c 69 c8 0a bc
       -0.04167011 0.014884667 0.022960024 -0.008470633
000030 a2 5a cd bd 5d 1c 90 bd a0 d9 bb 3c eb e6 ad 3d
       -0.100270525 -0.0703666 0.02293092 0.0849131
000040 92 83 99 3d 1c b3 05 bd 9a ff 80 bc 61 92 1a bd
       0.07495798 -0.032641515 -0.01574688 -0.037737254
000050 c6 6b 61 bd 36 b1 06 3d 4d 77 53 3c 5d 03 bf 3c
       -0.05503442 0.032883845 0.0129068615 0.023317033
000060 4e 1f 82 3c 8e dd b2 3d 36 50 1f 39 29 c8 7a 3d
       0.015884068 0.087336645 0.00015193303 0.061226044
000070 b8 e7 46 bd 3f 1d fa bc 04 c5 d7 3c fd cf 66 3d
       -0.048560828 -0.030531524 0.026339062 0.056350697
000080 5c 8a c6 bd ef 3c 0f 3d 2b f2 2b 3d 54 27 0f bd
       -0.09694359 0.03497022 0.041978996 -0.034949616
000090 e4 8b 82 3d 9f 0b 6c bc 4d e6 51 3c 4a 3b 9f 3d
       0.06374338 -0.014407068 0.012811256 0.0777498
0000a0 4b 8c 80 bd 7d 48 c2 bd d3 66 5b bd 13 4c cf bd
       -0.06276759 -0.09486482 -0.053564858 -0.10121932
0000b0 e2 75 6b 3d 34 88 8c bd cd b8 47 3d b4 82 de bc
       0.05748547 -0.06861916 0.048760224 -0.027161933
0000c0 ea 70 de 3b b9 76 10 3b 0b 0c 67 3d 62 4b b5 3d
       0.0067883627 0.002204342 0.05640797 0.08852269
0000d0 39 fe 9e bc 1b ef 92 3d e7 8a 14 3d f3 f0 1d bd
       -0.019408332 0.07174512 0.03626528 -0.038559865
0000e0 15 16 6e 3d b4 34 f3 bc e7 95 a7 bc fc fd f0 bb
       0.058126528 -0.029688217 -0.020457221 -0.007354496
0000f0 33 1f 50 3d 06 7b 2e 3b 3e ac 49 3d 9b a2 cc 3c
       0.050811004 0.002662362 0.04923653 0.02497988
000100 02 6a 76 bd e6 64 a7 3d 22 b0 97 3d ef a9 0e 3d
       -0.06015969 0.08173542 0.074066415 0.03483003
000110 19 e2 f8 bc b6 3d b6 3c 8d 6b be bc f5 ef 6f bd
       -0.03038125 0.022246223 -0.023244644 -0.05857845
000120 7e 7f 18 3c 9e b4 1f 3c 45 d9 f7 3b 17 93 99 3d
       0.00930774 0.009747652 0.0075637423 0.07498758
000130 23 75 dc 3d 8e 95 31 ba bf 73 50 bc b1 6d ae 3d
       0.107645296 -0.00067742995 -0.0127229085 0.08517016
000140 36 a2 8d 3c 01 63 5c bd 77 cf 89 3d d6 4f 3e 3c
       0.017289262 -0.053805355 0.06729024 0.011615714
000150 cc ec a5 bd 51 40 48 3d d7 3c 28 3d 20 d9 3c bd
       -0.08101806 0.048889462 0.041073646 -0.046105504
000160 08 9f dd 39 2f fc 48 3c 8e 15 cc bd 6a bb af bc
       0.00042270892 0.0122671565 -0.09965049 -0.02145167
000170 9b bd 38 3d 21 31 42 bd a8 8d 32 3c 1c ac 18 3d
       0.045102697 -0.047410134 0.010898031 0.03727351
000180 d9 dc 8e bd ee df 6d 3d 30 8d 45 bd 96 34 4b 3d
       -0.06975717 0.058074884 -0.04823035 0.049610697
000190 e2 5a f7 bb f1 63 7d bd 03 eb 1d 3d 5a b9 51 bd
       -0.007548676 -0.06186289 0.038554203 -0.051202156
0001a0 d2 07 88 bc bd 46 c8 3b 53 85 c9 bc ec 90 a3 3d
       -0.016605292 0.0061119483 -0.024599707 0.07986626
0001b0 b9 e6 ab bd 92 63 5f 3c 20 3a a2 bb 64 34 44 bd
       -0.08393616 0.013634579 -0.0049507767 -0.047901526
0001c0 fc 2d 64 bc c6 39 d4 3b 19 03 b1 bc 3c 0e 95 bc
       -0.013926979 0.0064766137 -0.021607922 -0.018195264
0001d0 03 05 8e bc 32 16 02 3d db bc 95 3d ad d8 96 bd
       -0.017336374 0.03175945 0.07311412 -0.073655464
0001e0 a3 3c 13 3b 66 f7 58 3d ce db 1f 3b ce 58 19 3c
       0.0022466562 0.052970313 0.0024392488 0.009359552
0001f0 8f ae 3c bd 69 01 74 3d ee 61 9d 3b 5c 81 4d 3d
       -0.04606491 0.059571657 0.004802934 0.050172195
000200 1f eb 10 3c 90 a7 fe 3c 52 44 c9 bc 78 63 ca bb
       0.00884512 0.03108576 -0.02456871 -0.0061764084
000210 0a fa 83 bd e8 7b c8 3c 99 1e 52 bc da 75 0f 3d
       -0.064441755 0.024473146 -0.012824678 0.0350245
000220 0a d0 45 bd ce 89 33 3c 1e 26 27 bc 29 85 e5 3c
       -0.048294105 0.010958148 -0.010201959 0.028017597
000230 aa 4b 6b bb de aa 1e bd 92 e8 97 bd d3 17 06 bd
       -0.0035903254 -0.03873717 -0.07417406 -0.032737564
000240 13 c9 12 3d c8 2a 9f 3c 76 83 9b 3c 4b 69 45 bd
       0.03583629 0.01942958 0.018983584 -0.04819612
000250 e7 54 9f 3d ff 06 49 3d 19 0e 2e 3b c6 95 0a bd
       0.07779866 0.049078938 0.0026558696 -0.03383424
000260 c1 43 0f bb 6c f7 a4 bc d3 54 2d 3d bb c2 3a bd
       -0.0021860453 -0.020137511 0.042317223 -0.045595866
000270 0f f3 50 bd 90 72 56 bd 73 c8 4f 3d 64 3f 18 bd
       -0.05101305 -0.05235535 0.050728273 -0.03716983
000280 f5 c1 f9 bb 79 7f 84 bd 20 40 e2 3c 98 99 a5 3b
       -0.0076219984 -0.06469626 0.027618468 0.00505371
000290 c8 1f 06 3d 23 5d db 3c e5 8b 02 3d 49 dc f0 bc
       0.032745153 0.02677781 0.031871695 -0.029401915
0002a0 de ad 69 3d b5 d6 9e 38 80 47 46 bd 06 08 50 bd
       0.05705058 7.5740194e-05 -0.04840803 -0.0507889
0002b0 15 60 bd bd d0 a1 f5 bd ae 91 c1 bd 0f c0 b4 bd
       -0.09246842 -0.11993754 -0.09451614 -0.08825695
0002c0 29 e0 34 bd d6 31 95 3d 1a 6f 33 bd 8a c2 40 ba
       -0.04415909 0.07284896 -0.043807127 -0.00073532073
0002d0 bb 7e c6 3d e4 4e 5d 3c a8 3a 19 3d 41 49 42 3d
       0.09692141 0.0135075785 0.037409455 0.04743314
0002e0 1f 5d 45 bc d4 cf 8c 3d 10 56 c7 bc 73 3a 17 3d
       -0.012046128 0.068755776 -0.02433303 0.036920976
0002f0 3d 25 9f bc 21 f3 8d ba bf 7c b0 bd 21 c7 b7 3d
       -0.019426936 -0.0010829904 -0.086175434 0.08973528
000300 46 80 5f bb 5c d0 96 bc 68 9a da bd ac 08 92 bd
       -0.0034103557 -0.0184099 -0.10673982 -0.0713056
000310 5e 5a 5e 3d 26 84 aa bc 44 47 46 3d cd a4 8d 3d
       0.0542854 -0.020814966 0.048407808 0.06916199
000320 d5 91 ae bd 9a 75 f8 bc 06 f6 e8 bc 7a 39 25 bd
       -0.08523909 -0.030329514 -0.028437626 -0.040338017
000330 ec fa 90 bd 7a 21 01 bd cb da b2 3c 0a 56 ef 3c
       -0.070791095 -0.031526066 0.021832844 0.029215831
000340 ec 6a 00 bd f6 c4 41 3d 64 42 1a bd 7b 37 09 3d
       -0.03135197 0.047306977 -0.03766097 0.033500176
000350 15 c5 76 ba 67 9e 2e 3d 77 d7 a6 3d 8c f3 f8 bc
       -0.0009413523 0.042631533 0.081465654 -0.03038957
000360 c2 31 98 3d 76 99 5f bc 90 ce 2e bd 5d a8 d9 bc
       0.074313655 -0.013647428 -0.042677462 -0.02656954
000370 d0 42 f5 bc 9a ad 74 bd 75 f9 73 3d 4b ca a7 bc
       -0.029939085 -0.05973587 0.059564073 -0.020482203
000380 54 b8 8d 3d 04 fc 2b bd 65 c1 2f bd 15 18 49 3d
       0.069199234 -0.041988388 -0.042909045 0.049095232
000390 67 52 95 3d 08 27 80 bc 4a f9 1c 3c b8 43 33 3c
       0.072911076 -0.015643612 0.0095809195 0.010941438
0003a0 7f 48 d1 3c bf f9 b1 3c 98 52 85 bd 7d 17 e1 3c
       0.025547264 0.021725534 -0.06509894 0.02747702
0003b0 52 6f ef bc fd 89 c1 3d 7d 9d 5f 3d a2 9a 76 bd
       -0.029227886 0.09450147 0.054593552 -0.060206063
0003c0 ed d9 fa bb a2 02 f9 bc ff bd 01 3d b0 c8 46 bd
       -0.0076553733 -0.030396763 0.031675335 -0.048531234
0003d0 67 0c 88 3c 9e 58 6a 3d 81 4b e6 3c cf 17 8b bc
       0.016607476 0.05721342 0.028112175 -0.016979126
0003e0 c3 1a d5 bc 29 a1 48 3c 83 c9 b8 bc 2d ba 03 3d
       -0.026013738 0.012245455 -0.022557026 0.032159973
0003f0 c0 20 b5 3c e8 c3 92 3d 9a c5 4b bd 07 14 9a 3d
       0.022110343 0.071662724 -0.049748994 0.07523351

bias_ih f4 [600]
000000 ce 29 bf 3c 7d 71 aa ba d5 7e e7 3c 2c 61 e3 bc
       0.023335364 -0.0013003793 0.02825872 -0.027756296
000010 ea e6 29 ba 26 be bb 3c c7 b4 5a 3c fd 61 50 bd
       -0.0006481247 0.022917818 0.013348765 -0.0508747
000020 d2 87 68 bd 98 2f bc 3c 8d 62 58 3c 37 09 8e bc
       -0.056770153 0.022971913 0.01320709 -0.017338378
000030 4c da a0 3d fb 32 e8 bc 4a 33 be bb 1f 30 0f bd
       0.07854137 -0.028344622 -0.005804454 -0.034958
000040 a5 9e 3a 3d 22 b1 3e 3d 08 37 b5 bc d5 d6 33 bd
       0.04556145 0.046555646 -0.022120968 -0.04390605
000050 60 88 63 bd 29 a3 ce bc af e4 ea 3b 59 8d d8 3c
       -0.05554998 -0.025224285 0.0071683745 0.026434587
000060 1f d7 94 3b a5 b5 9b bd 7f 08 ad bc a4 94 16 bd
       0.004542246 -0.07603005 -0.021122215 -0.03676285
000070 19 30 c0 bc 62 cc ca 3b bb 42 43 3b 87 19 39 3d
       -0.023460435 0.006188915 0.0029794413 0.04519036
000080 6b bd c8 3c 90 df 98 bd 72 58 bb bd 02 f2 19 bd
       0.024504384 -0.07464516 -0.09147729 -0.037584312
000090 b1 f2 b9 3c fc 9b 29 3d 7b 7c 27 bd 6b eb e1 bb
       0.022698732 0.041408524 -0.0408902 -0.006894519
0000a0 71 5f cd bb bf 05 af 3c 67 a2 a8 bc 6a fe 31 bd
       -0.006267481 0.021365045 -0.020585252 -0.04345552
0000b0 c9 f2 83 bd 9d 9e 6b bd cf 35 8d bd dd f6 5d 3d
       -0.06442792 -0.057524312 -0.06895029 0.054190505
0000c0 2a e1 aa 3c 9f d0 2a bc f3 d5 4e 3d 78 ab 46 3d
       0.02085932 -0.010425716 0.050497007 0.04850337
0000d0 0d 43 9d 3c 6b 52 98 bd 23 1b ad 3c 55 98 8b 3d
       0.019197011 -0.07437595 0.021131104 0.068161644
0000e0 52 bb b9 3b 11 71 3a bd ff 41 9b bd fe a6 32 3d
       0.0056680823 -0.045517985 -0.07580947 0.043616287
0000f0 55 38 38 bc cc 85 a9 bc 28 57 00 bd 33 48 9c bd
       -0.011243899 -0.020693682 -0.03133312 -0.076309584
000100 ae b6 93 3c d6 26 3c bb f1 6b f5 bc b7 fa 7d bd
       0.018031444 -0.0028709671 -0.029958697 -0.06200668
000110 5c 71 41 bd b5 e4 39 bd 8c ac 1a bd eb a2 30 bb
       -0.04722725 -0.045384128 -0.03776221 -0.0026952575
000120 e2 ce 62 3d c5 f7 20 3c 16 54 c3 bd a6 7c d2 bb
       0.05537308 0.009824698 -0.095375225 -0.0064235507
000130 24 e0 bc b8 58 0f 1b bc 8b 65 05 bd a9 44 3e bd
       -9.006288e-05 -0.009464107 -0.032567542 -0.0464522
000140 31 da 87 bd 43 14 3d bd c6 29 1b bc f4 71 6a bc
       -0.066334136 -0.0461619 -0.009470409 -0.014309395
000150 60 0f 9f bd 74 6f 9c bc 5d 72 40 bc a2 18 cc bc
       -0.077666044 -0.019096114 -0.011746016 -0.02491409
000160 92 b3 29 3d 94 23 59 bd 69 52 15 bc fb 97 0b 3d
       0.041431017 -0.053012446 -0.009113886 0.034080487
000170 95 82 fc bc 03 50 39 bd 2e c3 f1 bc 79 cd 17 bd
       -0.030823985 -0.04524232 -0.029512014 -0.03706119
000180 c7 ac 09 3d 50 14 6a 3d d4 e2 8a bc da 50 27 3d
       0.03361204 0.057148278 -0.016953863 0.04084859
000190 c8 1b 0d 3d c4 1e 6d bd f6 52 52 bd 7d f3 88 bd
       0.034450322 -0.05789067 -0.05134865 -0.06687067
0001a0 5a b4 a0 bc 98 0b 74 3d 0d 93 5b bd 3e 5c 91 3c
       -0.019617248 0.05958137 -0.053607035 0.01774418
0001b0 18 7b 65 bd 76 b5 4c bb 00 91 45 bd dc 64 6a bd
       -0.056025594 -0.0031236089 -0.048233986 -0.057225093
0001c0 3b 5c 81 bd 81 f5 8e bb 6f ef 18 bd e6 a2 71 bd
       -0.0631642 -0.0043627624 -0.037337717 -0.058993243
0001d0 ff 58 3a bc 8e 4b 22 bd 48 71 01 bd c4 11 d1 3a
       -0.011373757 -0.039622836 -0.031602174 0.0015950729
0001e0 c2 b8 26 3d 5d 57 8f bd ee d0 8a bc 48 d2 50 3d
       0.040703543 -0.06999085 -0.016945329 0.05098179
0001f0 46 20 97 3c c9 aa 0e bd 7b e3 ed 3c c8 b0 d0 bc
       0.018448006 -0.034830842 0.029039135 -0.02547492
000200 e5 88 88 bd c4 e9 42 bd ed ef 8e bc 38 05 21 bd
       -0.066667356 -0.047586218 -0.01744839 -0.039311618
000210 cf fb 0c 3d aa 07 6e bd de c5 cc 3c e8 7b a9 3b
       0.03441983 -0.058112778 0.024996694 0.0051722415
000220 83 2d 16 bd 2f 03 6d 3d bc 2e 15 bc 7d 55 c9 3c
       -0.036664497 0.057864364 -0.009105381 0.024576897
000230 61 93 a6 bc 96 9b 12 bd 28 ff 11 3d 04 0a 1f bb
       -0.020333948 -0.03579291 0.035643727 -0.0024267444
000240 fd 6e 72 3d 51 46 21 bc 89 5d 33 3d dd a8 b7 bc
       0.059187878 -0.009843425 0.043790374 -0.022419387
000250 fe 18 7e bc 18 31 a7 3c 16 31 76 bd 77 3f 1a bd
       -0.015508888 0.020409152 -0.060105406 -0.03765818
000260 86 f3 9b 3c 7b c8 02 bd 1b 00 2e 3d de 7b 5d 3d
       0.01903702 -0.031929474 0.04248057 0.054073207
000270 3a 2b 81 3d 49 a2 e3 bc 63 cb 7a bd 47 95 5b 3c
       0.06307073 -0.027787345 -0.06122912 0.01340229
000280 1e c9 9e bd 67 91 36 3d ab fe 40 3d 86 a5 51 bd
       -0.07753204 0.04457226 0.04711787 -0.051183246
000290 f0 de a6 3c c5 78 24 3d 68 b5 70 3d 40 19 09 3d
       0.020369977 0.040154237 0.058766752 0.033471346
0002a0 91 c4 10 3d ec 7e bc ba b0 11 bc 3c 29 8c 99 bd
       0.03534371 -0.0014381087 0.022957653 -0.074974366
0002b0 69 ce 8c bd e2 22 ba bd e0 7d 22 3d 74 54 8f 3c
       -0.06875307 -0.090886846 0.039670825 0.017496325
0002c0 c8 76 9d bb 55 a3 d2 3c b0 bb 7c 3d c1 14 0d bc
       -0.0048054196 0.025712648 0.06170243 -0.008610905
0002d0 88 53 39 bd 52 c0 11 bb b3 cd 2d 3d 08 72 d2 3c
       -0.045245677 -0.0022239876 0.0424325 0.02568914
0002e0 d0 b2 bf bc 52 b3 6d bd a6 a8 57 3d 8d 63 56 3d
       -0.023400694 -0.05803234 0.05265107 0.052341033
0002f0 36 f0 49 3c b3 d6 08 3c 2b ce 1c bd 6b bc a1 bd
       0.012325337 0.0083519695 -0.038282555 -0.07897266
000300 af 90 46 3d 86 c1 b6 bd 80 9d b3 3b e1 7d 32 3d
       0.048477825 -0.089236304 0.005481422 0.04357708
000310 b9 0d 12 3c 5d 8b ae 3b 18 fb 6c 3c de 03 3a 3d
       0.008914405 0.005326672 0.014464162 0.045413844
000320 3d 5e 55 3d cf 10 78 3c 30 b6 69 3d 91 8a 4c bd
       0.052091826 0.015140726 0.057058513 -0.049936835
000330 d8 be 74 bd 07 48 09 bd 39 47 16 3c ed 7a 77 3d
       -0.059752315 -0.033515956 0.009172254 0.060419966
000340 a8 ab da 3c 80 a8 99 bc 02 c0 58 3d 7e 74 46 3d
       0.02669318 -0.018757105 0.052917488 0.04845094
000350 11 2b de bc 54 f3 ce 3b 59 f5 8c 3d 77 f1 10 3d
       -0.027120145 0.006315628 0.06882734 0.03538653
000360 ef a3 8c bd 2e ce bd bc 18 7a db bc 6b 16 a2 bc
       -0.06867205 -0.023169603 -0.026791617 -0.01978608
000370 b7 60 2b 3d 1b 54 32 bc aa 82 63 3d 1e fe a3 bc
       0.04184028 -0.01088431 0.055544533 -0.020018633
000380 e6 50 1c bd 9c df a1 3d 6c 07 00 bd d8 35 f3 3c
       -0.03816309 0.07903978 -0.031257078 0.02968876
000390 2c 45 56 3d 47 2c 8e 3d 23 84 1f bd 78 0f 9b bd
       0.05231206 0.06942039 -0.038944375 -0.0757131
0003a0 4f 7b 86 bd c3 ae 6a bb b3 51 91 bd a4 a2 14 bd
       -0.06566488 -0.0035809733 -0.07095661 -0.03628792
0003b0 fb d8 b0 3c 32 92 96 3a 92 62 cc bc a1 d2 8c bc
       0.02158784 0.0011487661 -0.024949346 -0.01719028
0003c0 ae 4c 1b bd 90 71 9c 3c 41 ea 5d 3d d6 69 2b 3d
       -0.037914924 0.01909712 0.05417848 0.04184898
0003d0 f0 bd 7e 3c 3d ec 0e bd e1 7c 18 3d 33 64 52 3c
       0.015548214 -0.034893263 0.03722847 0.012841272
0003e0 1e f0 83 bd 05 bb c0 3c 36 c0 cf bc 85 c3 5c bd
       -0.06442283 0.023526678 -0.025360208 -0.0538974
0003f0 be 23 ab 3b a4 ee f3 bc be f3 00 3d db ce 45 3d
       0.0052227667 -0.029776879 0.03148245 0.048292976

bias_hh f4 [600]
000000 e8 a8 87 bd 34 ec 11 3d 7f 3e 02 bd d0 23 8d 3d
       -0.06624013 0.03562565 -0.031797882 0.06891596
000010 96 58 a3 bc c9 12 ab bb 9c 9c e9 3c 05 67 c9 bd
       -0.019939702 -0.005220745 0.02851706 -0.098341025
000020 49 31 8c bd e4 0c 82 3c 70 28 2b bd 05 4c 75 bd
       -0.06845338 0.015875287 -0.04178661 -0.05988695
000030 f6 77 39 bd c1 ff 1f 3d 32 58 1e bd 05 ce c2 bd
       -0.04528042 0.039062265 -0.03865833 -0.09511951
000040 22 5b 1d bc b2 6e be bc 7f 9c 22 3d 1a b5 5e bd
       -0.009604247 -0.023246143 0.039700028 -0.05437193
000050 09 9b bb 3c 3d 0c 84 bc ef 49 18 3d 13 92 c0 bc
       0.022901075 -0.016119117 0.037179884 -0.023507154
000060 c3 61 1d bd db 47 0c bd 6f 18 8b 3a 54 1c a1 bd
       -0.03842331 -0.034248214 0.001061214 -0.07866731
000070 b1 d8 c0 ba 08 58 84 3d ad 5e 39 bd 82 9b 38 bd
       -0.0014713017 0.06462103 -0.045256305 -0.04507018
000080 e9 ff 2f bd 87 14 17 3d d1 9a 3b 3d c2 34 11 3d
       -0.042968664 0.03688481 0.04580194 0.035450704
000090 27 be 59 bd 80 be 3a bd 36 9d 5d bd 35 19 49 3d
       -0.05315986 -0.04559183 -0.054105006 0.049096305
0000a0 98 c7 b3 3c cc 66 ea bc cd 55 51 3a 3a a7 9f bd
       0.02194576 -0.02861347 0.00079855026 -0.07795568
0000b0 72 45 4c bd e8 8c 3e bc 3a e7 9c bd bb 0a 5f 3d
       -0.049870916 -0.011630274 -0.076612905 0.054453593
0000c0 38 a3 93 bd e7 4c 33 3d 4d 38 5b bd 90 3c 85 3b
       -0.07208866 0.04377451 -0.05352049 0.0040660575
0000d0 e4 20 77 bd c6 ec ea 3a 4d b8 57 bd e7 ec 32 3d
       -0.0603341 0.0017923347 -0.052665997 0.04368296
0000e0 e4 48 10 bd cc 09 53 3d dd 6d fc 3c df 0d 3e bd
       -0.035225764 0.051523015 0.030814106 -0.046399947
0000f0 40 67 e8 bc 42 a7 96 3c 16 e6 1c 3d 20 61 88 bd
       -0.028369546 0.018390302 0.038305365 -0.0665915
000100 97 e0 07 3d ad 47 d5 bb cb f4 de 3c 63 5f 93 bc
       0.03317317 -0.0065087886 0.027216336 -0.01798982
000110 cb c5 10 3d 61 2a 8d 3c 18 19 80 3d 06 23 4e 3d
       0.03534488 0.017232122 0.06254786 0.05032637
000120 40 67 36 bd d7 3f 9d 3c 02 bf a5 bb 53 c2 b1 3c
       -0.04453206 0.01919548 -0.0050581703 0.021699106
000130 21 62 99 3c a3 7a a0 bd 90 b8 a4 bd a8 3f 24 3d
       0.01872355 -0.07835891 -0.08043015 0.04009977
000140 38 cc de bc 00 cc dc 3b d7 ff fe bc 17 a4 30 3c
       -0.027196988 0.006738186 -0.031127853 0.01078131
000150 6a a7 b1 bb 97 ea 83 bd 1a 44 a1 bc 0b f4 8d 3b
       -0.0054215686 -0.06441229 -0.019685794 0.0043320707
000160 f9 f6 f3 3c e3 54 07 bd 8f 21 1c 3d 77 b5 bc 3c
       0.029780852 -0.03303994 0.03811794 0.023035748
000170 7b d5 4f 3d 0d 48 8f bd 3c 80 c8 bc e2 33 95 bb
       0.0507407 -0.069961645 -0.02447521 -0.004553304
000180 b3 c4 71 3d aa 9d 81 bd 8e 9e 2b 3d e2 a8 9d bb
       0.059025478 -0.063289 0.041899256 -0.004811392
000190 29 b5 3a 3d 2f 3a 88 3d 32 55 77 bd c9 2c 88 3d
       0.045582924 0.06651723 -0.060383983 0.06649167
0001a0 29 9d e0 3c 13 c1 75 bd b8 4d ae 3c d7 1f 2e bd
       0.02741869 -0.059998583 0.021277294 -0.042510834
0001b0 26 a7 42 bd 5d b7 ea bc e5 f7 7c 3b 2b 69 9a bd
       -0.047522686 -0.028651888 0.0038599905 -0.075395904
0001c0 ec 0c 95 bc b1 da fc bb e0 8e 22 bc 86 c7 b8 bc
       -0.018194638 -0.0077164997 -0.009921759 -0.022556078
0001d0 2f 39 3e 3c ea 3b 97 bb 3f 37 67 bd 13 ed 6b 3c
       0.011610313 -0.0046152966 -0.05644917 0.014399785
0001e0 54 d8 90 bd 9c 90 9e bc 34 34 2f 3d d8 77 35 3d
       -0.07072511 -0.019356064 0.042774394 0.044303745
0001f0 eb 67 31 bd 36 92 8a 3c 57 7a 1e 3d 76 2c 85 bc
       -0.043311995 0.016915422 0.03869089 -0.016256552
000200 3f 2b 1a bd 2e 4f 27 bb 73 e4 27 b8 b9 ae 3b 3c
       -0.0376389 -0.0025529373 -4.0028663e-05 0.011455231
000210 b4 30 46 bc 62 ef 2a 3d 85 e5 86 3d b9 04 80 bd
       -0.012096573 0.0417322 0.06586746 -0.06250901
000220 93 78 46 bd 84 82 21 bd b9 25 dd bc 4f 6e 55 3c
       -0.048454832 -0.03943111 -0.026995527 0.013026788
000230 d1 b9 c2 3c f8 65 50 bd 6b 9d 65 3d 14 d1 0c bd
       0.023770245 -0.050878495 0.05605833 -0.03437908
000240 08 49 11 3d 6b a3 43 3c b9 e9 64 bc 3b 24 1d bc
       0.03547004 0.011940817 -0.013971739 -0.009591158
000250 1d e1 03 3d ec 8c 05 3d f1 0f 07 bd 30 c7 8f bc
       0.032197107 0.032605097 -0.032974187 -0.017551035
000260 8c ef 32 bd 0d fe ee bc 94 40 d4 3b c1 4a a2 bc
       -0.04368548 -0.029173875 0.006477425 -0.019811036
000270 4b 27 89 bd 37 7f f2 3c 82 e8 1f 3d 23 98 90 3c
       -0.06696948 0.029601676 0.039040096 0.01765067
000280 01 e4 74 bd 30 d9 c7 bc d1 52 3d bd 94 3e a1 bc
       -0.059787754 -0.024395555 -0.046221558 -0.01968316
000290 92 97 29 bd 00 fc 59 3d 0a 5e 58 3d 55 f9 78 bd
       -0.041404314 0.05321884 0.052824058 -0.060784657
0002a0 d8 8a b4 bc 27 22 91 38 e2 fa 9b 3c ec 0b 76 bd
       -0.022038862 6.9205e-05 0.019040529 -0.060069963
0002b0 db ac 17 3d 1c 1f bc bd c1 57 fe bc b8 cf 44 bd
       0.037030082 -0.09185621 -0.031047704 -0.04804966
0002c0 c3 fa 2a bd 45 cc 13 bd 54 c5 e7 3c 05 80 2f 3d
       -0.04174305 -0.03608348 0.028292336 0.0428467
0002d0 e5 18 32 3d 24 b3 ef 3c 5e f1 a0 3d b4 4c ea 3c
       0.043480773 0.029260226 0.07858537 0.028601028
0002e0 60 b2 15 bd da 31 6b 3d 48 24 31 bd e5 ad c9 bc
       -0.036547065 0.05742059 -0.04324749 -0.024619052
0002f0 3a a5 17 bd 5a 0e 97 bc af 97 2a 3d cd f1 f8 bb
       -0.037022807 -0.01843946 0.041648563 -0.0075971843
000300 8d a9 10 bd 33 63 2e bb 9c 0d 59 3a ff 23 d1 bc
       -0.035317946 -0.002660942 0.0008279921 -0.02552986
000310 56 a3 52 bd d2 14 aa 3d cd a9 03 3d e5 db 27 bc
       -0.0514253 0.083047524 0.032144357 -0.010245298
000320 8c 44 0b bc 56 cb b6 3b 33 88 9f 3b aa 2a f6 3c
       -0.00850023 0.0055784388 0.004868531 0.03004964
000330 6c 2b c1 3c e4 4c fc ba 4f 6f 02 bc ed 11 ea 3c
       0.023580275 -0.0019248989 -0.007961108 0.028573
000340 55 5a 8c bb 52 3c 71 3d a2 2f 37 3d a1 1c 3f bc
       -0.0042832294 0.058895417 0.04472316 -0.0116645405
000350 a6 83 38 3d 3b 85 e4 3b aa cf 56 bd 2c bf 8e 3d
       0.045047425 0.00697389 -0.052444138 0.06970057
000360 23 cb 32 bc ba 4e 06 bd 14 5e 56 bd 3e 5f e4 bb
       -0.010912689 -0.032789923 -0.052335814 -0.0069693616
000370 14 f6 9c bc 7f 92 53 bc 84 40 29 3c 09 3c c8 bc
       -0.019160308 -0.012913345 0.010330323 -0.02444269
000380 49 d7 3f 3d 03 15 65 bb f0 b9 01 bd 06 d3 cf bc
       0.04683617 -0.003495515 -0.031671464 -0.025369179
000390 a7 b6 c8 bc 16 2b 00 3d da 0b 84 bd e4 55 8b bd
       -0.024501158 0.03129109 -0.06447573 -0.06803492
0003a0 55 bc b3 bc 94 84 01 bd 11 4d 38 bd cb d8 f2 3b
       -0.02194039 -0.031620577 -0.04499537 0.0074110976
0003b0 8a d8 25 3d 96 bc 99 bd 09 2d 72 bb 2e a6 56 bd
       0.04048971 -0.07506673 -0.0036953113 -0.052404575
0003c0 89 3e 98 3c d1 0e 72 bd 49 97 5b 3d 3b 46 d5 bc
       0.018584507 -0.05909616 0.053611074 -0.026034465
0003d0 ef 89 9a bc c7 c7 94 3d b5 3b 14 3d 99 99 16 bd
       -0.0188646 0.07264667 0.036189754 -0.036767576
0003e0 12 38 63 bc ca 65 d3 3c 5d 75 5b bd 11 cd 28 3c
       -0.013868349 0.025805373 -0.053578723 0.010302798
0003f0 c1 10 81 bd 3b 8c e4 bc 1e 6c 4e 3d fd 7d 99 bd
       -0.06302024 -0.027898898 0.050396077 -0.074947335
