flowsim/model/output_layer.pt (torch, 97112 bytes, 3 tensors)

weight f4 [100, 216]
00000000: 2115 1d3d a942 f3bd c54e 07bd a806 583c
00000010: f078 2fbd 620e ad3c 0a51 05bd f40b 723d
00000020: 5903 3b3d 97c4 1b3d ae45 86bd 6746 7d3b
00000030: 4398 20bd e45f 603d 28dc 49bd 46bf 52bd
00000040: 92db 00bd 4003 073d 4b34 a2bd fdcb 823d
00000050: 37f5 d0bc aaad 3f3d fdfb f03c 6268 cd3c
00000060: 7e33 08bd 2b51 033c 8cc9 443c b117 0a3d
00000070: f478 84bd 87aa 08bd bc07 933d b50d 00bd
00000080: f7aa 8abc 3291 90bc 63a5 343d 2d64 a03c
00000090: 3034 7abd 1e55 56bd 7afb 483d d295 c7bc
000000a0: 4bcf 3e3d c771 8fbd 155e 7cbd e8b7 6f3d
000000b0: 1028 973c cec1 9ebd 2cf6 89bd a249 1bbd
000000c0: 4d3b 5a3d 69ab 8bbd 7eee fdbc 011c 80bd
000000d0: dcb6 103d 7272 68bc d403 85bd b941 31bd
000000e0: 1a93 cebc e333 51bd 2c5b 81bc 28d2 93bd
000000f0: 497a debc 81a2 183c 81cf 4bbd c2dc 56bc
00000100: 6ee1 41bb cafa 853c e48c 5f3d 1ebc f9bc
00000110: ce56 a13d 8d6c 5dbc d665 54bd c8f5 203c
00000120: 8aaa a03d b6c9 c03c 3940 9638 87b8 a33c
00000130: a325 8f3d ead0 20bd 463d 2abd 876f 44bc
00000140: 9970 1ebd 3f04 553d 832a f53c 0745 203d
00000150: 6177 353d 109c 31bd d01e 673c 2270 34bc
00000160: 4e65 8c3d b2ac a43c f31c 0abd fcbf b1bc
00000170: c1b5 8c3d ca17 fd3c 714c 4ebd aff1 373d
00000180: ca9e 8ebd 825b 803d ef42 65bd 8c68 053d
00000190: 14c0 a03d dba9 2abc 48ce 583d 2adf 973b
000001a0: 0321 1a3d 1b2f 453b c556 35bd 1007 8bbd
000001b0: aaac 0abd ff70 033c 39d4 84bc 0e9e 573d
000001c0: b88a 6ebc 320a a93a 7fe2 5abc e6c7 713d
000001d0: 5f92 01bd 6ba8 d93c 04c6 e5bb f614 90bd
000001e0: 9a17 b4bc 60f6 73bd ad04 29bd 08ca 3e3d
000001f0: 1b63 273d 3ed7 06bd c6d5 803d 6971 523d
00000200: 2bb9 64bd 77d4 9a3d c00e 693c bdfc 4b3d
00000210: 4bf9 f8bc 9ab3 633d ba1b 873d 81c3 0d3d
00000220: 643e 213d 662a 613d 8016 4ebd fea9 723d
00000230: 9482 7b3c 8b5f 433d 09d1 643d 1616 10bd
00000240: 0231 72bd 3d5f bc3c d25c 463d 09d1 743d
00000250: a6de 553d 7bf5 86bd d558 1b3d 6b0c 99bc
00000260: 1bbf 0ebd 34b8 8c3d a885 28bd c6ba eb3c
00000270: 9a77 d5ba d5c7 b53c b079 633d 2017 df3c
00000280: 3cd5 7bbd d307 ea3c eff2 753d a181 1e3d
00000290: 8d6b e3bc 6769 553d bdc8 9b3d 2e95 57bd
000002a0: 4f1a 6fbd 0ed7 7c3c e16a 5dbd 41f3 92bd
000002b0: 3336 76bc 28b9 393c f03f 973c f665 ef39
000002c0: d9e4 6ebd dc83 0f3d 2d22 4bbd 31fa 2d3d
000002d0: fbd8 b93c 5075 6e3d 9663 13bd 6047 0fbc
000002e0: 30a8 85bc 8ad6 85bd 790a 1ebd 83c7 d63c
000002f0: c57a 433d cbff b0bc df07 323c 9313 dabb
00000300: 4ef1 4ebd 5343 dfbc 4712 80bc ceb1 363d
00000310: 9d15 3d3d cfe0 8d3d f080 f53c 3f6c 18bc
00000320: cbc0 46bd e008 013d 032e fbbc 2316 a03d
00000330: 82d7 d4bc beec 593d fc84 66bd 450a 823d
00000340: 3f82 6e3d bede e3bc 96aa 45bd 610d 2d3d
00000350: dc85 3c3d 7a04 803b 2b79 c33c ac5a 9b3d
00000360: f08a d8bc 6c2b 7ebc 0a4d 173c dde5 59bd
00000370: 9354 7cbd d0cf 073d c064 73bd c1d9 6bbd
00000380: 33f2 70bd 02d5 153d cbad ee3c a8ea ae3c
00000390: c997 e0bc ecb7 883d 6b34 b6bc 4cb9 af3c
000003a0: a724 53bd 69b1 eebc d56c a43c 70ee 85bd
000003b0: ad60 d8bc a89f b8bc 5e24 033d e730 d33c
000003c0: 3542 3dbd af14 f53c f7b0 db3c a52c 5d3d
000003d0: 97f8 d6bb 14d3 9e3d 30df d4bc 27ae b9bc
000003e0: 8d8d e03c b152 603b 6423 793b 0362 a5bc
000003f0: 10d1 863c 197a 8cbd 80f9 1d3d 7917 4fbd
0.03835023 -0.11877949 -0.033034105 0.013185181 -0.042839944 0.021125022 -0.032547988 0.05909343
0.04565749 0.03802928 -0.06556259 0.00386467 -0.039207708 0.05477895 -0.049282223 -0.051451944
-0.0314594 0.032962084 -0.0792013 0.06386564 -0.025507553 0.04679648 0.029417032 0.025074188
-0.03325223 0.008014957 0.012010943 0.033714 -0.064683825 -0.033365753 0.071792096 -0.031263072
-0.016927226 -0.01764736 0.044103038 0.019579018 -0.061084926 -0.052327268 0.04906795 -0.024363432
0.04658441 -0.07004123 -0.06161316 0.058524996 0.01845172 -0.07751809 -0.06736407 -0.03791202
0.05327921 -0.06819803 -0.030997511 -0.06255341 0.03533064 -0.014187442 -0.06494871 -0.04327557
-0.025216628 -0.051074874 -0.015790544 -0.072178185 -0.02715792 0.009316088 -0.049758438 -0.013114156
-0.002958383 0.016354937 0.054577723 -0.03048521 0.07877885 -0.01351465 -0.05185493 0.009824224
0.07845028 0.023533683 7.16452e-05 0.01998545 0.069896005 -0.039261736 -0.04156234 -0.011989481
-0.0386816 0.052006003 0.029927498 0.03912833 0.0443033 -0.043361723 0.014106467 -0.011013063
0.0685526 0.020101879 -0.033719014 -0.02169799 0.06870604 0.030895133 -0.05036587 0.04490822
-0.0696388 0.06267454 -0.055972036 0.032570407 0.07849136 -0.010416473 0.0529311 0.0046347575
0.03762914 0.0030087892 -0.044272203 -0.067884564 -0.03385607 0.008022546 -0.016214477 0.052640967
-0.01455944 0.0012896715 -0.013359665 0.05902853 -0.03163373 0.026569566 -0.0070121307 -0.07035248
-0.02198391 -0.059561133 -0.041264225 0.04657939 0.040866 -0.032920115 0.06290774 0.051377688
-0.055840652 0.07560056 0.014224708 0.049801577 -0.03039231 0.055591203 0.06597085 0.034610275
0.03936614 0.054972075 -0.050314426 0.05924415 0.0153509565 0.04769854 0.055863414 -0.035177313
-0.05912877 0.022994632 0.048428364 0.059769664 0.052214287 -0.065897904 0.037926514 -0.01868268
-0.03485022 0.068710715 -0.04114309 0.028775584 -0.0016286254 0.022190014 0.055535972 0.027232707
-0.061482653 0.028568184 0.060046133 0.038697843 -0.027761245 0.052102473 0.07606647 -0.052632503
-0.0583747 0.015432132 -0.054057006 -0.07175303 -0.015027571 0.011335649 0.018463105 0.000456616
-0.058323715 0.03503786 -0.04959314 0.04247493 0.022686472 0.058217347 -0.035983644 -0.0087450445
-0.01631555 -0.06535061 -0.038584206 0.026218181 0.047724504 -0.021606347 0.010866134 -0.0066551655
-0.050523095 -0.027253782 -0.015633715 0.04460316 0.04616319 0.069276445 0.029968709 -0.009303152
-0.048523705 0.031502604 -0.030661589 0.07816722 -0.025981668 0.05320429 -0.056279168 0.06349615
0.05822968 -0.027816173 -0.048258387 0.042249087 0.046026096 0.0039067836 0.023861488 0.07585654
-0.026433438 -0.015513282 0.009234676 -0.05319773 -0.061604094 0.03315717 -0.059422255 -0.057580713
-0.05882473 0.036580093 0.029135605 0.021352127 -0.027416127 0.06675705 -0.022241792 0.021450661
-0.051548626 -0.02913733 0.020071426 -0.06539619 -0.026413286 -0.022537068 0.032017104 0.025780154
-0.046205718 0.02991709 0.026817782 0.053997654 -0.006560396 0.07755104 -0.02598533 -0.02266605
0.027411247 0.0034228975 0.003801548 -0.020188337 0.01645711 -0.06859226 0.03856802 -0.050559495

bias f4 [100]
00000000: e817 9fbd 948e 3abd 0bb2 67bd e933 2abd
00000010: 1977 523b 3c6b 283d 5c30 42bd 3d61 1e3d
00000020: d037 a4bc 5f33 d4bb dda1 8bbd b4fc cf3c
00000030: 045f 77bb 45cc 6abd d0e7 813b 6163 41bd
00000040: b23a 69bb 5d20 bb3c 7865 1e3d 3d7b 6a3d
00000050: adac 9dbd 6feb 7c3d b5d5 5f3c cf6b 0b3d
00000060: 6b0b 853c 8e0d 36bd 9629 5bbd 4ec9 97bb
00000070: 5ff0 dd3c b489 cbbc 5cdb 4d3b 794a 4fbd
00000080: 1156 35bd 1696 153d d078 09bb b10c edbc
00000090: 98bd 443d af79 c23c 9686 7abc 9551 833c
000000a0: a719 a73a 5054 1b3c 10c1 2ebd 34a4 91bd
000000b0: c35a 6a3d 72e8 0abc 8ece 163b 5e9b 0c3d
000000c0: c2db 9a3c fbb8 b43c 1b0c 3bbd 528d 6bbd
000000d0: 05d8 64bd 2a12 4abd f962 9d3d 81be 69bd
000000e0: c2e3 ad3c 81e1 bc3c e266 55bd 883e 8f3c
000000f0: 7054 de3c ef38 bebc 432c 393c 09aa 093c
00000100: e595 223c 9cf2 42bd d592 56bd 1bb7 233d
00000110: 2709 953d 871b 54bc 61c2 16bd beff cd3b
00000120: f1d2 62bd 67d9 68bd bbc7 0c3d 7842 12bc
00000130: 4ebe 61bd 8903 693d fa6c 893d 6df3 7b3c
00000140: 0050 193d 1f8c b8bd d903 93bd c9ec 22bc
00000150: 657e 5a3c e930 7e3d d59c bcbc fe14 84bd
00000160: a98f 22bc c0fc efbc abbb 3cbd 2137 523d
00000170: 5d05 83bd 0445 d8bc 090f 193d baa5 0e3d
00000180: 98e8 cc3c b68f fa3b 762a 48bc 0adc 28bd
-0.07768232 -0.04554613 -0.05656628 -0.04155341 0.0032114445 0.04111789 -0.0474094 0.038666952
-0.020046145 -0.0064758505 -0.06817982 0.025389053 -0.0037745843 -0.057323713 0.003964402 -0.047213916
-0.0035587964 0.02284258 0.038670987 0.057246435 -0.07698951 0.061747964 0.013661792 0.03403836
0.016240796 -0.04444652 -0.053506456 -0.0046321517 0.027092157 -0.024845935 0.0031411266 -0.050608132
-0.044271532 0.036520086 -0.002097655 -0.028936716 0.048032373 0.023739664 -0.015290877 0.016030112
0.0012748734 0.009480551 -0.042664587 -0.071113974 0.057215463 -0.008478271 0.00230113 0.034327857
0.018903617 0.022060862 -0.04566584 -0.05750782 -0.055870075 -0.04933373 0.07684893 -0.057066444
0.021226767 0.023056747 -0.05210007 0.017485872 0.027139872 -0.023220507 0.011302057 0.008402356
0.009923433 -0.04759465 -0.052386124 0.039969545 0.07277136 -0.012946016 -0.036806468 0.0062865904
-0.05537695 -0.056847956 0.034370165 -0.00892698 -0.05511313 0.056888137 0.06710239 0.015377861
0.03742981 -0.09011101 -0.07178468 -0.009944149 0.013335799 0.062058363 -0.023024002 -0.064493164
-0.009921947 -0.029295325 -0.04607741 0.051322106 -0.06397507 -0.026400097 0.037367854 0.034826018
0.025013253 0.007646526 -0.012217155 -0.04122547

weight f4 [1, 100]
00000000: bb80 46bc e703 02bd 9d40 4dbd 8771 ffbc
00000010: d05a e83c 95ce 7ebd ac4d cd3c 843d 76bd
00000020: 3b3b 833c 5379 ba3d bf8d d9bc c4c3 843d
00000030: 4656 293d 0c64 98bd 73b7 7e3d 3144 9ebd
00000040: af6c a13d e26d 25bd a17e 103e cc53 efbc
00000050: 5f20 92bd 5193 bb3c 0dcd 213d 116f bc3c
00000060: e31f adbc f01e 493d 50e1 78bd 6509 033d
00000070: e6fc 153d d840 893c b0a8 1d3d accd 4ebd
00000080: c72f ccbc 52a7 81bd 56b4 4ebd 2ee8 7bb8
00000090: 394b 613c e369 8bbd 7d38 9bbd 1064 a1bd
000000a0: 56ee 64bd e309 0d3d c5d1 b1bc f61a bd3c
000000b0: 2558 d03d 9fa7 c6bd 904f b83c 41c2 5c3c
000000c0: ec08 473d 2c08 673d 1241 acbc 0edd 8a3d
000000d0: febf 67bd 7e1f 183c 935c 653c bb45 16bd
000000e0: bede 0a3e cd5c 91bd 897e 673d 1b51 b33c
000000f0: 8d1d cf3c 7144 24bc 66ca 5a3d 6f4f de3c
00000100: 09e0 15bb 28db 783d e086 c83c af95 5d3d
00000110: f76e 393d cd2a 50bd 9d2e 49bd 39bb 78bd
00000120: 2266 83bd d7ff ce3c ca32 a43c 14ac f4ba
00000130: f82d 94bd eba4 a93c 69ac eb3c 5fd4 c8bc
00000140: 124b ed3c f432 82bc 4f68 0abd e938 afba
00000150: 7651 b9bc 0b65 223d 436d 283c 3fa1 acbc
00000160: 4c83 c93c c874 e83b 674c 793c 1d2d 61bd
00000170: 10dc 8a3c 735b d33b e8d6 32bd 268a d53c
00000180: e2c8 19bc b431 0d3e ae87 a6bd fe67 e63c
-0.012115653 -0.031742003 -0.05011045 -0.031182064 0.028363615 -0.06220873 0.02506145 -0.06011726
0.016019454 0.09105172 -0.026556848 0.06482652 0.041342042 -0.074409574 0.06218667 -0.0772785
0.07882058 -0.040387996 0.14110805 -0.029214762 -0.071350805 0.022897394 0.039502192 0.02300218
-0.021133369 0.04910177 -0.06076175 0.03199138 0.036618136 0.016754553 0.03849095 -0.050489113
-0.024925126 -0.06330742 -0.05046495 -6.0059298e-05 0.013750845 -0.06807306 -0.07579134 -0.078804135
-0.055891357 0.034433257 -0.021706471 0.023084145 0.10173062 -0.0969994 0.022498876 0.013474048
0.048592493 0.056404278 -0.021027122 0.06780444 -0.056579582 0.009284852 0.013999122 -0.036687594
0.13561532 -0.070977785 0.056517158 0.02188926 0.025282646 -0.010026083 0.05341568 0.027137486
-0.002286913 0.06075588 0.024478376 0.054097828 0.04527184 -0.050822068 -0.04911672 -0.060725424
-0.06415965 0.025268478 0.02004375 -0.0018667006 -0.0723533 0.020708522 0.028768735 -0.024515329
0.02896646 -0.015893437 -0.033790883 -0.0013368401 -0.022621851 0.039647143 0.010279956 -0.021072982
0.02459874 0.0070939995 0.01521597 -0.054974664 0.016950637 0.0064501106 -0.04366198 0.02606685
-0.009386273 0.13788491 -0.081313476 0.02812576
