testbed/backends/m4/models_v5/output_layer.pt (torch, 182552 bytes, 3 tensors)

weight f4 [200, 214]
00000000: 7013 033d dc7a 3dbd 01d0 5dbc 5ae7 bd3c
00000010: 0180 18bd 0da3 043d da09 0ebd 2013 6b3d
00000020: d7c8 333d bde3 3f3d c3f2 8abd 30b2 f93a
00000030: a271 29bd f951 593d db4f 44bd d93b 5bbd
00000040: d7e0 abbc a496 2e3d be63 7abd 02d6 753d
00000050: 7515 cfbc b3c0 5d3d 793c 063d e42b 033d
00000060: 47e2 11bd b875 6c3c d5d8 833c 6b90 253d
00000070: cead 4ebd 17d6 45bd 5b2a 7f3d bb21 20bd
00000080: f998 06bd 33ee 12bd 51be 4b3d c272 2c3c
00000090: c5ae 59bd 4ab0 2cbd d3e1 713d 8666 0cbd
000000a0: 4ae1 1f3d d568 7cbd b723 82bd afdd 833d
000000b0: 3c38 ce3c 88a1 84bd 94df 80bd 62b4 84bd
000000c0: 908e 273d 5cc5 80bd 78a4 0bbd 8a9a 52bd
000000d0: c63b d73c 6c4f d9bc 33e3 61bd f2c4 06bd
000000e0: f9ed 02bd eee4 51bd 887f 2fbc af53 86bd
000000f0: b2cd b9bc 8d17 573b 7a81 62bd 3632 67bc
00000100: 6331 ad3a db7d a53c d3b7 693d a042 f3bc
00000110: 73df 8a3d dea2 00bd 6434 2bbd c487 3d3a
00000120: 1896 813d 4941 ec3c 5e0d 5bbc 0b95 c43c
00000130: 715a 883d efdc 03bd 063e 09bd 742e eabc
00000140: f016 cbbc 8653 223d c94d 8d3c ae44 363d
00000150: a795 533d d21b 5fbd 26e6 bb3c 11e5 a2bc
00000160: 013f 583d 2c7a c03b 6062 f2bc fb9d 58bb
00000170: 30a2 7a3d 01dc 063d bd85 5dbd cfef 843d
00000180: e0fb 77bd a163 3d3d a020 0cbd a9db a83c
00000190: e7e7 763d 6b3d d4bb 8d2f 853d 2401 973c
000001a0: 691b 003d ef91 8a3b b9a5 02bd f55a 67bd
000001b0: 6bc6 2dbd 5b0d cfba cd2e 58bc 4859 833d
000001c0: 6a95 29bc f6de 03bc 9ccf bebc 2cc4 513d
000001d0: 2c4b 29bd 54f6 bf3c 64c0 93bc 92b9 87bd
000001e0: bb61 99bc 1b12 53bd 256b 4bbd 0105 3e3d
000001f0: b74d 013d e328 d2bc b267 693d 2d45 483d
00000200: fc19 58bd f991 833d 1898 cd3c 0f31 593d
00000210: 5312 2cbd 8274 863d fb8c 613d 2b28 3f3d
00000220: 08ea 3e3d e8fe 863d 0838 3bbd d816 5f3d
00000230: 2b73 c33c baca 123d c06b 6b3d 5a3d 4bbd
00000240: 56da 4dbd a8e6 023d 5b76 643d aedf 2f3d
00000250: 4828 393d 2e01 83bd 57cc 3c3d ab77 95bb
00000260: f1e3 38bd 71c8 6d3d b527 09bd e2c7 f63c
00000270: b089 563c a6df a73c 3379 743d d33f 8c3c
00000280: 207a 45bd 9e97 983c 36d6 4c3d abcd 2f3d
00000290: 6d1a 25bd 6ae7 1c3d 5950 813d 64eb 86bd
000002a0: b0bc 4fbd cd76 aa3c 509e 2fbd 4988 8cbd
000002b0: 8602 47bb 5c11 83bb 2d18 e33c 905b 9d3a
000002c0: 2620 52bd 3105 153d e594 7cbd 667c 1d3d
000002d0: 6392 5e3c 9297 7d3d 6bda 19bd 5125 6dbc
000002e0: c4f8 8ebc 021c 65bd 2aab 23bd 3dab 1a3d
000002f0: 4054 1c3d 5192 9cbc 431d ca3a 2917 15bc
00000300: 2dce 4ebd ed54 09bd 1513 c8bc 20dd 6e3d
00000310: 77f9 463d ed77 853d 3b1c 183d 4c21 a0bc
00000320: 5cc6 7dbd db7a d53c b7eb 37bd 1de7 0d3d
00000330: 87a6 08bd e6f0 443d 15f0 81bd e693 8e3d
00000340: 6800 613d 220a 1cbd b752 2bbd 25c4 5d3d
00000350: f533 703d c238 d2bb c9a5 873c 0513 843d
00000360: efdb f8bb eb1d 083c e625 b93c ff97 31bd
00000370: 4fcb 54bd 27c3 123d d088 56bd a2ae 6cbd
00000380: 5f15 54bd f0a2 213d 0d34 0f3d 536d f03c
00000390: ea4c acbc 3d4e 863d b6c3 44bc 2699 da3c
000003a0: 4d75 5ebd a830 a5bc 2b9e d23b 6bb6 74bd
000003b0: 8975 19bd a6df 32bd 3702 bf3b 9de8 243d
000003c0: 7520 8bbd bfe2 123d 497e 293c e127 803d
000003d0: b1b9 4ebc f663 863d a807 3bbd 4135 12bd
000003e0: 6337 6a3c 0961 a93c da99 5a3b 7391 12bd
000003f0: 4779 d53c 2c16 67bd 76a7 013d 24c2 43bd
0.03200096 -0.046259746 -0.0135383615 0.023181606 -0.03723145 0.03238206 -0.034677364 0.057391286
0.043892708 0.046848048 -0.067845844 0.0019050296 -0.041368134 0.05305669 -0.04792772 -0.053523872
-0.020981235 0.04262413 -0.061130278 0.060018547 -0.025278786 0.05413885 0.032772515 0.03202428
-0.035616186 0.014432363 0.016094605 0.04042093 -0.05045872 -0.048299875 0.062296253 -0.039094668
-0.03286073 -0.035871696 0.049742047 0.010525407 -0.05314519 -0.04216031 0.059053253 -0.03427746
0.03903321 -0.061623413 -0.06354468 0.06438767 0.025173299 -0.06476122 -0.06292644 -0.06479718
0.040907443 -0.06287643 -0.034092396 -0.05141691 0.02627362 -0.02652713 -0.055148315 -0.032902665
-0.03196523 -0.051243715 -0.010711558 -0.0655893 -0.022681091 0.0032820434 -0.05529926 -0.014111092
0.0013213571 0.020201614 0.057060074 -0.029694855 0.06780901 -0.031405322 -0.04179801 0.00072300085
0.06327456 0.028839724 -0.013369886 0.02399685 0.06657875 -0.03219312 -0.033506416 -0.028586604
-0.02479121 0.039630435 0.017249005 0.04449909 0.05165639 -0.05446989 0.022936892 -0.019884618
0.05279446 0.005873939 -0.029587924 -0.0033053148 0.06118983 0.032924656 -0.05408262 0.06491052
-0.06054294 0.04623759 -0.0342108 0.020612555 0.060279753 -0.006477048 0.0650321 0.018433161
0.03127614 0.0042288224 -0.031896327 -0.056483228 -0.042425554 -0.0015796827 -0.013194752 0.064135134
-0.0103505645 -0.0080487635 -0.023292355 0.051212475 -0.041331455 0.023432888 -0.018036075 -0.066271916
-0.01872336 -0.05153094 -0.049662728 0.04639149 0.031568255 -0.025654262 0.056983657 0.048894096
-0.052759156 0.064243264 0.025096938 0.0530253 -0.042009663 0.06565191 0.05506609 0.046669167
0.04660991 0.06591588 -0.045707732 0.054465145 0.023858627 0.035837866 0.057475805 -0.049619056
-0.05025705 0.031958252 0.055776935 0.042937927 0.04520443 -0.063967094 0.04609331 -0.0045613847
-0.045139257 0.058052484 -0.033485133 0.030124608 0.013094351 0.020492386 0.059685897 0.017120278
-0.04821217 0.018626984 0.050008975 0.04292075 -0.040308405 0.03830663 0.06314153 -0.06587866
-0.050717056 0.020808602 -0.042875588 -0.06861932 -0.0030366494 -0.003999872 0.027721489 0.0012005437
-0.05130019 0.036381904 -0.061665434 0.038448714 0.013584706 0.061912127 -0.037561815 -0.014474229
-0.017452605 -0.055934913 -0.039958157 0.03776096 0.038166285 -0.019112738 0.0015420098 -0.00909976
-0.050489593 -0.033528257 -0.024423162 0.05831635 0.048577752 0.06517015 0.037136298 -0.019547127
-0.06195675 0.026059559 -0.04490253 0.034644235 -0.033361938 0.0480813 -0.0634462 0.06961803
0.054932028 -0.0380956 -0.04182693 0.054142136 0.0586433 -0.0064154575 0.016558545 0.0644894
-0.0075945775 0.008307914 0.02260108 -0.043357845 -0.051951703 0.035830643 -0.05237657 -0.05778373
-0.051778194 0.03946203 0.03496175 0.029349005 -0.02103277 0.065578915 -0.012009552 0.026684355
-0.054311085 -0.020164803 0.0064275465 -0.05974428 -0.037465606 -0.04367032 0.0058291215 0.0402609
-0.067933 0.035860773 0.01034505 0.06257606 -0.0126175145 0.06562035 -0.0456616 -0.035695318
0.014295432 0.020676153 0.0033355863 -0.035783242 0.026058806 -0.05641763 0.031653844 -0.04779257

bias f4 [200]
00000000: d2f4 56bd c1a0 98bc 0721 78bc 4916 47bc
00000010: de0c 3f3d b084 4339 d7e0 b23c 9c37 55bd
00000020: 6e36 34bd 889d 883b 9290 703d 11ff 823d
00000030: 54da 76bd 0d2d d1bc 512d 563d 469c 173d
00000040: 26f1 3f3c a6d9 d7bc a51a 1dbc da11 0cbd
00000050: 9f7d 9ebc 3e51 4a3d 84eb 6dbd 0bc5 403d
00000060: d375 9dbc ade6 bbbc f2cc a73c ff60 edbc
00000070: 049d 8f3b 99e5 77bc 32be b9bc 8916 323d
00000080: 0e44 f5bc d13e e73c 7034 30bd 49b5 bdbc
00000090: 6b98 5b3d ec2f 5e3c 422b ffbc 3bba 29bd
000000a0: 0304 b2bb c481 f2bc 1c05 213d 1386 643d
000000b0: 7949 dbbc 729a 9cbd e4e1 b63c 6913 653d
000000c0: b1f0 05bd ff7a 923c 1efb 5f3c f249 00ba
000000d0: faa2 0abd e429 aa3c 9873 c6bc d4dc 09bd
000000e0: 34a2 4a3d c1eb e13b 2cb4 8d3d dc5b 9b3b
000000f0: 2bf6 1d3d 8fe4 31bd 20c0 453d 60d6 c6bc
00000100: cfcb 1a3d 0e4a 14bd 5406 11bd 5b7d 423c
00000110: ddfc 953d 495d 0c3d 02be 7c3d 5b85 04bc
00000120: 4fac ac3c ecc6 8bbd c59d 04bd 2e8c 2f3d
00000130: e12c 2bbd bd3a 743d aec2 1fbd 5b27 de3c
00000140: 9e0b 2ab9 bfe8 54bc 8fd9 b73c 56d5 3d3d
00000150: 70f6 e0bc 2c05 08bd 128b f9bc 5ed2 74bd
00000160: 1c5a 853d bb83 153c db47 723d 70a5 11bd
00000170: f83b 2cbd 3150 7b3b 27ff e53c 6510 6d3d
00000180: b3e3 163d cb76 41bd 3ca2 723d 6eef 33bd
00000190: eafa 453d 9a1c cbbb b3bc f6bc 340f 3bbc
000001a0: 8f06 97bc f09f 4e3c d2be 2e3c 74ae 17bd
000001b0: 1b4e 0c3c 30aa babb 5343 12bc a2e7 13bc
000001c0: 0366 d23c b8ef 4c3d 3a23 14bd 3421 a83c
000001d0: 0c91 0f3b c3bd 8d3c 2fc7 363c ff11 b73c
000001e0: 4bd3 b33c a716 61bd 6b1c 22bd 6b95 ac3b
000001f0: afc1 b7bc a72e 683d a108 eabc 38f3 543d
00000200: eae2 853b 6a4c 4cbd d8ed 393c 75b1 ffbc
00000210: 26f3 85bb 6057 2dbd 4c6c f73c 24c7 87bc
00000220: c149 2c3d e9df 403d 478e 54bb 8447 4cbd
00000230: 73bb 76bd b12c 25bd 641b 693c 7f41 39bd
00000240: 57f2 1dbd cd15 e83c de57 3abd 2992 ee3c
00000250: a77d 953d 1b86 58bd 41a2 233d effa 1f3d
00000260: 73ba 413d 2ef5 26bc af91 29bd 0f8c 883b
00000270: c695 943d c8de 99bc 241b ab3a d20f 55bd
00000280: e680 bebc a078 5dbd 5975 09bd 27f3 f33b
00000290: 56e7 693d e56b a83c 1886 e0bb 07ee 17bd
000002a0: fc9d 713b eb73 033d 3707 2dbd 008e 54bd
000002b0: 5148 e4bc cc8b 793d d45b 863d 2118 41bd
000002c0: 748f 20bd fac2 7a3d 0c24 223d f3a2 80ba
000002d0: 3f34 583d ad94 10bd dfc6 03bd 4565 43bd
000002e0: e76a 623d ee22 97bd c341 2bbc 8fce a6bc
000002f0: 0e07 613d afc2 1bbd 86ed 873c 50aa 63bd
00000300: bf8e c1ba e71c 2dbb e3f2 913b f7cd 453b
00000310: c6ba 233c 4665 57bd 9619 893c 9111 87bd
-0.052479573 -0.018631341 -0.015144593 -0.012151309 0.04664313 0.00018646079 0.021835728 -0.052054986
-0.04399722 0.00416917 0.058731623 0.06396306 -0.060266808 -0.025534177 0.05228931 0.03701427
0.011715209 -0.0263489 -0.009588872 -0.034196712 -0.01934701 0.049393885 -0.058085933 0.047062915
-0.019221222 -0.022937143 0.020483468 -0.028976915 0.0043827314 -0.015130424 -0.0226737 0.043478522
-0.029939678 0.028228195 -0.04301876 -0.023157733 0.053612154 0.01356123 -0.031148557 -0.04143737
-0.005432607 -0.029602893 0.039311513 0.055791926 -0.026768433 -0.076466456 0.02232451 0.055926714
-0.032700244 0.017880915 0.013670711 -0.0004893831 -0.033846833 0.020771928 -0.024225041 -0.033657864
0.049471095 0.006894559 0.06919131 0.004741175 0.038564842 -0.04343086 0.048278928 -0.024272144
0.037792023 -0.036203437 -0.035406426 0.011870707 0.073236205 0.03426865 0.061704643 -0.008088435
0.021078257 -0.06825051 -0.032377023 0.042858295 -0.041790847 0.05962633 -0.03900402 0.027118376
-0.00016216791 -0.012994944 0.022442607 0.04634603 -0.02746126 -0.033208057 -0.030461822 -0.059770934
0.065113276 0.009125645 0.059150558 -0.035558164 -0.04204938 0.0038347358 0.028075768 0.057876963
0.036838245 -0.04723243 0.05923675 -0.04392951 0.048334993 -0.006198478 -0.030119276 -0.011417199
-0.018435745 0.012611374 0.010665612 -0.037031606 0.008563544 -0.0056965575 -0.008927184 -0.009027394
0.025683409 0.0500333 -0.036166407 0.020523645 0.0021906523 0.0173024 0.0111558875 0.022347448
0.021951338 -0.054953244 -0.039577883 0.0052668354 -0.022431223 0.056685116 -0.028568568 0.051989764
0.004085888 -0.04987756 0.01134821 -0.031212548 -0.0040878234 -0.042319655 0.030203007 -0.01657445
0.042062525 0.047088537 -0.0032433437 -0.04987289 -0.06023736 -0.040325824 0.014227722 -0.045228478
-0.03856119 0.028330708 -0.045493953 0.029122429 0.07299357 -0.052862268 0.03994966 0.03905767
0.047296952 -0.010190291 -0.0413987 0.004167087 0.072551295 -0.018782988 0.0013054353 -0.05201704
-0.023254823 -0.054070115 -0.033559177 0.0074447575 0.057105385 0.02055926 -0.0068519227 -0.037092235
0.0036867848 0.03209297 -0.04224321 -0.051893234 -0.027866514 0.060924336 0.065604836 -0.04714215
-0.039199308 0.0612211 0.03958516 -0.0009814188 0.0527842 -0.03529804 -0.03217208 -0.047704
0.05527773 -0.07379709 -0.0104526905 -0.020362167 0.05493837 -0.03802746 0.016592752 -0.055582345
-0.0014767273 -0.0026414932 0.004454003 0.003018258 0.009993261 -0.052586816 0.016735833 -0.065951474

weight f4 [1, 200]
00000000: 3eaf 96bc 7fb5 08bd bb90 6b3d 1da4 42bd
00000010: cbf8 91bd f69c 17bd c5cd 9a3d e910 8cbd
00000020: 7a5a 173d 0c1c fe3c 510c 80bd 7c1b 4d3c
00000030: 7583 383d 8b0d 763d d71e 09bd 477f 2cbd
00000040: 1213 86bd 5e48 53bc e9e5 c23c 02ff 04ba
00000050: bc7b 4a3d 950d d43c 0968 81bd a8ee 6abd
00000060: 3e77 e93d aa4e 213e de1e 863c 98b2 1f3e
00000070: 34ec d53c fa4f b2bc 739e c9bc b1ef 423d
00000080: 01eb 183d 01f3 c53d dc04 023d fa96 18bd
00000090: b5ad c5bc e2d3 92bd d3c1 133d 17d9 af3d
000000a0: c98b e6bc db15 42bd f06c 303d 2909 fbbb
000000b0: 6d59 403d 22c5 c13a dc74 36bd ef30 183d
000000c0: c95f 8b3d 3462 21bd 05f0 873d 27d7 00bd
000000d0: 94b2 433d 4fc7 78bc c0fe 7cbd 8e91 153e
000000e0: 8da7 603c af28 1f3d 8c4b 973d 1a69 e93d
000000f0: 28e4 b4bc 2211 53bd 7b66 493d df02 42bd
00000100: b716 17bc da55 8d3d 5d81 dfbc ea4a f3bc
00000110: 896b 5b3d c254 273d b200 02bd e7c3 3dba
00000120: c595 60bd 7c7b 85bd 9d87 a03d 20f8 81bd
00000130: a32e 32bd 5353 393d fd88 17bd 0385 4ebd
00000140: b13b 74b9 fb9d 4bbd 26dc 893d 0101 913d
00000150: 7b8d f6bb 83a6 473d 3f88 51bd 869c cbbc
00000160: 6f2b b03d 1c54 7abd 93f2 713d cdd2 55bd
00000170: 2ac1 b33d 186e dd3c be2c 9c3d f894 9dbc
00000180: 0609 ab3d 1c1f a6bc d0ae 213c f571 073d
00000190: 6e76 7e3d 30c4 60bd 14d4 ab3d f7c0 bbbc
000001a0: 6bd2 85bc 38f2 bfbc b7b8 873d 17ad 23bd
000001b0: 76ee f53c 0732 1bbd 34f4 6c3c 3b05 3d3d
000001c0: 339e 963d d318 343d d79b e93d 91df 12bd
000001d0: 838d 353d 7d50 0cbd e2fd 71bd 184d 193e
000001e0: 9d07 93bc a660 0abd 68db ce3c f52b 37bd
000001f0: 0ce1 83bd 316b 183d 31ea 35bc dcad b2bc
00000200: 009f 863c 589c e239 3306 4d3d bdd3 d83c
00000210: 0407 68bd 786b c1bc 7db0 043d a41b 323d
00000220: 3153 3b3d 3c57 5a3d 7b88 ef3c 52e4 933d
00000230: 4c2d bebc 9006 54bd 8710 cc3c ce48 01bc
00000240: f43f 90bd 1f62 823d 084b babc 630f b03d
00000250: 8047 273d 31cb 26bd 463b a8bd 6d6a 823d
00000260: 0be8 4b3d cfa0 733c a523 6abc e815 cc3c
00000270: fb6d 273d ee45 15bd f254 96bc f366 6abd
00000280: 3adb d23d 9f2a 053d 2be9 823d 16fd 86bd
00000290: 80aa 8c3d c9be 863d 1895 1a3d 67e7 35bd
000002a0: 0c4f 57bd 9c13 edbc b8c2 ca3c 37bd 56bd
000002b0: 9e00 60bd 1daa a43d 963a 8c3d 3d08 fb3c
000002c0: 4bea 9c3d 74c2 883d fb8b 0b3d 92ec 1ebd
000002d0: ff22 7d3d 15c2 aa3d 64a4 c93c 3a2f 663d
000002e0: ec17 843d e97f b4bc acf1 d9bc e018 79bc
000002f0: a1e8 5d3d f5c4 dd3c 3799 2c3e 39ee 38bd
00000300: f1dd 44bd 1625 6fbd 85ae 89bc df45 42bd
00000310: 266d 00bd 8b38 4c3d 9c66 4c3d ea8d 78bc
-0.018394109 -0.033376213 0.057511073 -0.047519792 -0.071275316 -0.037014924 0.07558779 -0.06839163
0.03695152 0.031019233 -0.06252349 0.01251876 0.045047242 0.06007151 -0.033476677 -0.04211357
-0.06546606 -0.012895672 0.02379127 -0.00050733995 0.04943441 0.025885383 -0.06318671 -0.057356507
0.11399697 0.15752664 0.01637214 0.15595472 0.026113607 -0.021766651 -0.024611687 0.04759187
0.037333492 0.0966549 0.031742916 -0.037253357 -0.024130682 -0.0716932 0.036073517 0.085863285
-0.028142827 -0.047384124 0.04307264 -0.007661004 0.046960283 0.0014783482 -0.04454504 0.03715604
0.06805379 -0.039400294 0.06637577 -0.031455185 0.047777727 -0.015184238 -0.061766386 0.14606306
0.013711822 0.03885716 0.07387456 0.11397 -0.02208145 -0.05153001 0.04917 -0.04736602
-0.009221724 0.069011405 -0.027283365 -0.029698808 0.05356935 0.040852316 -0.031738944 -0.00072389696
-0.05483033 -0.065176934 0.07838366 -0.06346154 -0.043501507 0.04524548 -0.036995877 -0.05041982
-0.0002329189 -0.04971121 0.06731443 0.070802696 -0.00752419 0.048742782 -0.051155325 -0.02485491
0.08602034 -0.06111537 0.059069227 -0.05220299 0.087770775 0.027030036 0.076257214 -0.019236073
0.083513305 -0.020278506 0.009868339 0.033067662 0.062124662 -0.0548746 0.0839006 -0.022919161
-0.016335687 -0.023430929 0.066270284 -0.039959993 0.030020934 -0.037889507 0.014462519 0.046147566
0.07354393 0.043968987 0.11406677 -0.03585774 0.04432441 -0.034256447 -0.059080012 0.14970815
-0.017947966 -0.033783577 0.025251105 -0.044719655 -0.06439409 0.0372116 -0.011103199 -0.021811418
0.016433239 0.00043222564 0.05005474 0.026468152 -0.056647316 -0.023610815 0.032394875 0.04348339
0.045733634 0.05330585 0.029239884 0.07221283 -0.023214959 -0.05176407 0.024910225 -0.007890893
-0.07043448 0.06366371 -0.022740856 0.08596685 0.040839672 -0.040721122 -0.082144305 0.06367955
0.04978184 0.014869883 -0.014290725 0.02491279 0.04087637 -0.036443643 -0.018351052 -0.057227086
0.102957204 0.03251135 0.063921295 -0.06591241 0.06868458 0.06579358 0.037739843 -0.044410136
-0.05256562 -0.028940015 0.024751052 -0.052426543 -0.05468809 0.08040259 0.06847112 0.030643577
0.07661875 0.06677714 0.034069043 -0.03879983 0.061800953 0.083377995 0.02461452 0.056197383
0.06449875 -0.022033649 -0.026604496 -0.015203685 0.05417693 0.027071455 0.16855322 -0.04514906
-0.048063222 -0.058384977 -0.01680685 -0.047429916 -0.031354092 0.04985861 0.049902543 -0.015170554
