testbed/models_v4/gnn_layer_0.pt (torch, 696275 bytes, 7 tensors)

weight f4 [200, 200]
0	0x3d52d102	0.051468857
1	0x3c5812fe	0.013188122
2	0x3ad044f9	0.0015889696
3	0x3c135bb6	0.008994034
4	0x3cdfcae1	0.02731842
5	0xbcff1c51	-0.031141432
6	0x3d266367	0.04062214
7	0x3d054b06	0.03254225
8	0xbcec8f64	-0.028876968
9	0x3cab6bb5	0.020925382
10	0x3bde1f51	0.0067786356
11	0x3d6c4c30	0.057689846
12	0x3cd9270d	0.026507879
13	0x3d13068b	0.03589491
14	0xbce7a5bc	-0.02827727
15	0xbd0c7181	-0.034287933
16	0xba7129c2	-0.0009199643
17	0xbd58da72	-0.0529427
18	0x3d6caaf1	0.05778021
19	0x3cd260f5	0.025680998
20	0x3d23a3f6	0.039951287
21	0x3d7e6611	0.062109057
22	0xbd86bdaf	-0.06579148
23	0xbb5c1265	-0.00335803
24	0x3d7f66c7	0.062353875
25	0xbd92f75a	-0.07176085
26	0xbd96d853	-0.07365479
27	0xbd06ed76	-0.032941304
28	0x3c2c4076	0.010513416
29	0x3b650263	0.003494405
30	0x3d30406d	0.04303019
31	0xbb68a9e1	-0.0035501646
32	0xbd691ab8	-0.056910247
33	0xbc00556c	-0.007832866
34	0xbc96d53e	-0.018412229
35	0x3d0280c0	0.031861067
36	0xbb8b2801	-0.004246712
37	0x3d1a6089	0.03768972
38	0xbd0f26ac	-0.03494899
39	0xbc55faa0	-0.013060242
40	0x3c64f84c	0.013975214
41	0x3d673ded	0.05645554
42	0xbd73e709	-0.059546504
43	0xbd5d8b8b	-0.054088157
44	0x3bde3965	0.0067817443
45	0x3d499816	0.049217306
46	0xbd549a28	-0.051904827
47	0xbd17c982	-0.037057407
48	0x3c6d7c7e	0.014495013
49	0xbd2deec1	-0.04246402
50	0x3d0c975f	0.034324046
51	0x3d0f6366	0.035006903
52	0x3d3f2559	0.046666477
53	0xbcbf20c9	-0.023331063
54	0xbd22f88c	-0.039787814
55	0xbd015e34	-0.03158398
56	0x3cb246c1	0.021762254
57	0xbd4d2d4d	-0.05009203
58	0xbcf4a64f	-0.029864458
59	0xbd3b239e	-0.045688264
60	0xbc4a8ec2	-0.012363138
61	0x3d8f3c2e	0.069939
62	0x3caa9260	0.02082175
63	0xbcd2ff58	-0.025756523
64	0x3d289757	0.041159954
65	0x3cbf5242	0.023354653
66	0x3caeae87	0.021323455
67	0xbcc15668	-0.023600772
68	0xbc3ba98a	-0.0114539955
69	0xbd45739b	-0.048205953
70	0xbd99472c	-0.07484278
71	0x3c9de373	0.019273495
72	0xbd8fc4db	-0.07019969
73	0xbd764bca	-0.06013087
74	0xbc26218d	-0.010139835
75	0xbd0e1027	-0.034683373
76	0xbd8e4fd2	-0.06948818
77	0xbbd64446	-0.0065389005
78	0x3b3fd4d3	0.002927114
79	0xbd326b71	-0.043559495
80	0x3d10c901	0.035347942
81	0xbd4be0a0	-0.049774766
82	0xbcfff221	-0.031243386
83	0x3d7f3365	0.062304873
84	0x3d96c7c6	0.073623225
85	0x3d9cc93e	0.076555714
86	0x3d289c04	0.041164413
87	0x3d7adc27	0.06124511
88	0xbd675964	-0.056481734
89	0xbcb5bf77	-0.022186024
90	0x3d4554aa	0.048176445
91	0xbd852a91	-0.065022595
92	0xbd641e42	-0.05569292
93	0x3d06b95f	0.032891627
94	0x3c8dec14	0.017324485
95	0x3d8d4d29	0.06899483
96	0x3bd3013d	0.0064393566
97	0x3d36f09a	0.04466305
98	0xbd3e5b2e	-0.046473674
99	0x3b5ba618	0.0033515748
100	0xbd3c9f97	-0.046050634
101	0xbc569db1	-0.01309912
102	0xbd5a7d62	-0.05334223
103	0xbd543d80	-0.051816463
104	0x3d923f35	0.07140962
105	0x3cbd1c27	0.023084713
106	0xbd121a7b	-0.035669785
107	0x3c0d4518	0.00862243
108	0x3d9a3d4f	0.07531225
109	0xbc3f3045	-0.011669223
110	0x3ba4566f	0.0050151865
111	0x3d7bc9b9	0.061471675
112	0xbc2c7448	-0.0105257705
113	0x3cd72495	0.02626256
114	0xbc0f1a7a	-0.00873434
115	0xbbfe754e	-0.0077654487
116	0xbd984156	-0.07434337
117	0xbc00ecb7	-0.007868937
118	0x3d6718d5	0.056420166
119	0xbd31de8b	-0.043425124
120	0xbd3b4690	-0.04572159
121	0x3bfe135f	0.007753774
122	0x3d12db49	0.035853658
123	0x3ca18f58	0.019721672
124	0xbb7b0060	-0.0038299784
125	0x3d1f0dff	0.038831707
126	0x3d0f52d4	0.0349911
127	0xbc5a394e	-0.013319327
128	0xbd4dc9c6	-0.050241254
129	0x3d84486b	0.06459125
130	0xbd490bc9	-0.049083505
131	0x3ca6e4de	0.020372804
132	0xbd49a50c	-0.049229667
133	0xbc892a06	-0.016743671
134	0xba8eed3c	-0.0010904442
135	0x3d4806e5	0.0488347
136	0xbcdf1deb	-0.027235946
137	0x3c973cc5	0.018461594
138	0x3b80f1e1	0.003935084
139	0xbd86ce2e	-0.065822944
140	0xb8dac42a	-0.000104315885
141	0xbd50d199	-0.050981138
142	0x3a8b3aae	0.0010622346
143	0xbd34b0fb	-0.044114094
144	0xbbe68f6e	-0.007036141
145	0x3babd767	0.005244184
146	0x3d4f8aa2	0.05066932
147	0x3d0dcbb6	0.034618102
148	0x3d1e0e87	0.038588073
149	0x3d5befbf	0.053695437
150	0xbcafad6c	-0.021444999
151	0x3d0b8b79	0.03406856
152	0xbc9326c7	-0.017962826
153	0xbad4ae9c	-0.0016226354
154	0x3d3dcc35	0.046337325
155	0x3d3ffa8e	0.046869807
156	0xb90a8efc	-0.00013213971
157	0xbc4c8712	-0.012483375
158	0xbc8f0b15	-0.017461339
159	0xbd86757b	-0.06565376
160	0xbd20a3f8	-0.039218873
161	0x3d8400a7	0.06445437
162	0x3d235119	0.039872263
163	0x3d0c9865	0.034325022
164	0x3b6d264e	0.0036186161
165	0x3c3e231b	0.0116050495
166	0x3c8368c1	0.016041161
167	0x3b873b26	0.004126924
168	0xbbf6c12e	-0.007530353
169	0x3c591e42	0.013251843
170	0x3d5a5e66	0.05331268
171	0x3d5a4c2b	0.053295296
172	0x3d49f1e6	0.049302958
173	0x3b6e3f5d	0.0036353685
174	0xbd23d124	-0.039994374
175	0x3c95690d	0.018238569
176	0x3d6a47d7	0.057197418
177	0x3bc64dbe	0.006051748
178	0x3d258e8b	0.040419143
179	0x3c12b1e4	0.008953545
180	0x3cff4824	0.031162329
181	0x3d040c79	0.032238457
182	0xbd047edd	-0.03234755
183	0xbd921335	-0.0713257
184	0xbcf6a5ce	-0.030108359
185	0x3cb90c55	0.022588888
186	0x3ccb8db5	0.024847845
187	0x3c9ae2d2	0.018906984
188	0x3c9bad68	0.019003585
189	0x3d7e35c5	0.062062997
190	0x3ca9040b	0.02063181
191	0xbc7cc575	-0.015427937
192	0xbceba42c	-0.028764807
193	0x3ce58d8b	0.028021595
194	0xbcf6b8b9	-0.03011738
195	0xbd0baa6d	-0.034098078
196	0x3d72ba85	0.05925991
197	0xbd691668	-0.056906134
198	0x3b3777f8	0.002799509
199	0xbd7e82f0	-0.06213659
200	0x3d462194	0.048371866
201	0x3c5a86ec	0.013337832
202	0xbbdeddbb	-0.0068013347
203	0x3d05f526	0.032704495
204	0xbb93face	-0.0045159822
205	0xbc721f9c	-0.014778044
206	0xbd37b8fd	-0.044854153
207	0xbccc4e07	-0.02493955
208	0xbbce6f89	-0.006299917
209	0x3d8821fa	0.066471055
210	0x3c9767cf	0.018482117
211	0x3d0481de	0.032350414
212	0xbd2cf928	-0.0422298
213	0x3d746b95	0.05967291
214	0x3b4ea544	0.0031531611
215	0x3c6f7952	0.014616327
216	0x3cac51c6	0.021035086
217	0x3d1994d4	0.03749545
218	0x3c034819	0.008012795
219	0x3d26fb44	0.04076697
220	0xbb99c1be	-0.0046922853
221	0x3d770cbf	0.06031489
222	0xbd32abac	-0.04362075
223	0x3c69ce79	0.014270418
224	0x3cb68f15	0.022285024
225	0xbcf0d954	-0.029400505
226	0xbd8f5206	-0.069980666
227	0xbc9aa024	-0.01887519
228	0xbac99b2b	-0.0015381327
229	0x3d3711ee	0.044694833
230	0xbd193558	-0.03740439
231	0x3c54d152	0.012989359
232	0xbcecc36a	-0.028901774
233	0x3d07cc1f	0.03315365
234	0x3ceb8966	0.02875204
235	0xbc83999f	-0.016064463
236	0xbd296b63	-0.041362178
237	0xbc90fc93	-0.017698562
238	0xbd158640	-0.036504984
239	0xbd31ed5f	-0.043439265
240	0xbb4ea550	-0.003153164
241	0xbc5d2aa9	-0.0134989405
242	0x3c192d87	0.0093492335
243	0x3cc34f35	0.02384148
244	0x3cae6ad1	0.021291168
245	0xbbd30f23	-0.0064410134
246	0xbd81a8a6	-0.06330995
247	0xbd24dcab	-0.040249508
248	0x3d7c6453	0.061619114
249	0x3d7786f2	0.06043143
250	0xbca59d4e	-0.02021661
251	0xbd89aaea	-0.067220524
252	0x3d2c2270	0.04202503
253	0xbcd3010a	-0.025757331
254	0x3d9071ba	0.070529416
255	0x3d609cdb	0.05483709

bias f4 [200]
0	0x3d415b2d	0.047206093
1	0xbc292cf5	-0.01032566
2	0xbcd76293	-0.026292121
3	0x3c48381f	0.012220412
4	0xbd822f49	-0.06356675
5	0x3c87a181	0.016556503
6	0xbb672533	-0.0035269975
7	0xbd36f68e	-0.044668727
8	0xbc12af0b	-0.008952866
9	0xbd16bec0	-0.036803007
10	0xbcd5792f	-0.026058761
11	0x3d2e2b51	0.04252178
12	0x3d2bf7ec	0.041984484
13	0xbd8cbbbe	-0.068717465
14	0x3c757163	0.014980647
15	0xbd70c065	-0.05877723
16	0xbd778e36	-0.060438357
17	0x3d22f34f	0.03978282
18	0x3d09c080	0.033630848
19	0xbca2ae69	-0.019858556
20	0x3c77ac5e	0.015116779
21	0x3b9fe51b	0.0048796064
22	0x3ce708f7	0.028202517
23	0x3d20c6a0	0.039251924
24	0xbce1a465	-0.02754421
25	0x3d7d68f7	0.06186768
26	0xbd1b3a28	-0.03789726
27	0xbc87b445	-0.016565451
28	0x3cfd5f12	0.030929122
29	0xbc5075ae	-0.0127233695
30	0x3d81e462	0.06342389
31	0xbd4ed6e4	-0.050497904
32	0x3d7fe0ef	0.062470373
33	0xbd828653	-0.063732766
34	0xbc709e2b	-0.014686148
35	0x3bca3154	0.006170431
36	0x3d3b4e42	0.04572893
37	0xbc2a24d7	-0.01038476
38	0xbc8bac5c	-0.01704996
39	0xbd2b8c11	-0.041881625
40	0xbd2a2b57	-0.04154524
41	0xbc56a4c5	-0.013100808
42	0x3d056451	0.032566372
43	0x3d51cd56	0.051221214
44	0xbd668e5d	-0.056288112
45	0x3cc60e76	0.024176817
46	0x3d0a692d	0.03379171
47	0xbd641944	-0.055688158
48	0xbcad704d	-0.021171713
49	0x3d05b784	0.032645717
50	0xbd0b867c	-0.0340638
51	0xbd25c15a	-0.040467598
52	0x3d5b80bb	0.053589564
53	0xbd3efc0b	-0.046627086
54	0x3d63c8ea	0.05561153
55	0x3d525d96	0.05135878
56	0x3b57192d	0.0032821402
57	0x3cb411b2	0.021981094
58	0x3bcb2a30	0.0062000975
59	0xbc888175	-0.016663292
60	0x3d80a373	0.062811755
61	0xbd9d66df	-0.07685637
62	0x3d4acde8	0.049512774
63	0x3ccf1b45	0.025281558
64	0xbd61d3f1	-0.055133764
65	0xbc31ffc5	-0.010864203
66	0x3d84e3d9	0.06488771
67	0x3bf6fea3	0.0075376793
68	0x3d555cf6	0.052090608
69	0xbc19d86b	-0.009389977
70	0x3d56d59e	0.052449815
71	0x3cc32cc1	0.023825051
72	0xbcd3e2b2	-0.025864933
73	0x3ce2c186	0.02768017
74	0xbd319456	-0.043354355
75	0xbd0ae8a8	-0.033913285
76	0x3c6513e8	0.013981797
77	0xbd6c4f05	-0.057692546
78	0x3d84370c	0.06455812
79	0x3c7f51a6	0.015583431
80	0x3bfde111	0.0077477773
81	0x3cabc4ad	0.020967806
82	0xbd1a4fd5	-0.03767379
83	0xbcabb684	-0.020961054
84	0x3d19b7fc	0.037528977
85	0x3d6e09ac	0.058114693
86	0x3ce8e5af	0.028429834
87	0x3d92be52	0.07165207
88	0xbd02169e	-0.03175985
89	0xbcf5c79d	-0.03000241
90	0xbd10ef46	-0.03538444
91	0xbcfb0252	-0.030640755
92	0xbc7d2198	-0.015449904
93	0x3d76972c	0.060202762
94	0xbd1ab5c0	-0.037770987
95	0x3d242ad8	0.04007992
96	0x3c39843f	0.011323034
97	0xbd3da6af	-0.04630154
98	0xbd0fa6c1	-0.03507114
99	0xbc45d0b7	-0.012073687
100	0xbcdfabd7	-0.02730362
101	0x3d83f252	0.06442703
102	0x3ce60a80	0.028081179
103	0x3ac3fd84	0.0014952873
104	0xbd87924c	-0.06619701
105	0x3d63f92b	0.055657547
106	0x3d034b14	0.032054022
107	0x3cd0d7b4	0.02549348
108	0xbca68c86	-0.020330679
109	0x3bd41579	0.0064722863
110	0x3d0415ab	0.032247227
111	0xbd1ab24d	-0.037767697
112	0xbc5a8b03	-0.013338807
113	0xbcde0c98	-0.027105615
114	0x3d4dd330	0.050250232
115	0xbbfc2204	-0.0076944847
116	0xbbc9fc28	-0.0061640926
117	0x3d5305b7	0.051519122
118	0xbca50bf4	-0.020147301
119	0x3c55426a	0.013016323
120	0xbca616ca	-0.020274539
121	0xbc94ad95	-0.018149177
122	0xbd70ea99	-0.05881748
123	0xbd23aef1	-0.03996176
124	0xbda93461	-0.082619436
125	0x3cbc8995	0.023014823
126	0xbd994128	-0.07483131
127	0x3d33399e	0.04375612
128	0xbda10fdb	-0.07864352
129	0x3cf4cd14	0.029882945
130	0x3d6fe25a	0.058565475
131	0xbd09b3fb	-0.03361891
132	0xbd879fa7	-0.06622248
133	0x3d0a7c78	0.03381011
134	0xbd37e5e3	-0.04489697
135	0x3bac0db4	0.005250657
136	0xbd8ade50	-0.06780684
137	0xbb582f56	-0.0032987199
138	0xbce78241	-0.028260352
139	0x3c213483	0.00983918
140	0x3c6a649c	0.014306214
141	0x3d1acf0f	0.037795123
142	0xbccd821e	-0.025086459
143	0x3ba652e9	0.0050758016
144	0xbd26aa97	-0.04069003
145	0x3d48701a	0.048935033
146	0x3cc1793f	0.023617385
147	0x3d8ffb38	0.07030338
148	0x3c4c2341	0.012459577
149	0x3ca74177	0.020416958
150	0x3b162795	0.0022911776
151	0x3d434a26	0.047678135
152	0x3b0c4513	0.0021403476
153	0x3d779751	0.06044704
154	0x3d5d7f80	0.05407667
155	0xbd94429f	-0.072392695
156	0x3c3a1625	0.011357819
157	0xbd474615	-0.04865082
158	0xbbcc321f	-0.006231561
159	0xbc3a2108	-0.011360414
160	0x3c258a00	0.010103703
161	0xbd8adea2	-0.06780745
162	0xbc8f9cc1	-0.0175308
163	0x3aa9dbc9	0.0012959178
164	0x3d3304f7	0.043705907
165	0xbd5f3840	-0.054497004
166	0xbc356121	-0.011070521
167	0x3c65960e	0.014012827
168	0x3d4d1266	0.050066374
169	0x3cf9babe	0.030484553
170	0xbd97cf56	-0.07412593
171	0xbd0a1b8e	-0.033717684
172	0x3cb29586	0.021799814
173	0xbd800649	-0.06251199
174	0x3c9ed4ca	0.019388575
175	0x3cb2c946	0.02182449
176	0xbd80dc1a	-0.06291981
177	0x3cb7eae6	0.022450875
178	0x3d081ba1	0.033229474
179	0xbd931bb4	-0.07183018
180	0xbd5b7476	-0.053577863
181	0xbcc5e8a4	-0.024158783
182	0x3b06388d	0.0020480484
183	0xbc5ce0ca	-0.013481328
184	0x3c8afc9c	0.016966157
185	0xbd621ea6	-0.05520501
186	0xbd555efe	-0.052092545
187	0xbd633ac4	-0.055475965
188	0x3d76c4e5	0.060246367
189	0xbd37c437	-0.04486486
190	0x3d2665ab	0.040624302
191	0x3d0d8422	0.03454984
192	0x3c9a28ae	0.018818226
193	0x3d43c695	0.047796804
194	0x3d88778d	0.066634275
195	0xbb98c777	-0.00466245
196	0xbcd83e69	-0.026396947
197	0xbc8b8225	-0.017029831
198	0x3d59c6ad	0.053167988
199	0xbd736cb9	-0.059429858

weight f4 [300, 200]
0	0x3d2269e3	0.039651763
1	0xbcbe253f	-0.02321112
2	0x3d2cf60a	0.04222683
3	0x3d8613d3	0.0654675
4	0x3c91fb49	0.017820017
5	0xbc9dfd31	-0.01928577
6	0x3d9d908b	0.07693585
7	0xbd695414	-0.05696495
8	0x3d06ec3b	0.03294013
9	0x3cc9f4bc	0.024652831
10	0xbd5ea089	-0.054352317
11	0xbc85c787	-0.016330494
12	0xbc5fea2c	-0.013666671
13	0xbcf8be7a	-0.030364264
14	0xbd6fdfb2	-0.05856294
15	0xbcb2681a	-0.021778155
16	0x3dbcb0c6	0.09213404
17	0xbd77238f	-0.060336646
18	0xbcc6c57d	-0.024264092
19	0x3bc41f12	0.005985149
20	0x3d809a90	0.062794805
21	0x3d3dea8c	0.04636626
22	0xbcc2b835	-0.023769477
23	0xbca0640f	-0.019578962
24	0xbc25f1d5	-0.010128458
25	0x3d8b29c0	0.067950726
26	0xbd1322e9	-0.035921965
27	0xbb7eba8f	-0.0038868522
28	0x3cd35595	0.025797645
29	0x3b143cd1	0.0022619257
30	0xbd8339e4	-0.06407526
31	0xbd866e3c	-0.06563994
32	0x3d0b07f1	0.03394312
33	0x3d1b54ca	0.037922658
34	0x3d2565e4	0.040380374
35	0x3c26c438	0.010178618
36	0xbd826834	-0.063675314
37	0x3d7e9d19	0.06216154
38	0xbc665cce	-0.014060212
39	0xbcc59b5a	-0.024121929
40	0xbd72b673	-0.05925603
41	0x3c647289	0.013943323
42	0xbd83f218	-0.0644266
43	0xbcb4d7dc	-0.022075586
44	0x3c0505ea	0.008119086
45	0xbcbcfc0c	-0.023069404
46	0xbc2c7886	-0.010526782
47	0x3cfb1141	0.030647876
48	0x3c93d0d8	0.01804392
49	0xbd3c50ee	-0.045975618
50	0xbd6d4f18	-0.057936758
51	0x3c25702b	0.010097544
52	0xbd92d0bb	-0.071687184
53	0x3c860c66	0.016363334
54	0xbca04086	-0.019562017
55	0x3d20d9e2	0.03927029
56	0xbd878a27	-0.06618147
57	0xbcc8b217	-0.024498982
58	0x3c21dd1b	0.009879376
59	0x3d368fb4	0.04457064
60	0xbd850fab	-0.06497129
61	0x3d2eea2d	0.042703796
62	0x3d4f1fe3	0.05056752
63	0x3c86c783	0.016452556
64	0x3d481691	0.048849646
65	0xbd49a666	-0.049230956
66	0x3cbb4771	0.022861214
67	0xbcea67fa	-0.028614033
68	0xbb818ab5	-0.0039533027
69	0xbd5f1515	-0.054463465
70	0xbc4dd134	-0.012562085
71	0x3adf333a	0.0017028817
72	0xbd4e10d7	-0.05030903
73	0x3d3f6453	0.046726536
74	0xbd2676d4	-0.040640667
75	0x3cc7ec12	0.02440456
76	0x3ce8cb1c	0.028417163
77	0xbcd2fbb0	-0.02575478
78	0x3a98f843	0.0011670667
79	0xbd24bea2	-0.040220864
80	0x3bb93909	0.005652551
81	0x3d8e5bdc	0.069511145
82	0xbd494627	-0.049139168
83	0xbd76c508	-0.060246497
84	0x3cdd00f9	0.026978003
85	0x3d146586	0.036229633
86	0xbcea2001	-0.028579714
87	0xbc3faa13	-0.011698264
88	0x3d8f04d0	0.0698334
89	0x3d3db552	0.0463155
90	0x3d252f72	0.04032845
91	0xbd894fdc	-0.06704685
92	0x3d540d8c	0.05177073
93	0xbcc607eb	-0.024173697
94	0x3cc19532	0.023630712
95	0xbc6ede13	-0.014579314
96	0xbd6d7577	-0.05797335
97	0xbc1e684a	-0.009668419
98	0xbd61f94d	-0.055169392
99	0xbd488085	-0.04895069
100	0x3cea5967	0.028607083
101	0x3beedaf0	0.007289283
102	0x3d89716f	0.06711089
103	0xbd4e8620	-0.05042088
104	0xbd5ba9ad	-0.053628612
105	0x3d122095	0.035675604
106	0xbd938126	-0.072023675
107	0xbcd14fce	-0.02555075
108	0xbc898bc6	-0.016790282
109	0xbd5fe3ea	-0.054660715
110	0xbb3be00b	-0.0028667476
111	0xbd2c4260	-0.042055488
112	0xbcf1eebe	-0.029532786
113	0x3d3eefe2	0.04661549
114	0x3b9815cf	0.0046412717
115	0x3c2d4252	0.010574894
116	0x3d4a66bd	0.049414385
117	0x3d76ebdd	0.06028353
118	0x3cf7f930	0.030270189
119	0x3d48d341	0.049029592
120	0xbd3538cd	-0.044243623
121	0xbd89c798	-0.067275226
122	0xbd52ac20	-0.051433682
123	0x3d776463	0.06039847
124	0x3d4233e9	0.047412787
125	0xbd09eae3	-0.03367127
126	0x3d598161	0.0531019
127	0x3afb82e6	0.0019188791
128	0x3c0a66f8	0.008447401
129	0xbd0f5b6a	-0.03499929
130	0x3d29a24f	0.041414555
131	0x3c246799	0.010034465
132	0x3d87a0ea	0.06622489
133	0x3c9412ec	0.018075429
134	0x3d33d886	0.043907665
135	0xbd8a5137	-0.06753772
136	0xbd71783e	-0.058952563
137	0x3d25480a	0.040351905
138	0x3d844e3c	0.064602345
139	0x3bbe7571	0.00581234
140	0x3d16d3d8	0.036823124
141	0xbd23388a	-0.03984884
142	0x3d15123b	0.03639434
143	0xbcff1e1f	-0.031142293
144	0xbc917152	-0.01775423
145	0xbcd9eaa9	-0.026601152
146	0xbd8d2898	-0.06892508
147	0xbcb898a8	-0.02253373
148	0xbd912eb1	-0.07088984
149	0x3cf3e374	0.029771544
150	0x3d2fa532	0.042882152
151	0x3ca05e60	0.019576252
152	0x3d918cd2	0.071069375
153	0xbd6e78ba	-0.058220603
154	0xbc547721	-0.012967856
155	0xbcd8205e	-0.026382621
156	0xba39085d	-0.0007058436
157	0xbd8a487f	-0.06752109
158	0xbcdd0a6c	-0.026982509
159	0xbd4b24fd	-0.04959582
160	0xbc945d1e	-0.018110808
161	0x3ba82564	0.0051314104
162	0x3bd22d28	0.0064140745
163	0x3d6d75ad	0.057973552
164	0xbcf422ff	-0.029801844
165	0x3d455ac7	0.048182275
166	0x3c6e2d67	0.014537192
167	0x3caa74c7	0.020807637
168	0x3a8e87aa	0.0010874171
169	0x3c3afb6c	0.011412483
170	0xbca4bbc5	-0.020109067
171	0x3c762565	0.015023564
172	0x3d2a673e	0.041602366
173	0xbd0e3317	-0.03471669
174	0xbd1f69d1	-0.038919274
175	0xbd220871	-0.03955883
176	0x3d68f20a	0.05687145
177	0xbc947c38	-0.018125638
178	0x3cbdcf54	0.02317015
179	0x3bfcc263	0.0077136024
180	0xbcd44bb7	-0.02591501
181	0xbd443266	-0.047899626
182	0xbd985263	-0.07437589
183	0xbd40fdbb	-0.047116976
184	0x3d85c596	0.06531827
185	0xbcdb1452	-0.026743088
186	0x3c69d97a	0.014273042
187	0xbd5845cf	-0.05280095
188	0x3b4ca8d0	0.003122855
189	0x3c309218	0.010777019
190	0xbcbed701	-0.023295881
191	0xbd43b075	-0.047775704
192	0x3cd656e5	0.026164481
193	0xbd82952e	-0.0637611
194	0xbd6a8465	-0.057255168
195	0xbc4054c8	-0.011738963
196	0x3d227a42	0.039667375
197	0x3d2ea269	0.042635355
198	0xbd2b7be4	-0.0418662
199	0xbc6378be	-0.013883768
200	0x3cae8571	0.021303864
201	0xb942c4d0	-0.000185746
202	0x3c651ca1	0.013983876
203	0x3c5ab7d9	0.013349497
204	0x3c77b400	0.015118599
205	0x3d4e4d09	0.050366435
206	0x3c434cdc	0.01192018
207	0x3d47cffa	0.048782326
208	0x3bcf73d5	0.006330947
209	0x3d765c4d	0.06014662
210	0xbd308347	-0.043093946
211	0x3c8974b0	0.016779274
212	0x3d24d813	0.040245127
213	0x3d3267e9	0.043556128
214	0xbd036b16	-0.032084547
215	0x3cbf8817	0.023380322
216	0xbd8bf2b1	-0.06833399
217	0x3d2a1e46	0.041532777
218	0x3d8b156d	0.06791196
219	0x3cd72b56	0.026265781
220	0xbd8287d8	-0.063735664
221	0xba9e4bed	-0.0012077071
222	0xbd733491	-0.059376303
223	0x3d4f8e90	0.050673068
224	0xbd828204	-0.06372455
225	0x3d2f5f1e	0.04281532
226	0xbc9fa2f2	-0.019486878
227	0x3bb5046d	0.0055242092
228	0x3b69d85c	0.0035681939
229	0x3d790cb4	0.06080313
230	0x3c32684d	0.010889125
231	0xbb18152d	-0.002320598
232	0xbd1e7bc6	-0.03869226
233	0xbd52e816	-0.051490866
234	0x3ce2c042	0.027679566
235	0x3cc7ef7b	0.024406185
236	0xbd8ff510	-0.07029164
237	0x3cffaa5d	0.031209165
238	0xbd726b4b	-0.059184354
239	0x3d11a7e1	0.035560492
240	0x3ccb7e44	0.024840482
241	0x3d7bec31	0.061504547
242	0x3d579a40	0.05263734
243	0x3c3b8a3d	0.011446533
244	0x3d45029a	0.048098184
245	0x3d229ba0	0.039699197
246	0xbb5bd42f	-0.003354322
247	0xbc482fa5	-0.012218391
248	0x3d8cf1bc	0.06882045
249	0xbcc156e8	-0.02360101
250	0xbd855682	-0.06510641
251	0xbd0e0536	-0.03467294
252	0xbd82bdda	-0.063838676
253	0x3c16ae4b	0.009196828
254	0x3ce9d3bc	0.028543346
255	0x3d8622be	0.06549595

bias f4 [300]
0	0x3d1f1f9a	0.038848497
1	0xbd83022b	-0.06396898
2	0xbcf57c1e	-0.02996641
3	0xbc9c366a	-0.019068915
4	0x3d21b368	0.039477736
5	0x3d9f9426	0.07791929
6	0x3d87f01d	0.06637595
7	0x3d689521	0.056782845
8	0xbd6a9b78	-0.057277173
9	0xbc9f1b81	-0.019422295
10	0x39d0b8ed	0.00039810632
11	0x3c9ce6a0	0.01915294
12	0xbc188aa4	-0.009310398
13	0xbd8ecc07	-0.06972509
14	0x3b308144	0.0026932517
15	0xbd512f7c	-0.051070675
16	0xbd8b7178	-0.06808752
17	0xbc2babcd	-0.010477972
18	0xbce29304	-0.027657993
19	0xbca4f66e	-0.020137038
20	0x3d87b245	0.06625799
21	0xbcb737ad	-0.022365415
22	0x3cea1f8d	0.028579498
23	0xbad09f73	-0.001591666
24	0xbcf7592f	-0.030193893
25	0xbd55aad2	-0.05216486
26	0x3d6adac2	0.05733753
27	0xbd4a2125	-0.049348015
28	0x3d73895f	0.05945718
29	0xbd420bac	-0.047374412
30	0x3d1d2c67	0.038372423
31	0xbd3b6f21	-0.045760278
32	0xbcc78b08	-0.024358287
33	0x3d02c92a	0.031930126
34	0xbd2c9cd2	-0.042141743
35	0xbd598b48	-0.053111345
36	0xbbd55fa3	-0.006511645
37	0xbd2ee652	-0.04270012
38	0xbd230b79	-0.039805863
39	0xbb7e6421	-0.0038817006
40	0x3d8c0cae	0.06838356
41	0xbd394afd	-0.04523753
42	0x3d29f2b2	0.041491218
43	0x3d848426	0.06470518
44	0xbc31b9a3	-0.010847482
45	0xbd708f2c	-0.05873029
46	0x3c7c4d69	0.015399315
47	0x3cb33567	0.02187605
48	0x3d24088b	0.04004721
49	0x3d2aa6cf	0.041662987
50	0x3d7df464	0.062000647
51	0xbd09d8dd	-0.033654083
52	0xbc8a014a	-0.016846318
53	0x3d4a515f	0.049394008
54	0xbd7e3303	-0.062060367
55	0x3d8650dd	0.06558392
56	0x3d2e6556	0.04257711
57	0x3d8c2c34	0.068443686
58	0x3d7c4397	0.061587896
59	0xbd1b0d61	-0.037854556
60	0xbca0ef90	-0.019645482
61	0x3d8db66b	0.06919559
62	0xbce89c5a	-0.028394867
63	0x3ceda70b	0.029010316
64	0x3c41b0ea	0.011821965
65	0xbbd5b2a4	-0.0065215398
66	0xbb8470d4	-0.0040417705
67	0x3cb96d18	0.022635028
68	0xbd225070	-0.039627492
69	0xbd284260	-0.041078925
70	0x3cbb6f4c	0.022880219
71	0x3d6b3312	0.05742175
72	0xbd78f7d0	-0.060783207
73	0xbd4d8f73	-0.050185632
74	0x3d99f405	0.07517246
75	0x3d3b88e0	0.04578483
76	0xbd2d8cf1	-0.04237074
77	0xbd0d37c6	-0.034477018
78	0xbd718c20	-0.058971524
79	0xbc4d0e10	-0.01251556
80	0xbd660a66	-0.05616226
81	0xbd95e5cb	-0.0731922
82	0xbd3ba38a	-0.04581026
83	0x3c3a68a9	0.011377492
84	0x3d80e4ef	0.062936656
85	0xbc59362f	-0.013257547
86	0xbd6a1318	-0.057147115
87	0x3d610471	0.054935876
88	0x3c50e5d3	0.012750107
89	0x3d456fc5	0.048202295
90	0xbd5dc3d9	-0.054141853
91	0x3d16e37c	0.03683804
92	0x3cc8c5b3	0.024508333
93	0x3bb40e4c	0.0054948684
94	0xbd4c5df4	-0.04989429
95	0x3c80d7d1	0.01572791
96	0xbc5030bc	-0.012706932
97	0xbd6ceebb	-0.05784486
98	0x3cb7f017	0.022453351
99	0xbd0a53fc	-0.0337715
100	0x3d91095f	0.070818655
101	0x3b60facd	0.0034329176
102	0x3d1e2868	0.038612753
103	0xbd7ed8ca	-0.062218465
104	0x3cffe536	0.031237226
105	0xbd5ba73e	-0.05362629
106	0x3d63dc94	0.05563028
107	0x3d6be139	0.057587836
108	0x3bf5a61b	0.007496608
109	0x3d9a9e9f	0.07549786
110	0x3d2bea9e	0.041971795
111	0x3d8576bf	0.0651679
112	0x3d8c08b9	0.06837601
113	0x3d3918b5	0.045189578
114	0xbd7ef7c9	-0.062248025
115	0xbd61b5f5	-0.05510517
116	0xbc5f3329	-0.013623037
117	0x3d30a6e0	0.043127894
118	0x3d15c5e6	0.036565684
119	0x3d50ae86	0.05094769
120	0xbd4deae4	-0.050272837
121	0x3c6a9d7a	0.014319772
122	0xbd308970	-0.04309982
123	0x3c8c5514	0.017130412
124	0xbd6bdb69	-0.057582293
125	0x3d5f2ca9	0.05448595
126	0x3c2d0902	0.01056123
127	0x3d43eb86	0.047832035
128	0x3d8d3c24	0.068962365
129	0x3d63ba77	0.05559775
130	0xbc06e9ae	-0.0082344245
131	0x3d0f89ac	0.035043404
132	0xbd69951e	-0.057026975
133	0x3b9b199f	0.004733279
134	0x3d65558e	0.055989794
135	0xbbd543d0	-0.006508328
136	0x3d6a7a1d	0.057245363
137	0x3c8beb5a	0.017079998
138	0x3b69fc60	0.0035703406
139	0x3d7300b0	0.059326828
140	0x3c932409	0.017961519
141	0x3d1f4f3d	0.038893927
142	0x3d2be894	0.04196985
143	0x3c75cdcc	0.015002679
144	0x3d3b815e	0.04577767
145	0xbd87f3e3	-0.066383146
146	0x3cad987c	0.021190874
147	0x3d1c0965	0.038094897
148	0x3d3f20a2	0.04666198
149	0x3cf31a78	0.029675707
150	0x3c360fc3	0.011112156
151	0xbd57ba8a	-0.052668132
152	0x3bb63fc3	0.0055618
153	0x3c96fc01	0.018430712
154	0x3c44a35b	0.012001838
155	0xbcf033c1	-0.029321553
156	0x3b2c4f9f	0.0026292575
157	0x3caf55b5	0.021403173
158	0xbd108b05	-0.03528883
159	0x3d02db57	0.03194746
160	0xbcb529a9	-0.022114592
161	0xbb0984bb	-0.0020983655
162	0xbd347aa3	-0.044062268
163	0x3d266634	0.040624812
164	0xbd1bccb5	-0.03803702
165	0xbd57f99f	-0.05272829
166	0xbcfcd6cd	-0.030864144
167	0x3cb42c08	0.021993652
168	0x3d48bf43	0.049010526
169	0xbc820c3d	-0.015874976
170	0xbd817f8b	-0.06323155
171	0xbb89202b	-0.004184743
172	0x3d875270	0.066075206
173	0xbd23333e	-0.03984379
174	0x3d8539f7	0.065051965
175	0x3d9bb7ab	0.07603391
176	0xbb73ee6b	-0.0037220966
177	0x3d3a514a	0.04548768
178	0x3d94fc60	0.07274699
179	0xbd685e49	-0.056730542
180	0xbd391c84	-0.04519321
181	0x3c8d7a85	0.017270336
182	0x3c1e0c92	0.009646552
183	0x3c919c78	0.017774805
184	0x3d85a497	0.06525534
185	0xba4544e2	-0.0007525218
186	0x3d19b052	0.037521668
187	0xb9b6156a	-0.000347297
188	0x3d7548ff	0.059884068
189	0x3d153ac6	0.036433004
190	0xbca3222c	-0.019913755
191	0xbd67671e	-0.056494825
192	0x3cf92f02	0.030417923
193	0xbd70c903	-0.05878545
194	0x3cd7bb78	0.02633451
195	0xbda00f43	-0.07815411
196	0xbcb414c1	-0.021982552
197	0xbd810467	-0.06299668
198	0xbc5577f4	-0.013029087
199	0xbc8d2ae1	-0.01723236
200	0xbd116720	-0.03549874
201	0xbd823452	-0.063576356
202	0xbada27fe	-0.0016643999
203	0x3d4b53e9	0.04964057
204	0xbd945e4a	-0.07244547
205	0x3d3ea8ed	0.04654782
206	0x3d681805	0.05666353
207	0x3be1b7f3	0.0068883835
208	0xbd97f853	-0.07420411
209	0xbd9d7e27	-0.07690077
210	0xbd86e92f	-0.06587445
211	0x3c306892	0.010767119
212	0x3d125f06	0.035735153
213	0x3c2a0fa9	0.01037971
214	0xbc3454c1	-0.011006535
215	0xbc8e061d	-0.0173369
216	0xbc6b0e04	-0.014346603
217	0x3cf818c7	0.030285252
218	0x3d7765f0	0.06039995
219	0xbd592c1c	-0.05302058
220	0xbcbc075b	-0.022952726
221	0x3d8c5886	0.06852822
222	0x3d721c58	0.059109062
223	0x3d16e21b	0.036836725
224	0xbd8693d0	-0.06571162
225	0x3d6ee006	0.058319114
226	0x3bf13a4c	0.007361686
227	0xbd705acd	-0.058680344
228	0x3d687d41	0.056760076
229	0xbcf80323	-0.030274933
230	0xbd1e04ef	-0.038578924
231	0x3c255c4c	0.010092806
232	0x3c778b28	0.015108861
233	0xbd3cb5c6	-0.04607179
234	0x3ce27283	0.027642494
235	0xbd8ec5d2	-0.06971325
236	0xbce610a7	-0.028084112
237	0x3d4b9aa8	0.04970804
238	0xbcc04470	-0.023470134
239	0xbd96a2d1	-0.073552735
240	0x3d31a4a2	0.043369897
241	0x3cae142d	0.021249855
242	0xbc471cf7	-0.012152902
243	0x3d116b8c	0.035502955
244	0x3d8423d7	0.064521484
245	0x3d42ab08	0.04752639
246	0xbd3a8065	-0.045532603
247	0xbc98fdfb	-0.018675795
248	0xbd730598	-0.059331506
249	0x3d7be9e1	0.06150234
250	0x3d58ea6e	0.052957945
251	0xbd01884f	-0.031624135
252	0xbd667e24	-0.05627264
253	0x3c787dc6	0.0151667055
254	0x3d06e49c	0.032932863
255	0xbd1a4412	-0.037662573

weight f4 [300, 200]
0	0x3d0d1d0e	0.034451537
1	0xbd895f5e	-0.06707643
2	0xbd8ce52d	-0.06879649
3	0x3bfcf006	0.0077190427
4	0x3cdb019c	0.026734166
5	0x3cf7690d	0.03020146
6	0x3bdf026d	0.006805709
7	0xbcf85ade	-0.030316766
8	0xbd3c92b4	-0.046038345
9	0x3cdee1d5	0.027207294
10	0x3cf6cda4	0.030127354
11	0xbd659e22	-0.05605901
12	0xbce017cd	-0.0273551
13	0x3d1a6aab	0.037699383
14	0xbd713314	-0.058886603
15	0x3c947a83	0.018124824
16	0xbd801eb6	-0.06255858
17	0x3d60596e	0.054772787
18	0x3d3525f6	0.044225655
19	0x3cd66801	0.02617264
20	0x3c3c4fc5	0.011493628
21	0xbd542e60	-0.05180204
22	0xbab5f968	-0.0013883533
23	0x3cc9bd0a	0.024626274
24	0xbbe70a79	-0.007050809
25	0xbd63f823	-0.055656563
26	0xbd81e03c	-0.063415974
27	0x3af1af82	0.0018439146
28	0xbd4e2313	-0.050326418
29	0x3c78e350	0.015190914
30	0x3d89b3c6	0.06723742
31	0xbca47f41	-0.02008021
32	0xbd8a9fdc	-0.06768772
33	0x3d3a91e5	0.045549292
34	0xbd898f0d	-0.06716738
35	0x3d388d88	0.04505685
36	0x3d8d4079	0.06897063
37	0xbd2fd6bf	-0.042929407
38	0x3c330c5d	0.010928241
39	0x3cc82bf5	0.024435023
40	0x3c343309	0.010998496
41	0xbd8b5afd	-0.06804464
42	0xbcd64122	-0.026154105
43	0xbc98899d	-0.018620307
44	0x3d96019d	0.073245265
45	0xbc98bd3d	-0.018644923
46	0x3cfbe8e2	0.030750696
47	0x3d7552de	0.05989348
48	0x3cb54829	0.022129135
49	0x3cb28ced	0.021795714
50	0xbd6e9887	-0.05825093
51	0x3cc5c36b	0.024141034
52	0xbc55989e	-0.013036875
53	0x3ccd0d53	0.025030768
54	0xbca0f930	-0.019650072
55	0x3cae907f	0.021309135
56	0xbcc037e0	-0.023464143
57	0x3b96f241	0.0046065156
58	0x3d9e3811	0.077255376
59	0xbd35e649	-0.04440907
60	0x3cce2a4a	0.02516665
61	0x3d437398	0.04771766
62	0x3ce3589a	0.02775221
63	0x3d1b3fa0	0.037902474
64	0xbcc6b5c4	-0.024256594
65	0xbd21db7f	-0.03951597
66	0x3d7cc0b5	0.061707217
67	0xbd039b70	-0.03213066
68	0xbd335a36	-0.043787204
69	0x3cfda261	0.030961217
70	0x3aa60c48	0.0012668455
71	0xbced5397	-0.028970523
72	0xbd7d8725	-0.061896462
73	0x3ca2d540	0.019877076
74	0x3c905278	0.01761745
75	0x3ccb522a	0.024819452
76	0x3c8c60fb	0.017136088
77	0xbcdf5b53	-0.027265226
78	0x3d3cc840	0.04608941
79	0x3d53c3be	0.051700346
80	0x3d7b3299	0.06132755
81	0xbd54a3b1	-0.05191392
82	0x3b95f314	0.0045760963
83	0x3c3db005	0.011577611
84	0x3d582129	0.052766
85	0x3d98daec	0.07463631
86	0x3cd08cc0	0.02545774
87	0x3d06adcc	0.03288059
88	0x3c1f1d30	0.009711549
89	0x3d93b9f5	0.07213203
90	0x3b74c214	0.0037347125
91	0x3d325888	0.04354146
92	0x3c397d76	0.011321416
93	0x3d541e32	0.05178661
94	0xbd13dff9	-0.03610227
95	0x3b7e9651	0.003884692
96	0xbd6aa5da	-0.057287075
97	0x3d2becb8	0.0419738
98	0xbd1d163b	-0.03835128
99	0xbd1618bb	-0.03664468
100	0xbd87718e	-0.06613456
101	0xbc17b834	-0.009260226
102	0x3ceacd2c	0.028662287
103	0xbd2f104a	-0.042740144
104	0xbd178631	-0.03699321
105	0x3d12015c	0.035645828
106	0xbd9ccc8c	-0.07656202
107	0x3d8ce46d	0.06879506
108	0xbbbc79e0	-0.0057518333
109	0xbd48bb7e	-0.04900693
110	0x3afb798a	0.0019186002
111	0x3c785b91	0.01515855
112	0x3d6a8954	0.057259873
113	0x3c82581f	0.01591116
114	0x3d8de036	0.069275305
115	0x3a3eae0d	0.00072738604
116	0x3d37a0d1	0.0448311
117	0xbd8385eb	-0.06422027
118	0xbd83d2e6	-0.0643671
119	0x3c9160f8	0.017746434
120	0x3afc0629	0.001922791
121	0xbd62fc3d	-0.055416334
122	0x3d8f3299	0.069920726
123	0xbbd36ded	-0.006452313
124	0xbd415ecb	-0.047209542
125	0x3b838707	0.0040138992
126	0x3cc45252	0.023965035
127	0x3c7ad7df	0.015310257
128	0x3da1f1be	0.07907437
129	0xbd85e80a	-0.065383986
130	0x3b9789d8	0.0046245866
131	0x3d578727	0.052619126
132	0x3bbff3af	0.005857907
133	0xbd2007d2	-0.039069958
134	0xbcca6941	-0.024708392
135	0xbd31c8e9	-0.043404493
136	0x3c5321ce	0.012886478
137	0x3b4daa70	0.0031382106
138	0x3d47dd90	0.048795283
139	0xbd594690	-0.05304581
140	0x3ab373a3	0.0013691079
141	0xbcadc678	-0.021212801
142	0xbd300a8b	-0.042978805
143	0xbd4bd220	-0.049760938
144	0xbd597c33	-0.05309696
145	0x3b77f36f	0.0037834307
146	0xbd8278df	-0.063707106
147	0x3d0bf7d3	0.03417189
148	0xbd252954	-0.040322617
149	0xbba72c07	-0.005101684
150	0x3cae7dfe	0.021300312
151	0x3d6ce173	0.057832193
152	0x3c168030	0.009185836
153	0x3ca38419	0.01996045
154	0x3cc4305e	0.023948845
155	0xbd8f4085	-0.06994728
156	0x3ced55f3	0.028971648
157	0x3d1a6773	0.037696313
158	0x3d9429c2	0.07234527
159	0xbd4f2fef	-0.050582822
160	0x3ce171c2	0.027520064
161	0xbcbc1ca6	-0.02296288
162	0xbd3cb53d	-0.04607128
163	0x3d6813f6	0.05665966
164	0xba9abe71	-0.0011806024
165	0xbd4758a4	-0.04866852
166	0xbce61eb0	-0.028090805
167	0xbd8d3ac3	-0.068959735
168	0xbd2d9c52	-0.042385407
169	0x3d8bde4b	0.068295084
170	0xbd1c55b1	-0.03816766
171	0xbd89120c	-0.06692895
172	0xbd0b614f	-0.034028348
173	0xbd783c1b	-0.060604196
174	0x3c0e6b6f	0.008692606
175	0xbc88c2a5	-0.016694376
176	0x3d65c380	0.056094646
177	0x3c5d5652	0.01350935
178	0x3b948e58	0.0045335703
179	0xbd6627e2	-0.05619038
180	0xbca3b1ec	-0.0199823
181	0x3d87b89d	0.06627009
182	0xbd64d044	-0.05586268
183	0xbd339f26	-0.043852948
184	0x3d3099d5	0.043115456
185	0xbd69e32e	-0.05710142
186	0x3d30ef72	0.043197103
187	0x3d66e23e	0.056368105
188	0x3c8348e1	0.016025962
189	0xbd928647	-0.071545176
190	0xbd08a61e	-0.033361547
191	0xbd0a60b4	-0.03378363
192	0x3bdd83c0	0.0067600906
193	0xbcd0a81a	-0.025470782
194	0x3d1861ca	0.037202634
195	0xbd872f40	-0.06600809
196	0x3d66c2a3	0.056337964
197	0xbd44b3da	-0.048023082
198	0xbcc7b672	-0.024378989
199	0x3da4254a	0.08014925
200	0xbcf7e323	-0.030259674
201	0x3b6ee1df	0.0036450548
202	0xbd78d7c5	-0.06075265
203	0x3b4a11b3	0.0030833303
204	0x3d79aae3	0.060953986
205	0x3bc597c0	0.006030053
206	0xbd06e940	-0.03293729
207	0x3cf718db	0.03016322
208	0x3cc95414	0.024576224
209	0x3d771c3e	0.06032967
210	0x3d0c6404	0.03427507
211	0xbd9cdf28	-0.07659751
212	0x3d040f54	0.03224118
213	0xbd51d611	-0.05122954
214	0xbbae1f78	-0.00531381
215	0x3d2f217c	0.042756543
216	0xbbd1f916	-0.006407867
217	0xbc89c203	-0.016816145
218	0x3d51e0ea	0.051239885
219	0xbc7977bd	-0.015226302
220	0x3d3fa35e	0.04678666
221	0xbd7c7cb3	-0.06164236
222	0x3aa69b82	0.001271114
223	0x3ba3d7dc	0.0050000977
224	0x3b6a7c89	0.0035779795
225	0xbc82b3b5	-0.015954832
226	0x3d980102	0.07422067
227	0x3d139b20	0.03603661
228	0xbbc7b0a1	-0.006094054
229	0xbcb5ff62	-0.022216503
230	0x3cf6d270	0.030129641
231	0xbd461049	-0.048355374
232	0x3c9c729e	0.019097622
233	0xbc73fa7b	-0.014891262
234	0xbd2d59e3	-0.04232205
235	0x3d65a6ff	0.056067463
236	0x3d77be43	0.060484182
237	0x3c4b030e	0.012390865
238	0xbd6dd33e	-0.058062784
239	0xbc0c4ed5	-0.008563717
240	0x3bca41fa	0.006172416
241	0xbd6c10c6	-0.057633184
242	0x3d6831c8	0.0566881
243	0x3d0ef8aa	0.034905113
244	0x3d17f0c7	0.037094858
245	0xbc28335e	-0.010266153
246	0xbd5fa4f9	-0.05460069
247	0x3d22b9c7	0.039727952
248	0x3d7dd23f	0.061968084
249	0xbc88c8dc	-0.01669734
250	0x3d571c7e	0.052517407
251	0xb956fbd2	-0.00020502441
252	0x3ce70c77	0.028204186
253	0xbd6e324c	-0.058153436
254	0xbd6198b8	-0.055077285
255	0xbd652bec	-0.05595009

weight f4 [300]
0	0x3f800522	1.0001566
1	0x3f813af4	1.0096116
2	0x3f7e7f0e	0.9941262
3	0x3f80529a	1.0025208
4	0x3f7e7d89	0.994103
5	0x3f802fba	1.0014565
6	0x3f804777	1.0021809
7	0x3f7e1563	0.99251384
8	0x3f8015da	1.0006669
9	0x3f8137f0	1.0095196
10	0x3f82441f	1.0177039
11	0x3f7f408c	0.99707866
12	0x3f7fb874	0.9989083
13	0x3f803319	1.0015594
14	0x3f80ef8f	1.0073107
15	0x3f7f54cd	0.9973877
16	0x3f812a91	1.0091115
17	0x3f7e15d7	0.99252075
18	0x3f80bc29	1.0057422
19	0x3f7ece52	0.9953357
20	0x3f80c015	1.0058619
21	0x3f7c1a00	0.9847717
22	0x3f7fd1c5	0.9992946
23	0x3f805958	1.0027266
24	0x3f7d8af0	0.99040127
25	0x3f7e254e	0.9927567
26	0x3f81b8ac	1.0134482
27	0x3f7eb205	0.99490386
28	0x3f8062fd	1.0030209
29	0x3f7dc0a3	0.99122065
30	0x3f7e7d0f	0.99409574
31	0x3f809804	1.0046391
32	0x3f7eea84	0.9957659
33	0x3f7d8661	0.9903317
34	0x3f7da119	0.9907394
35	0x3f805cdd	1.002834
36	0x3f7eee2d	0.9958218
37	0x3f8041a3	1.0020031
38	0x3f7f7a8e	0.9979638
39	0x3f7e526f	0.99344534
40	0x3f7ecf8b	0.99535435
41	0x3f7d3589	0.98909813
42	0x3f7e8d8b	0.9943473
43	0x3f802161	1.0010186
44	0x3f80c1ae	1.0059106
45	0x3f80a5bc	1.0050578
46	0x3f805feb	1.0029272
47	0x3f7f86d1	0.9981509
48	0x3f7fc128	0.9990411
49	0x3f808a6e	1.0042245
50	0x3f7db647	0.9910626
51	0x3f7dbe62	0.99118626
52	0x3f80131f	1.0005835
53	0x3f80308b	1.0014814
54	0x3f823408	1.0172129
55	0x3f7ca698	0.986917
56	0x3f8091f7	1.0044545
57	0x3f7f7f8b	0.9980399
58	0x3f7dea78	0.99185896
59	0x3f800d49	1.0004054
60	0x3f819bdf	1.0125693
61	0x3f8012f6	1.0005786
62	0x3f817a46	1.011544
63	0x3f81a461	1.012829
64	0x3f80e8db	1.0071062
65	0x3f7ff2ca	0.9997984
66	0x3f813c82	1.009659
67	0x3f7f2316	0.9966291
68	0x3f807927	1.0036973
69	0x3f817dc1	1.0116502
70	0x3f80556a	1.0026066
71	0x3f7dfe67	0.9921631
72	0x3f814190	1.0098133
73	0x3f7f79b0	0.99795055
74	0x3f81a651	1.0128881
75	0x3f7fd09b	0.9992768
76	0x3f7cdf9e	0.9877871
77	0x3f801893	1.00075
78	0x3f7f8392	0.99810135
79	0x3f7e8696	0.9942411
80	0x3f7dfae4	0.99210954
81	0x3f802f9a	1.0014527
82	0x3f7f752e	0.99788177
83	0x3f7db09b	0.99097604
84	0x3f7c9950	0.98671436
85	0x3f7fd238	0.99930143
86	0x3f819849	1.0124599
87	0x3f8151b7	1.0103062
88	0x3f7de18b	0.99172276
89	0x3f815fc6	1.0107353
90	0x3f7fe24b	0.9995467
91	0x3f8122dd	1.0088764
92	0x3f7cc7b8	0.98742247
93	0x3f80981a	1.0046418
94	0x3f804450	1.0020847
95	0x3f7ec214	0.9951489
96	0x3f7ee37d	0.9956587
97	0x3f80529b	1.0025209
98	0x3f7f6088	0.9975667
99	0x3f81b54f	1.0133456
100	0x3f7fe1d5	0.9995397
101	0x3f7f4877	0.9971995
102	0x3f7ff81b	0.99987954
103	0x3f802299	1.0010558
104	0x3f7fc8e3	0.99915904
105	0x3f80333c	1.0015635
106	0x3f7e29c1	0.9928246
107	0x3f812a45	1.0091025
108	0x3f7f2ea7	0.9968056
109	0x3f81a5e2	1.0128748
110	0x3f807987	1.0037087
111	0x3f7ef3c9	0.99590737
112	0x3f7efd18	0.9960494
113	0x3f8091a0	1.0044441
114	0x3f817356	1.0113323
115	0x3f7dab46	0.9908947
116	0x3f80196f	1.0007762
117	0x3f7edf6f	0.9955968
118	0x3f829667	1.0202149
119	0x3f8078d3	1.0036873
120	0x3f7ec55c	0.99519897
121	0x3f8094ce	1.0045412
122	0x3f80497c	1.0022426
123	0x3f81f4dd	1.0152851
124	0x3f80eddd	1.007259
125	0x3f7dc27f	0.991249
126	0x3f7d9069	0.9904848
127	0x3f7ede64	0.9955809
128	0x3f819608	1.0123911
129	0x3f7b7d81	0.9823838
130	0x3f823071	1.0171033
131	0x3f7f6fac	0.9977977
132	0x3f8146c3	1.009972
133	0x3f80fad1	1.0076543
134	0x3f80fd40	1.0077286
135	0x3f807c88	1.0038004
136	0x3f80d49f	1.0064887
137	0x3f7f1c82	0.99652874
138	0x3f806247	1.0029992
139	0x3f7fd6de	0.99937236
140	0x3f80d575	1.0065142
141	0x3f7f8464	0.9981139
142	0x3f7fc699	0.9991241
143	0x3f7fc06e	0.99903
144	0x3f7dc5f4	0.9913018
145	0x3f80ca87	1.0061806
146	0x3f7d8957	0.9903769
147	0x3f800744	1.0002217
148	0x3f819286	1.012284
149	0x3f80aa4b	1.0051969
150	0x3f7ce282	0.98783123
151	0x3f7e3f53	0.99315375
152	0x3f7f2bb3	0.99676055
153	0x3f8028b4	1.0012422
154	0x3f803c78	1.0018454
155	0x3f8051d2	1.002497
156	0x3f807b7a	1.0037682
157	0x3f80efb2	1.0073149
158	0x3f81ad3f	1.0130996
159	0x3f80689a	1.0031922
160	0x3f80edcb	1.0072569
161	0x3f7fa99d	0.99868184
162	0x3f7f2c53	0.9967701
163	0x3f811036	1.0083072
164	0x3f7db437	0.9910311
165	0x3f7d7689	0.99008995
166	0x3f7ef1d8	0.99587774
167	0x3f7d68a6	0.98987806
168	0x3f7fd436	0.99933183
169	0x3f7e00a3	0.9921972
170	0x3f7e9bec	0.9945667
171	0x3f7fec10	0.9996958
172	0x3f801533	1.000647
173	0x3f7c96c8	0.98667574
174	0x3f820f9e	1.0161016
175	0x3f814c04	1.0101323
176	0x3f81361f	1.0094641
177	0x3f814ceb	1.0101599
178	0x3f80a31a	1.0049775
179	0x3f804334	1.0020509
180	0x3f7fcf3e	0.999256
181	0x3f7fd770	0.99938107
182	0x3f7df83a	0.9920689
183	0x3f816ba1	1.0110971
184	0x3f7fc473	0.9990913
185	0x3f80d352	1.006449
186	0x3f7dd0b4	0.9914658
187	0x3f7e39ed	0.9930714
188	0x3f7e4369	0.9932161
189	0x3f801eea	1.0009434
190	0x3f7dcf7f	0.9914474
191	0x3f7edcd4	0.99555707
192	0x3f7e206e	0.99268234
193	0x3f7c8796	0.9864439
194	0x3f7f59a2	0.99746144
195	0x3f806f42	1.0033953
196	0x3f80a2b3	1.0049652
197	0x3f7ebbeb	0.9950549
198	0x3f8022b5	1.0010592
199	0x3f7e456f	0.993247
200	0x3f7cd898	0.98767996
201	0x3f7fd2f6	0.99931276
202	0x3f7f66fe	0.9976653
203	0x3f81a1f8	1.0127554
204	0x3f7edd22	0.9955617
205	0x3f7f17e9	0.9964586
206	0x3f7d0e3d	0.9884985
207	0x3f7fe66a	0.9996096
208	0x3f80d0b0	1.0063686
209	0x3f7eedcb	0.99581593
210	0x3f81477f	1.0099944
211	0x3f80c089	1.0058757
212	0x3f80af06	1.0053413
213	0x3f7e6829	0.99377686
214	0x3f7ec868	0.99524546
215	0x3f7ebd7b	0.99507874
216	0x3f7fbb2e	0.9989499
217	0x3f7eb948	0.99501467
218	0x3f807b75	1.0037676
219	0x3f80f244	1.0073934
220	0x3f7b4ceb	0.9816424
221	0x3f8060a2	1.002949
222	0x3f808739	1.0041267
223	0x3f80d0d5	1.006373
224	0x3f80a193	1.0049309
225	0x3f805348	1.0025415
226	0x3f7e6773	0.993766
227	0x3f7aeed2	0.9802066
228	0x3f817c47	1.0116051
229	0x3f811c2d	1.0086724
230	0x3f7ebc28	0.99505854
231	0x3f7d2e73	0.98899
232	0x3f7d80f9	0.9902492
233	0x3f80ef98	1.0073118
234	0x3f80be9b	1.0058168
235	0x3f8120a8	1.0088091
236	0x3f7e9097	0.99439377
237	0x3f8062f6	1.00302
238	0x3f80a1bf	1.0049361
239	0x3f802251	1.0010473
240	0x3f7dc8d0	0.9913454
241	0x3f80398c	1.0017562
242	0x3f7f7a50	0.9979601
243	0x3f809f35	1.0048586
244	0x3f80ff8a	1.0077984
245	0x3f810ae6	1.0081451
246	0x3f7c99f2	0.986724
247	0x3f806e64	1.0033689
248	0x3f7fd60d	0.9993599
249	0x3f807180	1.0034637
250	0x3f81486c	1.0100226
251	0x3f7ea26c	0.99466586
252	0x3f7ef319	0.9958969
253	0x3f808380	1.0040131
254	0x3f7fe335	0.99956065
255	0x3f80831b	1.004001

bias f4 [300]
0	0x3a8de02e	0.0010824257
1	0xb9d19493	-0.00039974283
2	0x3bcf964f	0.006335057
3	0xbb85d667	-0.0040843966
4	0x3c00f10c	0.00786997
5	0x3b9c9a2b	0.0047791204
6	0x3b04a51c	0.0020240014
7	0xbb1aedc2	-0.002364025
8	0x3a20013e	0.0006103701
9	0xbb8e8e61	-0.004350469
10	0x3b9bf984	0.004759969
11	0x3bb42c96	0.005498479
12	0x399c6e2d	0.00029836726
13	0xbb3e0b70	-0.0028998516
14	0x3bd98039	0.0066376
15	0x39a0e776	0.0003069003
16	0xbba164f7	-0.004925366
17	0xb94683c0	-0.00018931832
18	0x3a017ccf	0.00049395574
19	0xbb611a69	-0.0034348017
20	0xb9db0d36	-0.00041780778
21	0xbc14541f	-0.009053259
22	0xbb3674ab	-0.0027840536
23	0x3b21c179	0.002468197
24	0xbb7e7eb4	-0.0038832845
25	0xbac42d76	-0.0014967162
26	0xbb67f7f2	-0.003539559
27	0x3c017754	0.007901985
28	0xbb92c68c	-0.004479235
29	0x3a6187f9	0.00086033304
30	0x3b99ec8d	0.0046973885
31	0x38be3b72	9.0709786e-05
32	0x3c3188bd	0.010835824
33	0xba87371a	-0.0010316104
34	0xbb3bb80d	-0.0028643638
35	0x3b8764dc	0.0041318964
36	0x3b1461f8	0.0022641402
37	0x3c1e3abc	0.009657558
38	0x3a1b56a5	0.0005925692
39	0x3abdbde4	0.0014476147
40	0x3b62214a	0.0034504705
41	0xbb5df0a5	-0.003386536
42	0xbba4d110	-0.005029805
43	0x3be3804e	0.0069427853
44	0xbaf904e0	-0.0018998645
45	0xbbb38c27	-0.005479354
46	0x3aceb883	0.0015771542
47	0xbb114bad	-0.002217035
48	0xbb36514d	-0.0027819455
49	0xbc0dd2fa	-0.008656258
50	0x3ab476af	0.0013768281
51	0xbb7820a7	-0.003786126
52	0x3b598e9b	0.0033196572
53	0xbc62a32b	-0.013832848
54	0xbb7868ac	-0.0037904186
55	0x3b4ac0f8	0.0030937772
56	0xbb8174d0	-0.0039506927
57	0x38a81091	8.01395e-05
58	0xbad01ba8	-0.0015877383
59	0x3a0d2ce5	0.0005385413
60	0xb951e625	-0.00020017529
61	0xb99d64d9	-0.0003002051
62	0x3a826a19	0.0009949832
63	0xbadfb574	-0.0017067627
64	0xbb406c32	-0.0029361364
65	0xbadd7982	-0.0016897174
66	0x3abb1e4b	0.0014275996
67	0x3a363e6d	0.0006952051
68	0x3bc449e2	0.005990253
69	0x39bfa9cb	0.00036556865
70	0xbc2ab558	-0.010419212
71	0xbbb16c65	-0.005414533
72	0xbbc6839a	-0.0060581686
73	0xbb1c98c1	-0.002389476
74	0x3bb428fe	0.0054980507
75	0xbb45f47e	-0.0030205543
76	0x3a053daa	0.0005082736
77	0x3a3af253	0.0007131446
78	0xbb8db3dc	-0.0043244194
79	0xbba2d52d	-0.00496926
80	0x3ba03371	0.004888945
81	0xbc102cc2	-0.008799734
82	0x3be90714	0.0071114395
83	0xbb66958b	-0.003518435
84	0x3b690be9	0.0035560078
85	0x3730faae	1.0548783e-05
86	0xbb02f725	-0.0019983735
87	0xbb12acf0	-0.002238091
88	0x3b173455	0.0023071964
89	0x3b80c75a	0.0039300146
90	0xba8ab47e	-0.0010582355
91	0x3b4f6596	0.0031646243
92	0x3bf76abf	0.007550567
93	0xbbe2431b	-0.0069049723
94	0xbb0e5747	-0.0021719502
95	0xbba8687a	-0.0051394077
96	0xba153be8	-0.00056928257
97	0x3b8c34e4	0.004278766
98	0xbb84b3a5	-0.0040497356
99	0xbba2bc17	-0.0049662697
100	0x3c00efc8	0.007869668
101	0x396d374a	0.00022622678
102	0xba934b57	-0.0011237663
103	0x3be4c7ae	0.0069818115
104	0x3b6f9628	0.0036558006
105	0xbbac2347	-0.005253229
106	0xbadc622e	-0.0016813928
107	0x3b8f1197	0.0043661105
108	0x3bb307e7	0.0054635885
109	0x3bb75856	0.0055952473
110	0xbb0fd415	-0.002194648
111	0xbc3f1dae	-0.011664791
112	0xbb0a7a44	-0.0021130005
113	0xba7412a2	-0.0009310638
114	0xbc0f4981	-0.008745552
115	0x3c10a45a	0.008828247
116	0x3bd2d256	0.0064337654
117	0x3ad81135	0.001648462
118	0xb967b920	-0.00022098841
119	0xbb4cdca0	-0.0031259432
120	0xba03a62f	-0.00050220167
121	0xb9956002	-0.00028491026
122	0x3b4b98db	0.003106645
123	0xbbac08a4	-0.0052500535
124	0xbb0d69b4	-0.0021577897
125	0xbba7bb20	-0.0051187426
126	0xbc427711	-0.011869208
127	0xbbc20b8d	-0.005921787
128	0x3b6b8cba	0.0035942034
129	0xbc071772	-0.008245336
130	0xbb2e736e	-0.0026619094
131	0x3a944b35	0.0011313917
132	0x3bed5dc8	0.0072438456
133	0xbb55d2af	-0.0032626798
134	0xbba70967	-0.0050975564
135	0xbc137316	-0.008999607
136	0x3ac8b5c9	0.0015312965
137	0xbb16636f	-0.002294745
138	0xb9d8efe0	-0.0004137745
139	0xba2f93ea	-0.0006697761
140	0x3a9389c9	0.0011256273
141	0xbba9ffd5	-0.0051879683
142	0xbb9a822a	-0.004715224
143	0xb8c06225	-9.173554e-05
144	0xbb4784e8	-0.0030444209
145	0xba0c8964	-0.0005361049
146	0xbc144fea	-0.009052256
147	0xbc041b5f	-0.008063166
148	0x3a5c7eef	0.00084112486
149	0x3ba5d8d1	0.005061247
150	0xb82d88d4	-4.1373845e-05
151	0x3bf8c779	0.0075921384
152	0x3be7ca00	0.007073641
153	0x3ad28ef4	0.0016064332
154	0xbac315e4	-0.0014883843
155	0x3b62990a	0.0034576082
156	0xba7c6048	-0.0009627384
157	0xbaccf26a	-0.001563621
158	0x3b1114f0	0.0022137724
159	0x3b2f6e3e	0.002676859
160	0xbbcdd086	-0.0062809614
161	0xbb8d2b7e	-0.004308163
162	0x3be14363	0.006874488
163	0xbb6bb797	-0.0035967582
164	0x3baa8d4e	0.005204833
165	0xbac1d99e	-0.0014789586
166	0x3aac0882	0.0013125094
167	0xbb884205	-0.0041582608
168	0x3b3c8e24	0.0028771246
169	0x3b7d8b4f	0.003868777
170	0x3c0980f0	0.0083925575
171	0xba908c02	-0.0011028054
172	0x3bc2541c	0.005930437
173	0x3bb63d81	0.005561531
174	0x3a9e254f	0.0012065562
175	0xba93060a	-0.001121701
176	0xb9d15cc4	-0.00039932702
177	0xbb50ad92	-0.0031841737
178	0x3bcd00b7	0.0062561887
179	0x3c2b68bb	0.010461981
180	0xbba81df0	-0.005130522
181	0x3b071d6e	0.0020616907
182	0xbbd0fd4a	-0.0063778507
183	0x3b64318c	0.0034819571
184	0x3b29c9d4	0.0025907652
185	0x3a01f1c8	0.00049569877
186	0xbb998519	-0.004685056
187	0xbbb96f5c	-0.005659027
188	0x3a4749c6	0.00076022407
189	0x3b05d676	0.0020422018
190	0x3bb98cdc	0.0056625437
191	0xba0d249b	-0.0005384178
192	0xbbc598c9	-0.0060301763
193	0x3bfaeb97	0.007657479
194	0xbb0a674e	-0.0021118703
195	0xbbb61547	-0.0055567357
196	0x3bb83651	0.0056217094
197	0xbc0f5abc	-0.00874966
198	0x3b3c48e1	0.0028729963
199	0xbadf10c8	-0.0017018551
200	0xbb335759	-0.0027365296
201	0xbb59f533	-0.0033257722
202	0x3a26bfe5	0.0006360992
203	0xbb20b627	-0.0024522634
204	0xbb1be3fb	-0.002378701
205	0x3ada579d	0.0016658191
206	0xbafbfaae	-0.0019224489
207	0x3aa04c5f	0.0012229792
208	0x3ac0a1c8	0.0014696652
209	0xbab0e386	-0.0013495542
210	0x3c02edde	0.007991282
211	0x3b1fbed1	0.002437521
212	0x3b27aa97	0.0025583857
213	0x3c1705a7	0.009217656
214	0xbb70c4f6	-0.0036738492
215	0xbb486c83	-0.0030582256
216	0xba4b73a8	-0.00077610696
217	0x3bef36ff	0.007300257
218	0xbba77609	-0.0051105064
219	0x3ac74f5d	0.0015206147
220	0xbbd4fedf	-0.0065001096
221	0x3b0a6466	0.002111697
222	0x3acef5aa	0.0015789766
223	0xbb60c779	-0.0034298582
224	0xbb8290d6	-0.003984551
225	0x3ba95e41	0.0051687066
226	0x3b0f3420	0.0021851137
227	0xbb0813e6	-0.0020763814
228	0x3ae102c3	0.0017166961
229	0x3b22be66	0.0024832725
230	0x3bc3afa5	0.005971866
231	0xbc5b84e2	-0.013398381
232	0x3c05115f	0.008121817
233	0x3b9209fc	0.0044567566
234	0x3abccda8	0.0014404552
235	0x3ab3e32c	0.0013724319
236	0xbbdce13b	-0.0067407168
237	0x3ab706b1	0.0013963786
238	0xbacca6ad	-0.0015613638
239	0x3a125962	0.0005582777
240	0xbb9475dc	-0.0045306515
241	0x3c2a74bd	0.010403809
242	0xbbc5e0a7	-0.0060387435
243	0x3ba357d0	0.0049848333
244	0x3b0ae383	0.0021192736
245	0x3b88313a	0.004156259
246	0x3c2bbae4	0.01048157
247	0xbb55f8b5	-0.0032649462
248	0xba838247	-0.0010033333
249	0xba9871fa	-0.0011630647
250	0xbab8a1f6	-0.0014086354
251	0x3b9dbf99	0.0048141
252	0xbae8d490	-0.0017763544
253	0x3b865485	0.004099431
254	0x3c01a38d	0.007912529
255	0xbb69545b	-0.0035603258
