testbed/models_v4/lstmcell_time_link.pt (torch, 493146 bytes, 4 tensors)

weight_ih f4 [600, 1]
-0.051927328 0.046849787 -0.055653986 -0.037298974 0.0108273355 0.07975711 -0.007017842 0.056892104
-0.047023386 -0.07663213 -0.055644505 0.05563824 0.048003715 0.012889869 0.023385668 -0.0877956
0.00060230796 0.027278857 -0.03682669 -0.02692193 -0.06477404 0.03796857 0.09398787 -0.05216358
0.011184227 -0.07244933 0.0814682 -0.011080893 -0.077723294 0.1071388 0.032951538 0.018276988
-0.027168047 -0.033368606 -0.060053084 0.036037903 -0.01254463 0.035303436 -0.0321095 0.044441193
-0.024789855 0.06329593 -0.03943909 -0.09079666 0.07448338 -0.046996675 0.031546716 0.056807093
-0.012979944 -0.11693866 0.046735078 0.030435061 0.006457756 -0.0760787 0.054627746 0.06647667
0.078355305 0.0041860766 0.0070475247 0.05236067 0.03922915 0.06075759 -0.0153543595 -0.048857108
0.06840981 0.072971255 -0.042623106 0.026909923 -0.031582735 -0.010834481 -0.0048214043 -0.022095902
0.052894205 0.07881589 -0.025185611 0.0200545 0.031569537 0.049912024 0.03063198 0.048879314
0.014073064 0.048133653 -0.021481177 0.07113018 0.041668676 -0.09741857 0.042152796 -0.004271191
-0.10167578 -0.12319847 -0.006902658 0.037722446 -0.08316933 0.06740933 0.07288213 0.069824204
0.082819395 0.041207604 0.056756392 0.095234044 -0.06620099 0.05041399 0.03835499 0.058425717
-0.01703077 0.005238628 0.032729566 -0.04555854 -0.059946213 0.041698094 0.033650078 -0.01611013
0.028968126 -0.007403065 0.04199906 -0.033567075 0.051516667 0.030878507 -0.031887166 -0.002723881
0.03580566 0.0331518 -0.037338305 0.05112538 -0.06824781 0.027145514 0.043223206 -0.020424815
-0.018309366 -0.011053595 0.048351496 -0.109160975 0.024636269 0.0062271557 0.09300924 -0.06517039
0.03198572 -0.006999243 -0.0042524007 0.07086229 -0.0190856 0.030743865 -0.053576108 0.052139495
-0.05056146 -0.067164704 0.019880274 0.025001664 -0.031823408 -0.009743931 0.027621489 0.024074432
-0.04063036 0.035482787 -0.047506854 0.06770574 0.07310226 -0.096743114 -0.07855022 -0.022748964
0.012470523 0.03349118 -0.0040754504 -0.0824631 -0.047911752 0.04563 0.054257866 -0.036178526
0.062087025 0.04776632 -0.016338058 -0.029788788 -0.023787262 -0.07908294 -0.067755885 -0.06599939
-0.041066963 -0.019746922 -0.025718207 0.018563876 -0.016211014 -0.036144406 -0.062439688 0.053879447
-0.0502396 0.035705198 -0.034554992 -0.020371227 -0.0047055264 -0.030255046 -0.04444796 0.05328385
-0.008089657 -0.06971968 -0.0902368 0.03473476 0.09232786 -0.03731225 0.041162487 -0.087083004
0.055728503 0.07488062 0.047037337 0.04774334 -0.11449115 -0.0071907304 0.010487855 -0.032340195
-0.0036183174 0.052801557 0.040880237 0.008309281 0.04682642 0.0076848012 0.08123906 0.01232483
0.020492097 0.11232052 0.019850543 0.043622337 0.024579436 0.010809468 -0.01699941 -0.012184594
-0.019121453 -0.04582882 0.042059265 -0.048662778 0.052749295 -0.030808318 -0.0108204065 -0.010487727
-0.038383614 -0.009774776 0.019912677 -0.009552995 -0.031348545 0.07744282 -0.008112662 -0.061747253
0.0049426258 -0.0135958325 0.06521348 -0.033378094 0.03580236 -0.029526748 0.008621898 -0.00886
-0.0052050403 0.011156242 0.036910247 0.077883065 0.063227825 0.03987017 0.08218591 0.014513451
00000000: c0b1 54bd 90e5 3f3d 6ff5 63bd cfc6 18bd
00000010: 2365 313c b257 a33d edf5 e5bb b207 693d
00000020: 989b 40bd 4ef1 9cbd 7eeb 63bd ece4 633d
00000030: 8b9f 443d 0730 533c 4d93 bf3c 2ece b3bd
00000040: 34e4 1d3a e977 df3c 95d7 16bd 618b dcbc
00000050: 40a8 84bd ee84 1b3d b67c c03d 7aa9 55bd
00000060: 0c3e 373c 5060 94bd cdd8 a63d a28c 35bc
00000070: 642d 9fbd 966b db3d 31f8 063d 9fb9 953c
00000080: 868f debc 85ad 08bd 39fa 75bd 7b9c 133d
00000090: fe87 4dbc 569a 103d 4085 03bd f807 363d
000000a0: 1814 cbbc 4ca1 813d e28a 21bd 99f3 b9bd
000000b0: be8a 983d 967f 40bd 2137 013d 8eae 683d
000000c0: d5a9 54bc 897d efbd 486d 3f3d f352 f93c
000000d0: 959b d33b 26cf 9bbd 58c1 5f3d ec24 883d
000000e0: bf78 a03d 5b2b 893b ecee e63b 2478 563d
000000f0: bfae 203d f3dc 783d da90 7bbc 641e 48bd
00000100: 711a 8c3d f471 953d 9195 2ebd 3372 dc3c
00000110: e65c 01bd 1b83 31bc dffc 9dbb 7702 b5bc
00000120: 98a7 583d 3a6a a13d 0e52 cebc 5649 a43c
00000130: 0f4f 013d 8d70 4c3d ebef fa3c ad35 483d
00000140: b592 663c cb27 453d 4bf9 afbc b3ac 913d
00000150: c6ac 2a3d 6383 c7bd 69a8 2c3d 59f5 8bbb
00000160: 643b d0bd 7b4f fcbd b12f e2bb da82 1a3d
00000170: af54 aabd e70d 8a3d 3a43 953d feff 8e3d
00000180: 379d a93d 4ec9 283d 6479 683d 110a c33d
00000190: 6294 87bd e67e 4e3d 1f1a 1d3d ce4f 6f3d
000001a0: 1d84 8bbc cca8 ab3b 700f 063d 979b 3abd
000001b0: 298a 75bd 9fcb 2a3d aad4 093d 64f9 83bc
000001c0: 904e ed3c 6995 f2bb 3507 2c3d a17d 09bd
000001d0: 2403 533d ecf4 fc3c 1e9c 02bd 2483 32bb
000001e0: f5a8 123d 2fca 073d 0df0 18bd d968 513d
000001f0: 82c5 8bbd 4560 de3c d10a 313d f151 a7bc
00000200: 86fd 95bc 231a 35bc 380c 463d ca8f dfbd
00000210: 00d2 c93c 2b0d cc3b a17b be3d 0e78 85bd
00000220: 7503 033d e859 e5bb b957 8bbb 4020 913d
00000230: 6759 9cbc 8fda fb3c 9f72 5bbd 3990 553d
00000240: 8919 4fbd a68d 89bd f5db a23c 4ad0 cc3c
00000250: 4359 02bd 02a5 1fbc 7646 e23c be37 c53c
00000260: 056c 26bd 6656 113d 8c96 42bd 4fa9 8a3d
00000270: a3b6 953d 4121 c6bd f0de a0bd 095c babc
00000280: 2a51 4c3c 0c2e 093d 5b8b 85bb 6ae2 a8bd
00000290: 1d3f 44bd 86e6 3a3d 7f3d 5e3d ef2f 14bd
000002a0: f74e 7e3d 9ea6 433d 64d7 85bc 9e07 f4bc
000002b0: 81dd c2bc 3df6 a1bd 99c3 8abd b02a 87bd
000002c0: d535 28bd 4cc4 a1bc fdae d2bc 4513 983c
000002d0: f6cc 84bc 280c 14bd c2c0 7fbd b2b0 5c3d
000002e0: 0ac8 4dbd 9d3f 123d 8989 0dbd 8fe1 a6bc
000002f0: d130 9abb 6ed9 f7bc 100f 36bd 2b40 5a3d
00000300: 7b8a 04bc 31c9 8ebd 12ce b8bd 0946 0e3d
00000310: 6416 bd3d bbd4 18bd ff99 283d 9358 b2bd
00000320: 9243 643d 035b 993d 39aa 403d 858e 433d
00000330: 567a eabd 38a0 ebbb 41d5 2b3c 2777 04bd
00000340: 4b21 6dbb 7246 583d 0972 273d a723 083c
00000350: 0fcd 3f3d c9d0 fb3b aa60 a63d 15ee 493c
00000360: 0bdf a73c 4d08 e63d 9b9d a23c 56ad 323d
00000370: d05a c93c 321a 313c 5942 8bbc e4a1 47bc
00000380: 98a4 9cbc 00b7 3bbd 5646 2c3d 9f52 47bd
00000390: a50f 583d ba61 fcbc 1348 31bc b7d4 2bbc
000003a0: 2338 1dbd 6226 20bc e91f a33c 2a84 1cbc
000003b0: 5567 00bd 579a 9e3d f8ea 04bc b0ea 7cbd
000003c0: c0f5 a13b 0ec1 5ebc a58e 853d 78b7 08bd
000003d0: 7fa5 123d 14e2 f1bc dc42 0d3c 8929 11bc
000003e0: 0b8f aabb acc8 363c 332f 173d 2881 9f3d
000003f0: 977d 813d e74e 233d 1651 a83d d3c9 6d3c

weight_hh f4 [600, 200]
-0.024347324 0.05411872 -0.022748021 -0.04508024 -0.05011536 0.042417843 -0.027647823 0.011156419
-0.01470502 -0.06393255 0.02841624 0.06198193 -0.028805533 -0.0775438 -0.036442116 0.05449192
-0.0378996 -0.082371935 -0.052686263 -0.036506467 -0.037574198 0.06574182 0.015953317 0.05355728
0.07601149 -0.035075907 -0.006044657 -0.04197477 -0.0074921194 0.004509772 0.010311589 0.012443707
0.010578009 0.07263398 0.007890567 -0.049619902 -0.046872348 -0.049284548 -0.01496816 0.035277795
-0.078656815 -0.09019156 0.06895922 0.06346351 -0.0151043 0.0105096325 -0.03781549 -0.06638164
-0.022950027 0.052160937 0.022356994 -0.013017878 -0.03242047 0.06473287 -0.024737222 -0.04674848
0.007726409 -0.0041963416 -0.032878276 -0.06856109 -0.068981804 0.005543055 -0.049784224 0.009034034
0.029872559 -0.067795314 -0.05390915 -0.0072099925 0.0011458138 0.04599834 0.029516602 -0.05416607
-0.05356512 0.014269924 -0.00055752485 -0.04124156 -0.032596838 -0.07207473 0.06739839 -0.028446563
-0.041827142 -0.013851034 -0.012451654 0.041242413 0.045117106 0.064970076 0.05501495 -0.074498944
0.07727359 -0.06785234 -0.035758786 -0.0033637674 0.03347813 0.042517956 0.024228215 0.012178694
-0.017575907 0.008853495 -0.043032657 -0.012027417 0.042693578 0.035855316 -0.022627609 0.06203201
0.0029344782 0.044810824 0.04075109 -0.040754057 0.058384832 -0.06419117 -0.038139317 -0.02063455
-0.035289403 0.0167613 -0.067573175 -0.045529023 0.037782956 -0.058644455 -0.044675957 -0.0057722535
-0.08559325 -0.035689183 0.057777073 -0.036867242 -0.0048216055 -0.005082698 -0.021222401 -0.044249475
-0.0041607344 0.06855374 -0.030884877 -0.0016699838 -0.046556287 -0.022537641 -0.030403199 0.023178043
0.06930624 -0.07866041 0.0012001777 0.012281466 0.004557786 0.05849549 -0.045029923 -0.063376375
-0.038651843 0.057145108 0.038632438 0.013804235 -0.010527138 0.022309352 -0.04162115 0.06509209
-0.052789845 -0.07845475 -0.0010043894 0.046974637 0.03334695 -0.019183923 -0.013486112 -0.061777115
-0.046416413 -0.02723923 -0.024677886 0.028783157 0.043368366 -0.04236646 0.014692093 0.027886227
0.015090855 0.023787031 -0.009350853 0.03899678 0.032283146 0.0004932278 0.042174138 -0.0015559985
0.007984183 -0.030131327 0.020053945 -0.053866297 -0.0029227189 0.032907918 -0.0096762935 0.011408448
0.0010852285 -0.023626352 0.0034176204 -0.014297734 0.0016690688 -0.013017868 -0.08462909 0.031919774
0.020702438 -0.036449384 0.06277832 0.06171588 -0.05957783 -0.02216282 -0.00473132 0.023612853
0.03741224 -0.016420959 -0.034514032 -0.009478555 0.0076826965 0.05932238 -0.034619305 -0.04161243
0.040918443 -0.036997437 -0.036759052 -0.06016951 0.07798248 -0.057478707 -0.008369013 0.008909953
0.014645501 0.06279102 0.06762868 0.023829354 0.0039890115 0.0365811 -0.05274969 -0.016033554
0.018458499 -0.022854263 0.07537389 -0.0783354 -0.00077633996 -0.016133646 -0.027939416 -0.06908683
0.022391738 -0.03073577 0.027032152 0.05648711 0.024504561 0.03652086 0.048339818 0.016012449
0.033596452 0.032679524 0.03757818 -0.021835906 0.020372225 0.0051759104 0.06551923 0.040420283
0.008389268 -0.022892393 -0.01256118 0.06514768 0.017767923 -0.06317067 -0.007114656 0.026099812
00000000: 0a74 c7bc 97ab 5d3d 0f5a babc 0fa6 38bd
00000010: c445 4dbd 55be 2d3d b07d e2bc 6ac9 363c
00000020: 53ed 70bc 12ef 82bd 2dc9 e83c c4e0 7d3d
00000030: 95f9 ebbc 49cf 9ebd 5444 15bd eb32 5f3d
00000040: 9c3c 1bbd 9eb2 a8bd 8dcd 57bd ce87 15bd
00000050: 67e7 19bd a6a3 863d 88b0 823c e15e 5b3d
00000060: e9ab 9b3d c1ab 0fbd 4212 c6bb bded 2bbd
00000070: 7480 f5bb b6c6 933b f0f1 283c b1e0 4b3c
00000080: 634f 2d3c 20c1 943d 7047 013c 3d3e 4bbd
00000090: 38fd 3fbd 98de 49bd 033d 75bc 737f 103d
000000a0: d316 a1bd 5ab6 b8bd 7e3a 8d3d 28f9 813d
000000b0: 0778 77bc 9830 2c3c 6ae4 1abd 19f3 87bd
000000c0: b201 bcbc b5a6 553d 0426 b73c f048 55bc
000000d0: 54cb 04bd ab92 843d b7a5 cabc 567b 3fbd
000000e0: d12d fd3b 7781 89bb 5fab 06bd c269 8cbd
000000f0: 5546 8dbd 84a2 b53b 8bea 4bbd 7c03 143c
00000100: 4cb7 f43c 45d8 8abd d7cf 5cbd cd41 ecbb
00000110: 222f 963a c168 3c3d cdcc f13c 3edd 5dbd
00000120: 1967 5bbd 66cc 693c dc26 12ba e9ec 28bd
00000130: 4384 05bd eb9b 93bd 2b08 8a3d c408 e9bc
00000140: f052 2bbd 73ef 62bc 0602 4cbc ceed 283d
00000150: b7cc 383d 080f 853d 5b57 613d e792 98bd
00000160: 9e41 9e3d 2bf6 8abd ce77 12bd a772 5cbb
00000170: 5d20 093d 4f27 2e3d 407a c63c 2589 473c
00000180: 59fb 8fbc 400e 113c 0343 30bd a50e 45bc
00000190: 76df 2e3d 06dd 123d 895d b9bc 4715 7e3d
000001a0: 6050 403b 8e8b 373d 9dea 263d baed 26bd
000001b0: ef24 6f3d a976 83bd f937 1cbd ca09 a9bc
000001c0: 9f8b 10bd fe4e 893c ce63 8abd a47c 3abd
000001d0: 4dc2 1a3d 2b35 70bd 23fe 36bd 2c25 bdbb
000001e0: 844b afbd d22e 12bd a7a7 6c3d 1b02 17bd
000001f0: 8ffe 9dbb c38c a6bb 9ada adbc f03e 35bd
00000200: c556 88bb e765 8c3d 4802 fdbc 5ce3 daba
00000210: ceb1 3ebd dca0 b8bc 2110 f9bc e1df bd3c
00000220: 6ef0 8d3d b618 a1bd 484f 9d3a 3438 493c
00000230: 7b59 953b f898 6f3d 4c71 38bd 79cb 81bd
00000240: 6551 1ebd fd10 6a3d 0c3d 1e3d 282b 623c
00000250: 047a 2cbc 1ac2 b63c f07a 2abd 004f 853d
00000260: 2a3a 58bd e2ac a0bd b7a5 83ba 7a68 403d
00000270: d096 083d 9a27 9dbc daf4 5cbc 000a 7dbd
00000280: 231f 3ebd ce24 dfbc 4729 cabc a8ca eb3c
00000290: 07a3 313d 7488 2dbd 1bb7 703c a871 e43c
000002a0: a23f 773c 05dd c23c 5234 19bc 16bb 1f3d
000002b0: 553b 043d f54b 013a cabe 2c3d a5f2 cbba
000002c0: 17d0 023c f9d5 f6bc 2c48 a43c e8a2 5cbd
000002d0: 168b 3fbb 74ca 063d 5189 1ebc 80ea 3a3c
000002e0: 3a3e 8e3a 0d8c c1bc 28fa 5f3b 0b41 6abc
000002f0: a8c4 da3a e548 55bc 0452 adbd 4fbe 023d
00000300: 2998 a93c f34b 15bd eb91 803d cac9 7c3d
00000310: e207 74bd cd8e b5bc 3009 9bbb be6f c13c
00000320: 943d 193d 3f85 86bc 965e 0dbd f14b 1bbc
00000330: 21bf fb3b 06fc 723d f9cc 0dbd cc71 2abd
00000340: 199a 273d a08a 17bd a990 16bd 4e74 76bd
00000350: 47b5 9f3d cb6e 6bbd 2f1e 09bc 0dfb 113c
00000360: aff3 6f3c 9498 803d e880 8a3d c735 c33c
00000370: 41b6 823b 10d6 153d 0f10 58bd cd58 83bc
00000380: 4736 973c dd38 bbbc a05d 9a3d 4f6e a0bd
00000390: 4b83 4bba b52a 84bc 34e1 e4bc 657d 8dbd
000003a0: e16e b73c 95c9 fbbc 8872 dd3c 075f 673d
000003b0: cabd c83c e696 153d f9ff 453d 8a2c 833c
000003c0: 6f9c 093d f7da 053d 94eb 193d 37e1 b2bc
000003d0: a7e3 a63c af9a a93b f22e 863d bd8f 253d
000003e0: 2473 093c d488 bbbc 68cd 4dbc 266c 853d
000003f0: 098e 913c a05f 81bd 0f22 e9bb 46cf d53c

bias_ih f4 [600]
-0.02107088 -0.06624764 -0.040348697 -0.022460872 -0.050829526 0.060522594 0.0032383283 0.033144917
-0.019076526 0.022814563 0.054890797 -0.06150512 0.026450183 0.0107108485 0.06873903 -0.038111046
-0.06503554 0.038042296 -0.016374573 -0.005729644 -0.031215835 -0.005662013 -0.035220083 0.0027060988
-0.0073638875 -0.074653774 -0.01905083 -0.042751566 0.012627968 0.019413525 -0.0400951 0.056332562
0.07073875 0.005010538 0.031684306 0.0320178 -0.04171494 0.0561918 -0.010386783 -0.040097184
-0.011503766 0.0644326 -0.042561363 0.04630728 -0.015144548 0.041248582 -0.016513113 -0.06839618
-0.01697124 -0.0819472 -0.06801816 -0.03887219 -0.012864523 -0.061127655 -0.07290041 0.046350904
0.036607053 0.025191374 -0.0087840445 -0.0634412 -0.072662644 -0.008908173 0.028978666 0.035639483
0.027802113 0.040124685 -0.0242777 0.028487243 -0.0056738444 -0.013120416 -0.014423347 -0.07780114
0.028145144 -0.00974651 0.0768508 -0.06449987 0.013075853 0.031788684 0.01767039 -0.052985992
-0.01424182 0.038265582 -0.07043884 0.038781684 0.043658983 0.05361874 -0.0008371665 -0.07347672
0.022122668 -0.0028205824 -0.02224382 -0.064421795 -0.05596907 -0.08427629 0.016905384 -0.031142075
-0.039022744 -0.06945146 0.019259546 0.055472925 -0.054182384 -0.033517446 0.051886912 -0.04773824
0.036026437 -0.016013337 -0.014760683 -0.00986701 -0.06568021 -0.041472405 -0.08002405 0.06469633
0.03266751 0.01538426 0.04633495 -0.013601543 -0.0418047 0.0084619345 0.04844316 -0.04170198
-0.044077974 0.051538788 -0.037406024 0.021188376 0.033429526 0.025279012 0.0073711597 0.055681307
0.050177697 0.010237602 -0.04330042 -0.03452339 -0.04949783 0.035850912 -0.05293675 0.061923187
0.006106387 0.019890754 -0.07001311 0.06442226 -0.055043 -0.00462275 0.01787855 0.04609082
0.03399996 0.042343535 0.023967424 -0.06901972 0.073398486 0.022476709 -0.021840597 -0.022318458
-0.07395756 0.05359598 -0.0326612 -0.037472755 -0.050408438 -0.034255065 0.0032509225 -0.025260169
0.050075226 -0.08083025 -0.055826914 0.017323473 0.04744516 -0.068890095 -0.011819987 -0.04067633
0.04621496 0.066722184 -0.070127025 0.018641816 0.037660535 -0.013454828 0.025408491 0.034266952
-0.052495945 -0.08896301 -0.017887756 0.010417967 -0.012631658 -0.020661732 -0.076683484 -0.0477578
-0.033614423 -0.0017337368 0.04440291 0.070652075 -0.028210457 0.016917143 -0.050755493 0.013874821
-0.0134068895 -0.017464634 -0.026077608 -0.009575394 0.042091724 -0.01204139 -0.053991813 -0.02893947
0.0058835805 0.017800007 0.065317914 0.002727433 -0.05199776 -0.049590204 -0.031464905 0.061912864
0.012871496 -0.024397988 -0.06613699 -0.049462326 -0.05686565 -0.011972896 0.022606475 0.0059407246
0.048122987 0.021221308 -0.019057205 0.0514092 -0.045868512 -0.07406483 0.033291977 0.012154919
0.032818146 -0.021858066 0.04156673 -0.0406024 -0.062163547 -0.015267887 0.047593743 0.0633255
-0.06027117 0.009406289 -0.07278195 -0.039036747 -0.04803325 0.0074452576 0.066740915 0.049104482
-0.04634037 -0.045469683 -0.04229765 0.07515965 -0.06390505 -0.016660374 0.0069850595 -0.026378477
0.07023943 0.06300766 -0.04543403 0.0089133615 0.043798905 -0.07118037 0.060046174 0.020756446
00000000: d79c acbc d8ac 87bd ad44 25bd ddff b7bc
00000010: 9f32 50bd 8ae6 773d 223a 543b f7c2 073d
00000020: 6046 9cbc 9be5 ba3c 2cd5 603d cbec 7bbd
00000030: 0eae d83c 8e7c 2f3c 0cc7 8c3d 541a 1cbd
00000040: 5a31 85bd 3dd2 1b3d f823 86bc bdbf bbbb
00000050: 5ab8 ffbc 6888 b9bb ef42 10bd ce58 313b
00000060: c44c f1bb 14e4 98bd 7c10 9cbc 441c 2fbd
00000070: 89e5 4e3c 1d09 9f3c c23a 24bd f9bc 663d
00000080: 7adf 903d 702f a43b 67c7 013d 1925 033d
00000090: 49dd 2abd 5f29 663d 532d 2abc f23c 24bd
000000a0: 4b7a 3cbc 3df5 833d d354 2ebd b4ac 3d3d
000000b0: d720 78bc 46f4 283d 8246 87bc 4c13 8cbd
000000c0: 4507 8bbc efd3 a7bd 1b4d 8bbd 7238 1fbd
000000d0: b8c5 52bc fe60 7abd cf4c 95bd 72da 3d3d
000000e0: 47f1 153d 245e ce3c f4ea 0fbc 76ed 81bd
000000f0: 27d0 94bd 96f3 11bc ab64 ed3c b5fa 113d
00000100: 42c1 e33c c859 243d 07e2 c6bc 145e e93c
00000110: a8eb b9bb 03f7 56bc e74f 6cbc 3456 9fbd
00000120: a590 e63c d3af 1fbc f463 9d3d 8218 84bd
00000130: 1a3c 563c da34 023d 7ec1 903c d707 59bd
00000140: 8656 69bc 5fbc 1c3d 3d42 90bd 8bd9 1e3d
00000150: c3d3 323d 539f 5b3d 4b75 5bba f67a 96bd
00000160: 993a b53c 85d9 38bb ac38 b6bc 93ef 83bd
00000170: d33f 65bd 0c99 acbd 297d 8a3c aa1d ffbc
00000180: 50d6 1fbd 913c 8ebd 32c6 9d3c 9437 633d
00000190: 59ee 5dbd 9749 09bd 5f87 543d 2c89 43bd
000001a0: 7590 133d 672e 83bc cbd6 71bc 3da9 21bc
000001b0: 5983 86bd f8de 29bd a6e3 a3bd 827f 843d
000001c0: 5ece 053d 430e 7c3c b7c9 3d3d 02d9 5ebc
000001d0: 683b 2bbd eda3 0a3c 566c 463d b2cf 2abd
000001e0: 1b8b 34bd 561a 533d 0f37 19bd 3f93 ad3c
000001f0: 66ed 083d ee15 cf3c c589 f13b 1512 643d
00000200: 2187 4d3d 9dbb 273c c85b 31bd 6668 0dbd
00000210: 3dbe 4abd 68d8 123d 35d4 58bd 2ba3 7d3d
00000220: 1618 c83b eff1 a23c 0963 8fbd d1ef 833d
00000230: c574 61bd 707a 97bb 0976 923c bac9 3c3d
00000240: 8b43 0b3d 6a70 2d3d 5557 c43c 365a 8dbd
00000250: f251 963d 1321 b83c 0deb b2bc 33d5 b6bc
00000260: 1077 97bd 7587 5b3d c0c7 05bd 087d 19bd
00000270: 1479 4ebd 0a4f 0cbd 6e0d 553b 6aee cebc
00000280: ae1b 4d3d 558a a5bd c3aa 64bd f5e9 8d3c
00000290: db55 423d 4016 8dbd 9ea8 41bc 399c 26bd
000002a0: e64b 3d3d a4a5 883d c29e 8fbd b9b6 983c
000002b0: ef41 1a3d a471 5cbc 7825 d03c 815b 0c3d
000002c0: fd05 57bd 3d32 b6bd 5889 92bc 1fb0 2a3c
000002d0: 04f5 4ebc cb42 a9bc 3b0c 9dbd af9d 43bd
000002e0: 47af 09bd 8e3e e3ba d3df 353d 09b2 903d
000002f0: 9e19 e7bc d295 8a3c fee4 4fbd 3853 633c
00000300: 92a8 5bbc fe11 8fbc b5a0 d5bc 1de2 1cbc
00000310: 5f68 2c3d 4049 45bc 8526 5dbd 7812 edbc
00000320: 0dcb c03b 52d1 913c 66c5 853d bcbe 323b
00000330: 9afb 54bd 191f 4bbd 58e1 00bd 5898 7d3d
00000340: f8e2 523c 4ade c7bc d572 87bd 0299 4abd
00000350: f5eb 68bd f729 44bc 3731 b93c 69aa c23b
00000360: 9c1c 453d 4fd8 ad3c db1d 9cbc 7492 523d
00000370: 9fe0 3bbd 4daf 97bd 2b5d 083d 6d25 473c
00000380: 526c 063d b00f b3bc e041 2a3d b44e 26bd
00000390: 349f 7ebd 2926 7abc a8f1 423d cdb0 813d
000003a0: e7de 76bd d61c 1a3c b40e 95bd ffe4 1fbd
000003b0: 83be 44bd 59f7 f33b 76af 883d c821 493d
000003c0: 66cf 3dbd 6b3e 3abd 4d40 2dbd 4ded 993d
000003d0: a7e0 82bd 567b 88bc ede2 e43b ad17 d8bc
000003e0: b1d9 8f3d 290a 813d 0919 3abd 5909 123c
000003f0: 7b66 333d 04c7 91bd faf2 753d 6c09 aa3c

bias_hh f4 [600]
0.042707726 -0.048300236 -0.042225078 0.040979244 -0.032262005 0.04294638 -0.01041918 0.059787482
-0.014750212 -0.052014396 -0.020551408 0.03524074 -0.037791193 0.001532959 0.049580675 0.05459077
-0.06644982 0.015902985 -0.06049742 -0.038957153 0.05259777 -0.046041016 0.024389733 -0.076629706
0.0046746237 0.005216573 -0.0019967777 0.012941529 0.045670282 0.029417546 -0.00794805 -0.022040138
-0.011271172 0.049346946 0.025244504 0.0058287852 -0.06153099 0.038794775 -0.04039204 -0.049518242
0.029674169 -0.012748135 0.023342362 -0.061534885 0.036167186 0.020020483 -0.031052142 -0.05861508
-0.00913376 -0.07977804 -0.03755416 0.04065584 -0.04432904 -0.0146337915 0.03326565 0.0033562887
0.048625067 0.0384921 -0.07339413 -0.06714777 -0.012482587 0.048696462 0.074403256 -0.01864571
-0.04913369 0.0014463385 -0.06584268 -0.01694361 -0.013169351 0.03579639 0.039609678 0.060474537
0.0462067 0.01189755 -0.043884374 0.005216594 0.02651888 0.0320347 0.055907786 -0.06920438
-0.001345397 -0.081112824 0.013904243 -0.021520197 -0.030391758 -0.074722886 0.0028419306 0.04285641
0.0168619 0.06282915 -9.897554e-06 0.013876789 -0.08168625 -0.08099375 0.01940315 0.015962398
0.06375522 -0.079496615 0.0045461426 -0.009471795 0.030096738 0.0055102883 -0.06910738 0.061507836
0.039479375 0.06456378 -0.0043906323 0.017413871 -0.018783959 -0.057616636 -0.02010216 -0.058656435
0.0016289182 0.03587652 0.027818652 -0.041453727 -0.0045551546 0.00655881 0.016993687 -0.06425188
0.04466082 -0.013383703 -0.04382404 0.006917555 -0.04845115 -0.0638753 -0.01841396 0.07931347
-0.015077282 -0.05380802 0.009501173 0.011775193 0.043278936 -0.07794876 -0.06897712 0.037757084
0.033842713 0.051973328 0.019282356 0.01710014 0.05611375 -0.04538478 -0.05767372 0.050216917
0.014447813 -0.0029862833 0.020405756 -0.002225449 0.026552409 0.061055627 -0.015906041 0.06961673
-0.011987001 0.061028477 0.041867 0.07590812 -0.051174603 -0.06786533 -0.04377011 -0.058101874
0.047475412 -0.081857294 -0.013119396 -0.0032810478 -0.019508198 0.05202115 -0.01018186 0.05132426
0.02263334 -0.05807409 0.00090433826 0.029164094 -0.04086077 -0.008465282 -0.017551972 -0.019601852
-0.023243513 0.033501398 0.008349146 0.018758709 0.04130242 0.013801226 -0.035127267 -0.07068901
0.034316514 0.07518921 0.041945897 0.004891792 0.03692544 0.029496597 0.0535817 0.02629006
0.06294013 0.04278439 -0.05495922 0.065584645 -0.033933803 -0.036300603 0.057414327 0.048598804
-0.008617778 -0.035312485 -0.0018013222 -0.05936358 -0.023349496 0.055131797 -0.009049482 0.04659374
0.046794016 -0.0055313464 0.041284308 0.054381814 0.026120782 0.010649422 -0.020945638 -0.06797857
0.0008564185 0.016870538 -0.0167181 -0.0055843703 0.015177099 -0.035551574 -0.008729671 0.07424119
-0.0256118 -0.060898855 -0.05313163 -0.01729639 -0.03250427 -0.06282147 -0.07542455 0.067778334
-0.043827284 0.071993835 0.010527494 0.016584363 0.07822878 0.0008281651 0.005642198 0.009060955
-0.0060562445 -0.002522198 -0.029794412 -0.034878034 -0.06844871 -0.024993423 -0.024695193 0.08416299
0.015836447 -0.04023627 0.013086389 -0.06376143 0.021686219 -0.06939842 -0.04557288 0.030758921
00000000: 4cee 2e3d 78d6 45bd 34f4 2cbd dad9 273d
00000010: 2a25 04bd 8be8 2f3d 35b5 2abc b8e3 743d
00000020: e0aa 71bc 0c0d 55bd 6d5b a8bc 9858 103d
00000030: f0ca 1abd 92ed c83a 1b15 4b3d 929a 5f3d
00000040: d816 88bd fa46 823c 25cc 77bd 8991 1fbd
00000050: c270 573d 8195 3cbd facc c73c 09f0 9cbd
00000060: 962d 993b c9ef aa3b 5fdc 02bb b508 543c
00000070: c310 3b3d 11fd f03c 8a38 02bc 858d b4bc
00000080: b9aa 38bc 0620 4a3d 90cd ce3c 65ff be3b
00000090: eb07 7cbd 45e7 1e3d 2072 25bd a4d3 4abd
000000a0: 3e17 f33c 8edd 50bc 7b38 bf3c 010c 7cbd
000000b0: 0b24 143d ff01 a43c 1061 febc 5e16 70bd
000000c0: c4a5 15bc ab62 a3bd 64d2 19bd bd86 263d
000000d0: 5e92 35bd 92c2 6fbc 9041 083d 2ef5 5b3b
000000e0: 142b 473d e4a9 1d3d a94f 96bd c584 89bd
000000f0: c483 4cbc f175 473d bc60 983d e3be 98bc
00000100: 6840 49bd 1193 bd3a 87d8 86bd 53cd 8abc
00000110: 43c4 57bc 3c9f 123d c23d 223d 26b4 773d
00000120: 3d43 3d3d f1ed 423c 1ac0 33bd f6ef aa3b
00000130: 1f3e d93c d136 033d 90ff 643d 07bb 8dbd
00000140: 0858 b0ba 7b1e a6bd 9fce 633c 204b b0bc
00000150: 23f8 f8bc 5008 99bd af3f 3a3b 348a 2f3d
00000160: f821 8a3c 92ac 803d ac0d 26b7 795b 633c
00000170: 1f4b a7bd 0de0 a5bd 5bf3 9e3c 93c3 823c
00000180: 1992 823d 1fcf a2bd cff7 943b 962f 1bbc
00000190: 6f8d f63c a68f b43b 2c88 8dbd a4ef 7b3d
000001a0: 20b5 213d 043a 843d 4bdf 8fbb 89a7 8e3c
000001b0: d1e0 99bc 6cff 6bbd 49ad a4bc bb41 70bd
000001c0: 6d81 d53a 42f3 123d f1e3 e33c 62cb 29bd
000001d0: 6843 95bb 49eb d63b 5836 8b3c 7d96 83bd
000001e0: 44ee 363d 5247 5bbc d680 33bd a8ac e23b
000001f0: b774 46bd 0ed1 82bd dfd8 96bc 1a6f a23d
00000200: b406 77bc cc65 5cbd cfaa 1b3c bdec 403c
00000210: 4145 313d 99a3 9fbd e043 8dbd 2ca7 1a3d
00000220: a89e 0a3d fce1 543d 08f6 9d3c 9815 8c3c
00000230: 88d7 653d 64e5 39bd 473b 6cbd 41b0 4d3d
00000240: 85b6 6c3c 85b5 43bb f929 a73c d7d8 11bb
00000250: 7084 d93c 7715 7a3d 634d 82bc 3793 8e3d
00000260: 2065 44bc fff8 793d bb7c 2b3d b775 9b3d
00000270: 769c 51bd fafc 8abd 4948 33bd 3bfc 6dbd
00000280: 9475 423d cca4 a7bd bcf2 56bc d906 57bb
00000290: a8cf 9fbc 2114 553d d1d1 26bc 6339 523d
000002a0: 8e69 b93c 19df 6dbd 1d11 6d3a 8ae9 ee3c
000002b0: 9f5d 27bd f7b1 0abc 27c9 8fbc 1094 a0bc
000002c0: 2e69 bebc c338 093d dbca 083c ddab 993c
000002d0: ba2c 293d 8a1e 623c 9ce1 0fbd 66c5 90bd
000002e0: 798f 0c3d cdfc 993d 76cf 2b3d 534b a03b
000002f0: 213f 173d d9a2 f13c 7c78 5b3d 405e d73c
00000300: c1e6 803d af3e 2f3d eb1c 61bd 3e51 863d
00000310: 2cfe 0abd f1af 14bd 492b 6b3d 8a0f 473d
00000320: 9531 0dbc d3a3 10bd 581a ecba 3a27 73bd
00000330: 7147 bfbc e1d1 613d 4744 14bc 14d9 3e3d
00000340: 15ab 3f3d 4c40 b5bb bc19 293d 77bf 5e3d
00000350: 40fb d53c ea7a 2e3c 3096 abbc 5938 8bbd
00000360: 4681 603a 1534 8a3c 66f4 88bc 18fd b6bb
00000370: 5ea9 783c 879e 11bd e506 0fbc c40b 983d
00000380: d6cf d1bc 1471 79bd 8da0 59bd 29b1 8dbc
00000390: 3323 05bd 8ba8 80bd 3078 9abd 5ecf 8a3d
000003a0: 3d84 33bd 8171 933d 837b 2c3c eedb 873c
000003b0: 6936 a03d 3819 593a 30e2 b83b 6674 143c
000003c0: 7673 c6bb 764b 25bb 6913 f4bc 45dc 0ebd
000003d0: d62e 8cbd 02bf ccbc 934d cabc a55d ac3d
000003e0: 70bb 813c c9ce 24bd 4b68 563c 5a95 82bd
000003f0: 4ca7 b13c c220 8ebd a1aa 3abd 22fa fb3c
