testbed/models_v9/gnn_layer_0.pt (torch, 696275 bytes, 7 tensors)

weight f4 [200, 200]
0.047411364 0.017964548 -0.004762327 0.007411937 0.030847458 -0.028459547 0.024667824 0.032698974
-0.029750785 0.035147402 -0.0023290308 0.05737654 0.021002874 0.04362301 -0.020499716 -0.031035058
0.00060931285 -0.047907215 0.043409143 0.021593008 0.047933575 0.057135537 -0.06149938 -0.0011575737
0.0567883 -0.06670647 -0.05538802 -0.035499103 0.012059199 0.0014863008 0.03992115 -0.0021402265
-0.051839262 -0.009003764 -0.013736666 0.025053104 -0.0026064334 0.037083324 -0.031218417 -0.0032783232
0.003153158 0.05319229 -0.062266342 -0.060159363 0.0060828016 0.040681742 -0.040367555 -0.043858603
0.015895441 -0.049057014 0.024671003 0.029848984 0.048755705 -0.031089397 -0.03670931 -0.03911337
0.017503655 -0.048889805 -0.037418194 -0.04977676 -0.017888749 0.06795712 0.017486766 -0.034387324
0.028765151 0.02493656 0.016264433 -0.03330172 -9.029253e-05 -0.046839327 -0.07625829 0.026792968
-0.07226667 -0.05166571 -0.0070051756 -0.036784347 -0.074382834 -0.021578124 0.009583957 -0.04386555
0.044927325 -0.051891953 -0.01715423 0.062572286 0.074943095 0.06783027 0.04927228 0.059901677
-0.052128114 -0.020499745 0.056180306 -0.07329965 -0.062440835 0.048563942 0.025988322 0.06777081
0.013926042 0.04302232 -0.0335275 -0.004017935 -0.052600283 -0.007235248 -0.062415306 -0.058202837
0.07551766 0.023280542 -0.04446569 0.008500777 0.061489303 -0.009805943 0.009289783 0.05272739
-0.015366225 0.02141635 -0.00318311 -0.006293383 -0.06757159 -0.006491073 0.06033299 -0.041620985
-0.047564708 0.008796835 0.039433643 0.014010569 -0.0014923969 0.047081146 0.03289834 -0.01422851
-0.05439676 0.064699806 -0.051541984 0.019374818 -0.046185605 -0.006238458 0.0016142448 0.050277356
-0.020057825 0.032784846 0.008448529 -0.07856815 0.0061995685 -0.0596962 -0.002951356 -0.048353296
-0.007003266 0.003667214 0.05895719 0.035690196 0.0465172 0.05162708 -0.01622761 0.03280436
-0.011531061 -0.0004954581 0.04730326 0.035273325 0.008856091 -0.015657146 -0.008511642 -0.06744775
-0.03912485 0.062416654 0.043150235 0.038359605 0.004633158 0.0133023355 0.0195425 0.012108128
-0.0062348335 0.02532576 0.04614416 0.07048814 0.04507426 -0.0036621282 -0.03590434 0.018620726
0.05277142 0.0040176194 0.028508822 0.008644615 0.020994376 0.033686105 -0.03614127 -0.06747594
-0.015167968 0.0047675245 0.018060511 0.016236525 0.02464023 0.062488332 0.01350892 -0.01244361
-0.023500495 0.02905028 -0.028551428 -0.044410475 0.05750884 -0.047769543 0.013421603 -0.060621206
0.04244671 0.023678793 -0.00834635 0.03316035 -0.015137295 -0.01647155 -0.037929956 -0.03653587
-0.013749994 0.07386642 0.010819284 0.034326945 -0.026024258 0.06282229 0.023692597 0.01776676
0.02740793 0.032158013 0.0014728343 0.03992288 -0.012071659 0.067512915 -0.043426387 -4.2483553e-05
0.01959791 -0.024707982 -0.059154335 -0.015321615 0.01452208 0.038739342 -0.036799554 0.016807098
-0.030627035 0.036732234 0.027005464 -0.01653532 -0.028950417 -0.0111063225 -0.027922226 -0.04344459
-0.00093708845 -0.0057592867 0.0030734404 0.014024012 0.016466636 -0.005175887 -0.06153013 -0.05151329
0.068979606 0.059217066 -0.03094783 -0.06673158 0.047275517 -0.028320875 0.06743756 0.058065392
00000000: 6b32 423d 632a 933c 4b0d 9cbb d6df f23b
00000010: cfb3 fc3c ff23 e9bc 2d14 ca3c 5cef 053d
00000020: ebb7 f3bc b9f6 0f3d a7a2 18bb aa03 6b3d
00000030: 380e ac3c 0bae 323d 05ef a7bc 3c3d febc
00000040: 4bba 1f3a 5b3a 44bd c9cd 313d d2e3 b03c
00000050: ff55 443d f406 6a3d c6e6 7bbd bab9 97ba
00000060: d99a 683d 679d 88bd 8cde 62bd 8267 11bd
00000070: f293 453c fbcf c23a 5c84 233d 0b43 0cbb
00000080: 6855 54bd 8684 13bc c10f 61bc 2b3c cd3c
00000090: b2d0 2abb afe4 173d c4bd ffbc 23d9 56bb
000000a0: 36a5 4e3b 29e0 593d fe0a 7fbd aa69 76bd
000000b0: 3d52 c73b e6a1 263d 7358 25bd 14a5 33bd
000000c0: 2837 823c 02f0 48bd d81a ca3c db85 f43c
000000d0: 10b4 473d 31af febc 805c 16bd 5735 20bd
000000e0: d363 8f3c ad40 48bd d243 19bd b7e2 4bbd
000000f0: 6d8b 92bc 1a2d 8b3d 6840 8f3c b9d9 0cbd
00000100: e5a4 eb3c c247 cc3c fd3c 853c 6267 08bd
00000110: 6f5b bdb8 98da 3fbd 4e2d 9cbd ed7c db3c
00000120: 8c00 94bd 6c9f 53bd ac8b e5bb 2fab 16bd
00000130: 0756 98bd 9bc4 b0bc 0706 1d3c 5dac 33bd
00000140: b705 383d a88c 54bd 0787 8cbc e625 803d
00000150: c47b 993d 99ea 8a3d bbd1 493d 765b 753d
00000160: 4a84 55bd 15ef a7bc 521d 663d 201e 96bd
00000170: f6c1 7fbd fcea 463d 76e5 d43c 6ccb 8a3d
00000180: 0e2a 643c 2c38 303d 2254 09bd e2a8 83bb
00000190: 6573 57bd a915 edbb 31a7 7fbd 1966 6ebd
000001a0: 01a9 9a3d d6b6 be3c a821 36bd d846 0b3c
000001b0: 35dc 7b3d 1ba9 20bc 2d34 183c adf8 573d
000001c0: 9ec2 7bbc 5771 af3c b99b 50bb b938 cebb
000001d0: f962 8abd 11b3 d4bb ba1f 773d c47a 2abd
000001e0: 36d3 42bd 9a20 103c 2c85 213d 968c 653c
000001f0: 889c c3ba 29d8 403d 69c0 063d b21e 69bc
00000200: 23cf 5ebd 5581 843d b01d 53bd f0b7 9e3c
00000210: 1e2d 3dbd fb6b ccbb 1195 d33a a1ef 4d3d
00000220: 4f50 a4bc 6749 063d b36b 0a3c 57e8 a0bd
00000230: c025 cb3b 0184 74bd 896b 41bb 1b0e 46bd
00000240: a77b e5bb a455 703b 187d 713d e22f 123d
00000250: d288 3e3d eb76 533d c4ef 84bc dd5d 063d
00000260: c6ec 3cbc a1e1 01ba 10c1 413d c37a 103d
00000270: 2319 113c 6a43 80bc 6a74 0bbc 0c22 8abd
00000280: 6141 20bd 9ba8 7f3d 4dbe 303d f61e 1d3d
00000290: bfd1 973b 0af2 593c 9817 a03c 2b61 463c
000002a0: 934d ccbb f877 cf3c a901 3d3d 165c 903d
000002b0: ca9f 383d 5100 70bb 6e10 13bd 7e8a 983c
000002c0: d826 583d 3ca6 833b 558b e93c 25a2 0d3c
000002d0: 66fc ab3c 71fa 093d de08 14bd d330 8abd
000002e0: 1283 78bc e538 9c3b a3f3 933c 7602 853c
000002f0: 4fda c93c c4f3 7f3d 8454 5d3c 48e0 4bbc
00000300: 1c84 c0bc dafa ed3c afe4 e9bc c2e7 35bd
00000310: 648e 6b3d ffa9 43bd 48e6 5b3c f14d 78bd
00000320: 9adc 2d3d 07fa c13c 21bf 08bc 26d3 073d
00000330: 6b02 78bc 58ef 86bc 715c 1bbd a3a6 15bd
00000340: a847 61bc 4747 973d 5e43 313c 699a 0c3d
00000350: d330 d5bc f9a8 803d fa16 c23c 998b 913c
00000360: 9886 e03c 1fb8 033d 1e0c c13a 2c86 233d
00000370: 35c8 45bc 3644 8a3d dedf 31bd 5e30 32b8
00000380: cc8b a03c 6568 cabc d14b 72bd 8307 7bbc
00000390: 05ee 6d3c 25ad 1e3d 21bb 16bd 0aaf 893c
000003a0: 8ce5 fabc 8a74 163d 903a dd3c 1475 87bc
000003b0: 6d29 edbc 4bf7 35bc 27bd e4bc f4f2 31bd
000003c0: f1a6 75ba 66b8 bcbb c66b 493b f8c4 653c
000003d0: 0ae5 863c 7d9a a9bb 0507 7cbd 99ff 52bd
000003e0: 2e45 8d3d 988d 723d 4e86 fdbc 91aa 88bd
000003f0: f9a3 413d 2e01 e8bc b41c 8a3d fad5 6d3d

bias f4 [200]
0.044563435 -0.0059612966 -0.023844585 0.01699702 -0.065301314 0.025224136 -0.00593886 -0.044113386
-0.008416728 -0.03261311 -0.030969828 0.043265328 0.041671205 -0.066406205 0.011424967 -0.06141869
-0.064120196 0.035677295 0.02208112 -0.018772403 0.017483152 0.003560137 0.022340517 0.04290484
-0.03447539 0.05175259 -0.032915767 -0.019794589 0.019548697 -0.008908588 0.056221936 -0.050848685
0.055408962 -0.05217542 -0.01828623 0.0003188168 0.037862014 -0.012485748 -0.010615286 -0.038359035
-0.040792793 -0.013354267 0.025127484 0.04960594 -0.04769698 0.033290554 0.03598257 -0.056891154
-0.025536383 0.029792102 -0.039276797 -0.043808132 0.05547695 -0.045513548 0.05843749 0.049892098
0.010188606 0.0152902715 -0.0007034357 -0.010982627 0.05472168 -0.06435147 0.049390476 0.03248454
-0.051490266 -0.014299823 0.06293014 0.021777332 0.042596612 -0.004151856 0.05508681 0.020680944
-0.023258332 0.027850073 -0.044869997 -0.048585765 0.016975017 -0.06059931 0.05845307 0.013826175
0.008607689 0.022058789 -0.039388005 -0.01313736 0.035801604 0.052145015 0.048557457 0.07221797
-0.03849692 -0.031363845 -0.03662879 -0.03927169 -0.01908082 0.05687575 -0.035570018 0.040588353
0.004679987 -0.045302667 -0.02279558 -0.016407626 -0.01600102 0.060943853 0.03247239 0.0021959392
-0.06474732 0.053309727 0.0301793 0.023496825 -0.019896373 0.0064784 0.03502126 -0.0349246
-0.014901883 -0.03360163 0.044644006 -0.0050065266 0.0028014737 0.052117474 -0.015661769 0.0073867748
-0.023702001 -0.02132212 -0.059437305 -0.03788029 -0.08026917 0.03180578 -0.070941694 0.042609144
-0.06792773 0.027675245 0.04940169 -0.02609696 -0.07077739 0.03280568 -0.05428067 0.01484821
-0.06930032 -0.00089135615 -0.02145275 0.0055903485 0.01072357 0.046400886 -0.019472638 0.007634218
-0.03785803 0.037997752 0.029844543 0.06807223 0.007851287 0.024874378 0.009649147 0.04708943
-0.0031186028 0.059618585 0.04763637 -0.07196438 0.009645563 -0.045282062 -0.006844426 -0.008964494
0.010166377 -0.074254714 -0.020163368 0.011167632 0.033972964 -0.037959184 -0.011000984 0.023506451
0.044599902 0.029651675 -0.06918149 -0.04001492 0.02289808 -0.055495035 0.015533784 0.017822541
-0.05823333 0.01867664 0.03963449 -0.061889548 -0.053592436 -0.021759072 0.006436659 -0.012861281
0.013085023 -0.07038521 -0.04629759 -0.050346617 0.0590868 -0.041817963 0.032519292 0.034596067
0.01718988 0.046333183 0.06643927 -0.009472701 -0.035956513 -0.016832579 0.060217876 -0.05939811
00000000: 2688 363d fb56 c3bb b855 c3bc 563d 8b3c
00000010: b2bc 85bd d9a2 ce3c c59a c2bb 3db0 34bd
00000020: 51e6 09bc 5395 05bd 70b4 fdbc fc36 313d
00000030: 6daf 2a3d faff 87bd c92f 3b3c 2a92 7bbd
00000040: 7351 83bd 5b22 123d 77e3 b43c 95c8 99bc
00000050: d438 8f3c 3051 693b 7603 b73c fcbc 2f3d
00000060: 1136 0dbd 86fa 533d afd2 06bd 4328 a2bc
00000070: 9724 a03c 54f5 11bc f948 663d b646 50bd
00000080: 82f4 623d e5b5 55bd 01cd 95bc de26 a739
00000090: 3315 1b3d 0691 4cbc bdeb 2dbc 5d1e 1dbd
000000a0: 5816 27bd dbcb 5abc 27d8 cd3c 992f 4b3d
000000b0: e95d 43bd ad5b 083d 7662 133d b306 69bd
000000c0: ad31 d1bc 910e f43c b5e0 20bd 2870 33bd
000000d0: cc3b 633d 6a6c 3abd 265c 6f3d a85b 4c3d
000000e0: 1cee 263c 0c84 7a3c c566 38ba 7af0 33bc
000000f0: d723 603d b4ca 83bd ab4d 4a3d 820e 053d
00000100: 75e7 52bd ce49 6abc 84e1 803d 6066 b23c
00000110: c979 2e3d 4b0c 88bb b5a2 613d 156b a93c
00000120: 4288 bebc d625 e43c 9ac9 37bd de01 47bd
00000130: 310f 8b3c fb36 78bd 7d6c 6f3d 2e87 623c
00000140: 4407 0d3c a2b4 b43c 5155 21bd 153e 57bc
00000150: b4a4 123d 0396 553d 2fe4 463d 04e7 933d
00000160: f2ae 1dbd 6077 00bd 1208 16bd 5adb 20bd
00000170: 614f 9cbc 8cf6 683d deb1 11bd f93f 263d
00000180: 945a 993b 4a8f 39bd ccbd babc 4969 86bc
00000190: 9214 83bc 43a0 793d c501 053d bfe9 0f3b
000001a0: 3e9a 84bd 4d5b 5a3d 943a f73c 6a7c c03c
000001b0: b8fd a2bc c248 d43b 7472 0f3d 190d 0fbd
000001c0: 0727 74bc dda1 09bd a2dc 363d ca0d a4bb
000001d0: ee98 373b 2279 553d 1c4d 80bc c20c f23b
000001e0: b32a c2bc baab aebc 8874 73bd 5d28 1bbd
000001f0: 2a64 a4bd c746 023d e149 91bd ed86 2e3d
00000200: b21d 8bbd 32b7 e23c 6d59 4a3d 4bc9 d5bc
00000210: bcf3 90bd 405f 063d 6855 5ebd e845 733c
00000220: 54ed 8dbd e6a9 69ba adbd afbc 3e2f b73b
00000230: eab1 2f3c db0e 3e3d 1585 9fbc 7628 fa3b
00000240: 0611 1bbd 88a3 1b3d 8b7c f43c 7469 8b3d
00000250: afa2 003c 5ac5 cb3c 7517 1e3c d9e0 403d
00000260: 7961 4cbb 9e32 743d 5b1e 433d 1062 93bd
00000270: 6c08 1e3c af79 39bd 3547 e0bb d0df 12bc
00000280: e090 263c db12 98bd a62d a5bc 72f8 363c
00000290: 3c27 0b3d 177b 1bbd 793d 34bc 9a90 c03c
000002a0: 63ae 363d 12e8 f23c 06af 8dbd afe6 23bd
000002b0: c194 bb3c c34e 63bd 6a81 7e3c 9400 923c
000002c0: 1286 6ebd c1ff 983c c657 223d e57f 7dbd
000002d0: be83 5bbd 1540 b2bc 9cea d23b 1fb8 52bc
000002e0: 9062 563c 1f26 90bd 8ba2 3dbd 4138 4ebd
000002f0: 0005 723d 5049 2bbd f332 053d 9bb4 0d3d
00000300: cbd1 8c3c ddc7 3d3d 5011 883d 6333 1bbc
00000310: 2347 13bd 7ae4 89bc 05a7 763d 6f4b 73bd

weight f4 [300, 200]
0.034010172 -0.01615129 0.032608863 0.06603349 0.029271424 -0.030010764 0.071199514 -0.05595628
0.02214792 0.016031243 -0.05544161 -0.018590853 -0.0080877 -0.041695394 -0.053868923 -0.018096894
0.05232004 -0.047689643 -0.0133237345 -0.0063210228 0.05292986 0.04768618 -0.021166313 -0.031329773
0.0005473574 0.06478426 -0.047521792 -0.014053734 0.029545497 -0.00023502964 -0.06453855 -0.06552892
0.036866736 0.03158482 0.028858654 0.03190948 -0.05975753 0.051499974 -0.007242082 -0.016006611
-0.057242353 0.019271959 -0.066390485 -0.014820065 0.010758283 -0.026192354 -0.02436889 0.034936752
0.036131497 -0.06352399 -0.0526145 -0.0023674753 -0.07702383 0.015551011 -0.03848156 0.04006047
-0.05648717 -0.039584506 0.021494655 0.037122924 -0.057320826 0.04044171 0.043748036 0.01633422
0.06471246 -0.02991631 0.01495109 -0.023047049 -0.011536685 -0.0689764 -0.014391259 0.0051978384
-0.037422843 0.03914773 -0.038709432 0.01630391 0.02642511 -0.023730181 0.014264337 -0.04394712
0.012006611 0.06808384 -0.055876076 -0.044689585 0.03179608 0.0371807 -0.03982709 -0.016756611
0.07468863 0.04513661 0.045108773 -0.07031745 0.031461246 -0.016994882 0.022019 -0.020447891
-0.05791496 -0.019951317 -0.057550896 -0.054592654 0.02035126 0.004660032 0.06520435 -0.037047323
-0.0592779 0.044376675 -0.07045513 -0.029381538 -0.027035147 -0.0486479 -0.00021647547 -0.042937845
-0.037306808 0.058729652 0.0043881126 -0.0029407535 0.051272243 0.061750323 0.025833977 0.049802415
-0.050403684 -0.065981954 -0.043235384 0.043536354 0.044953015 -0.027947126 0.051794194 -0.005870113
0.0038918338 -0.045269735 0.035521887 0.003561847 0.057765655 -0.0016251348 0.03039784 -0.05866168
-0.05712044 0.057717226 0.034053553 0.0068723457 0.044042274 -0.029070748 0.045618746 -0.02485726
-0.024124853 -0.032649748 -0.06787855 -0.018242 -0.070120566 0.025919659 0.040533785 0.023807734
0.053612802 -0.055162694 -0.013512073 -0.024237623 -0.0008730232 -0.06496175 -0.027282435 -0.04882348
-0.012076374 0.007979191 0.009462744 0.06274565 -0.022706717 0.059875347 0.0121533545 0.014234698
0.0013517216 0.010690811 -0.030342178 -0.012196283 0.053284068 -0.034465536 -0.039536096 -0.040004607
0.04079631 -0.017025325 0.035985038 0.014315566 -0.017760258 -0.07282248 -0.07356312 -0.05512921
0.06277474 -0.037742835 0.020240363 -0.06463766 7.5709046e-05 0.010584952 -0.014264774 -0.048771314
0.020852057 -0.057087187 -0.06636679 -0.014596876 0.029601278 0.042751912 -0.03761883 -0.025064986
0.014371768 0.002943081 0.02009024 0.0127383955 0.02072874 0.05604405 0.008311964 0.04314668
0.013941297 0.053660966 -0.04621899 0.015769528 0.040897626 0.036633283 -0.037829895 0.02617269
-0.071184866 0.039981253 0.06407526 0.013734933 -0.06556715 -0.005239813 -0.058666058 0.06584374
-0.058885302 0.045607135 -0.034196276 0.010126418 0.0039340393 0.065390326 0.005966427 -4.7496673e-05
-0.039799754 -0.049325127 0.014886066 0.021737134 -0.06168632 0.03317327 -0.069684096 0.032449115
0.023838341 0.054120112 0.05039838 0.014420826 0.049384728 0.040811542 -0.006473961 -0.010215204
0.059296623 -0.024935631 -0.071348675 -0.035661444 -0.068170145 0.0027405194 0.017249258 0.059916556
00000000: 404e 0b3d b64f 84bc df90 053d 913c 873d
00000010: a0ca ef3c 22d9 f5bc 0dd1 913d 6a32 65bd
00000020: 8e6f b53c f453 833c be16 63bd d84b 98bc
00000030: 4682 04bc cac8 2abd a9a5 5cbd f03f 94bc
00000040: 8a4d 563d 3756 43bd cb4b 5abc 9520 cfbb
00000050: fbcc 583d 9552 433d fa64 adbc a653 00bd
00000060: 897c 0f3a 9cad 843d 36a6 42bd a241 66bc
00000070: 6609 f23c 4a72 76b9 ca2c 84bd 0734 86bd
00000080: 9301 173d 165f 013d fc68 ec3c 84b3 023d
00000090: 50c4 74bd a3f1 523d fd4e edbb 4c20 83bc
000000a0: f576 6abd 3ae0 9d3c bcf7 87bd dccf 72bc
000000b0: 8243 303c 5991 d6bc 44a1 c7bc d719 0f3d
000000c0: 9ffe 133d de18 82bd 4d82 57bd a527 1bbb
000000d0: abbe 9dbd abc9 7e3c d79e 1dbd 7316 243d
000000e0: 175f 67bd 5d23 22bd 8f15 b03c 350e 183d
000000f0: 3ec9 6abd 35a6 253d 2431 333d 58cf 853c
00000100: f787 843d 0d13 f5bc 6bf5 743c 2acd bcbc
00000110: 5d04 3dbc 8043 8dbd 51c9 6bbc a152 aa3b
00000120: b248 19bd 5f59 203d c88d 1ebd c78f 853c
00000130: 7979 d83c cc65 c2bc f7b4 693c e501 34bd
00000140: 60b7 443c 8a6f 8b3d 50de 64bd 6d0c 37bd
00000150: 9b3c 023d ca4a 183d bb21 23bd 2945 89bc
00000160: 5af6 983d 2ae1 383d fac3 383d 9802 90bd
00000170: 82dd 003d da38 8bbc 3161 b43c 5682 a7bc
00000180: 3d38 6dbd f270 a3bc 7dba 6bbd 8c9c 5fbd
00000190: b0b7 a63c 2fb3 983b dc89 853d efbe 17bd
000001a0: 62cd 72bd 51c4 353d c74a 90bd 8db1 f0bc
000001b0: d078 ddbc 0543 47bd b1fd 62b9 98df 2fbd
000001c0: 06cf 18bd 818e 703d 28ca 8f3b a8b9 40bb
000001d0: d802 523d e8ed 7c3d c7a1 d33c 9efd 4b3d
000001e0: 1874 4ebd 8c21 87bd 9617 31bd 2d53 323d
000001f0: a720 383d 5ff1 e4bc 2626 543d 145a c0bb
00000200: 230e 7f3b c26c 39bd 667f 113d e06d 693b
00000210: ae9b 6c3d 7a02 d5ba e404 f93c 3b47 70bd
00000220: 1ff7 69bd e668 6c3d bd7b 0b3d 6a31 e13b
00000230: ac65 343d c725 eebc b9da 3a3d 74a1 cbbc
00000240: 7ca1 c5bc bebb 05bd e903 8bbd 3f70 95bc
00000250: 5f9b 8fbd 7755 d43c c106 263d 7008 c33c
00000260: 1999 5b3d 47f2 61bd be61 5dbc fb8d c6bc
00000270: 98db 64ba aa0a 85bd 6a7f dfbc 21fb 47bd
00000280: fcdb 45bc 27bb 023c a009 1b3c cb80 803d
00000290: 7003 babc da3f 753d dd1e 473c a738 693c
000002a0: 402c b13a 8328 2f3c 2990 f8bc ebd2 47bc
000002b0: 6540 5a3d bc2b 0dbd 9af0 21bd dfdb 23bd
000002c0: 081a 273d b278 8bbc 0c65 133d d68b 6a3c
000002d0: f67d 91bc f423 95bd 43a8 96bd 2bcf 61bd
000002e0: 0b90 803d 3b98 1abd 1ecf a53c c060 84bd
000002f0: fcc5 9e38 826c 2d3c ccb6 69bc 6ec4 47bd
00000300: efd1 aa3c 41d4 69bd 50eb 87bd bc27 6fbc
00000310: 617e f23c a11c 2f3d 3416 1abd 1655 cdbc
00000320: 9077 6b3c b5e0 403b 4994 a43c b4b4 503c
00000330: 52cf a93c 728e 653d e72e 083c 93ba 303d
00000340: 0a6a 643c 9acb 5b3d 2050 3dbd 192f 813c
00000350: 4584 273d c80c 163d 85f3 1abd 1c68 d63c
00000360: 5fc9 91bd 62c3 233d e439 833d 7c08 613c
00000370: 1248 86bd bdb2 abbb d24b 70bd 15d9 863d
00000380: b731 71bd 8cce 3a3d 6511 0cbd 47e9 253c
00000390: 1de9 803b 5deb 853d 0482 c33b 2a37 47b8
000003a0: 1105 23bd 2509 4abd b0e4 733c 1312 b23c
000003b0: cbaa 7cbd b2e0 073d 89b6 8ebd 5de9 043d
000003c0: a048 c33c 0dad 5d3d 886e 4e3d 5445 6c3c
000003d0: a447 4a3d 012a 273d 8523 d4bb ac5d 27bc
000003e0: 04e1 723d cf45 ccbc 411f 92bd bc11 12bd
000003f0: ca9c 8bbd 499a 333b 514e 8d3c 106b 753d

bias f4 [300]
0.029095808 -0.06061945 -0.03176847 -0.009668451 0.035880405 0.07095879 0.06494918 0.0572624
-0.059456114 -0.02504062 -0.0052176574 0.015339355 -0.012594513 -0.0668968 -0.0006218831 -0.0512902
-0.06096436 -0.005803963 -0.023512417 -0.023159424 0.05975392 -0.0268091 0.03610044 -0.0023593223
-0.028217306 -0.060420003 0.05310666 -0.053953487 0.05405172 -0.04631607 0.030753655 -0.043976866
-0.034428693 0.034085926 -0.035533037 -0.050254107 -0.0066080815 -0.051380657 -0.034150533 -0.001228949
0.06722397 -0.03809339 0.043510396 0.062375855 -0.010563386 -0.05445855 0.02055423 0.022860467
0.036980435 0.031421818 0.056328915 -0.0319695 -0.019298134 0.053802326 -0.056384657 0.060989805
0.05209152 0.053077053 0.061894897 -0.034649264 -0.007530197 0.06421897 -0.027063334 0.02965061
0.013010775 -0.008004838 -0.008854122 0.023879565 -0.046922185 -0.042487625 0.023952663 0.066498466
-0.052245576 -0.042543404 0.06629515 0.04941824 -0.044826888 -0.027532667 -0.058018167 -0.021187492
-0.059102803 -0.069131546 -0.053183742 0.006523243 0.054609865 -0.015335141 -0.050188724 0.048011847
0.0136099 0.039538387 -0.051846232 0.032982964 0.021785622 0.005634149 -0.044518854 0.020318951
-0.014141709 -0.050065145 0.028173976 -0.030850226 0.06596606 -0.0027177408 0.044075854 -0.06673197
0.036746327 -0.04913773 0.06277115 0.056259524 -0.0010105819 0.06365118 0.045697827 0.06809023
0.05958406 0.05650759 -0.05301993 -0.058307126 -0.02071724 0.03355701 0.030968228 0.056728464
-0.044048645 0.020487284 -0.03670377 0.027532628 -0.05330838 0.05508665 0.025025113 0.05935853
0.065197356 0.059312336 -0.004279185 0.03687329 -0.055585355 0.006699074 0.0532904 0.0047156382
0.054345958 0.013188802 0.002239021 0.064702965 0.014820256 0.031252228 0.04128321 0.018925164
0.05016928 -0.05758911 0.016090708 0.037394464 0.046827774 0.016313327 0.007303117 -0.05356118
0.0047826925 0.013682194 0.018917952 -0.0215464 0.0048085423 0.011023859 -0.03354111 0.031900607
-0.013073481 0.000668402 -0.05059322 0.031601265 -0.0294966 -0.05280628 -0.034899987 0.024369534
0.03872886 -0.01872722 -0.054717235 -0.005450568 0.057370793 -0.039812014 0.068283804 0.06558203
-0.007646283 0.04160473 0.070367955 -0.04531864 -0.04133249 0.00818389 0.010003205 0.017338999
0.06422795 -0.004853749 0.043482468 0.00017426872 0.054578766 0.037926465 -0.029892964 -0.047290627
0.027626054 -0.058880635 0.022447024 -0.06557179 -0.03420733 -0.054951116 -0.0129820425 -0.019088583
-0.026206747 -0.057175085 0.008879593 0.044077907 -0.07055125 0.043193735 0.05565745 0.0019630513
-0.072064675 -0.075860225 -0.06818584 0.009451121 0.024066987 0.01221226 -0.0062235226 -0.014875406
-0.013490083 0.030034842 0.07195092 -0.04401006 -0.013034466 0.065002315 0.05566962 0.040169697
-0.06460582 0.050793357 -0.00016612279 -0.061265722 0.05068246 -0.02836765 -0.03948279 0.020477695
0.019794075 -0.042503618 0.025205918 -0.07488913 -0.019337922 0.044334706 -0.020780751 -0.06701172
0.050301448 0.015386524 -0.017937489 0.037516367 0.062015437 0.039947625 -0.059547476 -0.022604128
-0.05292357 0.060471207 0.050672155 -0.040346052 -0.062423337 0.0063727885 0.026553743 -0.024658516
00000000: 555a ee3c 1a4c 78bd a81f 02bd 6c68 1ebc
00000010: 55f7 123d d852 913d 1304 853d fa8b 6a3d
00000020: 4188 73bd fc21 cdbc e2f8 aabb eb51 7b3c
00000030: 3759 4ebc 3101 89bd de05 23ba ac15 52bd
00000040: c4b5 79bd 2c2f bebb 1d9d c0bc d5b8 bdbc
00000050: 87c0 743d c29e dbbc 0ede 133d dc9e 1abb
00000060: fb27 e7bc f77a 77bd 5e86 593d 55fe 5cbd
00000070: 5665 5d3d ebb5 3dbd 17ef fb3c 1621 34bd
00000080: 1a05 0dbd af9d 0b3d 178b 11bd 40d7 4dbd
00000090: 9b88 d8bb 8674 52bd 6ee1 0bbd b014 a1ba
000000a0: b9ac 893d d107 1cbd f537 323d d37d 7f3d
000000b0: 0d12 2dbc ee0f 5fbd 5861 a83c e045 bb3c
000000c0: cc78 173d 2ab4 003d 26b9 663d 73f2 02bd
000000d0: 1f17 9ebc d45f 5c3d 99f3 66bd 72d0 793d
000000e0: eb5d 553d 5367 593d 8185 7d3d 63ec 0dbd
000000f0: dfbf f6bb 3c85 833d edb3 ddbc d6e5 f23c
00000100: 252b 553c b926 03bc e110 11bc 149f c33c
00000110: 7a31 40bd 8107 2ebd 6038 c43c 5930 883d
00000120: 75ff 55bd fe41 2ebd c0c5 873d c86a 4a3d
00000130: 669c 37bd 308c e1bc 75a4 6dbd 6491 adbc
00000140: c815 72bd d794 8dbd 32d7 59bd eec0 d53b
00000150: 98ae 5f3d 3e40 7bbc b192 4dbd 12a8 443d
00000160: 0ffc 5e3c 01f3 213d b75c 54bd 2519 073d
00000170: c377 b23c ab9e b83b 6759 36bd ee73 a63c
00000180: a0b2 67bc 1c11 4dbd 1ccd e63c 9db9 fcbc
00000190: 3719 873d 201c 32bb e288 343d c5aa 88bd
000001a0: 5183 163d a544 49bd 298e 803d 6370 663d
000001b0: 8075 84ba 8d5b 823d a52d 3b3d e472 8b3d
000001c0: 6a0e 743d 8174 673d 6d2b 59bd 74d3 6ebd
000001d0: 34b7 a9bc 1373 093d 15b1 fd3c 1b5c 683d
000001e0: 5a6c 34bd f3d4 a73c b156 16bd 1b8c e13c
000001f0: e359 5abd 8aa2 613d 7701 cd3c ee21 733d
00000200: 3186 853d 7ef1 723d 6838 8cbb 7208 173d
00000210: 78ad 63bd e883 db3b 0947 5a3d a485 9a3b
00000220: de99 5e3d d815 583c 8abc 123b fd82 843d
00000230: a9d0 723c 5602 003d 9518 293d f208 9b3c
00000240: 4e7e 4d3d 8fe2 6bbd a9d0 833c f02a 193d
00000250: 7bce 3f3d 87a3 853c fc4e ef3b f862 5bbd
00000260: 22b8 9c3b 482b 603c d2f9 9a3c 1382 b0bc
00000270: fa90 9d3b 6a9d 343c 6762 09bd 36aa 023d
00000280: 2732 56bc b337 2f3a d63a 4fbd 5470 013d
00000290: dba2 f1bc 664b 58bd 4af3 0ebd 9ea2 c73c
000002a0: 27a2 1e3d d469 99bc 2e1f 60bd ae9a b2bb
000002b0: a3fd 6a3d ec11 23bd 61d8 8b3d df4f 863d
000002c0: ac8d fabb b969 2a3d 131d 903d 0aa0 39bd
000002d0: 424c 29bd b915 063c 7ce4 233c 840a 8e3c
000002e0: f289 833d 330c 9fbb ac1a 323d e7bb 3639
000002f0: fc8d 5f3d c858 1b3d 17e2 f4bc d1b3 41bd
00000300: 0950 e23c d22c 71bd d2e2 b73c 814a 86bd
00000310: fc1c 0cbd 6c14 61bd a2b2 54bc a95f 9cbc
00000320: 88af d6bc 6c30 6abd b67b 113c 098b 343d
00000330: 2c7d 90bd eaeb 303d 11f9 633d 89a6 003b
00000340: a596 93bd 9b5c 9bbd 05a5 8bbd e0d8 1a3c
00000350: 2128 c53c ee15 483c b1ee cbbb fab7 73bc
00000360: 8205 5dbc a10b f63c 015b 933d e543 34bd
00000370: 838e 55bc ef1f 853d d405 643d fb88 243d
00000380: 0e50 84bd b20c 503d 3f31 2eb9 c4f1 7abd
00000390: 6998 4f3d 4663 e8bc b5b8 21bd d7c0 a73c
000003a0: 2f27 a23c 4618 2ebd a47c ce3c 795f 99bd
000003b0: 906a 9ebc 4f98 353d 653c aabc 713d 89bd
000003c0: e408 4e3d c217 7c3c a4f1 92bc c3aa 193d
000003d0: e603 7e3d 1fa0 233d 0ee8 73bd 4b2c b9bc
000003e0: 63c6 58bd a8b0 773d 9b8d 4f3d e741 25bd
000003f0: 9daf 7fbd d3d2 d03b 3c87 d93c a800 cabc

weight f4 [300, 200]
0.040504824 -0.07423872 -0.06548227 0.018811079 0.016204271 0.028607162 0.005323118 -0.03472419
-0.0566948 0.033154756 0.036065232 -0.05917196 -0.020916516 0.043814857 -0.06730231 0.04178061
-0.072703935 0.052870564 0.040605992 0.020913469 0.0078128595 -0.04700644 -0.0054867975 0.021925664
-0.0028928786 -0.065003335 -0.10132119 0.00467102 -0.056363318 0.019308267 0.06863021 -0.01670202
-0.06822865 0.048876792 -0.057567712 0.03509927 0.072966784 -0.040817384 0.015714746 0.024191843
0.015239156 -0.07286718 -0.021513576 -0.02150671 0.08203134 -0.025982654 0.021676533 0.0802929
0.02329681 0.013850731 -0.051673952 -0.00206728 -0.012176517 0.021707354 1.8867313e-05 0.030994004
-0.01835361 0.0050282623 0.066334285 -0.05458827 0.037471686 0.05934181 0.041365042 0.041449875
-0.035499834 -0.047157273 0.0606075 -0.026087636 -0.02085403 0.046224326 0.013955489 -0.036226995
-0.0639442 0.02197667 0.019483661 0.016166177 0.014170447 -0.034787174 0.053115305 0.05004941
0.06224011 -0.050811484 -0.013309985 0.0116526205 0.06474089 0.09123725 0.026303142 0.030548552
0.01879927 0.06911468 0.009332943 0.041232068 0.015298292 0.03695992 -0.03233953 0.013043516
-0.076710664 0.045094658 -0.044373605 -0.039174564 -0.06616145 -0.019659199 0.023874566 -0.038756445
-0.031686474 0.03690012 -0.046594907 0.0655777 0.030465508 -0.04769765 -0.001191295 0.00476121
0.053578198 0.023193404 0.06957642 -0.0039946483 0.032709472 -0.06604296 -0.056058608 0.020462628
0.0025745046 -0.050460882 0.07288735 0.006695367 -0.042064115 0.00989809 0.015028897 0.00014592822
0.0688062 -0.06017042 0.00082986365 0.041397624 -0.008204867 -0.04256056 -0.010641356 -0.01910006
0.010936961 -0.021301815 0.057030037 -0.065636516 0.01707648 -0.020130645 -0.047656715 -0.03258577
-0.05805847 -0.004535747 -0.06285578 0.03949563 -0.058277585 -0.006203439 0.023412192 0.059792142
0.013112658 0.028023275 0.024570195 -0.069807835 0.029801533 0.047706243 0.08019421 -0.05659221
0.01496043 -0.021084877 -0.045334492 0.056781787 -0.010939503 -0.05265943 -0.017537847 -0.069131404
-0.028801983 0.07561541 -0.047106188 -0.06240566 -0.040557425 -0.07268957 0.0077811824 -0.02581584
0.049364068 0.029933037 0.009587307 -0.050645664 -0.052157715 0.06291621 -0.053467833 -0.039508943
0.049446326 -0.048508316 0.04098289 0.05789169 0.03164197 -0.06657305 -0.027456105 -0.022197168
-0.00071380945 -0.027383644 0.043371793 -0.06276698 0.060154445 -0.053627633 -0.026233723 0.066874355
-0.032328006 0.00442575 -0.059663624 -0.010253692 0.06531376 0.013664454 -0.040963296 0.032286033
0.03598301 0.053741895 0.031997938 -0.06775472 0.011554977 -0.061356373 -0.021666195 0.035069205
-0.009174229 -0.026484141 0.042564772 -0.007886583 0.05281043 -0.0702858 -0.002358288 0.006703277
0.004173313 -0.00981385 0.06465412 0.0475442 -0.0017236487 -0.0270254 0.029240534 -0.042798433
0.009934235 -0.008127104 -0.039378226 0.048601758 0.062934324 0.007692028 -0.059698813 -0.0060062986
0.0055142585 -0.056401137 0.06745698 0.02570354 0.053296924 0.0006877069 -0.05808748 0.052027732
0.050896868 -0.0071648415 0.053024795 0.006511471 0.03527022 -0.056327958 -0.059062257 -0.061574817
00000000: 63e8 253d 780a 98bd 921b 86bd b119 9a3c
00000010: d2be 843c 9159 ea3c 8d6d ae3b f43a 0ebd
00000020: ce38 68bd 48cd 073d 23b9 133d 4c5e 72bd
00000030: 1d59 abbc 3577 333d cbd5 89bd 2522 2b3d
00000040: cde5 94bd ce8e 583d 7852 263d b952 ab3c
00000050: 8201 003c d389 40bd 98ca b3bb 739d b33c
00000060: 7396 3dbb 7820 85bd 7c81 cfbd 5b0f 993b
00000070: 39dd 66bd 5f2c 9e3c ff8d 8c3d add2 88bc
00000080: 76bb 8bbd 0833 483d 1fcc 6bbd 41c4 0f3d
00000090: 9c6f 953d 2130 27bd 36bc 803c f92d c63c
000000a0: a7ad 793c 633b 95bd 3d3d b0bc d72e b0bc
000000b0: 0c00 a83d 93d9 d4bc fc92 b13c 9b70 a43d
000000c0: f4d8 be3c 2dee 623c 11a8 53bd 347b 07bb
000000d0: 0480 47bc 9fd3 b13c 3f45 9e37 23e7 fd3c
000000e0: 4f5a 96bc 1fc4 a43b 45da 873d f397 5fbd
000000f0: e97b 193d 6610 733d 646e 293d 58c7 293d
00000100: 4668 11bd fc27 41bd 923f 783d bdb5 d5bc
00000110: 12d6 aabc b855 3d3d 90a5 643c c262 14bd
00000120: 2df5 82bd 6b08 b43c 339c 9f3c ee6e 843c
00000130: 2a2b 683c ff7c 0ebd 6f8f 593d 9c00 4d3d
00000140: 7cef 7e3d b41f 50bd 2012 5abc a2ea 3e3c
00000150: df96 843d 98da ba3d b079 d73c f540 fa3c
00000160: ed00 9a3c ff8b 8d3d 33e9 183c f5e2 283d
00000170: b0a5 7a3c 4963 173d 7476 04bd 79b4 553c
00000180: 7b1a 9dbd 2db5 383d 19c1 35bd 8275 20bd
00000190: a87f 87bd 540c a1bc 9894 c33c 14bf 1ebd
000001a0: adc9 01bd 9524 173d 4dda 3ebd 9a4d 863d
000001b0: cd92 f93c 9c5e 43bd 3a25 9cba ed03 9c3b
000001c0: d074 5b3d 1800 be3c 157e 8e3d 8ae5 82bb
000001d0: 5efa 053d 8841 87bd b69d 65bd 3ea1 a73c
000001e0: 05b9 283b 12b0 4ebd f745 953d cf64 db3b
000001f0: 6c4b 2cbd 992b 223c c33b 763c 4f04 1939
00000200: 44ea 8c3d 4275 76bd 358b 593a 8e90 293d
00000210: b56d 06bc fb53 2ebd 1559 2ebc bb77 9cbc
00000220: f030 333c 2581 aebc 5498 693d 706c 86bd
00000230: f9e3 8b3c 06e9 a4bc b033 43bd a878 05bd
00000240: b8ce 6dbd 9ba0 94bb 88ba 80bd 2bc6 213d
00000250: 7ab4 6ebd 3846 cbbb edca bf3c 9be8 743d
00000260: 79d6 563c 1191 e53c 6f47 c93c 69f7 8ebd
00000270: 5822 f43c 9f67 433d dd3c a43d 3ccd 67bd
00000280: 971c 753c 31ba acbc a9b0 39bd 0594 683d
00000290: 9a3b 33bc 6ab1 57bd 88ab 8fbc c494 8dbd
000002a0: 23f2 ebbc 41dc 9a3d 6bf2 40bd 149d 7fbd
000002b0: 8b1f 26bd 45de 94bd 4af9 fe3b be7b d3bc
000002c0: fa31 4a3d 2136 f53c 1514 1d3c d471 4fbd
000002d0: 54a3 55bd 37da 803d 1601 5bbd 21d4 21bd
000002e0: 3b88 4a3d a8b0 46bd addd 273d d61f 6d3d
000002f0: 039b 013d 7457 88bd a0eb e0bc d6d6 b5bc
00000300: f11e 3bba aa53 e0bc 9fa6 313d f98b 80bd
00000310: 8264 763d a6a8 5bbd 1be8 d6bc 6cf5 883d
00000320: 5f6a 04bd e205 913b d861 74bd 1aff 27bc
00000330: 38c3 853d e0e0 5f3c 21c9 27bd 5c3e 043d
00000340: ec62 133d 7620 5c3d 4510 033d fdc2 8abd
00000350: 1651 3d3c d250 7bbd 4e7d b1bc baa4 0f3d
00000360: 814f 16bc 45f5 d8bc 6658 2e3d ba36 01bc
00000370: c04f 583d 00f2 8fbd 828d 1abb 2aa7 db3b
00000380: 49c0 883b 45ca 20bc 6169 843d b5bd 423d
00000390: 0eec e1ba 5f64 ddbc d889 ef3c 694d 2fbd
000003a0: 34c3 223c 8b27 05bc 104b 21bd a312 473d
000003b0: b6e3 803d 680d fc3b be86 74bd 7cd0 c4bb
000003c0: f4b0 b43b e104 67bd e326 8a3d 3b90 d23c
000003d0: e04d 5a3d 3b47 343a 23ed 6dbd 081b 553d
000003e0: 3c79 503d 0cc7 eabb 8730 593d 2d5e d53b
000003f0: 8277 103d 25b8 66bd 44eb 71bd e035 7cbd

weight f4 [300]
1.0070368 1.0020092 1.0017489 1.0048358 1.01545 1.0072372 1.0022928 0.9893279
0.9973129 0.9989213 0.99950534 0.99782854 0.9883853 1.0032549 0.9976918 1.0004425
0.99820155 1.0059956 1.015047 0.9976598 0.99872166 0.99900335 1.0002522 0.9987646
0.9856043 1.0062747 1.0039833 0.9997651 0.9999209 0.9969647 1.0018862 1.002318
0.99018484 1.0046275 0.9943976 1.0028801 0.9933736 0.9994137 0.9842858 0.9993338
0.9934586 0.99354166 1.0034477 1.0038167 0.996429 0.997228 1.0054988 0.9978069
0.9998178 0.9988531 0.9952979 1.0092473 1.0011462 1.0005133 0.99753916 0.99174315
1.0053698 1.005666 1.0017352 1.0008675 1.0080652 1.0044352 1.0012887 1.0018753
0.9996635 0.9974822 1.01426 0.999534 1.0035708 0.99580884 0.9958839 1.0029649
0.99794877 1.0052805 1.0091214 0.99148893 0.9935888 0.993945 1.0032948 0.9999279
0.9992343 1.0022804 1.000181 0.9969099 0.9970473 1.0019729 1.0064344 0.99228907
0.99413466 1.0011816 0.9943601 1.0068725 0.99477535 1.0076001 0.9910854 1.0008467
1.002869 1.0076101 0.9907327 1.0124335 0.9998531 0.994734 0.98803294 1.0057161
1.00157 1.0020393 1.0025507 1.0121995 1.001908 1.0063993 0.9937928 0.99739444
0.9917563 0.9960373 1.0038865 0.9939311 0.9951796 1.0011418 1.017605 1.0031945
0.9963683 0.99674845 1.00487 0.99985933 1.0041014 0.9963837 0.9960076 1.006025
1.0059557 0.9915187 1.0079272 0.99070466 1.0028378 0.99467975 0.9891992 0.9972241
1.0175656 1.0008706 1.0047864 0.99796844 1.010908 0.98756164 0.9957998 0.99894905
1.0035101 1.0091375 0.99335086 0.99960184 0.9981266 0.9997284 1.0005454 1.0072932
0.9997863 1.0005139 0.9992865 0.9958929 1.0019776 0.9926412 1.0181693 1.0112052
1.0049778 1.000854 0.9967506 1.0033866 1.0024173 0.9998755 0.99104196 1.0050628
1.0100455 0.9919032 0.99453783 0.9984394 1.018092 0.99233186 1.0041419 1.0102634
1.007831 1.0056003 1.007187 1.0035987 1.008755 0.9863663 0.9993938 1.0038509
0.99183416 0.98480767 1.0003039 1.0033361 1.0078796 1.0059092 1.0067796 0.99203473
0.99817973 1.0007756 0.9942847 1.0039803 0.99992335 0.99148905 0.9993852 0.9975511
0.99247634 1.0062467 0.99833226 1.0000939 0.98472124 0.9978105 1.0013272 0.99819994
0.99638367 0.99257475 0.9973718 0.996502 1.0079122 1.0012774 0.9969141 1.001915
0.99082315 1.0017917 1.0054456 0.9962708 0.9944053 0.98532325 1.0026312 0.9931019
1.0026883 1.000038 0.99949235 0.99640745 1.0065001 0.999934 1.0079877 0.99454945
0.9980847 0.9960814 1.0074494 1.0192072 0.9961804 1.0037038 1.007072 0.9941147
0.99344206 1.0040685 1.0023184 1.0057416 1.0063504 0.99740565 1.0074052 0.99636537
1.0094498 1.0016817 1.0039641 0.9999908 1.0041454 0.99960446 0.99811786 1.002075
00000000: 95e6 803f d641 803f 4f39 803f 769e 803f
00000010: 44fa 813f 26ed 803f 214b 803f 9844 7d3f
00000020: e64f 7f3f 4eb9 7f3f 95df 7f3f b171 7f3f
00000030: d206 7d3f a86a 803f bb68 7f3f 800e 803f
00000040: 238a 7f3f 77c4 803f 0fed 813f a266 7f3f
00000050: 39ac 7f3f afbe 7f3f 4408 803f 09af 7f3f
00000060: 9050 7c3f 9ccd 803f 8682 803f 9bf0 7f3f
00000070: d1fa 7f3f 1439 7f3f cf3d 803f f54b 803f
00000080: c17c 7d3f a297 803f d790 7e3f 605e 803f
00000090: bb4d 7e3f 94d9 7f3f 27fa 7b3f 57d4 7f3f
000000a0: 4e53 7e3f bf58 7e3f f970 803f 117d 803f
000000b0: f915 7f3f 564a 7f3f 2fb4 803f 4670 7f3f
000000c0: 0ff4 7f3f d6b4 7f3f d8cb 7e3f 042f 813f
000000d0: 8f25 803f d210 803f ba5e 7f3f e1e2 7d3f
000000e0: f5af 803f aab9 803f dc38 803f 6d1c 803f
000000f0: 4808 813f 5591 803f 3a2a 803f 733d 803f
00000100: f2e9 7f3f fe5a 7f3f 46d3 813f 76e1 7f3f
00000110: 0275 803f 54ed 7e3f 3ff2 7e3f 2761 803f
00000120: 9279 7f3f 08ad 803f e42a 813f 38d2 7d3f
00000130: d65b 7e3f 2e73 7e3f f76b 803f 46fb 7f3f
00000140: d2cd 7f3f b94a 803f ee05 803f 7d35 7f3f
00000150: 7e3e 7f3f a640 803f d8d2 803f a806 7e3f
00000160: 9c7f 7e3f b826 803f 628e 7e3f 33e1 803f
00000170: 99a9 7e3f 0af9 803f c6b7 7d3f bf1b 803f
00000180: 035e 803f 5ef9 803f a9a0 7d3f 6c97 813f
00000190: 5ff6 7f3f e3a6 7e3f baef 7c3f 4ebb 803f
000001a0: 7233 803f d342 803f 9553 803f c18f 813f
000001b0: 853e 803f b1d1 803f 3469 7e3f 3e55 7f3f
000001c0: bee3 7d3f 4dfc 7e3f 5a7f 803f 4572 7e3f
000001d0: 17c4 7e3f 6a25 803f e140 823f ad68 803f
000001e0: fe11 7f3f e82a 7f3f 959f 803f c8f6 7f3f
000001f0: 6586 803f 0113 7f3f 5bfa 7e3f 6dc5 803f
00000200: 28c3 803f 2bd4 7d3f c203 813f d29e 7d3f
00000210: fd5c 803f 55a3 7e3f 293c 7d3f 144a 7f3f
00000220: 973f 823f 871c 803f d79c 803f dc7a 7f3f
00000230: 6f65 813f d7d0 7c3f bcec 7e3f 20bb 7f3f
00000240: 0573 803f 6b2b 813f 3e4c 7e3f e8e5 7f3f
00000250: 3a85 7f3f 33ee 7f3f df11 803f fcee 803f
00000260: fff1 7f3f d710 803f 3dd1 7f3f d6f2 7e3f
00000270: cd40 803f bc1d 7e3f 5f53 823f 2c6f 813f
00000280: 1da3 803f fc1b 803f 0c2b 7f3f f96e 803f
00000290: 364f 803f d7f7 7f3f edb4 7d3f e6a5 803f
000002a0: 2c49 813f 5eed 7d3f 089a 7e3f b999 7f3f
000002b0: d750 823f 7609 7e3f b987 803f 5050 813f
000002c0: 9b00 813f 83b7 803f 81eb 803f ec75 803f
000002d0: e21e 813f 8082 7c3f 46d8 7f3f 307e 803f
000002e0: d8e8 7d3f 5b1c 7c3f f509 803f 516d 803f
000002f0: 3302 813f a2c1 803f 27de 803f fdf5 7d3f
00000300: b588 7f3f 6a19 803f 7189 7e3f 6d82 803f
00000310: fafa 7f3f 3ad2 7d3f b5d7 7f3f 825f 7f3f
00000320: ee12 7e3f b1cc 803f b492 7f3f 1403 803f
00000330: b116 7c3f 8270 7f3f 7d2b 803f 088a 7f3f
00000340: 0013 7f3f 6119 7e3f c253 7f3f c11a 7f3f
00000350: 4403 813f dc29 803f c335 7f3f c03e 803f
00000360: 96a6 7d3f b63a 803f 71b2 803f 9a0b 7f3f
00000370: 5991 7e3f 253e 7c3f 3856 803f ed3b 7e3f
00000380: 1758 803f 3f01 803f bbde 7f3f 8f14 7f3f
00000390: ffd4 803f adfb 7f3f be05 813f cb9a 7e3f
000003a0: 7b82 7f3f 31ff 7e3f 1af4 803f 6275 823f
000003b0: ae05 7f3f 5e79 803f bce7 803f 4d7e 7e3f
000003c0: 3852 7e3f 5185 803f f84b 803f 24bc 803f
000003d0: 17d0 803f fa55 7f3f a7f2 803f cd11 7f3f
000003e0: a735 813f 1b37 803f e581 803f 66ff 7f3f
000003f0: d687 803f 14e6 7f3f a784 7f3f fe43 803f

bias f4 [300]
0.0021095653 0.0007118977 0.0032181796 0.002408697 0.0046771 -0.0017968965 -0.000943684 0.0024604774
0.001187653 -0.001330709 0.0065942667 0.0028902492 -0.0032264397 -0.0043621445 0.0026846642 0.0006545209
-0.00022782733 0.0008188619 0.0060018883 -0.0010448162 -0.0043252185 -0.0051915483 0.0007746133 0.0005353459
-0.00261149 -0.0070351525 -0.0017505117 0.0019991463 0.00030384318 -0.0024414926 0.0013772631 -0.0013186584
0.007416861 0.0021126885 0.0029493493 0.0003025688 -0.0024421983 0.0018780286 0.0017825386 0.00024629486
0.0021708899 -0.0006974553 -0.0014878479 0.0042348565 -0.002672084 0.0016865889 -0.00067905156 -0.002689531
-0.004839239 -0.010464204 -0.0018080435 0.00024825215 0.0011842423 -0.007824461 -0.0033594975 7.534775e-05
0.00085466285 0.000409395 -0.0021080254 0.0019769685 0.0011652169 9.555038e-05 0.0023322636 0.0016727559
-4.6447338e-05 -0.00541974 -0.0019378399 0.005601358 0.0028438892 0.00084684155 -0.007364874 0.00013028643
-0.0013194695 0.0031578622 0.002639034 -0.0046349973 -0.0042227134 0.0054920334 -0.005554461 -0.011865949
0.0008032047 -9.297953e-05 0.0025473686 -0.0073133935 -0.00093403534 -0.0005785477 -0.0011053077 -0.0007264452
0.004287998 0.006207592 0.0027912841 -0.00044318943 0.0098677995 -0.0022169722 -0.0008193429 -0.0022312268
-0.0011218311 0.007888601 -0.0032876122 0.0005816288 0.009476679 -0.0019850363 0.001132562 -0.00012689405
0.0051792916 0.0024608197 0.00039337148 0.005447647 0.0023144202 0.0017826138 -0.0015200429 -0.0055541866
-0.0016973942 0.0060126297 -0.00015590733 0.0036867806 0.00086067844 -0.0035225037 0.0008560195 0.0017178692
0.000463152 6.819732e-05 0.0030843911 0.0011192469 -0.0015640786 -0.002742158 -0.0050074933 0.00015240781
0.003471444 -0.0022659022 0.0009484683 -0.002696917 0.0025782038 0.0009992194 -0.004173989 -0.00048134808
-0.00032773515 -0.0031537102 -0.001695999 0.0017958456 -0.0022193326 7.573608e-05 -0.0064060334 0.00042997897
-2.686332e-05 0.0053827194 -0.0040671322 -0.006649157 0.0043148994 -1.01259475e-05 -0.002742317 0.00061766355
0.006601241 0.00016618658 3.4963417e-05 0.0037781887 0.0017812615 -0.0018030999 -0.0024997545 -0.00031064244
-0.0012149317 -6.5495595e-05 0.0025410808 -0.0021697679 0.006869959 -0.00048500157 0.00088621717 -0.0057225754
-0.0042765937 0.0022236388 0.0054631988 -0.005458338 -0.00077773904 0.004775475 -0.0008758355 -0.0015415131
0.0020977743 -0.003915713 0.0040135495 0.006451006 -0.002366645 -0.0035167874 -0.0032102463 -2.6021566e-05
0.0050351284 -0.004328624 -0.00093745446 -0.003109177 -0.0016793805 0.0028647615 -0.0029211207 -0.0012669305
-0.0020844096 0.004295348 -0.0030153529 -0.001134001 0.00077260856 -0.002635346 0.0010635235 -0.0041062525
0.001965084 -0.00018146438 -0.0017607883 -0.0015270662 -0.0017520392 0.0028410912 -0.0005724928 0.0015777139
0.0012829213 -0.0061376262 -0.0007009594 0.0017436425 -0.0015596368 0.0027119175 -0.0016091889 -0.0014760417
0.0022079127 0.0073442445 -0.0026305832 0.0034543148 0.0013419922 0.0015656521 -0.0024620332 -0.0033299339
-0.005548724 -0.0022189817 -0.0008457606 -0.0033416084 0.0016997602 0.0040424643 0.0025201144 -0.009083957
0.009989508 -0.00040011184 0.0018225285 -0.0027745182 -0.00070823793 -0.004992017 0.00064161496 0.0030573017
-0.000621008 0.0054541724 -0.0043925312 0.004341314 0.0021968067 -2.220891e-05 -0.0020546217 -0.004294179
6.7516885e-05 0.0030374012 -8.857808e-05 -0.0016518077 0.0008604915 0.0017232437 0.0006272043 0.0009911775
00000000: a240 0a3b a59e 3a3a 18e8 523b 3bdb 1d3b
00000010: 5c42 993b d785 ebba 9061 77ba f63f 213b
00000020: 06ab 9b3a 2f6b aeba b814 d83b 566a 3d3b
00000030: ad72 53bb 52f0 8ebb 31f1 2f3b 2794 2b3a
00000040: efe4 6eb9 e4a8 563a 7dab c43b 37f2 88ba
00000050: 90ba 8dbb dd1d aabb 6b0f 4b3a 7556 0c3a
00000060: 8825 2bbb 2387 e6bb 6d71 e5ba 1c04 033b
00000070: 244d 9f39 7301 20bb 4885 b43a d5d6 acba
00000080: 2409 f33b 0875 0a3b df49 413b 19a2 9e39
00000090: 4a0d 20bb 2f28 f63a 12a4 e93a 2321 8139
000000a0: 7d45 0e3b 6fd5 36ba e403 c3ba 8dc4 8a3b
000000b0: 211e 2fbb 8810 dd3a 6102 32ba d842 30bb
000000c0: 7b92 9ebb 0d72 2bbc dffb ecba d727 8239
000000d0: 9438 9b3a 2b32 00bc 042b 5cbb 0404 9e38
000000e0: 740b 603a 11a4 d639 cc26 0abb 0790 013b
000000f0: 31ba 983a 3862 c838 e4d8 183b 6040 db3a
00000100: 73d0 42b8 1398 b1bb 1eff fdba 998b b73b
00000110: 8b60 3a3b 93fe 5d3a 0a55 f1bb 7f9d 0839
00000120: 0df2 acba 23f4 4e3b a5f3 2c3b 2de1 97bb
00000130: b05e 8abb 84f6 b33b 3202 b6bb 6669 42bc
00000140: 288e 523a 01fe c2b8 c1f1 263b 31a5 efbb
00000150: 0dda 74ba aea9 17ba f9df 90ba ea6e 3eba
00000160: 5682 8c3b 0e69 cb3b faed 363b e15b e8b9
00000170: 8dac 213c 9f4a 11bb 2cc9 56ba c639 12bb
00000180: 680a 93ba 313f 013c fb74 57bb 7378 183a
00000190: 1344 1b3c 6217 02bb 7a72 943a dd0e 05b9
000001a0: 0cb7 a93b b445 213b 6d3d ce39 2d82 b23b
000001b0: 87ad 173b 98a6 e93a 2d3c c7ba e5ff b5bb
000001c0: 197b deba 9805 c53b 0e7b 23b9 ea9d 713b
000001d0: 279f 613a ced9 66bb 7f66 603a 202a e13a
000001e0: 36d3 f239 2805 8f38 7f23 4a3b b2b3 923a
000001f0: c501 cdba c7b5 33bb e615 a4bb a9cf 1f39
00000200: 2a81 633b 887f 14bb a1a2 783a c2be 30bb
00000210: 15f7 283b 3df8 823a f5c5 88bb 725d fcb9
00000220: ded3 abb9 7aae 4ebb 484c deba 9462 eb3a
00000230: 3972 11bb 80d4 9e38 b4e9 d1bb cd6e e139
00000240: 8a58 e1b7 8661 b03b 9445 85bb 2ce1 d9bb
00000250: 0064 8d3b 9de2 29b7 72b8 33bb b3ea 213a
00000260: 394f d83b 5f42 2e39 afa5 1238 7d9b 773b
00000270: 3879 e93a fe55 ecba ecd2 23bb b9dd a2b9
00000280: 583e 9fba ae5a 89b8 4388 263b aa32 0ebb
00000290: 651d e13b cf47 feb9 0751 683a 7184 bbbb
000002a0: ab22 8cbb 78ba 113b a204 b33b dcdb b2bb
000002b0: 2fe1 4bba 967b 9c3b 5398 65ba 990c caba
000002c0: d07a 093b 624f 80bb 1884 833b f662 d33b
000002d0: b719 1bbb e779 66bb ff62 52bb e348 dab7
000002e0: b8fd a43b 21d7 8dbb 81bf 75ba 56c3 4bbb
000002f0: a91e dcba b9be 3b3b 4670 3fbb 220f a6ba
00000300: 979a 08bb febf 8c3b 3a9d 45bb c2a2 94ba
00000310: e288 4a3a c5b5 2cbb ed65 8b3a be8d 86bb
00000320: a4c8 003b 7947 3eb9 40ca e6ba d727 c8ba
00000330: aea4 e5ba 9a31 3a3b 5713 16ba 4bcb ce3a
00000340: b227 a83a 241e c9bb 97c0 37ba ef8a e43a
00000350: ba6c ccba 6dba 313b 6beb d2ba be77 c1ba
00000360: a1b2 103b fda7 f03b dd65 2cbb c961 623b
00000370: c9e5 af3a 9136 cd3a 105a 21bb 053b 5abb
00000380: 12d2 b5bb 566c 11bb 08b6 5dba e3fe 5abb
00000390: 7dca de3a a676 843b 8128 253b e1d4 14bc
000003a0: 09ab 233c 1ac6 d1b9 e9e1 ee3a b1d4 35bb
000003b0: 0ba9 39ba 1394 a3bb 0d32 283a 035d 483b
000003c0: 24cb 22ba eab8 b23b 39ef 8fbb 9541 8e3b
000003d0: 4df8 0f3b 454d bab7 d5a6 06bb 2fb6 8cbb
000003e0: da97 8d38 230f 473b ffc2 b9b8 7881 d8ba
000003f0: 9b92 613a 77de e13a f86a 243a 66ea 813a
