testbed/models_v3/gnn_layer_0.pt (torch, 696275 bytes, 7 tensors)

weight f4 [200, 200]
000000 8e e0 4a 3d 04 89 4f 3c 5d 0c 00 bb 45 a5 c1 3b
       0.04953056 0.012666944 -0.001953862 0.0059095942
000010 f6 94 e0 3c 6d f0 f7 bc cd 45 25 3d 9a 5f 08 3d
       0.02741478 -0.030266011 0.04034977 0.033294298
000020 5b e0 ea bc 69 a9 a3 3c f8 e2 ee 3b b9 f5 6b 3d
       -0.028671434 0.019978242 0.0072902404 0.057607386
000030 31 65 d1 3c e5 a6 13 3d 21 54 de bc 90 92 0b bd
       0.025560947 0.036047835 -0.027139725 -0.03407532
000040 9a 80 44 ba ef cd 59 bd a8 40 71 3d 09 07 d8 3c
       -0.000749597 -0.05317491 0.05889955 0.026370542
000050 2c 79 24 3d 25 44 7f 3d 4f 92 89 bd 8f 00 41 bb
       0.04015462 0.062320847 -0.06717359 -0.0029449796
000060 55 cb 80 3d 47 a4 93 bd 77 5c 98 bd 62 cc 03 bd
       0.062887825 -0.07209068 -0.07439511 -0.032177337
000070 d0 2c 33 3c f4 27 65 3b 66 58 32 3d e1 85 75 bb
       0.010935977 0.003496644 0.043541335 -0.0037463831
000080 0c 84 68 bd 92 13 02 bc 83 e3 97 bc e2 fa fc 3c
       -0.056766555 -0.007939236 -0.018541103 0.030881349
000090 a7 04 8d bb f5 5f 15 3d 4b ed 0e bd b3 b6 55 bc
       -0.004303533 0.036468465 -0.03489427 -0.013044047
0000a0 e7 d5 5d 3c 3d b0 60 3d 8b 1d 6a bd 6c 17 5f bd
       0.013539768 0.054855574 -0.05715708 -0.054465696
0000b0 ea e9 e2 3b d1 35 4c 3d 50 13 53 bd f0 8b 1a bd
       0.0069248574 0.04985601 -0.05153209 -0.03773111
0000c0 18 0d 70 3c 1a c8 2b bd 9d e3 0c 3d 25 d1 14 3d
       0.014651559 -0.04193888 0.034396756 0.03633227
0000d0 c9 20 47 3d 86 47 b9 bc e5 10 21 bd 95 3d 04 bd
       0.04861525 -0.022617113 -0.039322753 -0.03228529
0000e0 a8 46 b1 3c bc 57 4a bd d4 fe f5 bc 36 48 3a bd
       0.021640137 -0.049400076 -0.030028738 -0.045479022
0000f0 0d f1 33 bc 8a 94 8b 3d fa b4 ae 3c 9c 40 d3 bc
       -0.010982764 0.06815441 0.02132653 -0.025787644
000100 4b cd 2b 3d af 53 ba 3c 1f 1e ae 3c 6e c4 bf bc
       0.04194383 0.022744982 0.021254597 -0.023409095
000110 85 5d 35 bc fb d9 3f bd 82 ca 93 bd f6 95 9a 3c
       -0.01106966 -0.04683874 -0.0721636 0.018870335
000120 6c 47 8d bd 6d 38 75 bd bd 2e 2d bc ad 2e 0d bd
       -0.06898388 -0.059868265 -0.010570225 -0.03446834
000130 75 af 8e bd ff 73 d0 bb bf c2 4d 3b 04 b0 32 bd
       -0.069670595 -0.006361484 0.0031396595 -0.043624893
000140 51 5e 0d 3d f3 b6 53 bd de 01 01 bd a6 78 81 3d
       0.034513775 -0.051688146 -0.03149592 0.0632184
000150 fd 3a 98 3d a0 b7 9a 3d 49 96 28 3d c2 76 7a 3d
       0.07433126 0.07554555 0.041158948 0.061148413
000160 33 32 68 bd 60 e5 b7 bc 1a 98 47 3d c7 4c 83 bd
       -0.0566885 -0.022448242 0.04872904 -0.064111285
000170 0c c9 63 bd c5 58 03 3d 8f a8 a4 3c ed b7 8d 3d
       -0.055611655 0.03206708 0.020099906 0.06919847
000180 86 fe d6 3b 64 06 38 3d 01 45 3b bd f4 40 a4 3b
       0.0065611033 0.04492797 -0.045720104 0.005012626
000190 42 fb 3c bd f6 cf 61 bc 17 aa 57 bd aa cd 53 bd
       -0.046138056 -0.013782492 -0.052652445 -0.05170981
0001a0 7c e9 91 3d 36 f7 be 3c 7d 02 11 bd b4 55 0e 3c
       0.07124612 0.023311239 -0.035402764 0.008687425
0001b0 1a e1 9a 3d c9 0f 44 bc d0 70 a5 3b 62 f0 7c 3d
       0.07562466 -0.011966654 0.0050488487 0.061752684
0001c0 ef c1 46 bc 14 1f d4 3c 22 65 12 bc f7 da f2 bb
       -0.012131198 0.025893725 -0.008935245 -0.0074113565
0001d0 7e 28 97 bd 64 45 0b bc 57 4d 67 3d ae 62 32 bd
       -0.0738077 -0.008500431 0.05647024 -0.04355114
0001e0 b1 0b 41 bd d3 db 0a 3c e4 24 14 3d 61 49 ae 3c
       -0.04713029 0.008475262 0.036167994 0.021275224
0001f0 dc 51 9c bb 1d 17 25 3d c2 d4 07 3d 35 9b 68 bc
       -0.0047705006 0.040305246 0.033161886 -0.0141971605
000200 be fe 51 bd b4 ef 83 3d a0 1e 48 bd d3 15 97 3c
       -0.05126833 0.06442204 -0.04885733 0.018443024
000210 f1 e0 48 bd 4f e8 82 bc 93 93 a0 ba 77 33 47 3d
       -0.049042646 -0.015979914 -0.0012251012 0.048633065
000220 98 f5 df bc 43 ad 91 3c 18 23 7b 3b 1a 46 89 bd
       -0.027338788 0.017782813 0.0038320478 -0.06702824
000230 c6 89 3f b9 ce fa 57 bd 7d bc a5 3a 1b e4 30 bd
       -0.00018266504 -0.05272942 0.0012644675 -0.04318629
000240 57 d5 eb bb c2 de 8e 3b 41 3f 53 3d bb 1b 0d 3d
       -0.007197063 0.004360051 0.051573996 0.034450274
000250 96 5e 21 3d 0c 96 5a 3d 5a cf b0 bc f1 74 0b 3d
       0.039396845 0.053365752 -0.021583248 0.03404707
000260 88 25 93 bc c1 92 e0 ba 8c 0b 3f 3d 5b 80 40 3d
       -0.017962232 -0.001713358 0.04664187 0.04699741
000270 ab 43 9e 39 58 15 49 bc ea 5a 94 bc ce f1 81 bd
       0.00030186525 -0.012273155 -0.018109757 -0.06344949
000280 29 ad 22 bd 04 af 84 3d be a6 22 3d 95 24 0b 3d
       -0.03971592 0.06478694 0.0397098 0.033970434
000290 e4 ef af 3b 17 a5 57 3c d1 47 7d 3c 98 23 83 3b
       0.0053691734 0.013161919 0.015459017 0.004002046
0002a0 af 86 dd bb 75 37 59 3c eb f7 56 3d 01 16 54 3d
       -0.0067604403 0.013257851 0.052482527 0.051778797
0002b0 77 21 49 3d 39 62 36 3b 80 97 22 bd a9 aa 8a 3c
       0.04910418 0.0027829541 -0.039695263 0.01692708
0002c0 51 75 6d 3d ef 9f 96 3b 22 71 20 3d a0 07 14 3c
       0.05797321 0.0045967023 0.03917039 0.009035021
0002d0 b6 f3 00 3d 32 8a 03 3d 1c c7 01 bd 53 59 92 bd
       0.03148242 0.032114215 -0.031684026 -0.071459435
0002e0 4c 0e ef bc 51 24 b4 3c 64 65 be 3c d5 17 80 3c
       -0.029181622 0.021989973 0.023241706 0.015636364
0002f0 c4 5e 96 3c d7 8b 7f 3d d2 2b a8 3c 71 1e 60 bc
       0.018355735 0.06238922 0.020528708 -0.013679133
000300 f8 10 ee bc 64 a5 e6 3c 6c 7b f3 bc 9a 0d 09 bd
       -0.029060826 0.028155036 -0.029721938 -0.033460237
000310 88 55 73 3d 78 a8 65 bd 53 5a 61 3b e3 01 80 bd
       0.05940774 -0.056068867 0.0034386113 -0.0625036
000320 ff 01 46 3d 91 2e 36 3c 83 5e a6 bb 66 9a 01 3d
       0.048341747 0.011119501 -0.0050771846 0.031641386
000330 c4 c7 fc ba 31 bc 65 bc 69 85 3b bd a7 f6 c5 bc
       -0.0019285609 -0.014021919 -0.045781527 -0.024165465
000340 3a 83 07 bc ed 7c 8b 3d 29 d8 84 3c 37 80 08 3d
       -0.008271033 0.06810937 0.016216354 0.0333254
000350 b6 ee 17 bd 0d 4a 7e 3d 24 43 10 3b 73 b0 86 3c
       -0.037092887 0.06208234 0.0022012675 0.01644156
000360 35 62 ab 3c 8d 28 1c 3d 38 26 a3 3b f9 e9 22 3d
       0.020920852 0.03812461 0.0049789213 0.039773915
000370 65 f6 39 bb c9 94 7c 3d 78 21 38 bd a2 9c 50 3c
       -0.0028375622 0.06166533 -0.044953793 0.012732657
000380 c0 cd c7 3c 85 fb d3 bc 0a fa 8c bd 1f bd 94 bc
       0.024390101 -0.02587677 -0.06883629 -0.018156586
000390 be 02 68 3a 42 30 35 3d 8d 86 0f bd 4b a7 5c 3c
       0.0008850506 0.044235475 -0.035040427 0.01346762
0003a0 2c f5 f5 bc 1b 4d 03 3d 79 28 ed 3c b6 74 99 bc
       -0.030024134 0.032055955 0.028949963 -0.01873241
0003b0 56 99 27 bd d6 d1 81 bc 1f 76 1b bd 59 e9 32 bd
       -0.040917717 -0.015847128 -0.037954446 -0.04367957
0003c0 7f 69 47 bb 43 e5 69 bc 32 69 41 3c fd 1e 9b 3c
       -0.003042787 -0.014275852 0.011804866 0.018935675
0003d0 89 17 9a 3c 93 9d 1e bb 00 eb 78 bd d5 81 27 bd
       0.01881005 -0.0024202808 -0.06077099 -0.0408953
0003e0 e0 81 78 3d f0 2a 78 3d eb 23 a9 bc 4a 4f 8c bd
       0.060670733 0.060587823 -0.02064701 -0.06851061
0003f0 dd 63 21 3d 6b c1 c9 bc 87 05 8e 3d bc c7 62 3d
       0.039401878 -0.024628362 0.06934648 0.055366263

bias f4 [200]
000000 0b 49 3d 3d 29 aa 36 bc c1 c1 d7 bc fc ca 33 3c
       0.046212237 -0.011148968 -0.026337506 0.010973688
000010 70 4c 82 bd 66 cb a8 3c f5 48 93 bb 1a cb 2c bd
       -0.063622355 0.0206048 -0.004494781 -0.04218588
000020 e6 6c 12 bc 68 2f 0c bd 1b e1 d8 bc 7e 4f 30 3d
       -0.008937096 -0.034224898 -0.026474526 0.04304456
000030 05 93 2b 3d c2 b2 8b bd 14 52 83 3c a0 76 6b bd
       0.041888256 -0.06821205 0.016030349 -0.057486176
000040 78 47 80 bd 6d 41 25 3d 96 57 03 3d 9f 06 97 bc
       -0.062636316 0.040345598 0.03206595 -0.018435774
000050 f8 2d 8d 3c ac bf da 3b 52 92 e7 3c 6f 3c 24 3d
       0.017233834 0.006675681 0.028268013 0.040096696
000060 0a f9 d2 bc ef e1 71 3d 9c 1f 17 bd de d3 6c bc
       -0.025753517 0.059053358 -0.03689538 -0.01445481
000070 ed 41 03 3d e0 ba 39 bc 43 a8 7a 3d 39 f9 43 bd
       0.032045294 -0.011336058 0.061195623 -0.0478451
000080 67 78 7a 3d b9 84 72 bd 71 26 76 bc 56 62 c1 3b
       0.06114998 -0.059208605 -0.015023814 0.005901615
000090 8d 46 3a 3d a1 46 37 bc ba 57 5f bc 13 56 27 bd
       0.04547744 -0.011186273 -0.0136317555 -0.04085357
0000a0 b0 47 26 bd 3b 6c 57 bc ba 1b 00 3d d8 c8 4a 3d
       -0.04059571 -0.013148363 0.031276442 0.049507946
0000b0 70 36 56 bd d4 50 e7 3c 62 9c 11 3d 70 35 5c bd
       -0.05229801 0.028236784 0.03554953 -0.0537619
0000c0 45 00 b7 bc d7 30 07 3d 31 a3 09 bd e1 40 24 bd
       -0.022338996 0.03300556 -0.033602897 -0.040100936
0000d0 8f d0 5d 3d f7 39 3f bd 16 61 6d 3d 43 4e 58 3d
       0.054153975 -0.04668614 0.057953916 0.05280901
0000e0 b8 2a 8b 3b b5 01 d0 3c bd c5 aa 3b 3a 78 5f bc
       0.004247036 0.025391439 0.0052115605 -0.013639504
0000f0 de d7 7d 3d 43 9b 9e bd 42 9a 47 3d af a5 cb 3c
       0.061973445 -0.077444576 0.048731096 0.024859278
000100 e5 08 66 bd bc ca 20 bc f6 e3 7e 3d ee fc 3f 3c
       -0.056160826 -0.009813961 0.06222912 0.011718018
000110 43 cf 55 3d de 4c 2a bc e5 14 56 3d a9 c5 bb 3c
       0.052199613 -0.010394303 0.05226602 0.0229214
000120 d7 b0 d6 bc 3e 8a df 3c ad 4e 21 bd 48 63 34 bd
       -0.02620737 0.027287599 -0.03938167 -0.044039994
000130 17 16 84 3c 45 41 68 bd 5b bf 83 3d ed cc 70 3c
       0.016123815 -0.05670287 0.064329825 0.014697296
000140 76 5c ef 3b 02 32 af 3c d8 e2 1a bd a6 fe 9c bc
       0.0073047234 0.02138615 -0.03781399 -0.019164395
000150 99 08 14 3d a3 8a 67 3d 63 5d fd 3c c1 ba 99 3d
       0.036141012 0.0565287 0.03092832 0.075063236
000160 80 14 0b bd 22 83 06 bd e4 91 0e bd 7c fb 03 bd
       -0.033955097 -0.0328399 -0.0348071 -0.032222256
000170 f2 dd 80 bc 6a 24 79 3d ff 21 12 bd ba c9 23 3d
       -0.015730832 0.060825743 -0.035676952 0.039987303
000180 7f 8b 40 3c e8 ff 3f bd 1c 90 05 bd 54 a1 02 bc
       0.011752008 -0.04687491 -0.032608137 -0.007973034
000190 7d 36 de bc d0 88 83 3d 3a 11 dd 3c b3 4e df b9
       -0.027125591 0.06422579 0.026985753 -0.0004259251
0001a0 ea 89 80 bd 9c d0 54 3d bc 1a f3 3c ff d1 ce 3c
       -0.06276305 0.051956758 0.029675834 0.025246618
0001b0 87 c9 8c bc 4d 7d eb 3b 1b 2c 11 3d 4f 85 16 bd
       -0.01718594 0.007186568 0.035442453 -0.036748227
0001c0 2d 7d 6d bc 00 03 e4 bc f0 16 4d 3d 2d 7a 07 bc
       -0.014495176 -0.027833462 0.050070703 -0.008268875
0001d0 e8 b6 19 bc 32 38 57 3d 29 d2 a0 bc 00 e4 5d 3c
       -0.009381987 0.052543826 -0.019631462 0.013543129
0001e0 75 bd b2 bc ae 27 96 bc 47 77 72 bd fd 7e 1f bd
       -0.021818856 -0.018329468 -0.059195783 -0.038939465
0001f0 20 7b a4 bd 3b 5e b3 3c b1 28 93 bd 9e 2f 34 3d
       -0.08031297 0.021895519 -0.07185496 0.043990724
000200 3d 40 9b bd 61 80 e6 3c 0c c3 6d 3d 04 ef 07 bd
       -0.07580612 0.028137388 0.05804734 -0.033186927
000210 9f dd 87 bd ee ac 08 3d 4a 63 3e bd b7 d3 fa 3b
       -0.06634068 0.033368044 -0.04648141 0.007654633
000220 02 d5 86 bd b4 4a ae bb 4e a8 da bc be e2 35 3c
       -0.06583597 -0.005318964 -0.026691582 0.011101423
000230 44 52 82 3c 6f c9 1f 3d f9 52 9f bc 37 8a 27 3c
       0.015908368 0.03901046 -0.019448744 0.010225824
000240 ac e5 24 bd ac 80 45 3d 98 35 fe 3c be ad 90 3d
       -0.040258095 0.048218414 0.031031415 0.07064389
000250 ef da 53 3c a2 94 b9 3c 96 96 9e 3b cb ec 48 3d
       0.012930616 0.022653881 0.0048397286 0.04905395
000260 6e ae b0 38 c8 18 76 3d a7 e3 58 3d 13 fe 8e bd
       8.424824e-05 0.060082227 0.05295148 -0.069820546
000270 66 0c 4b 3c 13 b1 38 bd c2 d9 6a bb a2 6e 48 bc
       0.012393093 -0.045090746 -0.003583536 -0.012233408
000280 6d 08 f1 3b c1 0f 8e bd 57 d6 87 bc fd f4 6c 3b
       0.0073557408 -0.069365986 -0.016581697 0.0036156767
000290 c0 51 2d 3d 31 8e 5b bd 64 45 30 bc fa de 9a 3c
       0.04231429 -0.0536024 -0.0107587315 0.018905152
0002a0 cc bc 52 3d fa e4 01 3d ca 95 98 bd 18 16 0b bd
       0.051449582 0.03171251 -0.07450445 -0.033956617
0002b0 3d 3e b1 3c 6b 3f 6d bd af a3 ad 3c d2 41 96 3c
       0.021636123 -0.05792181 0.021196214 0.018341932
0002c0 a5 b5 75 bd e5 48 b3 3c bb 54 0b 3d 18 ef 92 bd
       -0.059987683 0.021885345 0.034016352 -0.0717451
0002d0 28 12 52 bd af 05 b8 bc 9a 10 25 3b d6 12 39 bc
       -0.051286846 -0.022463648 0.0025186897 -0.011295995
0002e0 34 77 90 3c 21 45 76 bd 2d 62 4e bd b4 2d 58 bd
       0.017634965 -0.06012452 -0.050386596 -0.05277796
0002f0 49 99 5d 3d 07 54 32 bd 0c 17 28 3d 62 55 1b 3d
       0.054101262 -0.043537166 0.041037604 0.037923224
000300 34 1c 9d 3c 36 93 52 3d c1 56 90 3d c5 7e a6 bb
       0.019178487 0.051409923 0.07047797 -0.00508103
000310 7b 66 d9 bc 75 f1 95 bc 11 3f 66 3d 40 42 73 bd
       -0.026538124 -0.018303612 0.05621249 -0.059389353

weight f4 [300, 200]
000000 7d ae 1c 3d 18 e2 d0 bc 91 75 2a 3d cd 7e 83 3d
       0.038252342 -0.025498435 0.041616026 0.0642067
000010 9f d8 94 3c 5b 86 c8 bc 15 2b 9b 3d 72 eb 70 bd
       0.0181697 -0.024478128 0.075765766 -0.05881829
000020 24 cc f1 3c 75 36 9f 3c 77 3a 62 bd c8 ba 83 bc
       0.029516287 0.019435147 -0.055231538 -0.016080275
000030 80 b2 48 bc 11 65 02 bd 1a dd 6f bd e8 ee cd bc
       -0.012249589 -0.031834666 -0.05856047 -0.025138333
000040 d5 bf bc 3d 54 15 75 bd d8 3b ce bc 15 d4 d0 3b
       0.092162766 -0.059834793 -0.02517502 0.0063729384
000050 ad 92 79 3d 75 d8 3b 3d ef 24 ce bc 2b c6 ad bc
       0.060930897 0.045860726 -0.025164096 -0.021212658
000060 11 90 3e bc 60 51 8b 3d d0 fb 19 bd 7a d3 f6 bb
       -0.011631028 0.068026304 -0.037593663 -0.007532534
000070 f1 e3 cd 3c 50 e0 47 bb 3a d6 80 bd 16 cc 8b bd
       0.025133105 -0.003049869 -0.062908605 -0.06826036
000080 5a db 01 3d fd ab 0d 3d f3 ea 2d 3d 80 93 40 3c
       0.03170333 0.03458785 0.042460393 0.011753917
000090 26 2c 82 bd 0f 35 7b 3d 5b 6b 58 bc 60 53 d0 bc
       -0.06356077 0.061329897 -0.013209189 -0.025430381
0000a0 0f 9c 6c bd e6 ee 71 3c 82 1b 80 bd e9 34 a7 bc
       -0.057766017 0.0147664305 -0.06255247 -0.020410972
0000b0 3f 21 ee 3b e4 66 b8 bc c9 6c 20 bc db 68 f7 3c
       0.007267147 -0.02251 -0.009791561 0.030201366
0000c0 b0 6a 8b 3c ea 93 42 bd a7 52 6c bd a9 3e 1a 3c
       0.017018646 -0.047504343 -0.05769601 0.009414353
0000d0 ef 1d 90 bd 27 f8 8e 3c eb 21 b2 bc 6e 6e 1f 3d
       -0.070369594 0.017452313 -0.021744689 0.038923673
0000e0 b1 79 8a bd 10 d7 f2 bc ed 61 26 3c 5e b2 25 3d
       -0.06761492 -0.029643565 0.010155183 0.040453307
0000f0 fe 6c 85 bd 2d 4c 35 3d 5c 07 3b 3d 35 8d 6c 3c
       -0.06514929 0.0442621 0.045661315 0.014437963
000100 ee 10 46 3d 0e 67 4c bd cf 54 cb 3c 11 45 eb bc
       0.04835599 -0.049902968 0.024820713 -0.028719457
000110 5f 37 ab bb 42 ff 5e bd b4 fd 86 bc d0 2a 5d 3b
       -0.0052251066 -0.05444265 -0.016478397 0.0033747442
000120 6d 2b 5a bd a6 5e 2e 3d e4 8d 3a bd 23 8c 9d 3c
       -0.05326407 0.042570733 -0.045545474 0.019231861
000130 b0 13 cb 3c 68 0e f1 bc a2 73 35 3a 9c 8f 29 bd
       0.024789661 -0.029425815 0.00069218327 -0.041396722
000140 f2 b4 73 3b 6f 24 8f 3d 49 51 53 bd e7 63 68 bd
       0.003718671 0.06989371 -0.05159119 -0.0567359
000150 3b a6 e1 3c 7c db 12 3d 5e 48 e8 bc 38 77 55 bc
       0.027545085 0.035853848 -0.02835482 -0.013028912
000160 e3 67 8e 3d 95 ed 30 3d 99 3d 1d 3d 7f 9b 8f bd
       0.069534086 0.043195326 0.038388822 -0.070120804
000170 a8 7c 55 3d 26 b6 d5 bc e3 33 b5 3c 4e 1e 98 bc
       0.052120835 -0.026087832 0.022119468 -0.018569138
000180 b3 f8 74 bd 9a 92 3b bc 9e 69 6d bd 41 3a 5a bd
       -0.05980749 -0.011448527 -0.057962053 -0.05327821
000190 c5 73 f7 3c cf f9 19 3b 50 38 80 3d 96 a1 54 bd
       0.03020657 0.0023494845 0.06260741 -0.051911913
0001a0 87 4c 63 bd f7 05 1a 3d b4 84 94 bd b2 a5 ce bc
       -0.055492904 0.037603345 -0.072518736 -0.025225494
0001b0 5b a5 80 bc 9d 2f 5b bd 5b b3 42 bb 63 8b 27 bd
       -0.015703848 -0.053512204 -0.0029708955 -0.040904414
0001c0 36 40 f1 bc c2 55 4a 3d 29 1a 2b 3b 2c 30 08 3c
       -0.029449563 0.04939819 0.0026108122 0.008312266
0001d0 32 0f 59 3d 41 bc 76 3d 61 94 d4 3c db ae 3b 3d
       0.052993007 0.060238127 0.025949659 0.045821052
0001e0 00 8f 3a bd a0 0b 90 bd 03 70 56 bd 88 06 75 3d
       -0.04554653 -0.07033467 -0.052352916 0.05982068
0001f0 bf e6 32 3d 87 9d 04 bd aa 11 4f 3d f1 7d 3f 3b
       0.043677088 -0.032376792 0.050553955 0.0029219354
000200 40 a8 12 3c 8a 97 18 bd 9a 59 21 3d 07 00 ed 3b
       0.008951247 -0.037253894 0.03939209 0.0072326693
000210 be 9f 83 3d 0b 49 8f 3c 0a 08 38 3d b4 04 85 bd
       0.06426953 0.017490884 0.04492954 -0.06495038
000220 ed c3 7a bd db 1a 23 3d e1 c2 83 3d 29 31 0a 3b
       -0.061222006 0.039820533 0.064336546 0.002108643
000230 b5 8c 13 3d 70 83 2d bd 74 42 0f 3d d8 0b 0b bd
       0.03602286 -0.042361677 0.034975484 -0.033946842
000240 01 89 7c bc f3 eb ec bc b3 2a 90 bd db e4 bb bc
       -0.015413524 -0.028921103 -0.07039394 -0.022936275
000250 50 2c 8e bd 8e 4d e3 3c b1 aa 2b 3d 9d 0e 9b 3c
       -0.06942046 0.027746942 0.04191083 0.018927867
000260 ab 46 8c 3d c2 6c 6e bd 27 33 37 bc a1 ce de bc
       0.06849416 -0.05820919 -0.011181629 -0.027198138
000270 5d 52 2f bb 1e 7a 91 bd 5a 62 e9 bc 90 3f 45 bd
       -0.0026751973 -0.0710337 -0.02848928 -0.04815632
000280 ec c0 a6 bc 09 78 b1 3b 3c a9 bb 3b 58 7f 79 3d
       -0.020355664 0.0054159206 0.0057269614 0.06091246
000290 fa 97 07 bd ac 19 49 3d 4c e6 80 3c ca 79 7c 3c
       -0.03310392 0.04909675 0.015734814 0.015409896
0002a0 98 8a 44 3a 8f cd 00 3c 94 aa 9f bc f1 6b 66 3c
       0.0007497459 0.007861509 -0.019490518 0.014063821
0002b0 46 fa 36 3d 72 7c 1d bd 97 9f 2e bd c6 04 25 bd
       0.044672273 -0.03844876 -0.042632665 -0.040287755
0002c0 dc 59 61 3d 5c f1 99 bc f3 a1 ba 3c 08 79 01 3c
       0.055017337 -0.018791847 0.022782302 0.007902391
0002d0 57 a9 e2 bc c0 f7 45 bd 54 47 96 bd 54 40 40 bd
       -0.027668638 -0.048331976 -0.073378235 -0.046936348
0002e0 1f dd 80 3d 7b a6 e8 bc 74 2b 43 3c cc 91 64 bd
       0.062921755 -0.028399697 0.0119122155 -0.055803105
0002f0 c9 24 a5 b9 c3 40 e5 3b 2b 20 b0 bc 7f e4 50 bd
       -0.0003149866 0.0069962456 -0.021499714 -0.05099916
000300 6a 3f b5 3c c4 68 83 bd da aa 74 bd 3f 20 6a bc
       0.022124965 -0.06416467 -0.05973325 -0.014289915
000310 56 45 28 3d 4d 48 2e 3d 06 c7 29 bd 23 71 69 bc
       0.04108175 0.04254942 -0.04144957 -0.014248165
000320 ed 0f b9 3c 1e f5 3c 3b d8 3a 53 3c c5 58 74 3c
       0.022590602 0.0028832625 0.012892447 0.014913742
000330 8e 6a 67 3c 62 d9 42 3d 8c 67 e9 3b a7 2c 4a 3d
       0.014124526 0.047570594 0.0071229395 0.04935899
000340 f5 73 f5 3b d6 a5 76 3d 30 08 34 bd a2 3c 88 3c
       0.00749063 0.060216747 -0.04395312 0.016630474
000350 a8 0b 23 3d a1 62 22 3d bb be 06 bd 25 15 b7 3c
       0.03980604 0.03964484 -0.03289674 0.02234895
000360 ba 64 8a bd dc e8 20 3d 06 da 88 3d 38 c8 ea 3c
       -0.06757493 0.039284572 0.0668221 0.028659925
000370 9c a2 7c bd 84 09 14 3a 08 34 6c bd 41 90 50 3d
       -0.061678514 0.000564717 -0.05766681 0.05091882
000380 c5 12 7d bd 1e 26 29 3d 8c 1c a8 bc 6f c5 04 3c
       -0.06178548 0.041296117 -0.020521425 0.008103712
000390 54 a9 89 3b b2 1a 80 3d 7c da 18 3c 31 1c 9e ba
       0.0042010937 0.06255092 0.0093294345 -0.0012062845
0003a0 45 68 17 bd 2e 45 51 bd 47 4c d9 3c 47 00 be 3c
       -0.036964674 -0.051091366 0.02652563 0.023193492
0003b0 6b 34 90 bd 29 4d 0e 3d 3b 82 7d bd 5a 56 05 3d
       -0.07041248 0.034741554 -0.061891776 0.032553054
0003c0 47 4b cc 3c ca b3 7a 3d ce a5 50 3d d2 d6 15 3c
       0.024938239 0.061206616 0.050939374 0.009145455
0003d0 34 ba 37 3d 66 56 1b 3d f2 90 aa bb d2 38 3e bc
       0.04485531 0.037924193 -0.005205267 -0.011610227
0003e0 b2 81 84 3d 48 86 b3 bc 85 63 84 bd f4 94 0a bd
       0.0647005 -0.021914616 -0.06464294 -0.03383346
0003f0 4d b4 84 bd e5 d8 0d 3c c3 2a f9 3c 2e f8 84 3d
       -0.06479702 0.008657669 0.030415898 0.06492649

bias f4 [300]
000000 67 6d 10 3d b7 4f 76 bd fb b0 00 bd 91 d9 8b bc
       0.035260584 -0.060134616 -0.03141878 -0.017071517
000010 73 88 19 3d 30 1b 99 3d 4c 99 86 3d 78 4c 60 3d
       0.037483644 0.07475889 0.06572208 0.054760426
000020 a2 ee 61 bd 0c 3e af bc c4 7f 88 bb c7 b5 89 3c
       -0.05515922 -0.021391891 -0.0041656215 0.016810311
000030 ae 57 0e bc d1 08 86 bd ab 1a 86 39 c0 ce 51 bd
       -0.008687897 -0.0654465 0.0002557834 -0.051222563
000040 01 81 85 bd f3 72 54 bc 04 0f fc bc f3 36 c3 bc
       -0.06518746 -0.012966859 -0.030768879 -0.023829913
000050 fe 66 86 3d 42 3e c4 bc 6f 71 05 3d a2 9a e2 39
       0.06562613 -0.023955468 0.03257888 0.0004322129
000060 e0 12 e8 bc 77 ba 5e bd d7 05 62 3d 45 43 59 bd
       -0.028329313 -0.054377045 0.05518135 -0.05304267
000070 60 4f 74 3d c9 09 4d bd 66 da 1b 3d fc 1b 37 bd
       0.05964601 -0.05005816 0.038050078 -0.044704422
000080 12 14 e9 bc a9 e8 00 3d e6 40 21 bd 2e b8 4d bd
       -0.028451953 0.031471882 -0.039368533 -0.050224476
000090 8f 50 c7 bb 59 7e 3a bd 62 84 26 bd e4 ee 86 bb
       -0.0060826014 -0.04553065 -0.040653594 -0.0041178335
0000a0 aa d3 87 3d e1 2f 30 bd 8e 1e 27 3d 54 c3 7d 3d
       0.066321686 -0.04301441 0.040800624 0.061953858
0000b0 13 55 6c bc c3 a0 68 bd 08 19 9f 3c 74 89 c2 3c
       -0.01442458 -0.05679394 0.019421116 0.023747183
0000c0 60 d6 1f 3d 89 b0 30 3d a8 e1 6f 3d 2a ce 0c bd
       0.039022803 0.043137107 0.058564812 -0.0343763
0000d0 5b 82 8a bc de bc 44 3d d8 6b 72 bd f6 1a 81 3d
       -0.016907861 0.04803168 -0.05918488 0.063039705
0000e0 a7 63 32 3d 3c 8c 82 3d 7c 90 81 3d b7 09 16 bd
       0.043552067 0.06374404 0.06326386 -0.03663036
0000f0 10 07 77 bc 4e bc 85 3d a4 cd d5 bc 72 ba e3 3c
       -0.015077367 0.06530057 -0.026099034 0.027798865
000100 1d f2 38 3c d1 87 21 bb 91 ab db bb 15 9f aa 3c
       0.011288193 -0.0024647603 -0.006703802 0.02082781
000110 38 3f 31 bd 17 2a 1f bd 4e 49 dd 3c 4a 1c 80 3d
       -0.04327318 -0.0388585 0.027012493 0.06255396
000120 24 b5 69 bd bb 04 47 bd dc ab 91 3d 73 f8 45 3d
       -0.057057515 -0.048588496 0.07112858 0.048332643
000130 9d 54 27 bd f0 bb 0d bd 4d e5 6b bd 80 d0 57 bc
       -0.040852178 -0.03460306 -0.057591725 -0.013172269
000140 27 57 66 bd 34 ec 8d bd 59 75 3f bd cb f2 3b 3c
       -0.05623546 -0.06929818 -0.04674277 0.011471461
000150 37 cd 77 3d 9c 79 3d bc a7 ff 58 bd d7 0a 55 3d
       0.060498443 -0.011564638 -0.052978184 0.05201229
000160 35 db 77 3c 57 6e 38 3d 7a 3c 5b bd 48 15 10 3d
       0.015127947 0.045027103 -0.05352447 0.035176545
000170 24 d9 c5 3c bb 0c eb 3b 78 a7 46 bd 6c d4 95 3c
       0.024151392 0.0071731484 -0.048499554 0.018289767
000180 da 0a 5a bc 81 bc 71 bd 94 75 d2 3c 56 c2 07 bd
       -0.013308251 -0.059017662 0.025690831 -0.033144318
000190 dc 65 83 3d 96 bd 12 3b ae a0 1a 3d f8 fe 7b bd
       0.064159125 0.0022390834 0.037750892 -0.061522454
0001a0 85 22 f9 3c d8 3c 52 bd 0b c5 6f 3d 4b ea 5c 3d
       0.030411968 -0.051327556 0.058537524 0.053934377
0001b0 5b 6c c3 3b 8a 32 93 3d b8 c1 2b 3d ae cf 86 3d
       0.0059638447 0.07187374 0.04193279 0.065825805
0001c0 d3 be 88 3d 76 b4 43 3d dd 0b 75 bd f8 8f 66 bd
       0.06677022 0.047779523 -0.059825767 -0.056289643
0001d0 14 2f 7d bc ff 22 2c 3d cb 36 0f 3d ae 4e 57 3d
       -0.015453119 0.042025562 0.034964364 0.05256527
0001e0 14 a1 42 bd a5 47 86 3c 84 a7 20 bd d0 8f ac 3c
       -0.047516897 0.016391585 -0.039222255 0.021064669
0001f0 df 55 60 bd 9b 32 61 3d 74 f6 75 3c 16 e7 48 3d
       -0.054769393 0.0549799 0.015012372 0.049048506
000200 e9 54 86 3d ab 2e 6e 3d 8f c6 bf bb 14 7b 12 3d
       0.06559164 0.058149975 -0.0058525275 0.035761908
000210 89 25 5d bd fc 10 15 3c fb eb 6d 3d 21 c2 3e bb
       -0.053990874 0.009098288 0.058086377 -0.002910741
000220 95 69 6f 3d bf 1d 87 3c 47 ed 08 ba 7c 16 7e 3d
       0.0584503 0.016493676 -0.00052233454 0.06203316
000230 34 1e 80 3c 3c df 09 3d 24 91 38 3d e2 c1 9f 3c
       0.015639402 0.03366016 0.045060292 0.01950163
000240 0b 70 49 3d ba cc 86 bd 19 3e a2 3c 2c 17 1c 3d
       0.049179118 -0.06582017 0.019805001 0.038108036
000250 13 9a 38 3d c7 74 df 3c fb d0 27 3c 25 cb 61 bd
       0.04506881 0.027277363 0.010242696 -0.055125374
000260 4d b0 52 3b 27 3c 8c 3c ef e3 82 3c e6 93 e2 bc
       0.003214854 0.017118527 0.015977828 -0.027658414
000270 84 d3 22 3b 8d f8 9e 3c 4f 0c 04 bd c8 74 f3 3c
       0.0024845311 0.019405628 -0.0322383 0.029718772
000280 b5 93 9b bc 31 3e 92 bb 30 22 3a bd 80 00 16 3d
       -0.01899133 -0.00446298 -0.04544276 0.03662157
000290 df a0 0e bd b8 4b 4d bd a8 b1 e4 bc e3 ce a7 3c
       -0.034821387 -0.05012104 -0.027916744 0.020484393
0002a0 d0 98 3d 3d 5d 93 83 bc 2f e9 7c bd 2d d8 0f bb
       0.04628831 -0.01606148 -0.06174582 -0.002194892
0002b0 83 9a 81 3d e6 3c 1d bd 42 1c 80 3d ec a6 93 3d
       0.06328299 -0.038388155 0.0625539 0.07209572
0002c0 cb fa f1 bb 5d 02 2b 3d 11 78 95 3d 83 df 5f bd
       -0.007384633 0.0417503 0.072982915 -0.054656517
0002d0 36 ea 2a bd 08 ea 73 3c f6 65 54 3c 02 06 bd 3c
       -0.041727267 0.01488734 0.0129637625 0.023074154
0002e0 42 92 82 3d c5 95 54 ba d9 9c 1a 3d fb 64 e3 3a
       0.06375553 -0.00081094756 0.037747238 0.001734882
0002f0 6b 12 6f 3d 7e f8 18 3d 91 38 bd bc 45 37 62 bd
       0.058367174 0.037346356 -0.023098262 -0.05522849
000300 4e 69 ea 3c 21 4e 79 bd b3 70 cf 3c 90 99 9a bd
       0.028614666 -0.060865525 0.025322294 -0.07548821
000310 8f 24 e2 bc 6d 86 81 bd 49 e1 34 bc 60 70 68 bc
       -0.027605323 -0.06324468 -0.01104004 -0.014186949
000320 ad a0 0d bd c2 4b 7d bd e9 3a dd 3a 6c 6f 37 3d
       -0.03457706 -0.061839826 0.0016878519 0.044783995
000330 be cc 8b bd ab 7c 39 3d aa c6 68 3d ff 93 65 3b
       -0.06826161 0.04528491 0.056830086 0.003503084
000340 ec 5c 93 bd 11 e9 96 bd 9a ca 81 bd 6d 9e 65 3c
       -0.07195458 -0.07368673 -0.06337471 0.014014822
000350 c5 07 0b 3d 20 3f 2a 3c b9 b1 1e bc fc 4b a3 bc
       0.033942956 0.010391027 -0.009685927 -0.019933693
000360 99 ce 71 bc 2f 80 02 3d 35 d9 80 3d a7 40 51 bd
       -0.014758729 0.031860527 0.06291429 -0.051087048
000370 44 c5 a3 bc 1d 7a 86 3d 8f f3 69 3d d2 68 14 3d
       -0.019991525 0.0656626 0.05711704 0.036232777
000380 14 96 76 bd a3 bf 6c 3d ed 3b 91 3b 5e e2 74 bd
       -0.06020172 0.057799947 0.0044321925 -0.059786193
000390 c8 b0 57 3d db 51 01 bd ef 60 15 bd 40 f0 98 3c
       0.052658826 -0.031572204 -0.036469396 0.018669248
0003a0 ec 83 75 3c 41 ab 33 bd c4 3b cc 3c e7 89 86 bd
       0.014985066 -0.043864492 0.024930842 -0.065692715
0003b0 e9 f4 d8 bc 40 60 3f 3d ca 4a a1 bc 5f d0 95 bd
       -0.02648397 0.04672265 -0.019688983 -0.07315134
0003c0 8d 91 2c 3d 81 f7 9b 3c a3 2c 6b bc fd 66 16 3d
       0.042130996 0.019038917 -0.014353904 0.03671931
0003d0 ea af 7f 3d 14 9c 31 3d 14 97 43 bd fa de b1 bc
       0.062423624 0.04336174 -0.0477515 -0.021712769
0003e0 5f 56 6b bd 2f 0e 70 3d 8d 33 4e 3d fb 05 0e bd
       -0.057455417 0.058607277 0.05034213 -0.034673672
0003f0 dd eb 69 bd 38 ad 77 3c a3 60 f2 3c 14 ab 05 bd
       -0.057109702 0.015116982 0.029587096 -0.032633856

weight f4 [300, 200]
000000 3c e9 11 3d 17 57 94 bd c3 fc 8f bd 87 49 f6 3b
       0.03562282 -0.072431736 -0.07030632 0.0075160894
000010 2e a4 d2 3c 17 eb f9 3c ed cc ce 3b b8 39 ff bc
       0.025713053 0.030507607 0.00631105 -0.031155452
000020 65 0a 4b bd 66 54 e0 3c e7 f0 f5 3c 15 bd 6c bd
       -0.04957046 0.027383994 0.030022098 -0.05779751
000030 12 1b cb bc bf 85 1e 3d b5 cd 6c bd b8 dc ac 3c
       -0.024793182 0.03870177 -0.057813365 0.02110134
000040 07 ca 7e bd 2d b0 58 3d 8d 68 31 3d 33 fe d7 3c
       -0.062204387 0.05290239 0.043312598 0.026366329
000050 7a 1f 0f 3c d9 b0 4d bd fe 80 46 bb 3f 50 c9 3c
       0.008735532 -0.050217483 -0.0030289288 0.024574397
000060 a4 4e 8e bb a3 aa 6c bd 1e 0f 82 bd 5c 57 3c 3b
       -0.004342871 -0.05777992 -0.063505396 0.0028738594
000070 b4 a5 4b bd a9 ec 82 3c d3 4a 89 3d c9 a9 a0 bc
       -0.049718574 0.015981989 0.06703725 -0.01961221
000080 a1 28 8a bd 72 8b 3e 3d 95 fa 8c bd 03 12 38 3d
       -0.067460306 0.046519704 -0.06883732 0.044939052
000090 b9 1e 8d 3d dd cf 36 bd 05 75 32 3c 80 aa d7 3c
       0.068906255 -0.044631828 0.010892157 0.026326418
0000a0 66 04 7b 3c 4c 49 8d bd cb a3 dc bc 4e e2 9c bc
       0.015320873 -0.06898746 -0.026933571 -0.01915088
0000b0 53 01 94 3d 31 58 9d bc 86 c6 f6 3c c4 05 7e 3d
       0.07226815 -0.019207092 0.03012396 0.062017217
0000c0 f6 91 b5 3c e5 bf ae 3c 67 95 64 bd 42 b7 a9 3c
       0.022164326 0.021331737 -0.055806544 0.020717267
0000d0 f7 2a 85 bc 91 71 d7 3c d2 08 9e bc 7a d6 ac 3c
       -0.016255839 0.02629927 -0.019291315 0.021098364
0000e0 bc 7b b8 bc 2f aa c9 3b df 7a 9e 3d 9b 38 3a bd
       -0.022519939 0.0061543207 0.077382796 -0.04546414
0000f0 27 81 b7 3c 6c f2 3f 3d 43 16 e8 3c 6b 3f 1e 3d
       0.022400452 0.04686205 0.028330928 0.0386347
000100 26 2f c0 bc 7b 6a 1b bd ec 15 80 3d 70 c5 00 bd
       -0.023459982 -0.037943345 0.06254181 -0.03143829
000110 9e 68 27 bd 30 b3 03 3d 36 7a 62 3b 10 db 02 bd
       -0.040871255 0.03215331 0.0034557707 -0.031947196
000120 63 fc 7b bd cf f7 ad 3c 54 32 99 3c 98 21 c4 3c
       -0.06151999 0.021236328 0.018700756 0.0239418
000130 f7 41 95 3c d1 86 e9 bc 54 7b 38 3d 3c 68 55 3d
       0.018219931 -0.028506668 0.04503949 0.05210136
000140 af 99 7b 3d e2 e9 4a bd 9c b7 99 3b 87 2d 57 3c
       0.06142586 -0.049539454 0.0046910774 0.013133413
000150 8a 69 4a 3d ee 87 99 3d 48 fa c5 3c 24 53 00 3d
       0.049417056 0.0749663 0.024167195 0.03132929
000160 b4 e6 18 3c ce 0b 8f 3d 79 3a 74 3b 5f c4 32 3d
       0.009332348 0.069846734 0.0037266298 0.043644305
000170 81 c0 44 3c 18 39 4e 3d 20 49 0f bd 2d 2a a5 3b
       0.012008787 0.050347418 -0.034981847 0.005040428
000180 89 80 69 bd f6 15 2f 3d 61 8d 22 bd 9a 12 16 bd
       -0.057007346 0.042745553 -0.03968561 -0.036638834
000190 8c 29 89 bd fa 1c 1a bc c5 20 00 3d a9 55 31 bd
       -0.066973776 -0.009406323 0.03128125 -0.043294583
0001a0 21 2f 13 bd 14 14 16 3d f5 29 96 bd bf 22 8a 3d
       -0.035933618 0.03664024 -0.073322214 0.067449085
0001b0 83 71 63 bb 78 95 47 bd e0 22 14 3b 87 1d 75 3c
       -0.003470511 -0.04872653 0.0022603795 0.014960653
0001c0 c8 29 67 3d a3 a3 8c 3c 80 92 8e 3d b8 c5 04 3b
       0.05643633 0.017167872 0.069615364 0.002025945
0001d0 45 21 33 3d 0c b8 87 bd d2 83 7e bd 86 31 92 3c
       0.0437329 -0.06626901 -0.062137432 0.01784588
0001e0 ba 2f 30 3b da a8 62 bd ac d5 91 3d 51 f4 78 bb
       0.0026883916 -0.05533681 0.07120833 -0.003798742
0001f0 49 92 40 bd ef 9a 6d 3b 1a fb ba 3c db 30 87 3c
       -0.04701451 0.0036255678 0.022824813 0.016502788
000200 91 41 a2 3d 43 e1 83 bd 99 73 8b 3b f5 4f 58 3d
       0.07922662 -0.0643945 0.0042557237 0.052810628
000210 83 57 c2 3b 7c 60 26 bd ff 12 bf bc e9 48 2b bd
       0.0059308424 -0.04061936 -0.023324488 -0.04181758
000220 41 db 47 3c 65 8f ea 3a 41 9d 48 3d 8a 24 52 bd
       0.01219827 0.0017895518 0.048978094 -0.051304378
000230 98 84 3d 3b 20 58 b5 bc cd 28 30 bd b1 92 47 bd
       0.0028918143 -0.022136748 -0.04300766 -0.04872388
000240 65 79 5a bd 23 ee 23 3b e7 08 81 bd ab 5c 0d 3d
       -0.053338427 0.0025013767 -0.06300526 0.034512203
000250 a5 94 2a bd db a3 c3 bb 08 25 a8 3c f8 a8 72 3d
       -0.041645665 -0.005970461 0.02052547 0.059243172
000260 c4 51 16 3c 1e 52 ad 3c d9 ba c7 3c f8 59 8d bd
       0.009174768 0.02115732 0.024381088 -0.06901926
000270 e5 71 f9 3c 30 a1 21 3d 1e 13 91 3d bb 90 58 bd
       0.030449817 0.03946036 0.070837244 -0.0528724
000280 95 a3 ca 3c ea 07 b1 bc 1f ef 3c bd 86 64 62 3d
       0.024736205 -0.021610219 -0.04612648 0.055271648
000290 70 00 bc ba ed e2 46 bd 3c cc e4 bc 7d 4f 8c bd
       -0.0014343392 -0.048556257 -0.027929418 -0.06851099
0002a0 91 21 31 bd 64 fa 88 3d dd 66 1c bd 5f f7 88 bd
       -0.043244902 0.06688383 -0.038184036 -0.06687807
0002b0 2a 66 08 bd cc 29 80 bd 96 35 0a 3c 48 c5 95 bc
       -0.033300556 -0.06257972 0.008435627 -0.018282548
0002c0 a2 43 64 3d 04 3b 82 3c e1 24 a9 3b 29 ff 6b bd
       0.055728562 0.015897281 0.005161867 -0.057616387
0002d0 95 d0 a9 bc 28 52 84 3d 5c 7b 6b bd 3c 84 31 bd
       -0.020729342 0.064609826 -0.05749069 -0.043339
0002e0 26 5d 32 3d bf 97 68 bd 84 ec 31 3d ef 4b 68 3d
       0.043545865 -0.05678534 0.04343845 0.05671304
0002f0 2d 20 8a 3c 97 f8 8c bd fd cc 08 bd dc 8e 08 bd
       0.016861046 -0.06883352 -0.033398617 -0.033339366
000300 7a 44 b3 3b 35 cc d7 bc 3d b4 1a 3d 2a de 84 bd
       0.0054708095 -0.02634249 0.037769545 -0.06487687
000310 bf 67 67 3d 11 fb 4a bd f1 51 cb bc f5 7c 9f 3d
       0.056495424 -0.04955584 -0.024819346 0.077875055
000320 34 27 13 bd bf c0 f9 3b d1 34 75 bd 11 44 38 bb
       -0.03592606 0.007621854 -0.059864823 -0.0028116743
000330 6a 02 76 3d dd bc e0 3b 62 1f f9 bc 8f 23 f7 3c
       0.060060896 0.0068584518 -0.030410472 0.030168323
000340 c6 e6 d6 3c 09 8a 68 3d 9a b6 17 3d b4 f3 99 bd
       0.026233088 0.056772266 0.037039377 -0.07517186
000350 93 19 fd 3c f7 f6 58 bd e2 5c b7 bb 60 26 2c 3d
       0.030895984 -0.0529699 -0.0055957893 0.042028785
000360 98 5a ac bb ae af 98 bc 6d 93 61 3d cf da 80 bc
       -0.005259823 -0.018638458 0.055072237 -0.015729336
000370 ff c4 45 3d 88 de 7a bd 3d 48 4a 3b ae f9 51 3b
       0.048283573 -0.06124738 0.0030865811 0.003203969
000380 b5 a4 67 3a 35 01 87 bc f2 10 95 3d 07 2a 13 3d
       0.0008836494 -0.016480068 0.07278623 0.035928752
000390 9c ea 89 bb 02 3e b6 bc 7c ec ef 3c c9 f2 52 bd
       -0.004208876 -0.022246365 0.02928757 -0.05150107
0003a0 38 be 8c 3c 94 69 69 bc 73 ee 28 bd 57 58 64 3d
       0.017180547 -0.014246363 -0.041243028 0.05574831
0003b0 2b c8 7a 3d 1b 42 41 3c 98 c2 61 bd 4e ea 33 bc
       0.06122605 0.011795546 -0.05511722 -0.010981156
0003c0 f6 6f b1 3b 33 37 65 bd a9 dd 5a 3d 94 af 0d 3d
       0.005414958 -0.055960845 0.053434048 0.034591272
0003d0 4c a0 2a 3d 1c f6 2e bc 70 70 61 bd a7 45 22 3d
       0.041656777 -0.010678794 -0.05503887 0.039617207
0003e0 9a 11 7f 3d a4 3f 89 bc 13 e3 50 3d 81 f8 21 3b
       0.062272646 -0.016753979 0.050997805 0.002471477
0003f0 0b d2 04 3d a4 f5 7a bd 99 cf 59 bd d6 a8 5e bd
       0.032426875 -0.061269417 -0.053176496 -0.054360233

weight f4 [300]
000000 ea 7d 80 3f 59 3b 81 3f 2c d3 7e 3f 20 82 80 3f
       1.0038426 1.0096236 0.9954097 1.0039711
000010 cd 07 7f 3f 8a 1e 80 3f f8 1c 80 3f 1f 83 7e 3f
       0.9962128 1.000932 1.000884 0.99418825
000020 42 45 80 3f b3 25 81 3f d6 05 82 3f 1a 68 7f 3f
       1.0021136 1.008963 1.0158031 0.9976822
000030 a5 bc 7f 3f b1 c0 7f 3f 82 e1 80 3f d8 7b 7f 3f
       0.99897224 0.999034 1.006882 0.99798346
000040 cc ec 80 3f 3f 41 7e 3f 05 ed 80 3f 6a 65 7f 3f
       1.0072265 0.9931831 1.0072333 0.9976412
000050 a1 ec 80 3f 22 df 7c 3f c7 1a 80 3f 9d 33 80 3f
       1.0072213 0.98777974 1.0008172 1.0015751
000060 cb f0 7d 3f 6f 8e 7e 3f 98 a0 81 3f 04 12 7f 3f
       0.99195546 0.99436086 1.0127134 0.99636865
000070 74 96 80 3f 8b 9f 7d 3f e7 73 7e 3f 8b f9 80 3f
       1.0045915 0.9907157 0.993956 1.0076154
000080 0d 0c 7f 3f 22 37 7d 3f 50 53 7d 3f 43 4a 80 3f
       0.99627763 0.9891225 0.9895525 1.0022663
000090 d2 84 7e 3f 60 26 80 3f f6 6b 7f 3f 79 cd 7e 3f
       0.9942142 1.0011711 0.9977411 0.99532276
0000a0 55 0e 7e 3f b8 4d 7d 3f 8b 20 7f 3f 00 1c 80 3f
       0.9924062 0.98946714 0.9965903 1.0008545
0000b0 90 8a 80 3f 70 b3 80 3f c8 7d 80 3f 71 9f 7f 3f
       1.0042286 1.005476 1.0038385 0.99852663
0000c0 df f1 7f 3f 14 70 80 3f d1 a3 7e 3f 24 85 7d 3f
       0.9997844 1.0034204 0.99468714 0.9903128
0000d0 cb 2b 80 3f cd d2 7f 3f 1c a7 81 3f c1 c3 7c 3f
       1.0013365 0.9993103 1.0129123 0.98736197
0000e0 ce b9 80 3f f6 6f 7f 3f 8e f3 7d 3f 23 2e 80 3f
       1.0056703 0.99780214 0.9919976 1.001408
0000f0 ee 92 81 3f ca 1a 80 3f 50 5c 81 3f cc c0 81 3f
       1.0122964 1.0008175 1.0106297 1.0136962
000100 e6 a1 80 3f 42 3a 80 3f d1 e7 80 3f b6 2d 7f 3f
       1.0049407 1.0017779 1.0070745 0.99679124
000110 c0 78 80 3f 76 c2 80 3f c8 2e 80 3f b3 2e 7f 3f
       1.003685 1.0059345 1.0014277 0.9968063
000120 7c 69 81 3f 22 42 7f 3f 72 50 81 3f a8 07 80 3f
       1.0110316 0.99710286 1.0102675 1.0002337
000130 b5 fb 7c 3f 14 0a 80 3f 82 12 80 3f 4e 89 7e 3f
       0.98821574 1.0003076 1.0005648 0.9942826
000140 c7 76 7e 3f 65 54 80 3f 4b 6c 7f 3f eb 52 7e 3f
       0.9939999 1.0025755 0.99774617 0.9934527
000150 76 b3 7c 3f 9d 3d 80 3f 09 22 81 3f 7c 5b 80 3f
       0.98711336 1.0018803 1.0088512 1.0027919
000160 2b c5 7d 3f b6 e5 80 3f 57 ba 7f 3f 48 35 81 3f
       0.9912898 1.0070102 0.9989371 1.0094385
000170 21 b8 7c 3f 1f a4 80 3f af 40 80 3f 78 b6 7e 3f
       0.9871846 1.0050086 1.001974 0.99497175
000180 12 8d 7e 3f 20 4e 80 3f c9 bc 7e 3f 4c bf 81 3f
       0.99434006 1.0023842 0.99506813 1.0136504
000190 d9 9c 7f 3f ee a8 7e 3f a6 2b 80 3f c7 23 80 3f
       0.99848706 0.99476516 1.001332 1.0010918
0001a0 6b c3 7f 3f c3 1b 80 3f 12 3d 7f 3f b3 00 81 3f
       0.9990756 1.0008472 0.9970256 1.0078338
0001b0 b9 5b 7f 3f 97 b6 81 3f e8 54 80 3f 0d c5 7e 3f
       0.9974933 1.0133847 1.0025911 0.99519426
0001c0 5f 59 7f 3f af b6 80 3f 4a 52 81 3f 6f 03 7e 3f
       0.99745744 1.0055751 1.0103238 0.9922399
0001d0 5f c1 7f 3f 1d 6a 7f 3f c1 34 82 3f f9 8b 80 3f
       0.99904436 0.9977129 1.0172349 1.0042716
0001e0 7a 84 7e 3f 98 c5 80 3f 2d 66 80 3f 1e 92 81 3f
       0.99420893 1.0060301 1.0031182 1.0122716
0001f0 12 d7 80 3f a0 00 7e 3f 27 06 7e 3f ce 3d 7e 3f
       1.0065634 0.99219704 0.9922814 0.99313056
000200 8b 44 81 3f c9 01 7d 3f 28 d7 81 3f ff e0 7f 3f
       1.0099043 0.9883085 1.0143785 0.9995269
000210 3b 14 81 3f 6a f8 80 3f f2 f3 80 3f 3f 37 80 3f
       1.0084299 1.007581 1.0074446 1.001686
000220 8c d3 80 3f ff ce 7e 3f 68 5a 80 3f 43 11 80 3f
       1.0064559 0.995346 1.002759 1.0005268
000230 56 66 80 3f 7f 74 7e 3f 50 23 80 3f f7 7b 7f 3f
       1.003123 0.9939651 1.0010777 0.9979853
000240 1f c1 7d 3f f1 c1 80 3f a7 29 7e 3f ea 79 7f 3f
       0.99122804 1.0059186 0.99282306 0.997954
000250 46 25 81 3f 16 01 81 3f 6f 8e 7d 3f 93 19 7e 3f
       1.00895 1.0078456 0.9904546 0.99257773
000260 6c 50 7f 3f e2 39 80 3f c8 34 80 3f 4a 61 80 3f
       0.9973209 1.0017664 1.0016108 1.002969
000270 b4 31 80 3f d2 c1 80 3f 35 90 81 3f 3c 24 80 3f
       1.0015168 1.0059149 1.0122133 1.0011058
000280 88 6c 80 3f f4 b1 7f 3f 2e 06 7f 3f 80 8c 80 3f
       1.0033121 0.9988091 0.99618804 1.0042877
000290 5b c9 7d 3f 35 24 7d 3f 17 e1 7e 3f 78 8f 7e 3f
       0.9913537 0.9888337 0.9956221 0.99437666
0002a0 57 1c 7f 3f 60 f7 7e 3f 2d 93 7e 3f 54 f6 7f 3f
       0.9965262 0.99596214 0.9944332 0.9998524
0002b0 e6 11 80 3f 4f 04 7d 3f 12 7b 81 3f 2a f8 80 3f
       1.0005462 0.988347 1.0115683 1.0075734
0002c0 0f 17 81 3f fa 77 81 3f 65 8b 80 3f fb 38 80 3f
       1.0085162 1.0114739 1.004254 1.0017389
0002d0 e2 58 7f 3f 3e ad 7f 3f 08 ca 7d 3f 46 19 81 3f
       0.99745 0.9987372 0.991364 1.0085838
0002e0 0a ff 7f 3f 34 b1 80 3f 57 04 7e 3f c3 6a 7e 3f
       0.99998534 1.0054078 0.9922537 0.99381655
0002f0 18 a8 7d 3f 88 81 80 3f a6 97 7e 3f 97 04 7f 3f
       0.99084616 1.003953 0.9945015 0.9961638
000300 71 61 7e 3f 63 f1 7c 3f 8b 40 7f 3f 91 4c 80 3f
       0.99367434 0.98805827 0.9970786 1.0023366
000310 94 7d 80 3f 0e 03 7f 3f ff 72 80 3f b6 59 7e 3f
       1.0038323 0.99614036 1.0035094 0.9935564
000320 db cd 7c 3f 4f c0 7f 3f a3 c7 7f 3f 93 7c 81 3f
       0.9875161 0.99902815 0.99913996 1.0116142
000330 fd f4 7e 3f a2 0a 7f 3f 5f b3 7d 3f 85 ee 7f 3f
       0.9959257 0.996256 0.99101824 0.99973327
000340 fd d9 80 3f ef df 7e 3f 3a 0d 81 3f 2e a2 80 3f
       1.0066525 0.99560446 1.0082161 1.0049493
000350 e9 3f 80 3f d3 df 7e 3f ec 37 7f 3f c4 52 7e 3f
       1.0019504 0.9956028 0.99694705 0.9934504
000360 05 a9 7f 3f 67 f7 7e 3f c0 46 80 3f 04 f4 80 3f
       0.9986728 0.99596256 1.0021591 1.0074468
000370 c1 e0 7b 3f bc 47 80 3f 9e 92 80 3f 23 d6 80 3f
       0.9838982 1.0021892 1.0044744 1.0065349
000380 b3 b3 80 3f ee 8d 80 3f 04 cd 7e 3f 22 c6 7b 3f
       1.005484 1.0043314 0.9953158 0.983492
000390 20 76 81 3f 13 45 81 3f 6f 0a 7e 3f 9b 49 7d 3f
       1.0114174 1.0099205 0.9923467 0.9894044
0003a0 87 6f 7d 3f a0 e3 80 3f a3 55 80 3f 14 10 81 3f
       0.989983 1.0069466 1.0026134 1.0083032
0003b0 0a fc 7d 3f c7 60 80 3f 6c 75 80 3f 70 85 80 3f
       0.99212706 1.0029534 1.0035834 1.0040722
0003c0 ab e2 7d 3f 02 90 80 3f 89 72 7f 3f dc 89 80 3f
       0.9917399 1.0043948 0.9978414 1.0042071
0003d0 18 ef 80 3f db f7 80 3f 6e 3f 7d 3f 53 70 80 3f
       1.0072966 1.007564 0.9892491 1.0034279
0003e0 ba 26 80 3f 52 31 80 3f 5f 0b 81 3f 6d 02 7e 3f
       1.0011818 1.0015051 1.0081595 0.9922245
0003f0 e2 5a 7f 3f ef 3e 80 3f 74 12 80 3f d4 99 80 3f
       0.9974805 1.0019206 1.0005631 1.0046945

bias f4 [300]
000000 52 67 cc b9 bc ef 81 3a 03 40 d6 3b 4c 5c 33 bb
       -0.00038986892 0.0009913365 0.0065383925 -0.0027368246
000010 a4 74 c8 3b a2 ab 25 3b 42 31 83 3b d6 7b 3b bb
       0.0061174203 0.0025279303 0.0040036747 -0.0028607748
000020 c2 21 f7 b9 eb 68 8e bb cf b9 87 3b 4a b9 76 3b
       -0.00047136663 -0.0043460033 0.004142023 0.0037647062
000030 86 8b 85 ba 3d 8d 41 ba d6 d5 bc 3b e4 a1 66 ba
       -0.0010188676 -0.0007383412 0.005762796 -0.00087979273
000040 17 6c 97 bb 68 17 1f ba fe 14 9e b9 0e 49 5f bb
       -0.0046210396 -0.00060688565 -0.0003015175 -0.0034070644
000050 94 c7 f1 39 43 a5 04 bc 59 16 03 bb 9e fc 37 3b
       0.000461158 -0.008096042 -0.0020002334 0.0028074156
000060 2c b0 2f bb 86 74 0f bb b0 48 34 bb 5b e2 d8 3b
       -0.0026807887 -0.0021889522 -0.0027509145 0.0066187805
000070 c5 e9 29 bb ac 13 2a 3a 1f b8 9c 3b 59 97 a6 ba
       -0.002592669 0.00064879167 0.004782691 -0.00127099
000080 de 37 0c 3c c9 d7 bd ba b6 ee 4a bb 55 0d 84 3b
       0.008558242 -0.0014483865 -0.0030965037 0.0040299096
000090 ab c7 8c 3a a3 05 08 3c 4e 69 d7 39 cc f3 18 3b
       0.0010740658 0.008302125 0.00041086454 0.0023338674
0000a0 2f f4 7f 3b e8 34 39 bb 35 40 9b bb a6 9f d1 3b
       0.0039055457 -0.0028260294 -0.0047378787 0.0063972054
0000b0 72 d2 58 bb 72 32 ab bb 38 43 67 3b 71 6e 2e b9
       -0.003308442 -0.0052245194 0.0035287868 -0.00016635076
0000c0 c8 cd 25 bb 14 e2 fb bb 5f 20 8c b9 0d 89 2e bb
       -0.0025299657 -0.0076868627 -0.00026727 -0.0026631982
0000d0 18 c4 2b 3b f1 84 58 bc d6 fa 94 bb e7 f3 31 3b
       0.002620941 -0.013215289 -0.0045465035 0.0027153434
0000e0 df a0 5d bb 95 0e 95 ba 97 2f 1f bb 12 d6 9a 3a
       -0.003381781 -0.0011372144 -0.002428984 0.0011813066
0000f0 32 bb bb 3a 88 20 f1 ba ea 16 42 3b b5 2c 0c bb
       0.0014322756 -0.0018396536 0.0029615709 -0.0021388952
000100 6a 0a c8 ba 55 65 61 b9 ad bd 93 39 0c 09 aa 39
       -0.0015261893 -0.00021495421 0.00028179344 0.00032431667
000110 1a c5 a9 3b cf 40 9d 3a 0b 82 03 bc ba 15 09 bb
       0.005180967 0.0011997464 -0.00802661 -0.002091749
000120 ad 7f 87 bb a1 a6 3c bb ec df 44 3b 7d d0 d4 ba
       -0.004135093 -0.0028785842 0.0030040694 -0.0016236451
000130 05 47 c0 39 e7 88 7d 3a 30 e7 ba bb 29 d8 9c bb
       0.00036674007 0.0009671584 -0.005703829 -0.0047865105
000140 8b 85 aa 3b c3 3b ab bb c2 ae dc 3b 0b 4d 51 bb
       0.005203908 -0.00522563 0.0067347 -0.003193679
000150 58 77 20 3b e1 41 05 3b 42 78 ea 39 be 70 1a bb
       0.0024485197 0.0020333456 0.00044721557 -0.0023565735
000160 97 97 19 3b d0 b7 18 3b 6b 72 09 bb e9 23 10 3b
       0.0023436302 0.002330292 -0.002097274 0.002199406
000170 25 33 14 3c 37 35 a2 bb 69 e9 d0 ba cf f3 ab bb
       0.009045397 -0.0049501914 -0.0015938702 -0.00524757
000180 33 39 96 ba 1f eb 16 3b 68 b2 39 bb 6b 11 8d bb
       -0.0011461138 0.0023028327 -0.0028335098 -0.004305055
000190 bf ba 96 3b 86 1e b7 39 7a c5 2c bb 06 7b bd 3b
       0.0045998986 0.00034927222 -0.0026362822 0.005782488
0001a0 f8 61 bd 3a 30 ca 8c bb 09 dd 3c b8 30 0d 45 3b
       0.0014448753 -0.0042965636 -4.5028548e-05 0.0030067675
0001b0 64 8c bd 3b 30 b3 6e 3b a9 82 23 bb 9f 3a 12 bc
       0.005784558 0.0036422722 -0.0024949706 -0.008925109
0001c0 7c d9 e8 ba 98 a4 d7 3a c6 e3 c7 bb 36 e2 f8 3b
       -0.0017765011 0.0016452251 -0.0061001508 0.007595326
0001d0 43 a3 bf 3b 44 c4 91 b9 14 98 36 3a 83 6f 78 bb
       0.0058483197 -0.00027802784 0.00069654104 -0.0037908263
0001e0 bb cc cb 38 d9 7a cc 39 83 96 5c 3b 86 03 39 bb
       9.717928e-05 0.0003900144 0.0033659048 -0.002823086
0001f0 99 9c 03 bb de d0 b7 bb 70 34 29 bc 79 71 73 bb
       -0.0020082353 -0.0056096157 -0.0103274435 -0.0037146492
000200 63 a3 cd 3a 14 ef 80 bb b2 2e ef ba 9b c2 34 39
       0.0015688952 -0.0039347503 -0.0018248169 0.00017238634
000210 a5 38 e6 3b 55 f5 cc ba 06 7e 81 bb fb 8d fc bb
       0.0070257955 -0.001563708 -0.0039517907 -0.007707355
000220 cd fd b7 3a 6f fb 90 bb 63 92 0e bb a6 a3 7d ba
       0.001403743 -0.0044245045 -0.0021754734 -0.00096755696
000230 d8 61 b2 39 c6 6e cb bb f8 95 4c bb 59 af 4f 3a
       0.00034023705 -0.0062082736 -0.0031217318 0.0007922552
000240 c5 dc 94 b9 92 64 b9 b7 bf 49 07 bc 9d e5 df bb
       -0.00028393246 -2.210055e-05 -0.0082573285 -0.006832792
000250 d8 87 53 3a fd bc fa 3a e8 08 83 ba 09 1f cd 3b
       0.00080692535 0.0019129809 -0.0009997161 0.006259803
000260 60 3c c6 3b cc 42 b5 39 c0 de 93 b8 2f 83 85 3b
       0.0060496777 0.00034572778 -7.050997e-05 0.004074476
000270 1f 2a 35 ba b3 a9 09 bb de ea c7 3a 39 32 ce 3a
       -0.00069108786 -0.002100569 0.0015252491 0.001573152
000280 d6 d7 c1 bb 2a bd 8a bb bd cc c9 3b 87 23 86 bb
       -0.005915622 -0.004233976 0.00615844 -0.0040935907
000290 86 5e 84 3b a8 a0 7e ba ef 02 c5 3a 6d 0d a5 bb
       0.0040395884 -0.00097132707 0.0015030782 -0.005037001
0002a0 25 bb 06 3b d4 51 88 3b a1 b2 f3 3b a9 27 c4 b9
       0.0020558324 0.0041601453 0.0074370657 -0.00037413582
0002b0 a4 22 5c 3b d7 eb 9e 3b 1b ae f2 39 fc 3b 8d ba
       0.0033589983 0.0048498916 0.00046287556 -0.0010775323
0002c0 55 8d 75 ba 60 f5 96 bb c1 42 a8 3b a8 e1 22 3c
       -0.00093670684 -0.0046068877 0.005134911 0.009941496
0002d0 3f 3a ab bb f0 ae 54 3a 90 2b a5 bb c1 59 93 3b
       -0.0052254493 0.0008113226 -0.0050405934 0.0044967835
0002e0 86 71 18 3b c7 8c 4f b9 34 aa 83 bb f9 6d c3 bb
       0.0023261025 -0.00019793502 -0.0040180925 -0.0059640375
0002f0 2d 9d 61 3a 7c fe 59 3b ea 68 9c 3b 61 71 c2 b9
       0.000860649 0.0033263257 0.004773249 -0.00037087037
000300 47 9b a0 bb e5 08 a2 3b 5c aa c8 ba 33 33 65 bb
       -0.004901323 0.004944908 -0.001530956 -0.0034973144
000310 c8 cc b1 3b ff b0 17 bc 32 a8 46 3b 0a 00 07 ba
       0.005426023 -0.009258508 0.0030312655 -0.0005149847
000320 da 1a 35 bb 58 de 32 bb 05 50 db 38 81 be 6d bb
       -0.0027634413 -0.0027293172 0.000104576386 -0.003627688
000330 85 90 c7 b8 37 f9 69 3a 90 d7 42 bb e6 f0 43 ba
       -9.515978e-05 0.00089253805 -0.0029730536 -0.00074745563
000340 c3 cf 67 3a c0 6e 9f ba b9 df fd 3b 19 b2 26 3b
       0.00088429096 -0.0012163743 0.007747617 0.0025435744
000350 f9 a4 54 3b 9a 3c 0c 3c cf 23 64 bb 8c cc 91 bb
       0.0032446964 0.00855937 -0.0034811383 -0.0044494327
000360 3e d9 62 ba 13 5e d7 3b 38 06 75 bb a3 8a e0 3a
       -0.00086535874 0.006572494 -0.003738774 0.0017131161
000370 07 02 76 bb d7 95 82 3a dc db 25 3a 40 d8 5f bb
       -0.003753783 0.0009962869 0.0006327012 -0.0034155995
000380 c6 a7 c1 ba 8f dc 89 3b 3d 5b 51 b9 6d 7f c9 ba
       -0.0014774732 0.004207201 -0.00019965782 -0.0015373059
000390 43 41 0a 3b 39 dd 1e 3a 32 f0 b8 3b 8c de 36 bc
       0.0021096028 0.00060601864 0.005643868 -0.011161458
0003a0 e5 6e f3 3b 2e 36 8d 3b e8 0a d8 3a ef 9b 17 3b
       0.007428991 0.0043094372 0.0016482743 0.0023133715
0003b0 0d 3d cb bb ae 25 0f ba 73 b6 28 b9 5a 3d b2 b8
       -0.006202346 -0.0005460632 -0.00016089696 -8.499129e-05
0003c0 96 02 8e bb 04 ba f8 3b b1 0f d4 bb d6 ee 88 3b
       -0.0043338044 0.007590534 -0.006471597 0.004178862
0003d0 69 55 36 3b f2 ba 74 3b 14 db cb 3b 77 b6 5c bb
       0.0027821905 0.0037342873 0.0062211845 -0.0033678093
0003e0 7c 7c d1 ba b1 ad 60 ba 8a 96 b2 ba 89 40 7b 3b
       -0.0015982534 -0.0008570804 -0.0013625186 0.0038338026
0003f0 15 a8 31 ba 60 ba 56 3b db 21 f0 3b 36 53 5d bb
       -0.00067770603 0.0032764897 0.0073282546 -0.0033771521
