testbed/models_v3/lstmcell_time.pt (torch, 493081 bytes, 4 tensors)

weight_ih f4 [600, 1]
0.012610942 0.034792505 -0.047970064 -0.04820258 -0.023315694 -0.067780346 0.0012351946 0.04005467
-0.023491643 0.06757288 0.005703329 0.0690151 -0.034437258 0.010791405 -0.049251758 0.008795501
0.016870696 -0.017791636 -0.07284391 0.021242527 -0.019568417 0.06563632 -0.047166917 -0.022112705
0.012454578 -0.0192287 0.08159636 -0.03354382 -0.055811338 -0.0064509595 -0.023683693 0.054236524
0.042771254 -0.017927835 0.011569437 -0.05589282 -0.027508426 0.06574334 -0.029643528 0.029379025
-0.025371172 0.07897396 0.022615843 -0.03552589 0.028154468 -0.037590276 0.049480047 -0.05438778
-0.013052935 -0.05724917 0.052163377 -0.05151022 -0.033077218 0.07070573 -0.016398093 0.092999674
-0.02630769 -0.03278864 0.0012764722 -0.02535283 -0.061299555 0.005924931 0.012422421 0.003371182
0.015479298 0.04641536 -0.013793343 0.029852277 0.0264139 -0.06890077 0.07661305 -0.075018056
-0.05871482 -0.04509065 -0.00904439 0.0029274519 0.045073707 -0.073637314 -0.040534597 0.015288959
-0.04535701 0.0035668344 -0.04772439 0.007800797 0.0061975303 0.04542436 -0.033862337 -0.004360111
-0.05409547 0.07019522 -0.008695375 0.02168616 0.05922423 0.0019024818 -0.022336349 0.058018677
0.01332116 0.005826191 -0.024414185 -0.054378796 0.053544383 0.049757972 -0.055936586 0.024251526
0.03800355 -0.020467967 0.006938906 -0.030414982 -0.017231807 -0.051718596 0.022395413 -0.033828035
0.042318366 0.034678698 -0.032686222 -0.02776667 0.021134695 -0.057128545 -0.055082932 -0.06330901
0.018868027 -0.055399075 -0.043748006 -0.037598155 0.048810802 -0.052582078 0.034226738 0.03275903
-0.020606074 0.07082946 -0.069711074 -0.01109839 -0.04810194 -0.019223334 0.075699896 -0.0106850425
0.049092755 0.0019897474 -0.01261825 -0.016940922 -0.086493924 0.075849935 0.033926237 0.027781492
0.098605014 0.05712754 -0.0039746207 -0.06372953 0.03273714 0.0592727 0.09216813 -0.060227454
-0.065581426 -0.04835699 0.019569531 -0.020454321 -0.032995235 0.059360147 -0.02877224 0.05099123
-0.071230985 0.056489035 0.036930356 0.016831307 0.03190572 0.045135703 0.039513446 -0.058258504
-0.045719028 -0.07226469 -0.03772447 -0.08727848 0.07854709 -0.01686682 -0.0064912 -0.023567623
-0.023620013 -0.015026221 -0.023251137 0.07452445 -0.022196872 0.0053933877 0.08520108 -0.06031283
-0.027903736 0.053828686 0.04987154 0.016993746 -0.010904192 0.021843959 0.054766662 0.06132758
0.0149786845 0.07308654 -0.073087305 0.0060821613 0.029879171 -0.06930599 -0.03225545 -0.013205167
-0.011090511 -0.013449244 -0.007871269 -0.02704714 0.02437797 0.06635164 0.04291549 0.013971516
0.050084025 -0.002297833 -0.023176813 0.07597189 0.03660295 -0.032300595 0.023216285 -0.04412782
-0.031061614 -0.014326905 -0.020644428 -0.016977908 0.015963264 0.06332977 0.06293822 0.023411557
-0.0017315733 -0.053883 0.0138368495 0.036146466 0.028395925 0.05511767 -0.024323415 -0.027428303
0.03903927 0.0029578572 -0.001457161 -0.016690021 0.020167254 -0.027107812 0.04855404 0.069764026
0.023394467 0.07339476 0.0175969 0.081500955 0.012153266 0.014157072 0.05430876 0.07017389
0.075757205 0.032407764 0.07702068 0.076955825 -0.031495523 0.074607834 -0.039667897 -0.040513087
00000000: 209e 4e3c 9682 0e3d 427c 44bd 1270 45bd
00000010: 8e00 bfbc 6cd0 8abd 41e6 a13a 5e10 243d
00000020: 8c71 c0bc a663 8a3d fee2 ba3b ca57 8d3d
00000030: 150e 0dbd 6fce 303c 36bc 49bd 011b 103c
00000040: 6a34 8a3c c4bf 91bc 302f 95bd cf04 ae3c
00000050: f24d a0bc 566c 863d 1932 41bd b425 b5bc
00000060: 490e 4c3c 8285 9dbc fe1b a73d 3f65 09bd
00000070: 6e9a 64bd 9262 d3bb 4e04 c2bc 1e27 5e3d
00000080: e930 2f3d 65dd 92bc bc8d 3d3c dfef 64bd
00000090: 5a59 e1bc 72a4 863d fcd6 f2bc 48ac f03c
000000a0: 34d7 cfbc 19bd a13d dc44 b93c 9883 11bd
000000b0: 33a4 e63c 43f8 19bd 97ab 4a3d b9c5 5ebd
000000c0: fadb 55bc 1b7e 6abd 44a9 553d 61fc 52bd
000000d0: fa7b 07bd 2ace 903d 4b55 86bc 9d76 be3d
000000e0: 3a83 d7bc 624d 06bd 4d4f a73a bdb0 cfbc
000000f0: 3e15 7bbd ec25 c23b 6987 4b3c 0cef 5c3b
00000100: e29c 7d3c 081e 3e3d 79fd 61bc c38c f43c
00000110: f761 d83c d91b 8dbd 4ee7 9c3d 11a3 99bd
00000120: f37e 70bd f9b0 38bd ec2e 14bc 7eda 3f3b
00000130: 359f 383d 29cf 96bd 9b07 26bd 8b7e 7a3c
00000140: 46c8 39bd 8dc1 693b a67a 43bd d49d ff3b
00000150: a714 cb3b e50e 3a3d 3cb3 0abd 43df 8ebb
00000160: 3693 5dbd 83c2 8f3d 0c77 0ebc 2ca7 b13c
00000170: 1b95 723d b25c f93a b8fa b6bc fea4 6d3d
00000180: ff40 5a3c a2e9 be3b 4200 c8bc 4dbc 5ebd
00000190: 5b51 5b3d 04cf 4b3d c31d 65bd 23ab c63c
000001a0: 9ca9 1b3d 70ac a7bc c35f e33b d728 f9bc
000001b0: b829 8dbc e1d6 53bd 9676 b73c 448f 0abd
000001c0: 0656 2d3d 400b 0e3d fde1 05bd ed76 e3bc
000001d0: ab22 ad3c 9fff 69bd a49e 61bd 27a8 81bd
000001e0: 1f91 9a3c 24ea 62bd 1c31 33bd 8600 1abd
000001f0: d6ed 473d 4e60 57bd 5631 0c3d 552e 063d
00000200: 12ce a8bc 090f 913d aec4 8ebd 06d6 35bc
00000210: 8a06 45bd 417a 9dbc 8c08 9b3d 5110 2fbc
00000220: 7c15 493d 6c66 023b c7bc 4ebc b0c7 8abc
00000230: ba23 b1bd 3657 9b3d 3df6 0a3d 0396 e33c
00000240: 6df1 c93d 91fe 693d 893d 82bb a184 82bd
00000250: 6117 063d eec7 723d a5c2 bc3d 10b1 76bd
00000260: 8e4f 86bd fb11 46bd 4850 a03c d28f a7bc
00000270: 0326 07bd a023 733d c3b3 ebbc 2edc 503d
00000280: 8de1 91bd 0c61 673d 4944 173d cfe1 893c
00000290: 92af 023d 37e0 383d dad8 213d 78a0 6ebd
000002a0: e043 3bbd 83ff 93bd f984 1abd 0fbf b2bd
000002b0: 4cdd a03d 492c 8abc 22b4 d4bb e310 c1bc
000002c0: c27e c1bc 8a30 76bc 2b79 bebc 46a0 983d
000002d0: 37d6 b5bc 04bb b03b e77d ae3d 960a 77bd
000002e0: 6096 e4bc 787b 5c3d 1a46 4c3d 7836 8b3c
000002f0: 7fa7 32bc 1af2 b23c 0253 603d a132 7b3d
00000300: 2869 753c 65ae 953d ccae 95bd de4c c73b
00000310: 2ac5 f43c 4df0 8dbd 4a1e 04bd 7c5a 58bc
00000320: fab4 35bc 385a 5cbc 7ff6 00bc f791 ddbc
00000330: 4fb4 c73c 5ee3 873d 27c8 2f3d c9e8 643c
00000340: e824 4d3d 3e97 16bb 4ddd bdbc 2697 9b3d
00000350: faec 153d a14d 04bd 1430 be3c 5fbf 34bd
00000360: ed74 febc 65bb 6abc 811e a9bc 4115 8bbc
00000370: 64c5 823c 0ab3 813d c1e5 803d 98c9 bf3c
00000380: f5f5 e2ba 6cb4 5cbd f4b3 623c 510e 143d
00000390: 929e e83c 11c3 613d e641 c7bc 52b1 e0bc
000003a0: a4e7 1f3d 9cd8 413b 36fe beba 83b9 88bc
000003b0: cc35 a53c 3411 debc 9ae0 463d 71e0 8e3d
000003c0: c1a5 bf3c fe4f 963d 6027 903c f9e9 a63d
000003d0: 7e1e 473c 10f3 673c dd72 5e3d 54b7 8f3d
000003e0: 9826 9b3d 01be 043d 05bd 9d3d 049b 9d3d
000003f0: 7301 01bd fecb 983d ce7a 22bd 0df1 25bd

weight_hh f4 [600, 200]
0.034940653 0.031031467 0.07660007 0.12301827 0.058367744 0.07189106 0.014753451 0.07753299
-0.012270487 -0.06752478 0.031642932 -0.032589164 0.011773883 0.06520285 0.03567574 -0.047757056
0.038628787 0.018810632 -0.030102016 0.06647301 0.066566885 -0.0062984736 -0.016561262 -0.051293854
0.0012167254 0.0756753 -0.06310019 0.037838463 0.019402998 -0.07211657 -0.038224995 -0.06013935
-0.0374486 -0.09658886 -0.0071782973 0.05054053 0.025680864 -0.052753996 0.05694872 -0.03138864
-0.050957564 0.07238649 -0.014371519 -0.02049531 0.06078919 -0.03753626 -0.072239 0.021800846
-0.05086266 0.0058018942 0.023221387 -0.051227335 -0.04571236 -0.06636444 -0.03181354 0.053958826
0.035863787 -0.002829438 0.06729612 0.0107551105 -0.05516598 0.013852188 0.038004495 -0.05738495
-0.0636047 -0.01599637 -0.040816754 0.06664889 0.033361085 0.03336714 -0.044168506 0.06515317
-0.047258623 0.016328622 0.069295384 -0.019903963 -0.0402851 0.022869166 -0.061174694 0.03967982
0.0021656635 0.039417125 0.013514451 -0.061969392 -0.052973412 0.003968697 -0.003571356 -0.06197805
0.06426369 0.010299738 0.0065032127 -0.05740027 -0.029150529 0.013925254 -0.02517765 -0.07563677
-0.017586065 -0.015962757 0.0066748867 0.039876204 0.009228948 -0.061906338 0.030900864 -0.0040492183
0.027400143 0.04171057 0.029188726 0.03275288 -0.049498886 0.014538214 0.08110222 -0.012293508
-0.01965334 -0.009370572 -0.0766387 0.02650213 0.015485232 -0.014534835 -0.051439933 0.006416173
-0.029972456 0.025100375 0.008273462 -0.08792474 0.06425416 0.038633596 0.00041021255 0.058384646
-0.036889683 -0.0137275 0.019506268 -0.019833695 -0.030166073 0.038681064 0.038740985 0.09123949
-0.018501904 0.034567624 0.08048539 -0.064037986 0.023567395 -0.024052538 0.04545582 -0.012747301
0.077261664 -0.030001637 0.06972087 0.05061365 -0.039465427 0.049171355 -0.05287543 0.06798475
0.017003978 -0.0738511 0.03262552 0.0020028842 -0.055360086 0.051889803 0.054746397 -0.049731366
-0.017134648 0.017189486 0.06098867 -0.06490496 -0.04404725 0.011486677 0.070932 0.06730524
-0.04322569 0.022709806 0.0669338 0.0501087 -0.047808465 0.0689626 0.027220152 -0.009829925
-0.024694296 0.031280395 -0.036146745 -0.04451428 0.012202019 -0.019782007 0.064203255 -0.039445717
-0.08199501 0.031884283 -0.05399083 0.055773783 0.044469185 0.020760417 -0.06727528 0.036967807
0.04216059 0.06616501 -0.07431206 -0.01954608 0.063428424 -0.014061935 0.025181085 -0.016003473
-0.053946383 0.0511286 -0.053101394 -0.06672498 -0.03872955 -0.036716707 -0.056782316 -0.060834512
-0.087151885 0.029462503 -0.055693492 -0.043657847 0.040349554 0.01179098 0.03997005 -0.03863434
0.0109711625 0.058893625 0.03573324 0.017233683 0.012203445 -0.010126723 0.07552207 -0.009815708
-0.06533937 -0.019104084 0.04194765 -0.025699696 0.09125332 0.06349009 -0.015341346 -0.05409962
-0.02728997 0.022815058 0.055234127 0.05747856 -0.0109002935 0.03693429 -0.01506673 -0.029508917
0.038696956 -0.0023782467 -0.049444173 -0.01874125 -0.032303177 -9.436308e-06 -0.054488406 -0.06980191
-0.076839656 0.058218952 -0.06416592 -0.032609433 0.07757903 -0.010454996 -0.0024491504 0.040106505
00000000: ee1d 0f3d b435 fe3c 7fe0 9c3d 01f1 fb3d
00000010: 0413 6f3d 9f3b 933d 75b8 713c 9ec9 9e3d
00000020: 270a 49bc 6f4a 8abd 059c 013d 377c 05bd
00000030: 3fe7 403c 1289 853d ba20 123d e79c 43bd
00000040: 3839 1e3d c118 9a3c 8198 f6bc 0023 883d
00000050: 3854 883d 6d63 cebb 7cab 87bc 8119 52bd
00000060: 887a 9f3a a7fb 9a3d ac3a 81bd 81fc 1a3d
00000070: 09f3 9e3c dab1 93bd d091 1cbd ae54 76bd
00000080: b463 19bd 61d0 c5bd ec37 ebbb 9603 4f3d
00000090: ad60 d23c 9314 58bd 1043 693d 6091 00bd
000000a0: e1b8 50bd 5e3f 943d 8576 6bbc c8e5 a7bc
000000b0: 16fe 783d 9fbf 19bd 0af2 93bd b097 b23c
000000c0: 5d55 50bd d11d be3b c73a be3c c1d3 51bd
000000d0: e23c 3bbd 14ea 87bd ea4e 02bd ee03 5d3d
000000e0: e8e5 123d 186e 39bb 8cd2 893d 3436 303c
000000f0: b9f5 61bd 4af4 623c 9aaa 1b3d 7b0c 6bbd
00000100: 2e43 82bd d20a 83bc 782f 27bd 377f 883d
00000110: a2a5 083d fbab 083d 09ea 34bd 066f 853d
00000120: 4292 41bd 9ac3 853c bdea 8d3d a30d a3bc
00000130: fd01 25bd 1e58 bb3c 5192 7abd 4f87 223d
00000140: ceed 0d3b da73 213d b76b 5d3c 9ed3 7dbd
00000150: a6fa 58bd d80b 823b 690d 6abb b2dc 7dbd
00000160: ae9c 833d 3bc0 283c e718 d53b 8c1c 6bbd
00000170: 17cd eebc c026 643c 5c41 cebc 73e7 9abd
00000180: a710 90bc 54c4 82bc 02b9 da3b 3b55 233d
00000190: 0335 173c 8091 7dbd cf23 fd3c 4eaf 84bb
000001a0: 4476 e03c b4d8 2a3d 321d ef3c e227 063d
000001b0: 58bf 4abd b031 6e3c ec18 a63d b66a 49bc
000001c0: 0b00 a1bc 0787 19bc c0f4 9cbd ff1a d93c
000001d0: c5b5 7d3c 8423 6ebc aeb2 52bd c33e d23b
000001e0: cc88 f5bc 4d9f cd3c 6a8d 073c e311 b4bd
000001f0: af97 833d 433e 1e3d cc11 d739 bd24 6f3d
00000200: a319 17bd 4fe9 60bc 9ccb 9f3c 467a a2bc
00000210: d71e f7bc 0970 1e3d deae 1e3d c5db ba3d
00000220: 4e91 97bc c896 0d3d 86d5 a43d 5926 83bd
00000230: 6910 c13c d409 c5bc e22f 3a3d 0eda 50bc
00000240: 5d3b 9e3d fec5 f5bc d1c9 8e3d 4250 4f3d
00000250: 80a6 21bd e767 493d e893 58bd 973b 8b3d
00000260: ed4b 8b3c 3f3f 97bd 56a2 053d d242 033b
00000270: 42c1 62bd 678a 543d c23d 603d 1eb3 4bbd
00000280: f65d 8cbc f7d0 8c3c 41cf 793d e4ec 84bd
00000290: e46a 34bd 9e32 3c3c cc44 913d 54d7 893d
000002a0: 6c0d 31bd ea09 ba3c 9714 893d c83e 4d3d
000002b0: cfd2 43bd 433c 8d3d ccfc de3c b20d 21bc
000002c0: b14b cabc df1f 003d 9c0e 14bd 9b54 36bd
000002d0: faea 473c e00d a2bc ff7c 833d d591 21bd
000002e0: 00ed a7bd 1899 023d 7d25 5dbd 0d73 643d
000002f0: 5225 363d c011 aa3c 9fc7 89bd 8e6b 173d
00000300: 95b0 2c3d 8581 873d ec30 98bd 1a1f a0bc
00000310: c3e6 813d 0864 66bc 9048 ce3c b719 83bc
00000320: e2f6 5cbd 396c 513d d980 59bd 1ba7 88bd
00000330: e0a2 1ebd 4264 16bd 9394 68bd 9c2d 79bd
00000340: b07c b2bd 595b f13c dc1e 64bd 92d2 32bd
00000350: 9345 253d f42e 413c a3b7 233d 0b3f 1ebd
00000360: 64c0 333c 713a 713d 055d 123d a72d 8d3c
00000370: f5f0 473c 8eea 25bc 51ab 9a3d 10d2 20bc
00000380: a6d0 85bd 2b80 9cbc 4dd1 2b3d 2b88 d2bc
00000390: 05e3 ba3d 1807 823d 455a 7bbc 9097 5dbd
000003a0: 378f dfbc a5e6 ba3c 2e3d 623d a36e 6b3d
000003b0: 2597 32bc 6948 173d 72da 76bc afbc f1bc
000003c0: b380 1e3d 5cdc 1bbb f985 4abd 4087 99bc
000003d0: 5650 04bd a250 1eb7 3c2f 5fbd 4ef4 8ebd
000003e0: 1c5e 9dbd ff76 6e3d 6c69 83bd 7891 05bd
000003f0: c1e1 9e3d 6e4b 2bbc ed81 20bb b846 243d

bias_ih f4 [600]
-0.004313975 -0.063228995 0.05275438 -0.005295184 -0.021406407 -0.040475696 0.007859546 0.029668067
0.022645012 0.062675826 0.057962213 -0.0014493858 0.054470092 0.044023518 -0.009290496 0.012231832
-0.045070764 0.048723098 -0.009405812 0.013390801 -0.006274111 0.04962983 0.0613004 0.018408353
-0.041830715 0.029505443 0.043034405 0.037425652 -0.020943569 -0.03668348 -0.07601225 -0.052758154
-0.022309905 -0.06630274 0.037573434 -0.025557656 0.06419478 0.015271419 -0.04268114 -0.05011043
0.033272658 -0.0020560413 -0.066137105 -0.0067911167 -0.015961478 0.05170381 -0.021567147 -0.017561188
-0.0064776237 -0.017707245 -0.028970703 -0.0050421325 0.0028365676 -0.039474703 -0.04752944 0.03627562
-0.012716111 0.052570563 0.031636707 -0.00454046 -0.027546166 0.026542861 0.07196484 0.10003754
0.0019750234 -0.047249842 -0.0461206 0.043499887 0.023846569 0.028911844 -0.013490204 -0.008528135
0.047937144 0.03754264 0.024159618 0.002953846 0.07245525 -0.046181034 0.0041229413 -0.05410433
-0.0035844888 0.021377798 0.027015273 0.06515224 0.024846869 -0.05461409 0.0017730888 -0.009187909
0.029599825 -0.028951911 -0.058294795 0.008292294 -0.0790221 0.004845209 0.015559528 0.040738247
-0.05433677 -0.035497528 -0.054362424 -0.008587236 -0.029318178 -0.05182905 -0.04452691 -0.06471399
0.024458533 -0.023556435 0.06142446 -0.041421507 0.0097967405 -0.057422012 0.045509398 0.05673367
0.0955431 -0.0008785459 -0.04714704 -0.005417373 -0.027924074 -0.03561516 -0.09665207 -0.06487531
-0.073548816 -0.023879603 0.016514858 0.019033162 0.017185267 -0.06680906 0.04674162 -0.049908217
-0.06725246 -0.010188571 0.0073061856 0.0100064315 -0.055679433 -0.06928607 -0.0030382718 0.052384656
-0.059282407 -0.0526181 -0.02984675 -0.036103293 0.051383566 0.063524336 0.051088948 0.025996262
0.06730519 0.054551356 -0.051541246 0.05129151 0.029886274 0.06437064 0.09559249 0.054282304
0.06339401 0.058692407 0.049845014 0.055872805 0.048756655 -0.03502781 -0.056389675 0.02748238
-0.017354397 -0.06345983 -0.048534364 0.060427807 -0.005639874 0.010457042 -0.044654243 0.033189107
0.014422421 -0.0013144702 -0.0653475 0.026631512 -0.019898541 0.040282127 0.044672344 0.069579355
0.018833786 0.010584855 -0.038961247 -0.0018730836 0.027043661 -0.0051186453 -0.007092476 -0.0030368061
-0.0023751706 -0.059378777 0.031205108 -0.06573516 -0.031784475 -0.0012378845 0.03848683 -0.0011194759
0.033972755 -0.04691942 0.05024704 0.021148171 0.033778764 0.010211399 -0.018739425 -0.0046201376
0.03911681 0.0058770617 0.0891509 -0.050513893 -0.035087544 -0.0049848906 -0.047481325 -0.010319699
-0.05516554 0.04964561 0.042832732 -0.020756407 -0.03270366 -0.07292229 -0.006836355 0.0681887
-0.016090237 0.006741058 0.05831422 -0.069152355 -0.037686516 0.008406026 0.050931547 0.024004979
0.046345834 0.049886078 -0.004338151 0.0048441747 0.027491987 -0.037543725 0.00843371 0.05989546
-0.03612086 0.045337714 0.082019284 -0.06437947 0.0607658 0.07626569 0.013464084 0.07262557
0.013903256 0.01726116 0.011459407 0.07811977 -0.022174247 -0.056461416 0.036058713 0.041678153
-0.024357405 0.032368984 0.0077363104 -0.038232714 0.05565367 -0.04741502 -0.059993394 0.061866358
00000000: 3f5c 8dbb 347e 81bd fa14 583d 3983 adbb
00000010: 7d5c afbc d8c9 25bd 53c5 003c 720a f33c
00000020: 0882 b93c 2f5c 803d c969 6d3d 51f9 bdba
00000030: 081c 5f3d 0152 343d 2a37 18bc 0668 483c
00000040: 1f9c 38bd df91 473d d61a 1abc 1765 5b3c
00000050: 0f97 cdbb a648 4b3d 2116 7b3d 1dcd 963c
00000060: af56 2bbd 66b5 f13c d844 303d a44b 193d
00000070: d991 abbc 6b41 16bd 4fac 9bbd ef18 58bd
00000080: 43c3 b6bc bbc9 87bd 9ae6 193d 4a5e d1bc
00000090: 8e78 833d f934 7a3c 6bd2 2ebd 9840 4dbd
000000a0: e948 083d a6be 06bb e472 87bd 0488 debb
000000b0: a5c1 82bc 60c7 533d 96ad b0bc 7bdc 8fbc
000000c0: 3f42 d4bb c90e 91bc f853 edbc 7938 a5bb
000000d0: b5e5 393b 3ab0 21bd 3bae 42bd bf95 143d
000000e0: 3c57 50bc 3b54 573d 7e95 013d 24c8 94bb
000000f0: 7fa8 e1bc 6a70 d93c 4d62 933d 7be0 cc3d
00000100: 656f 013b 0d89 41bd f4e8 3cbd f02c 323d
00000110: e159 c33c 88d8 ec3c 0406 5dbc 97b9 0bbc
00000120: bd59 443d 50c6 193d 64ea c53c 5095 413b
00000130: 6b63 943d 5328 3dbd bd19 873b 809c 5dbd
00000140: bee9 6abb 7e20 af3c 224f dd3c 8a6e 853d
00000150: a98b cb3c 06b3 5fbd fd66 e83a e288 16bc
00000160: 557b f23c 8f2c edbc 86c6 6ebd 67dc 073c
00000170: 57d6 a1bd 8fc4 9e3b 64ed 7e3c 26dd 263d
00000180: 3c90 5ebd db65 11bd 22ab 5ebd 7ab1 0cbc
00000190: ad2c f0bc b34a 54bd d961 36bd c588 84bd
000001a0: 435d c83c 6df9 c0bc 3798 7b3d 99a9 29bd
000001b0: 8282 203c 5833 6bbd 1068 3a3d 9161 683d
000001c0: 1aac c33d 384e 66ba 411d 41bd 3884 b1bb
000001d0: 07c1 e4bc 34e1 11bd 85f1 c5bd 59dd 84bd
000001e0: c3a0 96bd 289f c3bc 2b4a 873c 6feb 9b3c
000001f0: 1ec8 8c3c 30d3 88bd 2474 3f3d 8f6c 4cbd
00000200: a8bb 89bd f7ed 26bc ba68 ef3b 04f2 233c
00000210: 1e10 64bd dbe5 8dbd be1d 47bb 4b91 563d
00000220: 1cd2 72bd 1486 57bd 2c81 f4bc 0ce1 13bd
00000230: 9377 523d 0c19 823d a542 513d 1df6 d43c
00000240: 4ed7 893d 3e71 5f3d ea1c 53bd 0c17 523d
00000250: 0fd4 f43c c1d4 833d ffc5 c33d 1f57 5e3d
00000260: b8d4 813d 7367 703d 492a 4c3d e2da 643d
00000270: 0fb5 473d 5279 0fbd dcf8 66bd ba22 e13c
00000280: cf2a 8ebc 3af7 81bd f8cb 46bd 2683 773d
00000290: b1ce b8bb 0354 2b3c 5ee7 36bd 4df1 073d
000002a0: 054c 6c3c 4d4a acba e9d4 85bd 542a da3c
000002b0: 4402 a3bc dffe 243d 59fa 363d 9f7f 8e3d
000002c0: 5049 9a3c 1a6c 2d3c d495 1fbd 4282 f5ba
000002d0: ab8a dd3c 4fba a7bb 0068 e8bb 2705 47bb
000002e0: c0a8 1bbb 2937 73bd dba1 ff3c 28a0 86bd
000002f0: 7030 02bd 8340 a2ba 5ea4 1d3d 61bb 92ba
00000300: 0427 0b3d 942e 40bd d7cf 4d3d ee3e ad3c
00000310: 9a5b 0a3d b64d 273c 6c83 99bc 8664 97bb
00000320: f338 203d 5e94 c03b bf94 b63d a8e7 4ebd
00000330: f5b7 0fbd 4b58 a3bb c77b 42bd f413 29bc
00000340: 43f5 61bd 3259 4b3d 6071 2f3d 5709 aabc
00000350: 46f4 05bd 4858 95bd 8103 e0bb 84a6 8b3d
00000360: accf 83bc 18e4 dc3b e4da 6e3d c09f 8dbd
00000370: 2d5d 1abd 6eb9 093c 999d 503d 17a6 c43c
00000380: 21d5 3d3d 5855 4c3d 0c27 8ebb e2bb 9e3b
00000390: e036 e13c 73c7 19bd 8b2d 0a3c f154 753d
000003a0: 78f3 13bd 0ab4 393d baf9 a73d 62d9 83bd
000003b0: 8fe5 783d 3031 9c3d 7698 5c3c b7bc 943d
000003c0: 7bca 633c 4767 8d3c 3dc0 3b3c 42fd 9f3d
000003d0: c4a6 b5bc 1644 67bd 4db2 133d b6b6 2a3d
000003e0: 2e89 c7bc 5795 043d e080 fd3b e899 1cbd
000003f0: 1af5 633d 4136 42bd a2bb 75bd 9467 7d3d

bias_hh f4 [600]
0.065446176 -0.078550585 -1.3623447e-05 0.028213881 -0.024990473 -0.013865855 -0.029183114 -0.015861576
-0.030871661 -0.042765692 0.013467725 -0.033189602 -0.0017329887 0.047642045 0.04571281 -0.03419718
0.06772747 0.08143731 0.01405778 -0.06088506 -0.03814162 0.030269463 -0.036375776 0.04248021
-0.0001193621 -0.06273824 0.05078553 0.019968705 -0.03524121 -0.04329734 0.00188169 -0.0059850537
-0.00010486943 -0.06608716 -0.05133843 -0.038629036 0.07070678 -0.01358048 -0.0013108234 -0.012336293
-0.026009481 0.04367427 0.06123255 -0.050953083 -0.015099704 0.018033126 -0.0044535124 -0.02696015
-0.0059311767 -0.055958845 0.0208856 -0.0732379 -0.02878058 0.008264365 0.030649368 0.0017663846
0.012017809 -0.003463662 0.051735096 0.023136836 0.07353853 -0.007513234 -0.029283063 -0.018061599
-0.013888076 -0.00019032598 -0.022443108 0.04334585 -0.06691129 0.03868603 0.02402612 0.0035865959
0.06810927 0.040721323 0.013431736 0.07946327 -1.0968366e-05 0.039852034 -0.028077902 0.02965268
-0.056324527 -0.047365185 -0.050120212 -0.0471355 -0.022102945 0.008163949 0.034678277 0.004493727
0.07281946 0.03351043 -0.01047388 -0.0663933 -0.034021016 0.042822715 0.043981455 -0.0021512096
-0.08298077 -0.0055598393 0.026909556 -0.055610966 -0.060843676 -0.034592282 -0.047079578 0.0094503295
0.052358713 -0.07289793 -0.0016172999 0.019435983 0.0039473274 -0.067107804 0.03269845 -0.03017118
-0.03785739 0.048682444 -0.029442597 -0.057579473 -0.071854174 0.012809973 -0.07389359 0.04193354
0.0037264791 -0.0063374657 -0.0037343309 0.005233703 -0.052592985 0.04514267 -0.06574415 0.060272995
-0.014418243 0.020456648 -0.06270971 0.02470638 -0.041494716 0.0002673619 0.033587843 -0.0052043432
-0.066278756 0.008573162 -0.033477068 0.0135293435 0.03664769 0.07577694 0.05910308 -0.010013322
-0.02774428 0.07761009 0.05294029 0.066610724 -0.021286603 0.017550375 -0.012402989 0.03281008
-0.0025658486 -0.069308326 0.06946179 0.049095046 0.055886284 0.041822936 -0.035261128 0.02018345
0.04006854 -0.06800594 -0.049016844 -0.00087098667 0.055584718 0.024008196 -0.0447654 -0.047603764
0.0150540145 0.04334746 0.028653523 0.079649016 0.04241101 0.0052230284 -0.022331113 0.051211193
-0.009245743 0.07670616 0.041344788 -0.017179325 0.0114238225 -0.0054751947 0.007641382 0.0057694074
-0.052996535 -0.061987355 0.02761001 0.04645504 -0.014794464 0.04068225 -0.014586468 -0.039288558
-0.0027070593 0.042199444 -0.0309859 0.06334039 -0.0015508487 -0.010108468 0.038484756 0.022110209
-0.018896876 -0.007696122 0.046719372 0.021587295 0.06662312 0.06215161 0.054435972 -0.043478183
-0.040055066 0.011944546 0.065361075 -0.044207837 -0.052706152 -0.05816735 0.025848486 0.03469755
0.017319165 0.043301065 0.0115709985 0.0274275 -0.028460998 0.0735417 -0.035116877 -0.05457216
-0.035264246 -0.050185256 -0.042272147 0.00532293 0.0065660174 -0.025394915 -0.054946903 -0.025891282
0.011265587 0.007578049 -0.023309832 -0.032524668 0.030802514 -0.0033957958 0.04414797 -0.024216035
0.018388897 -0.035453603 -0.033145312 0.048414838 -0.056944966 0.041716233 -0.057447307 -0.0089513995
0.005628164 0.0630103 -0.04534314 -0.016500978 0.065442406 -0.0325796 0.05133787 -0.044937935
00000000: a508 863d 21df a0bd 4290 64b7 cc20 e73c
00000010: d2b8 ccbc 9c2d 63bc 6d11 efbc 23f0 81bc
00000020: 91e6 fcbc 142b 2fbd bca7 5c3c d2f1 07bd
00000030: 7425 e3ba 4e24 433d 5b3d 3b3d 5812 0cbd
00000040: b3b4 8a3d 9bc8 a63d 9a52 663c 9d62 79bd
00000050: 633a 1cbd aaf7 f73c c4fe 14bd bbff 2d3d
00000060: 0a52 fab8 e87c 80bd 7d04 503d 6995 a33c
00000070: 1659 10bd 8d58 31bd 0aa3 f63a 451e c4bb
00000080: 59ed dbb8 b458 87bd 3f48 52bd 7b39 1ebd
00000090: b7ce 903d a980 5ebc efcf abba 2a1e 4abc
000000a0: d611 d5bc cbe3 323d fbce 7a3d 2eb4 50bd
000000b0: c064 77bc 35ba 933c c5ee 91bb 88db dcbc
000000c0: 515a c2bb 1a35 65bd 4718 ab3c c1fd 95bd
000000d0: 40c5 ebbc 4267 073c 6214 fb3c 0886 e73a
000000e0: 58e6 443c 9bfe 62bb 2ee8 533d 7689 bd3c
000000f0: 5e9b 963d 9331 f6bb 09e3 efbc ebf5 93bc
00000100: d08a 63bc 3e92 47b9 9cda b7bc 6b8b 313d
00000110: c908 89bd 3e75 1e3d 6dd2 c43c 180d 6b3b
00000120: df7c 8b3d 67cb 263d c910 5c3c a4bd a23d
00000130: c604 38b7 e33b 233d a103 e6bc 2dea f23c
00000140: 8cb4 66bd ff01 42bd da4a 4dbd 2711 41bd
00000150: 3c11 b5bc 15c2 053c cf0a 0e3d 1d40 933b
00000160: 5e22 953d 3c42 093d a39a 2bbc 36f9 87bd
00000170: 9f59 0bbd df66 2f3d e625 343d 4ffb 0cbb
00000180: d2f1 a9bd 502f b6bb 6e71 dc3c 53c8 63bd
00000190: 3837 79bd a3b0 0dbd 84d6 40bd 8ed5 1a3c
000001a0: 1776 563d 834b 95bd 94fb d3ba 3638 9f3c
000001b0: 9558 813b d16f 89bd cfee 053d 8d29 f7bc
000001c0: 5a10 1bbd 3e67 473d 9a31 f1bc 74d8 6bbd
000001d0: 4828 93bd ece0 513c 8655 97bd 81c2 2b3d
000001e0: f237 743b 84aa cfbb adbb 74bb 7c7f ab3b
000001f0: be6b 57bd 85e7 383d dea4 86bd d1e0 763d
00000200: 7f3a 6cbc b394 a73c f36d 80bd 0965 ca3c
00000210: 5df6 29bd b52c 8c39 6893 093d 3289 aabb
00000220: 28bd 87bd 7376 0c3c 401f 09bd 2eaa 5d3c
00000230: e31b 163d f130 9b3d 1216 723d eb0e 24bc
00000240: f947 e3bc 0af2 9e3d ebd7 583d 346b 883d
00000250: 3e61 aebc cec5 8f3c e835 4bbc dd63 063d
00000260: cc27 28bb 86f1 8dbd fc41 8e3d e317 493d
00000270: 04e9 643d 874e 2b3d f96d 10bd c357 a53c
00000280: e91e 243d b346 8bbd e3c5 48bd ed52 64ba
00000290: cdac 633d d6ac c43c ed5b 37bd 2afc 42bd
000002a0: 1da5 763c 1b8d 313d cbba ea3c 061f a33d
000002b0: 2bb7 2d3d f025 ab3b bdef b6bc d4c2 513d
000002c0: 757b 17bc 1f18 9d3d 2759 293d a8bb 8cbc
000002d0: fc2a 3b3c 4369 b3bb 8f64 fa3b 4c0d bd3b
000002e0: e512 59bd 74e6 7dbd 632e e23c a447 3e3d
000002f0: 7b64 72bc 6ea2 263d 15fc 6ebc 0aed 20bd
00000300: eb68 31bb 53d9 2c3d 24d6 fdbc 9bb8 813d
00000310: d945 cbba fd9d 25bc 31a2 1d3d 7820 b53c
00000320: 9fcd 9abc c02f fcbb d05c 3f3d d7d7 b03c
00000330: b471 883d b092 7e3d 41f8 5e3d 2e16 32bd
00000340: c810 24bd 0fb3 433c 07dc 853d 4713 35bd
00000350: 68e2 57bd e340 6ebd 34c0 d33c 051f 0e3d
00000360: ece0 8d3c 755c 313d 4994 3d3c a3af e03c
00000370: 0a27 e9bc 089d 963d b7d6 0fbd 0f87 5fbd
00000380: 3e71 10bd 0e8f 4dbd 8f25 2dbd f96b ae3b
00000390: bf27 d73b ff08 d0bc 0110 61bd f419 d4bc
000003a0: 4c93 383c 4851 f83b 43f4 bebc 9638 05bd
000003b0: 8e55 fc3c 008c 5ebb 80d4 343d b560 c6bc
000003c0: 50a4 963c cc37 11bd 61c3 07bd a34e 463d
000003d0: 203f 69bd a4de 2a3d de4d 6bbd e4a8 12bc
000003e0: 766c b83b 8b0b 813d bab9 39bd 0f2d 87bc
000003f0: ab06 863d 3072 05bd a947 523d d710 38bd
