testbed/models_v8/gnn_layer_2.pt (torch, 896629 bytes, 7 tensors)

weight f4 [300, 300]
000000 b9 1e 66 bd dc 60 14 bd f6 00 03 bd 83 3f 4c bd
       -0.056181643 -0.036225185 -0.03198334 -0.049865257
000010 a9 9c c7 3c e6 7a 57 bd 66 9b 03 b9 cb 7e e1 bc
       0.024366694 -0.05260744 -0.00012551024 -0.02752628
000020 39 ba 02 bd 60 a1 8f bb 30 20 de bc 3c 73 cf 3c
       -0.031915877 -0.004383251 -0.027114958 0.025323503
000030 f8 1f 77 3d ac ad 18 bd 0a 9c 23 3d 6e ee 82 3b
       0.060333222 -0.037275 0.039943732 0.003995708
000040 2e 29 65 bd c9 60 5a bd a1 73 36 bc 67 fd 1a bd
       -0.055947475 -0.053314958 -0.0111359665 -0.03783932
000050 5e 65 84 3c b6 38 01 3c d0 a6 19 bd f8 b0 e2 bc
       0.016161617 0.007887056 -0.0375126 -0.027672276
000060 46 67 ef 3c 40 fd d2 bc da 34 06 3d 50 9f ce bc
       0.02922405 -0.025755525 0.032765247 -0.02522245
000070 26 ad 65 bb a6 4c de 3c b9 31 4c bd 12 5b e0 3c
       -0.0035045831 0.027136158 -0.049852107 0.027387176
000080 42 cd 1c 3c 92 cb b9 3c fa 6d de bc bd 53 7d bc
       0.009570422 0.022680078 -0.02715205 -0.015461859
000090 c6 97 39 bd 02 e2 18 3d 68 29 e8 bc 6b 19 a3 bc
       -0.045310758 0.037324913 -0.028340057 -0.019909581
0000a0 55 5c 77 bb d4 55 07 3d 32 f5 2e bd 11 63 f8 3c
       -0.0037744243 0.033040836 -0.042714305 0.030320676
0000b0 39 1f 0f 3d f6 58 c5 bb f7 53 cf 3c c8 c4 8d 3b
       0.034941886 -0.006022568 0.025308592 0.0043264367
0000c0 c9 bb 07 bc aa 53 18 3d c8 3c af bb 53 e1 05 3d
       -0.008284518 0.037189163 -0.005347822 0.03268559
0000d0 58 03 59 bc 19 5e c9 bc 62 7e df 3a 65 69 f0 bc
       -0.013245426 -0.024581002 0.0017051215 -0.029347131
0000e0 49 45 2a 3d 11 58 a1 3c 41 8f 16 3d d1 79 34 bd
       0.04156998 0.019695314 0.03675771 -0.044061486
0000f0 c0 d1 4d bd 2f 1b ce 3c a9 e0 cd 3c e8 67 2d 3c
       -0.05024886 0.025159447 0.02513154 0.010583855
000100 0d f9 06 bc 23 57 4d bd b9 41 11 3d 8d ce 0e 3d
       -0.008238089 -0.05013193 0.03546307 0.03486495
000110 a2 5d bb bc d1 fa 33 3c 8b 09 fc 3c 17 97 1f 3d
       -0.022871796 0.010985092 0.03076627 0.03896245
000120 d2 9a 4d 3d 50 72 da 3c ab eb fc 3c 3c 45 73 3d
       0.050196476 0.026665837 0.030874094 0.0593922
000130 6d 20 4e bd 5a 2b f9 bc d6 e7 fa bc 2d 8c 22 3d
       -0.050323892 -0.03041618 -0.030628126 0.039684463
000140 d7 00 df bc bd 4c 41 bd 89 4d 26 3c 1d c9 16 3b
       -0.02722208 -0.047192324 0.010150322 0.0023008056
000150 3e f8 d4 bc 05 e6 0e bc 7a c3 d9 bc a6 ca d7 bc
       -0.025997277 -0.008721833 -0.026582468 -0.026341747
000160 88 98 80 ba 91 ed 42 bc cd 70 a4 3a dc 34 01 bc
       -0.0009811083 -0.011897461 0.0012545824 -0.007886138
000170 38 43 b6 bc f2 0c 04 bd 0a 5a 40 3d 88 ec 3c ba
       -0.02224885 -0.032238908 0.046960868 -0.0007206877
000180 17 07 b6 3c db bd 4a 3c 9c 76 6b bd a3 c6 5f bd
       0.022220178 0.012374367 -0.05748616 -0.054632794
000190 e6 3f 94 3b af b8 59 3d 7b 0f 36 3d 54 83 23 3b
       0.004524219 0.053154644 0.044448357 0.0024950104
0001a0 02 4c e9 bc 84 f3 2e 3c 50 cf 1c bc a8 85 ae bc
       -0.028478626 0.010678176 -0.0095709115 -0.021303967
0001b0 fa 8b 48 3c f2 a4 25 ba fc c5 29 3d fe 9f 41 3c
       0.012240404 -0.0006318829 0.04144858 0.01181793
0001c0 91 41 2c 3d fe 57 e3 bc fc 13 e5 bc 59 f7 24 3d
       0.042054716 -0.027751919 -0.02796363 0.04027495
0001d0 d2 5d be 3c 3b d6 ac 3c 6d fc e1 3c 28 ca 87 3c
       0.023238096 0.021098247 0.027586186 0.016575888
0001e0 28 fc 02 bd d6 a9 09 3d a3 72 27 3c d0 0c 3e 3b
       -0.031978756 0.033609234 0.010220203 0.0028999336
0001f0 aa 95 0d bc 15 59 7e bb e8 d2 fe 3c 3c 72 49 3d
       -0.00864164 -0.0038810421 0.031106427 0.049181208
000200 94 d7 83 3d ef 91 7b bb c4 e0 08 bd f7 be e1 3c
       0.06437603 -0.0038386544 -0.03341748 0.02755688
000210 ca 9a 34 3d 39 dc 95 bc a0 83 11 3d 18 f5 91 bc
       0.04409293 -0.018293487 0.035525918 -0.017817065
000220 fd a3 45 bd 24 ec 26 bd ea 98 69 bd 66 4e 99 3c
       -0.048252095 -0.040752545 -0.057030596 0.018714141
000230 1c 00 6f 3d 83 2c 04 3d fc dc fd 3c f8 81 d6 3c
       0.058349714 0.032269012 0.030989163 0.02618502
000240 04 73 36 bd e1 bc 19 bd d8 1f 38 bd bb ac 0b 3d
       -0.04454328 -0.037533645 -0.044952244 0.034100275
000250 e6 29 cc 3c a8 97 ad bc e9 23 6a bd 9e fc 84 3c
       0.024922322 -0.02119048 -0.057163153 0.016233739
000260 c0 d6 3a bc ef b1 1e 3d 09 50 31 bc b0 b0 43 3d
       -0.011403739 0.03874391 -0.0108223045 0.047775924
000270 4b 7a de bb 4b 91 3e 3d 96 76 a9 bc 4d 88 b4 3c
       -0.006789481 0.04652528 -0.020686429 0.02203765
000280 0d 9e 95 3c 47 16 4a 3d 7e f0 7c 3b 8a 28 02 3d
       0.018263841 0.04933765 0.0038595493 0.031776942
000290 b9 96 11 bd 40 87 44 bd 47 ba 1e bd 8f a7 b6 bc
       -0.03554413 -0.047980547 -0.038751867 -0.022296695
0002a0 2f 1a 93 bc 7b 73 49 bd 4e 5c 5b bd 5d c4 0f 3d
       -0.017956821 -0.049182396 -0.053554825 0.035099376
0002b0 16 e5 84 3b b2 3b 0c bc d0 62 0c 3d cf 7f 65 3d
       0.0040556295 -0.008559154 0.034273922 0.05603009
0002c0 4c 31 b2 bc b6 b8 9f 3c 0c e7 37 3d bc 67 1d bd
       -0.021752022 0.019497257 0.044898078 -0.038429007
0002d0 12 f9 6d 3d 13 49 b2 3c 76 e6 00 bd f2 18 50 bd
       0.05809886 0.02176336 -0.031469785 -0.05080504
0002e0 92 77 5b 3d b1 63 d7 3c a6 fe 3a bc 5c a2 07 3d
       0.053580828 0.026292654 -0.011413252 0.033113822
0002f0 dc f5 24 3d 00 90 d6 3b 88 d7 3d ba 35 cb 0a 3d
       0.040273532 0.006547928 -0.00072418945 0.0338852
000300 21 b9 4a 3d 6d 52 3b 3d 2e 20 71 bd 50 24 37 3c
       0.04949296 0.045732904 -0.05886858 0.011178091
000310 00 63 4b 3d 6a 69 4c bc 3b 1a be bb 83 f0 15 bc
       0.04965496 -0.012476305 -0.0058014668 -0.009151581
000320 40 30 2b 3c 79 6f 31 3d f8 e7 bd 3c dd 11 c2 3b
       0.010448515 0.0433192 0.0231819 0.0059225396
000330 4e 19 d6 3c 04 2c 33 3d d0 a4 59 3d c1 89 73 bc
       0.026135113 0.04374315 0.053135693 -0.014864386
000340 fe d4 c5 bc 07 c5 59 bb c5 ca 4c 3c e9 9d 9f 3c
       -0.024149414 -0.003322901 0.012499516 0.019484477
000350 7c d5 0b 3d d4 47 a8 bc c8 42 4a 3d c1 bf 63 bd
       0.03413914 -0.020542063 0.049380094 -0.055602793
000360 0c 81 6e bd ac 18 22 bd 2e 14 26 bd 1c da 58 bd
       -0.058228537 -0.03957431 -0.04054659 -0.05294238
000370 61 d1 34 3c 27 9a 19 3d 7d 33 e7 bc 38 f5 a5 bc
       0.011036248 0.037500527 -0.028222794 -0.020258531
000380 79 33 54 bd 52 68 9a bc 28 59 ea 39 6a a9 bd 3c
       -0.0518069 -0.018848572 0.00044698385 0.023152072
000390 e2 71 d3 3b 77 28 a5 3c 9d cf 2b bd f0 3b 1b 3c
       0.006452785 0.020160897 -0.041946042 0.009474739
0003a0 18 fb 1c bd 37 3b 2f bd aa 59 29 3d a7 c7 19 3c
       -0.0383254 -0.04278108 0.041345276 0.00938598
0003b0 45 73 bb bc 03 95 dd 3c 24 cb 03 3d 0d b6 e8 3b
       -0.022882113 0.027048593 0.032176152 0.0071017803
0003c0 59 71 5e bd b8 09 7b bc 70 2c 2b bd 4f 99 13 3d
       -0.054307315 -0.015322141 -0.041790426 0.03603488
0003d0 27 b1 4b 3d 13 c1 52 3b a4 a4 a4 bc e6 f6 62 bd
       0.049729493 0.0032158538 -0.020098038 -0.055411242
0003e0 91 11 0c 3d 6e 59 68 3d 8b 0c 7d bc eb be c1 ba
       0.03419644 0.05672591 -0.015444885 -0.001478163
0003f0 61 28 56 bd 75 23 41 3d a4 09 8a 3c 50 15 c2 3c
       -0.052284602 0.047152955 0.0168503 0.023691803

bias f4 [300]
000000 0a fc f9 bc a2 78 5c bd ad fa b5 bc 86 ff 28 bd
       -0.03051569 -0.053825982 -0.022214258 -0.04125931
000010 e4 0f 55 bd 9d 48 30 bd 11 fa c7 bb 22 b1 94 3b
       -0.052017108 -0.043038 -0.0061028083 0.0045377174
000020 3f ce 15 bd 30 49 83 3b 2d 5d 43 3d fa 1d 7d bd
       -0.036573645 0.0040065274 0.04769628 -0.061796166
000030 29 b9 0c bd 13 c7 c7 3c d8 ce b7 bb d0 95 97 3c
       -0.03435627 0.024386918 -0.0056093745 0.018504053
000040 2a 99 64 bd ce 4b cd bc 5b dc 6a bd 8d 76 de ba
       -0.05581013 -0.02506056 -0.057339054 -0.0016972587
000050 a5 6d 95 bc 8f e5 77 bc 92 c5 c0 3b 80 46 12 3d
       -0.01824076 -0.015130415 0.005882927 0.035711765
000060 98 04 6e 3c 42 82 e3 3c 93 3e 54 3c 5d 55 0b bc
       0.014527462 0.027772073 0.012954372 -0.008504239
000070 13 ce 5e 3c 4c d7 ca 3c c5 bf 8c 3b d4 a3 5f bd
       0.013598937 0.024760865 0.0042953216 -0.054599598
000080 fc ab 29 3d 0d 4d a6 3c c3 63 53 bd 7d ec 4d bd
       0.041423783 0.020300413 -0.051608812 -0.05027436
000090 be 0d c6 3a 21 22 13 3d a8 e3 02 bd 15 f7 e6 bc
       0.0015110297 0.03592122 -0.03195539 -0.02819399
0000a0 2b 79 dd 3c 79 a6 e2 3c 13 24 03 bc b1 1d 1c 3c
       0.027035316 0.027667271 -0.008004206 0.009528563
0000b0 e2 13 10 bd d7 24 ea bc f5 aa 69 bc 76 8b 4d bd
       -0.03517521 -0.02858202 -0.014261951 -0.05018183
0000c0 ea 5d 98 3c 73 aa 65 3c f0 5c 4e bd 18 26 d5 3b
       0.01859947 0.014017689 -0.0503816 0.0065047853
0000d0 01 35 fd bb f7 40 28 bd 28 ab dd 3c 30 77 39 bd
       -0.007727266 -0.04107758 0.027059153 -0.04527968
0000e0 13 89 11 3d 89 65 ac bb 58 59 92 bb 11 fc ae 3c
       0.035531115 -0.0052611274 -0.004466217 0.021360429
0000f0 d4 fa 61 3d 58 2e 93 3c 58 2e d1 3a 00 a0 3f bd
       0.05517085 0.017966434 0.0015959246 -0.046783447
000100 0d e1 4c bd 59 f9 16 bd 8b f0 87 bb 70 c3 c5 bc
       -0.050019313 -0.03685889 -0.004148548 -0.024141043
000110 55 5e 42 bc 83 c2 73 bd f8 15 58 3d 7f 81 75 3b
       -0.011863311 -0.059511673 0.052755326 0.003746122
000120 3d 36 8b 38 09 83 c8 bb ee 92 05 3c 68 27 0a 3d
       6.638139e-05 -0.0061191362 0.008152707 0.033728987
000130 82 56 ef 3c 9b ca 70 bd 62 ea 60 3d 97 11 90 3b
       0.029216055 -0.05878697 0.054911025 0.004396628
000140 1c e9 d7 3c 18 37 85 bc c2 2c cd 3c 29 b6 0f bd
       0.026356272 -0.016261622 0.025045756 -0.03508583
000150 78 6c 23 3d 96 89 d4 bc e3 b5 13 3c 5b d7 d9 3c
       0.039898366 -0.025944512 0.009015533 0.026591947
000160 d0 3c 3e 3d a8 ae 80 3a b6 ed 1e 3d 12 54 16 3d
       0.046444714 0.0009817677 0.038800918 0.03670127
000170 ef b3 7e bc ab e0 4e 3d 63 13 af bc da 1d 59 bd
       -0.015545829 0.05050723 -0.021371549 -0.053006984
000180 0b ac 6e 3b b5 12 55 bc 37 c3 13 3d f7 f9 1d 3d
       0.0036418464 -0.013004948 0.036074843 0.038568463
000190 66 b1 3b bb e5 aa cf bc 47 73 ab bc 92 f6 4f bd
       -0.0028639673 -0.025350044 -0.020928992 -0.050772257
0001a0 e4 c4 ca bc c8 54 bb 3c 5a c5 2b bd a6 8a 52 3c
       -0.024752088 0.022867575 -0.041936256 0.012850439
0001b0 f3 ae 4b bc 1a 1a 1e 3c da ee c4 3b fc 37 f8 bc
       -0.012431848 0.009649778 0.0060099186 -0.030300133
0001c0 60 47 00 3d ec 23 11 bd 53 cc 79 bc 6a cd 0c 3c
       0.03131807 -0.03543465 -0.015246469 0.008593896
0001d0 4e 1c a1 bc e0 fc dd bc d0 49 2a bd eb 55 40 3d
       -0.019666817 -0.02709812 -0.0415743 0.046956938
0001e0 fb 04 32 3d e6 a6 06 3d 54 9b 98 bc 0d 5f e9 bc
       0.04346178 0.03287401 -0.018628754 -0.028487707
0001f0 b4 a6 61 bd 21 ae 97 bc de fc 32 bd b9 3e 31 bd
       -0.05509062 -0.018515648 -0.043698184 -0.043272708
000200 e0 58 8b bc 7f 11 a1 bc da cf 2b bd f6 8d 82 3c
       -0.017010152 -0.019661663 -0.04194627 0.015936833
000210 0f 49 bc bc 6d 0c ff bc 9a 1d 24 3d ea 60 cd 39
       -0.022984056 -0.031133855 0.040067293 0.00039172854
000220 12 3e 1d 3d db 05 16 bc 8b bd dc bc ae 4f 65 bd
       0.038389273 -0.0091566695 -0.02694585 -0.05598419
000230 80 98 d4 3c 5f 64 75 bd f0 f9 b6 3c 04 d0 5d bd
       0.025951624 -0.059910174 0.022335976 -0.054153457
000240 43 78 49 bd 85 df b3 bc dd a7 c7 3b 12 0e 60 3c
       -0.049186956 -0.021957168 0.006093009 0.01367523
000250 99 79 5e 3d 43 44 66 bd 59 9b b7 3b 08 f5 57 3c
       0.054315183 -0.056217443 0.0056032357 0.013180979
000260 8b 6a 27 3c 5b c0 fb bc e5 86 25 3d 6a 79 0a bb
       0.010218273 -0.03073137 0.04041185 -0.0021129497
000270 3c 02 a3 3c c9 6e a4 bc 5f 95 00 3d 99 17 51 3d
       0.019898526 -0.020072358 0.03139245 0.051047895
000280 eb cc 6f bd 42 73 c8 bc 06 f8 45 bd 81 67 4b 3d
       -0.058545034 -0.024469022 -0.048332237 0.049659256
000290 cc 47 1d bc ab da 30 bd 25 c2 5d bc d5 2d 09 b6
       -0.009599637 -0.043177288 -0.013535057 -2.0441269e-06
0002a0 1d 30 3d 3d df 58 50 3d 74 9f 2e 3d f9 26 1d 3d
       0.046188463 0.050866004 0.042632535 0.038367245
0002b0 40 fa 13 3d 68 1c ec 3c 1c 26 9a 3c 8c a6 14 bc
       0.03612733 0.028822139 0.018817 -0.009072911
0002c0 c3 2a fe bc 11 b6 26 bd a6 bc 26 bd 30 af 0e 3d
       -0.03102625 -0.040700976 -0.040707253 0.03483504
0002d0 25 98 3c bd a1 ff e8 3b 8e d0 fe 3c 0d 02 b5 bc
       -0.046043534 0.0071105515 0.031105306 -0.022095704
0002e0 c2 67 6d 3d e6 2e 3a 3d b1 1f 17 3d 8a fa 2e 3d
       0.05796028 0.045454882 0.036895458 0.0427194
0002f0 8c 65 a8 3b 7b 37 23 3c 73 d2 23 bc 5e 4e fe 3c
       0.0051390585 0.009961958 -0.0099989055 0.031043228
000300 a7 67 53 3d 09 d5 fd 3c 8c 1c 0e 3d db e6 a9 3c
       0.051612522 0.030985372 0.034695193 0.020739963
000310 36 63 48 ba eb 3e ea 3b e1 49 1c bd 85 b4 28 bd
       -0.0007644178 0.0071486137 -0.038156394 -0.04118778
000320 a6 bd 10 bd ec 80 81 3c f9 05 8d bc 0d 61 2d bd
       -0.035337113 0.015808545 -0.017214762 -0.042328883
000330 9e d0 d0 bb f7 9d b9 bc 76 e0 36 bc f2 d6 2b 3d
       -0.0063725254 -0.022658331 -0.011161914 0.041953035
000340 65 ea 49 bd ff 55 3d 3d 95 42 3c bd f0 5a 50 3a
       -0.0492958 0.04622459 -0.045961935 0.0007948121
000350 55 3d 3d bd 19 ef b0 bc 35 46 a8 bc b6 19 18 3b
       -0.04620107 -0.021598386 -0.02054129 0.0023208684
000360 68 67 08 3d 0f ef 3b 3d c1 8c d8 38 c5 f5 92 3c
       0.03330174 0.04588228 0.000103259 0.017939458
000370 02 27 4e bd d2 1a a4 3c 6f 33 68 bd 4a cf c2 3c
       -0.05033017 0.02003232 -0.056689676 0.023780484
000380 65 a3 10 3d 3a be 5a 3d 63 3d 30 bd 90 ab bd bc
       0.035312075 0.05340407 -0.043027293 -0.023153096
000390 b0 f0 02 3d cf 47 51 3d f7 a5 e8 ba f3 23 16 3d
       0.03196782 0.051093873 -0.0017749657 0.036655378
0003a0 b2 6d 38 3d c6 99 42 3d e7 04 64 bd 02 27 82 bc
       0.04502649 0.04750993 -0.055668738 -0.015887741
0003b0 47 01 6e bd d4 00 18 bd 75 9f 1d 3d bb fa b9 3b
       -0.058106687 -0.037110165 0.03848215 0.0056756414
0003c0 ab 2f 1f bc 59 8b 46 bd 6f c0 35 bd 6f 02 4e 3d
       -0.009715955 -0.048472736 -0.044372972 0.05029529
0003d0 6d 9c 2c 3d 1b 98 02 3d ae 2b d6 3c d7 51 4d bd
       0.042141367 0.03188334 0.026143875 -0.050126877
0003e0 b1 f1 77 bd 0d 9c c2 bc 6d 0a 88 bb 5a 25 43 bc
       -0.06053323 -0.023756051 -0.0041516335 -0.011910761
0003f0 ca 07 f5 bb 86 0d b4 bb 79 e9 18 3d 20 3e de ba
       -0.007477735 -0.005494776 0.037332032 -0.001695577

weight f4 [200, 300]
000000 cc 2d 40 bc 88 50 36 3d 8c 42 76 bb f6 59 00 3d
       -0.011729669 0.044510394 -0.0037576286 0.031335793
000010 c1 74 fe 3c 49 4b d4 3c 19 42 74 3d 28 6c 44 3d
       0.031061532 0.025914805 0.059633348 0.04795471
000020 21 17 38 bd 0b d3 2d 3d 65 51 07 bd e0 a6 6a bd
       -0.044943932 0.042437594 -0.03303661 -0.05728805
000030 b8 a5 a6 3c 47 35 29 3d 61 81 aa bb 22 a1 a8 3c
       0.020342693 0.041310575 -0.0052034114 0.020584647
000040 d3 d5 96 bc 6d b2 50 bd 6b ee d3 bc e8 52 24 3c
       -0.018412506 -0.05095141 -0.025870522 0.010029532
000050 04 e1 92 3b dc f8 a9 3b 48 a6 e8 3c 53 fb 51 bd
       0.0044823904 0.005187137 0.028399602 -0.051265072
000060 a0 88 a2 3c de 94 c0 3c f0 52 e7 bc 63 64 1c 3d
       0.019840539 0.023508485 -0.02823779 0.038181674
000070 0d 9a 3c 3d a1 4b aa bc 5b 3a 44 bd 14 85 9f bc
       0.04604535 -0.020788016 -0.047907215 -0.019472636
000080 66 6b c4 3c 16 9d 5d bd 28 9b 72 bd 95 54 16 bd
       0.023976993 -0.054104887 -0.05923 -0.036701757
000090 9e e1 8a bc c5 a4 14 3d 14 34 13 bd dd 52 50 3d
       -0.016953286 0.03628995 -0.035938337 0.050860275
0000a0 8b 2f 31 3d fa b6 f5 3c f7 35 86 ba d4 dd ca bc
       0.04325823 0.029994477 -0.0010239471 -0.024763979
0000b0 19 c8 d0 bc b0 c3 1c 3c e2 fa 41 bd f3 6d b6 3c
       -0.025486039 0.00956814 -0.0473584 0.022269225
0000c0 f3 55 3b bd 3f 1c 4f 3d 4d be 50 bd f7 4e 5c bd
       -0.045736264 0.050564047 -0.050962735 -0.053786244
0000d0 ce 04 d5 3c 6f 0d 27 3d 36 77 a9 3b fb 03 55 3b
       0.026003268 0.040784296 0.0051716818 0.0032503593
0000e0 0e db 0c 3d 4d 29 cc bb cc 6e 6d 3c 4b a1 29 3d
       0.034388594 -0.0062305094 0.014491748 0.041413587
0000f0 10 a9 4d bd fd a9 1a bc 25 40 91 bc c9 29 5d 3d
       -0.05021006 -0.009439942 -0.017730782 0.053994928
000100 f3 13 4e 3d 47 c0 1f 3c cd b9 2d 3d 86 b4 b4 3c
       0.050311994 0.009750432 0.04241352 0.022058737
000110 6a 80 3d bc a5 64 43 bd 38 d2 f7 bc 9f 71 29 bd
       -0.011566261 -0.047703404 -0.030251607 -0.041368123
000120 cf a3 d5 bc 23 e0 20 3d 75 31 1a bb 29 ee 1b 3c
       -0.026079087 0.039276253 -0.0023528014 0.009517231
000130 17 b3 3f bc 8b 6f 2c 3d ef 79 06 bd e2 df 58 3d
       -0.011700413 0.042098563 -0.03283113 0.052947886
000140 11 ab aa bc 57 10 03 3d 0a 8f 30 bd e8 09 85 bc
       -0.020833524 0.031998005 -0.043105163 -0.016240075
000150 f7 87 57 bc f7 0b 0a bd d1 3d 9a bc d5 38 38 3b
       -0.013154975 -0.033702817 -0.018828304 0.0028110046
000160 0b 08 f7 3c cd 52 1f 3d 03 74 1c bc 32 df 95 3c
       0.030155202 0.038897324 -0.009549144 0.018294904
000170 38 76 04 bc 05 f5 00 3d cd 02 53 bb 08 aa 76 3d
       -0.008084826 0.03148367 -0.0032197714 0.06022075
000180 88 f1 38 3c 2f fb 58 3d 57 06 f8 3a 97 87 89 bd
       0.011288054 0.052973922 0.0018922788 -0.06715315
000190 ff 7b 7f 3d 30 59 85 3c 0d 09 8c 3c 0d 0c 61 3c
       0.06237411 0.01627788 0.01709416 0.013735783
0001a0 ba 2b 23 3d d0 f5 2b bd 60 0e 37 bd 60 c1 f6 bc
       0.039836623 -0.041982472 -0.044691443 -0.030121505
0001b0 9c 86 41 bd 5f 3c 43 3d ae ea 20 3d 9f 34 10 3d
       -0.047247514 0.047664996 0.039286308 0.035206433
0001c0 18 27 67 3d c2 50 21 3a 69 05 1d 3d c6 35 99 ba
       0.056433767 0.00061536964 0.038335238 -0.0011688999
0001d0 a0 51 5c bd d4 1b d9 3c 7a 67 30 bd a8 60 44 3c
       -0.05378878 0.026502527 -0.043067433 0.011985935
0001e0 55 8a cb 3b 6d bb 72 3b 01 47 6c 3d ca c3 1e 3d
       0.006211559 0.0037037984 0.057684902 0.038760938
0001f0 09 ae 0e bd 40 c8 18 3c 17 b4 44 3d e8 fa e6 3c
       -0.03483394 0.009325087 0.04802331 0.028195813
000200 13 a4 4a bc fd f6 55 3d 24 ce 92 bc 64 ec 2c bd
       -0.01236822 0.0522375 -0.017920561 -0.042217627
000210 4e 87 e8 3c 64 9f 44 3d f8 a4 84 bc e3 68 db bb
       0.02838483 0.04800357 -0.016191944 -0.006695853
000220 e9 70 45 3d 72 cb 58 3c e6 da 69 3c 78 84 57 bc
       0.048203383 0.013232099 0.014273381 -0.013154142
000230 dd 90 0f bd db 30 4a 3d ea 2b 30 3d c4 84 9b 3c
       -0.03505026 0.049363 0.04301063 0.018984206
000240 ec 07 3e bd 1a 89 2b bd 31 fd d9 3c 29 ff 6b 3d
       -0.046394274 -0.041878797 0.026609989 0.057616387
000250 ea ad 68 3d 9d 31 ae 3b fb e1 bc bc da 08 07 3d
       0.056806482 0.005315973 -0.023056975 0.032967426
000260 1d 8b 38 bd 86 02 39 bd b4 c0 27 3c 96 44 25 bd
       -0.045054544 -0.045168422 0.010238815 -0.04034861
000270 35 fa 5e 3d e4 eb 1c bd 4f 57 e6 bb 61 f9 44 3c
       0.054437835 -0.0383109 -0.007029451 0.012022347
000280 2a 17 1c bd bd fc c9 3c 05 aa 52 3d f1 be a2 bc
       -0.03810803 0.024656648 0.051431675 -0.019866439
000290 92 d3 80 bd ca 7c a4 3c 29 f8 9a bc 0f cd 0c 3d
       -0.06290354 0.020079035 -0.01891716 0.034375247
0002a0 6d c6 d7 3b ca a1 75 3d 3f 43 dc 3c 4c 64 4c bd
       0.0065849335 0.059968747 0.026887534 -0.049900338
0002b0 65 e7 c7 bc 52 fd 73 3b 9a 75 d2 3c 9f 41 ad bb
       -0.02440233 0.0037229848 0.025690842 -0.0052873637
0002c0 a8 29 3b bd 84 89 24 3d 5f ad 64 3d 2f 34 f6 3c
       -0.045694023 0.040170208 0.055829402 0.03005418
0002d0 a5 2d ce bc f8 86 08 bd ad c8 cf bc ab f1 2c 3d
       -0.02516825 -0.03333184 -0.025364244 0.04222266
0002e0 10 75 40 bb 75 21 d3 bc 0d 98 e9 bc 90 91 1e bc
       -0.002936665 -0.02577279 -0.028514886 -0.0096782595
0002f0 39 a9 8d 3c c3 4e 6d bb 73 6e 16 3d 2f 73 1e 3d
       0.017292606 -0.0036210276 0.036726426 0.038684066
000300 07 3e 20 bd 9d 29 5b bd 05 fc 72 3c 5c 90 7a bd
       -0.039121654 -0.053506482 0.014830594 -0.061172828
000310 0a 45 84 3d 9e e6 0a 3b 3f e4 9f bb 7d b9 a2 bb
       0.06458481 0.0021194587 -0.004879504 -0.0049659596
000320 bf d5 55 3d 43 1c c9 bc d5 b5 30 3d 05 ac 69 3c
       0.052205797 -0.024549609 0.04314216 0.014262204
000330 4a 31 63 3d 9c 52 33 bd 94 a9 96 bc 36 21 98 bc
       0.055466928 -0.043779954 -0.018391408 -0.018570524
000340 8f 6e 15 3c 8e b9 1a bd 90 34 91 3c c5 91 15 3d
       0.0091205975 -0.037774615 0.017725259 0.03651597
000350 34 15 dc ba ae 27 fe 3b f0 cf 40 3d ed 0a 1d 3d
       -0.0016790987 0.007756195 0.047073305 0.038340498
000360 34 31 38 bd b7 d0 0e 3d e0 6d 70 bc b5 c4 29 3d
       -0.0449688 0.034867015 -0.014674634 0.04144736
000370 2d ee 47 3d a3 59 f8 3c 72 2e fc 3b 8f 01 1e bc
       0.048811127 0.03031618 0.0076959664 -0.009643926
000380 e4 22 fc bb 95 e9 26 bd 22 e5 77 bd 24 09 c4 bc
       -0.007694589 -0.040750105 -0.060521252 -0.02393014
000390 05 ea 1e bd 7c ec bc bb ba 95 6e 3d 85 c5 8a 3c
       -0.038797397 -0.005765496 0.05824826 0.016939888
0003a0 70 b7 74 3d d2 b3 32 bd f7 00 d7 bc fd ba 0d 3c
       0.059745252 -0.04362852 -0.026245577 0.0086505385
0003b0 73 d8 0d 3d 72 e2 9a bc 06 a9 40 bd 87 38 9f bc
       0.03463025 -0.018906806 -0.047036193 -0.019436134
0003c0 c5 00 87 bc a2 5f 45 3c e1 31 ca bc 57 57 67 bc
       -0.01647986 0.012046726 -0.024681987 -0.014119945
0003d0 bb a2 e7 bc 2b d5 dc 3c b8 d4 56 3d 50 0f 50 3d
       -0.028275838 0.026957115 0.05244896 0.050795853
0003e0 26 14 64 bb 88 3f 97 bc c1 73 88 3c 19 e9 28 3d
       -0.0034802048 -0.018462911 0.016656758 0.041237924
0003f0 c4 6e c9 3c 62 24 11 3d f6 3d b1 3c 48 60 4f 3d
       0.02458895 0.035435088 0.02163599 0.05062893

bias f4 [200]
000000 78 ac d2 3c 42 64 09 bc c3 2b 1b bd f4 b2 09 bd
       0.025717005 -0.00838572 -0.03788353 -0.03361793
000010 68 16 0d 3c d4 94 f3 3c 3f 61 b2 3c 3b 96 08 3c
       0.008611299 0.029734053 0.021774886 0.008336599
000020 e2 74 50 3d f5 b4 ea 3c 9a 9e 9f bb 56 82 39 ba
       0.050892718 0.02865074 -0.0048712017 -0.00070766115
000030 09 ce 87 bc 32 3b 36 3d aa 90 7d bb f3 cb 1a 3c
       -0.016577737 0.044490047 -0.0038690963 0.009448039
000040 20 4b a7 3c db 51 32 bd b7 fb 1e bc 1b 42 dd 3c
       0.020421565 -0.043535095 -0.009703568 0.02700906
000050 ef 27 ed 3c 2c 0c 31 bc b1 0e 4b bd c9 84 4d bd
       0.028949706 -0.010806125 -0.049574558 -0.050175462
000060 5b 58 50 3d b3 36 c1 3c 28 77 17 bd c9 d4 c8 b8
       0.050865512 0.023585653 -0.03697887 -9.5763775e-05
000070 e5 be 6f 3d d7 75 15 bd 21 8b 6b bd f0 21 da bb
       0.05853166 -0.036489334 -0.05750573 -0.0066568777
000080 31 30 85 3b f6 e4 10 3d c4 17 4d 3d 7a 1a 62 3c
       0.0040645828 0.035374604 0.050071493 0.013800258
000090 81 b9 1a bd c3 51 08 3d 17 b2 57 3c 9a 14 b3 3c
       -0.037774567 0.0332811 0.0131650185 0.02186041
0000a0 65 bb 4f 3b d6 f2 5c 3d ff 4a 51 3d be 6e 47 bd
       0.003169739 0.053942524 0.051096912 -0.048689596
0000b0 90 e7 e7 bc 14 a6 3d bd 4b 52 73 3d e9 ea fe 3a
       -0.02830866 -0.046300963 0.059404653 0.0019448671
0000c0 5d 20 3d bc 56 a4 e1 bb 13 8b 4f bd f5 ad 49 3c
       -0.011543361 -0.0068860454 -0.05066974 0.012309541
0000d0 97 a9 1c 3d 3e 1b fb bc f0 e8 20 3d 7b 7d 24 3c
       0.03824767 -0.030652639 0.039284647 0.0100396825
0000e0 a2 3a 0d bd 6d b0 04 bd bd 7a 32 bd 08 3b 2d bd
       -0.034479745 -0.032394815 -0.043574084 -0.042292625
0000f0 08 53 81 bc a6 fd a8 3c 62 88 53 bc f5 97 51 bd
       -0.015786663 0.020628762 -0.012910934 -0.05117031
000100 af 58 b8 3c 3e 90 53 bd ea 79 21 bd b4 b7 13 3d
       0.022503225 -0.051651232 -0.039422907 0.036063865
000110 e0 13 aa bc 5c a9 08 bd 10 4a 15 bd 8a 40 1e 3d
       -0.02076143 -0.03336464 -0.036447585 0.038635768
000120 d7 e5 ab bc 28 0f 26 bd 0a 88 c0 3a fe 92 69 3d
       -0.02098362 -0.040541798 0.001468898 0.05702495
000130 d5 12 ad bc d9 10 22 bd fd 4d 24 3d 24 22 00 bd
       -0.021127144 -0.03956685 0.040113438 -0.03128256
000140 c6 b4 72 3c da 1a 40 bd 7e eb 25 bd f3 79 e3 bc
       0.014813608 -0.046900608 -0.040507786 -0.02776811
000150 5b fa 05 3d ee 6c eb 3b bf cb 4f bd 4e 60 66 3d
       0.03270946 0.0071846163 -0.050731417 0.056244187
000160 07 9e 48 3c e2 6c 3a 3d a4 6d a1 bc 01 a1 c2 3b
       0.012244708 0.045513995 -0.019705601 0.0059396033
000170 79 79 3b bd b7 f8 94 3c e5 d5 55 bc 0a d8 d8 bc
       -0.045770142 0.018185003 -0.013051485 -0.026470203
000180 ed c0 db 3c 9c 47 1a bc 42 6b 34 bd 4b 4b d4 3c
       0.026825393 -0.009416487 -0.0440476 0.025914809
000190 0d 13 49 bc 0e ab b5 3b e9 3a 54 3d e9 d7 25 3d
       -0.0122726085 0.005544073 0.051813994 0.04048911
0001a0 ec 83 67 3d 45 e7 dd 3c 14 37 b7 bb 56 03 9f bc
       0.056522295 0.027087817 -0.0055912826 -0.01941077
0001b0 b7 f3 8e bc 8e 04 9e bc ad 88 52 3d 43 0b 0f bd
       -0.017450197 -0.019289281 0.051399875 -0.03492285
0001c0 f1 b1 62 bd 6e 37 7a 3c cf ad 32 bd 98 29 21 3d
       -0.05534548 0.0152720045 -0.043622788 0.039346308
0001d0 44 d6 9a bb 51 ea 52 3a 8d bd 28 bd 9f 11 3e 3c
       -0.0047252495 0.000804578 -0.041196395 0.011600881
0001e0 02 3b 19 bd d2 00 47 3d 85 84 83 bc 5f bf 28 bd
       -0.03740979 0.048584767 -0.016054401 -0.04119813
0001f0 9f 90 fb 3c ed ec 14 3d 78 de 2e 3c ab c0 39 bb
       0.03070861 0.036358763 0.010673158 -0.0028343599
000200 a6 04 2d bc e3 71 47 3c aa 19 53 3d c5 8c e6 3c
       -0.01056019 0.012173149 0.051538147 0.028143296
000210 6a 95 6f 3b ce 5c 2b 3d e2 6c 53 bd bc e6 15 bd
       0.0036557564 0.041836552 -0.05161751 -0.036597
000220 9a 09 37 3d c2 55 87 3c 6e 0b 3f 3d b3 6f 29 3d
       0.04468689 0.016520385 0.04664176 0.04136629
000230 1d 3c bc bc 15 cc cd 3c 40 68 43 bd 08 ba a4 3c
       -0.022977883 0.025121728 -0.047706842 0.020108238
000240 d6 b6 c8 3c 17 a3 43 bd e1 1c 64 3d 7a 80 3d bd
       0.024501245 -0.047762956 0.055691604 -0.046265103
000250 7a 6d cc bb df fc ab bb 89 0f 1f 3d 22 3b f7 bb
       -0.0062386366 -0.0052486504 0.038833175 -0.007544891
000260 a2 b3 e0 bb 65 3a a1 bc b8 67 0c bd 14 7a 53 bd
       -0.0068573514 -0.019681165 -0.0342786 -0.051630095
000270 d7 0e 1b bd 20 2f 30 bb 2d 0c 48 3d a1 e5 0a 3d
       -0.03785595 -0.0026883557 0.048839737 0.033910397
000280 76 22 a1 bc c2 7a c2 bc 23 40 60 3c 3a a9 e6 ba
       -0.019669753 -0.023740176 0.013687166 -0.0017598041
000290 7f ed 22 3d 9d e5 d7 3c d6 df 9a bc da ea 63 3d
       0.039777275 0.026354605 -0.018905561 0.055643894
0002a0 dd ec cd 3b ef ec 57 3d 41 3a 00 3d 08 44 38 bd
       0.00628434 0.05271619 0.031305555 -0.044986755
0002b0 e8 d1 99 ba 9e 09 7c bc 47 16 e6 3b 69 6a 49 bc
       -0.001173553 -0.015383152 0.0070216986 -0.012293437
0002c0 6c ed 20 3d 4d 0b 5f 3d 36 9f 4c bd d8 8c 37 bd
       0.039288923 0.054454137 -0.049956523 -0.044812053
0002d0 7b be 2f bc 82 81 c1 3c f0 b5 a7 bc 92 e4 2a 3d
       -0.010726566 0.023621324 -0.020472497 0.041721888
0002e0 ef 5f 19 bd d7 f1 21 bd 06 d1 9d bc 8f 88 f1 bb
       -0.037445005 -0.039537277 -0.01926471 -0.0073710154
0002f0 13 cf 49 bd f7 61 99 3b 1b 92 04 bd c4 d5 35 3d
       -0.049269747 0.004680868 -0.0323659 0.044393316
000300 4f f6 b4 3c e1 33 91 b9 62 33 52 3d 1e 4e 85 bb
       0.022090105 -0.00027695208 0.051318534 -0.00406815
000310 8c c3 6c bd f9 9f f3 3c 99 95 75 3c 39 64 8e 3c
       -0.057803676 0.029739367 0.01498928 0.017381774

weight f4 [200, 300]
000000 93 28 16 bc 0e 56 49 3c 07 fa a1 bc 76 a5 02 3d
       -0.009164947 0.012288583 -0.019772543 0.031896077
000010 d1 6d 5f bd 5b c3 07 bd 54 c6 f7 3b bc 4e 1a 3c
       -0.05454809 -0.03314529 0.0075614844 0.009418186
000020 cd 48 45 3d 18 8d 72 bd 95 7a 53 3d 90 e8 1b bd
       0.04816513 -0.05921659 0.051630575 -0.038063586
000030 3a ac 2b bd 30 e4 68 ba 7b 22 a0 3b ad 92 53 bd
       -0.041912295 -0.00088841 0.004886923 -0.051653553
000040 80 29 75 bc b2 5c be 3c eb 99 0c 3d 44 7c 33 3c
       -0.014963508 0.02323756 0.034326475 0.01095492
000050 af 51 f7 bc 18 43 00 bd 92 69 58 bd a6 2e 43 bd
       -0.030190317 -0.031313986 -0.052835055 -0.04765191
000060 bd cd 8c ba fc 7d 3d 3d eb 0a d2 bc f1 4b 15 bd
       -0.0010742467 0.046262726 -0.025639972 -0.036449376
000070 e9 9f b5 3b 10 d7 ba 3a e6 70 46 bd 99 30 32 bd
       0.0055427444 0.0014254767 -0.048447512 -0.043503378
000080 00 b2 6e bd 4f 35 ce 3c 87 41 2a bb cc a7 3e 3d
       -0.058275223 0.025171904 -0.0025978999 0.046546742
000090 e7 9f d0 3c 45 3d c8 bc 68 2b d0 3c 1e ec 13 bc
       0.025466872 -0.024443278 0.025411323 -0.009028463
0000a0 e4 f7 5d 3c 22 de 58 bb fa 54 0b bd c0 5b 30 bd
       0.013547871 -0.0033091386 -0.034016587 -0.04305625
0000b0 79 f2 ab 3c 3a a4 31 bd 2c 24 61 3d e9 64 af bb
       0.020989643 -0.04336951 0.054966137 -0.0053526056
0000c0 dc 3f c5 3c 18 15 cd 3c 10 b8 80 bc 03 1c f2 bc
       0.024078302 0.025034472 -0.015712768 -0.029554373
0000d0 78 b0 f1 bb 7c 6d e6 3c 7f 42 3c bd 17 85 25 bc
       -0.007375773 0.028128378 -0.045961853 -0.010102532
0000e0 d5 dc f1 bb 68 4e 00 bd b4 46 8f bb 3d c5 3a bd
       -0.0073810616 -0.031324774 -0.004372442 -0.045598257
0000f0 eb f2 3d 3d b7 05 73 bd d3 28 1d 3d 7b be 6e bd
       0.046374243 -0.059331622 0.03836901 -0.058287125
000100 04 51 6d bd c3 b4 5c bd 22 71 f7 3c 16 3b 86 ba
       -0.05793859 -0.053883325 0.030205313 -0.0010240998
000110 d5 a5 5e bd 01 dd a7 bc 92 e3 58 3c ec 48 12 bd
       -0.05435737 -0.020491125 0.013237851 -0.035714075
000120 96 4e 8f 3b 40 3d 8b 3c 1a c7 05 bd d7 fd 0d bc
       0.004373382 0.01699698 -0.03266058 -0.008666477
000130 6b 23 fb bc 84 d7 f4 bc 05 dd 55 3d 6c 05 75 bd
       -0.030656537 -0.029887922 0.052212734 -0.059819624
000140 3b d2 83 3c 85 89 15 3d b6 52 16 3c da f1 d8 3c
       0.016091457 0.036508102 0.009174993 0.026482511
000150 c7 88 63 ba 5f 08 5f 3d 74 a3 4c 3b 4b 11 e6 3c
       -0.0008679744 0.054451343 0.0031225355 0.028084418
000160 7b a9 2a 3d ee e4 11 bc df d3 13 3d 1c e0 25 bd
       0.041665535 -0.008904679 0.036090728 -0.04049693
000170 e0 87 91 3b 37 2f ac 3b 1b 46 db bc d4 b0 1a 3d
       0.0044412464 0.005254652 -0.026766827 0.037766293
000180 97 59 0c bd 4e fd d3 bc 96 8d e3 3c 87 41 e3 bc
       -0.034265127 -0.025877621 0.027777474 -0.027741207
000190 72 98 20 bd 5f 2e ba bb 17 b4 4e 3c 20 dd 3f 3c
       -0.039207883 -0.0056817974 0.012616179 0.011710435
0001a0 6b 90 44 3c 6d 3b 12 3d 55 03 49 3d df e4 57 bd
       0.011997323 0.035701204 0.049075443 -0.052708503
0001b0 8c ac 0d bd 64 38 a4 3c c4 3e 23 3d 33 c5 98 3b
       -0.03458838 0.02004642 0.03985478 0.00466218
0001c0 de 9a e4 3c d9 9e 2e bd b0 e9 07 3d 13 96 15 bd
       0.027905878 -0.042631958 0.033181846 -0.036520075
0001d0 e0 d4 3f bd d4 f0 7f 3b 20 19 31 3c 47 d7 1a 3d
       -0.046833873 0.0039053457 0.010809213 0.03780296
0001e0 ca 81 5b 3c d9 5c e7 bc 4d b8 cd 3c fd 3c 51 3d
       0.013397643 -0.028242515 0.025112296 0.051083554
0001f0 34 9c 22 bd e5 07 63 bd 57 35 b8 bb 78 fe 47 bc
       -0.03969975 -0.05542745 -0.005621593 -0.012206666
000200 3c dd ab bb 4e a4 63 3d f2 95 ef 3c c5 db ac bc
       -0.005244879 0.055576615 0.029246304 -0.021100888
000210 00 7f a5 3c 1d 29 f8 3c f4 7d 97 bc 13 be 42 3d
       0.02020216 0.030293042 -0.018492676 0.04754455
000220 7b 07 10 bd a3 b5 67 3d 7b f9 11 3d 24 92 18 3d
       -0.035163384 0.056569707 0.035638314 0.037248746
000230 f8 4d 46 bd e8 b2 09 bc 54 09 0c 3d bb e0 0a bd
       -0.0484142 -0.008404471 0.034188583 -0.033905726
000240 7e 86 78 bd 2f ed 79 3d 6f 6e 19 bd 03 0e f5 bc
       -0.060675137 0.06101721 -0.037458833 -0.029913908
000250 ff 34 38 bd 2c cd a5 bc 3c 77 55 3d eb 6a 55 3d
       -0.044972416 -0.020239435 0.052115664 0.052103918
000260 62 a1 c1 3c 73 df 08 bd ac 4b f4 bc c0 1c 31 3d
       0.023636524 -0.033416223 -0.02982124 0.04324031
000270 ff 0a 40 bd 0c ab 05 bc e2 e8 71 bc aa e1 a2 bc
       -0.046885487 -0.0081584565 -0.014764996 -0.019882996
000280 2d 63 6c bc 1e a0 09 bd 72 0a 1b 3c 16 f8 81 3c
       -0.014427942 -0.033599965 0.00946294 0.015865367
000290 f4 99 2f bd 82 13 9f 3c f4 43 01 3d c1 10 16 bc
       -0.04287143 0.019418482 0.031558946 -0.009159268
0002a0 bf fb 53 3d 98 16 c8 bc 49 2c 4c bd 75 c8 04 bd
       0.051753756 -0.024424836 -0.04984692 -0.032417733
0002b0 d1 ed 43 bc 28 8c 0a 3d 67 a5 6f 3d bd 08 cd 3c
       -0.011958555 0.03382507 0.05850735 0.02502858
0002c0 9e 2c ec bc c1 ac 0a 3d b0 f8 50 bd 82 5e 26 3d
       -0.028829869 0.033856157 -0.051018417 0.040617473
0002d0 ce 2b 74 bc 94 d6 c1 bb ba f4 1b bd 94 91 48 bd
       -0.014903022 -0.0059154723 -0.038075186 -0.04896696
0002e0 6b bb 58 3c ca 49 85 3c 30 f7 23 3d e0 88 03 3d
       0.013228278 0.016270537 0.04003066 0.032112956
0002f0 28 96 01 3d c7 19 3d 3c 1d aa fd 3c 4e 4c b1 3c
       0.03163734 0.01154179 0.030964905 0.02164283
000300 b4 37 4d bd 5b 66 d2 3a 1a 28 aa 3c f8 f6 17 bd
       -0.05010195 0.0016052233 0.020771075 -0.037100762
000310 50 fd ed 3c 70 2b eb 3c af 2b ce bc 84 3f 48 bc
       0.029051453 0.028707236 -0.025167314 -0.012222175
000320 09 43 e6 3b 58 5b 44 3c 42 e8 01 3d 33 5b 95 3c
       0.007027034 0.011984669 0.03171564 0.018231964
000330 8f 4f 21 bd a4 9b 51 3c 3b 22 ae bb fa 5f 32 bd
       -0.039382514 0.012793455 -0.005314139 -0.04354856
000340 39 38 1a 3c 84 47 1b bd 0f 9b 07 bd ba 74 66 bd
       0.009412819 -0.03791 -0.03310686 -0.056263663
000350 ff 12 5b 3d 1e d9 2d 3d 4c bf 2f 3c 98 65 13 bd
       0.053484913 0.042443387 0.010726761 -0.03598556
000360 c0 7a bd bc ef 54 17 bd 08 77 cb bc 37 3f 15 bc
       -0.02312982 -0.036946233 -0.024837032 -0.00910931
000370 08 fe 5b 3c 62 e9 ef bc b2 f5 97 bc cb 61 f3 3c
       0.013427265 -0.02928609 -0.018549774 0.029709717
000380 f5 ae cd 3c 31 92 9f 3c 5c 8f 9c bc 9d 7c 05 3d
       0.02510784 0.01947889 -0.019111328 0.032589544
000390 5a dc 1e bd 5b da 6f bb 05 61 46 3d f1 e0 d4 bc
       -0.038784362 -0.0036598656 0.04843237 -0.025986167
0003a0 8f 32 1f 3d ae 0d 1f 3d 2a d3 50 bd d2 3e 94 3c
       0.038866576 0.038831405 -0.05098263 0.018096361
0003b0 4e 88 65 3d 55 48 5b 3c f9 9d 85 bc 0d 9a 40 bd
       0.056038193 0.0133839445 -0.016310679 -0.047021914
0003c0 d6 ef 22 bc 0a 6d 66 3d 56 ad 36 3d c5 e7 4d bd
       -0.009944877 0.05625633 0.0445989 -0.05026986
0003d0 23 3a 2c bd e2 eb 5d bd 45 6b ed 3c 14 d1 87 3c
       -0.04204763 -0.054180034 0.028981814 0.016579188
0003e0 c3 47 45 3c 8f 83 76 bb 9d c8 fc 3c 23 37 c7 3c
       0.012041035 -0.0037615036 0.030857379 0.024318283
0003f0 bf fc 86 3a 26 eb 42 bc 1b 0b 34 bd 26 93 3c bd
       0.0010298713 -0.011896884 -0.043955904 -0.04603877

weight f4 [200]
000000 ec 2e 81 3f 11 e3 80 3f 8e aa 7f 3f 02 41 84 3f
       1.0092444 1.0069295 0.9986962 1.0332339
000010 e6 48 80 3f 82 3e 81 3f 44 8c 7f 3f 4f a4 83 3f
       1.0022247 1.0097201 0.99823403 1.0284518
000020 24 f3 81 3f 4d 12 80 3f 76 9d 80 3f 0c 64 80 3f
       1.0152326 1.0005585 1.0048053 1.0030532
000030 e7 7d 81 3f 6f 9d 80 3f 1c 68 82 3f ef a2 81 3f
       1.0116547 1.0048045 1.0188022 1.0127848
000040 04 c0 81 3f c2 6f 80 3f 60 77 80 3f 8c cc 80 3f
       1.0136724 1.0034106 1.003643 1.0062423
000050 74 54 7f 3f ad 53 80 3f 5e d5 80 3f 46 4b 81 3f
       0.9973824 1.0025536 1.0065114 1.0101097
000060 85 ea 82 3f 01 7f 80 3f e7 38 83 3f ab 4a 82 3f
       1.022782 1.0038759 1.025174 1.0179037
000070 0c be 80 3f b5 e4 80 3f d6 35 81 3f fc 41 81 3f
       1.0057998 1.0069796 1.0094554 1.0098262
000080 f9 99 80 3f b9 53 80 3f c9 7f 80 3f 74 e7 7f 3f
       1.0046989 1.002555 1.0038997 0.99962544
000090 bd d0 80 3f 86 19 81 3f 6b c3 84 3f 1e 2a 80 3f
       1.0063702 1.0085914 1.0372137 1.0012853
0000a0 d4 d4 81 3f 0e 36 80 3f 08 35 80 3f 78 43 80 3f
       1.0143075 1.0016496 1.0016184 1.002059
0000b0 0a 36 81 3f d9 42 82 3f 40 8a 82 3f a3 b0 81 3f
       1.0094616 1.017665 1.019844 1.013203
0000c0 5c 80 80 3f 2b c2 80 3f ce b5 81 3f 97 c3 80 3f
       1.0039172 1.0059255 1.0133607 1.0059689
0000d0 42 bd 83 3f 97 48 80 3f 61 1c 82 3f 4c 26 7f 3f
       1.0292132 1.0022153 1.016491 0.9966781
0000e0 62 cd 7f 3f f8 49 80 3f 99 cd 7f 3f be 47 84 3f
       0.99922764 1.0022573 0.9992309 1.0334394
0000f0 e8 cb 83 3f 3d 4d 7e 3f 00 58 7f 3f cc 3b 83 3f
       1.0296602 0.99336606 0.9974365 1.0252624
000100 ef 36 81 3f c0 9d 80 3f c1 58 80 3f 9c 31 83 3f
       1.0094889 1.0048141 1.0027086 1.0249515
000110 56 9e 80 3f 13 c4 80 3f f7 32 82 3f fd 0c 82 3f
       1.004832 1.0059837 1.0171803 1.0160214
000120 0f 7f 80 3f 61 c7 81 3f ee 6f 82 3f dd 4d 80 3f
       1.0038775 1.0138971 1.0190408 1.0023762
000130 a6 4f 80 3f e0 ce 7f 3f b2 74 84 3f fb c6 80 3f
       1.0024307 0.9992504 1.0348113 1.0060724
000140 b7 36 82 3f 87 6e 81 3f d0 a3 80 3f 9b 99 7f 3f
       1.0172948 1.0111855 1.0049992 0.9984376
000150 fe af 80 3f 5b bc 80 3f bb f8 80 3f c2 a9 80 3f
       1.0053709 1.0057482 1.0075907 1.0051806
000160 b9 38 80 3f a3 22 81 3f aa 06 81 3f fc ca 81 3f
       1.001731 1.0088695 1.0080159 1.0140071
000170 d1 92 7f 3f 79 81 83 3f 40 85 7f 3f d1 a4 7f 3f
       0.998334 1.0273887 0.998127 0.99860865
000180 29 cd 80 3f 4e 71 82 3f c0 b2 80 3f bd be 82 3f
       1.006261 1.0190828 1.005455 1.0214459
000190 94 1e 81 3f e8 c9 81 3f b3 f1 82 3f 61 56 80 3f
       1.0087457 1.0139742 1.0230011 1.0026361
0001a0 03 e8 82 3f ca 8e 82 3f c2 12 81 3f f5 b0 7f 3f
       1.0227054 1.0199826 1.008385 0.9987939
0001b0 f2 14 81 3f 11 6f 80 3f d7 97 80 3f 71 bc 7e 3f
       1.0084517 1.0033895 1.0046338 0.9950629
0001c0 e0 22 81 3f 36 6b 7f 3f df 87 81 3f 15 ac 7f 3f
       1.0088768 0.99772966 1.011959 0.9987195
0001d0 38 dc 80 3f d9 15 82 3f 27 30 80 3f 77 d4 81 3f
       1.0067205 1.0162917 1.0014695 1.0142964
0001e0 d5 c1 80 3f 5b be 80 3f 47 74 80 3f bc cc 82 3f
       1.0059153 1.0058092 1.0035485 1.021873
0001f0 79 58 81 3f 4d 19 81 3f b6 72 81 3f 10 ff 80 3f
       1.0105125 1.0085846 1.0113132 1.0077839
000200 57 c1 80 3f 97 55 80 3f 03 61 80 3f 6c bd 81 3f
       1.0059003 1.002612 1.0029606 1.0135932
000210 8e d7 82 3f e6 fb 80 3f 38 93 81 3f 2d 46 83 3f
       1.0222032 1.0076873 1.0123053 1.0255791
000220 8b 19 82 3f 4a 32 82 3f 58 71 80 3f b7 1a 81 3f
       1.0164045 1.0171597 1.003459 1.0086278
000230 d9 c1 82 3f 12 4c 83 3f 7a 7a 80 3f 84 ad 80 3f
       1.0215408 1.025759 1.0037377 1.0052953
000240 9c 63 80 3f ee 79 80 3f 3d 18 81 3f f1 7b 84 3f
       1.0030398 1.003721 1.0085522 1.0350324
000250 e4 af 80 3f 56 c9 81 3f 9d 54 80 3f d5 02 80 3f
       1.0053678 1.0139568 1.0025822 1.0000864
000260 ed fc 7e 3f 2b fe 80 3f b7 c0 81 3f a5 91 80 3f
       0.99604684 1.0077566 1.0136937 1.0044447
000270 29 35 82 3f 1e 09 82 3f 4a aa 81 3f 9a 1f 80 3f
       1.0172473 1.0159032 1.0130093 1.0009644
000280 f3 fe 82 3f fd 13 82 3f 53 f6 80 3f 32 37 80 3f
       1.0234054 1.016235 1.0075172 1.0016844
000290 ad 59 80 3f 0b 88 80 3f 49 cf 80 3f c3 39 83 3f
       1.0027367 1.0041517 1.0063258 1.0252002
0002a0 66 8c 80 3f 52 c0 7f 3f 46 fd 80 3f 21 a9 80 3f
       1.0042846 0.9990283 1.0077293 1.0051614
0002b0 f8 99 80 3f ac ba 81 3f 57 dc 80 3f 6e 2e 82 3f
       1.0046988 1.0135093 1.0067242 1.0170419
0002c0 1d d7 81 3f 01 1d 7f 3f e8 43 82 3f 2c 41 80 3f
       1.0143772 0.9965363 1.0176973 1.0019889
0002d0 59 d7 80 3f 95 3f 82 3f 85 dc 80 3f e1 39 81 3f
       1.0065719 1.0175654 1.0067297 1.0095788
0002e0 ed cd 80 3f 92 af 81 3f 87 0b 80 3f 94 27 81 3f
       1.0062844 1.0131705 1.0003518 1.0090203
0002f0 4a 66 82 3f 93 65 80 3f b1 cb 81 3f 96 8d 81 3f
       1.0187466 1.0030998 1.0140287 1.0121334
000300 52 4d 84 3f 03 53 82 3f 3a 59 80 3f 99 1b 81 3f
       1.0336096 1.0181583 1.002723 1.0086547
000310 b7 07 81 3f 26 1f 81 3f 4f 62 81 3f 01 4c 80 3f
       1.0080479 1.0087631 1.0108126 1.0023195

bias f4 [200]
000000 25 26 2b 3b a0 15 85 bb 39 fd d0 3a 1d 12 95 3b
       0.0026115265 -0.004061416 0.0015944607 0.0045492784
000010 4e aa a0 3b 3e 59 0e bc 15 98 85 3b 65 0f e2 bb
       0.0049031144 -0.008688269 0.0040769675 -0.006898808
000020 7e 3b c5 ba 30 ff 38 3b 33 13 eb 3b cd 3b 49 bb
       -0.0015047637 0.0028228275 0.0071739196 -0.003070581
000030 f0 ed 37 bc f5 b1 b0 bb 13 2c b0 bb ae 1a 9c 3b
       -0.011226162 -0.005392308 -0.005376348 0.0047639227
000040 b9 56 e4 3b c1 ac db 3a b6 82 31 3b 40 5c 44 3c
       0.006968346 0.0016759859 0.0027085966 0.011984885
000050 46 aa 10 bb c8 d8 64 bb 22 1b 03 3c 4d 01 0d 3c
       -0.0022074147 -0.003491925 0.008002074 0.008606267
000060 0b 26 88 3b 6f 81 d0 bb df 04 03 3c 9b 2c 04 3c
       0.0041549257 -0.006363086 0.007996767 0.008067275
000070 21 c8 ad 3b ab a4 9f b8 f7 ad a6 bb 27 b7 2f b8
       0.0053033982 -7.6123826e-05 -0.005086656 -4.1893825e-05
000080 8b d2 51 ba bc d4 8b bb 0c b6 97 bb 21 92 5b bb
       -0.00080040906 -0.0042673033 -0.004629856 -0.0033503848
000090 05 39 bd 3b 1c 9a cc 3b b4 6b 14 bc 52 95 cb ba
       0.0057746195 0.006243957 -0.009058882 -0.0015532172
0000a0 bc cd 9c 3b 31 e1 d6 39 e4 dd c8 bb d4 2f 9c 39
       0.0047852676 0.0004098504 -0.006129967 0.00029790273
0000b0 4e fc 1b 3c 1d f5 14 bb af 2c bd 3b eb 10 b9 39
       0.009520603 -0.0022729107 0.005773149 0.00035298555
0000c0 7c 67 13 ba fc 29 86 bb 69 01 9f 39 d5 f4 0d 3c
       -0.00056230254 -0.0040943604 0.00030327894 0.00866433
0000d0 bc 33 8d bb 75 59 a9 bb da f9 67 bc 96 c3 cd ba
       -0.0043091457 -0.005168135 -0.01415869 -0.0015698548
0000e0 ce 38 dd 3a 86 f4 4f bb 89 3f 2b ba c5 22 c6 3b
       0.0016877891 -0.003173144 -0.00065326 0.0060466253
0000f0 6c 3d 99 3b f8 5a 2e ba 8e 9c 4d bb 31 80 d0 3b
       0.0046765115 -0.00066511286 -0.0031373831 0.006362938
000100 03 a5 38 3c 1a 39 08 bc b8 7e e1 3b 6c 3e e6 38
       0.011269811 -0.008314395 0.006881561 0.000109788816
000110 df 98 d6 bb 80 b6 a7 bb f8 c7 3d bb 87 f0 15 bc
       -0.0065489854 -0.0051181912 -0.0028958302 -0.0091515845
000120 d2 55 99 bb f2 b2 12 3c 8f 36 0f 3b ee ee 0e 3c
       -0.00467942 0.008953797 0.0021852588 0.008723957
000130 aa 88 0e 3c f3 43 a9 3a 4e 1c 33 3c 0b 5b a4 bb
       0.008699575 0.0012913927 0.010932041 -0.005015736
000140 bc f5 0f 3b d0 8f 83 bb 30 d5 bf 3a 5c 6b f5 ba
       0.0021966537 -0.0040149465 0.0014635678 -0.0018724012
000150 c8 82 c4 bb 7a 9c 9c 3b 22 12 28 3c 7b ed 6a 3a
       -0.0059970357 0.0047793956 0.010258229 0.0008961779
000160 f1 4a 9b bb 9d 1d df 3b 43 5c fb bb 21 6b 04 bc
       -0.0047391583 0.00680895 -0.0076709106 -0.008082182
000170 d8 f5 bc 3b a4 7b eb bb 29 b4 ef 3b 8b 0e 97 3b
       0.0057666115 -0.00718637 0.007315178 0.004609888
000180 de 62 17 bb 87 96 05 bc 16 09 ff bb 12 52 ce 3b
       -0.00230997 -0.008153564 -0.0077830656 0.0062964046
000190 3b be ba 3b 52 d9 28 bb 93 31 1a bc 6f b5 96 3b
       0.005698947 -0.0025764299 -0.0094112335 0.0045992653
0001a0 b7 3e 65 3b 81 e5 cc bb b9 08 16 bc 05 2b dc 3b
       0.0034980008 -0.006252945 -0.009157353 0.0067189955
0001b0 73 b6 13 ba 19 98 ab 3b 96 20 69 bb 36 4d 70 3b
       -0.0005634792 0.0052366373 -0.0035572401 0.0036667115
0001c0 73 29 27 bc 1d cc 1b bb 74 4a 28 3b f0 f1 71 3b
       -0.010202753 -0.0023772784 0.0025679143 0.0036917888
0001d0 26 cb 9d ba fd 45 c4 3b 6e a1 bf bb 77 a9 09 3c
       -0.0012038692 0.0059897886 -0.0058481013 0.00840222
0001e0 59 68 bf 3b c3 b1 c6 bb 6b 7a d1 3b 8a eb 04 3c
       0.0058412966 -0.0060636713 0.006392767 0.0081127975
0001f0 7d 03 09 bc a7 73 aa 3b ad 15 d0 bb 9a bd 05 3c
       -0.008362648 0.005201775 -0.00635024 0.00816288
000200 80 9d 79 3b c5 2d 7b bb 73 35 f7 bb 60 2e a6 bb
       0.0038088262 -0.0038326841 -0.0075442134 -0.0050714463
000210 9a 6f c2 bb 7f 80 14 3b f1 f5 d9 bb 64 06 a3 bb
       -0.005933714 0.0022659597 -0.006651633 -0.004975127
000220 2e 53 eb bb 75 c2 a1 bb 9d f8 04 bc b4 67 1a bc
       -0.0071815467 -0.004936511 -0.008115915 -0.009424139
000230 32 82 c8 bb 46 48 d8 bb 35 d1 92 bb 8f 3e 3b 3b
       -0.006119036 -0.0066004125 -0.004480506 0.0028571223
000240 7a 3e 18 3b 63 85 4a 3b 14 31 87 ba 7d fe 03 3c
       0.0023230598 0.0030902259 -0.0010314309 0.00805628
000250 ac 45 2a 3c f3 69 06 3c 03 ce b9 bb e8 96 e3 3a
       0.010392588 0.008203971 -0.0056703105 0.0017363699
000260 ba 00 b4 38 bc 18 e6 3a a6 e4 5e 3b 06 ea 61 bb
       8.583204e-05 0.0017554979 0.0034010797 -0.0034471764
000270 f2 5b ad 3a ef 52 10 3c 78 98 1e bb 00 72 d0 39
       0.0013226254 0.008808835 -0.0024199765 0.00039757788
000280 b0 cc d3 bb 23 c1 29 bc ac dd e7 3b 40 31 ab bb
       -0.0064636096 -0.010360989 0.007075986 -0.005224377
000290 73 47 8a 3a 5e 8e 7c bb da 57 c4 bb ec c1 f9 bb
       0.0010549858 -0.0038537006 -0.005991918 -0.0076219942
0002a0 47 73 06 3b da ef 0d 38 8a 33 14 3c c9 9b cc 3b
       0.0020515488 3.38404e-05 0.009045491 0.006244157
0002b0 ed 9b 0a 3c 4b 39 87 3b 07 aa df 3b 2b 2c 83 bb
       0.008460027 0.004126703 0.0068256888 -0.004003068
0002c0 4a 2b d7 bb d1 bc a7 b8 0a 9c 11 bc e2 ac 01 bb
       -0.0065664398 -7.99835e-05 -0.0088873 -0.0019786884
0002d0 40 fd 31 ba 6a 22 01 3c 45 55 dc bb 8e 27 0d bb
       -0.00067897514 0.00788174 -0.006724032 -0.002153847
0002e0 c0 5e 2b bb f7 0a 87 bc 89 83 be 3b c4 d9 65 3b
       -0.0026149005 -0.01648472 0.00581402 0.0035072425
0002f0 38 9f ba 3a 28 17 d3 3b c8 e1 ac bb 36 8e b5 bb
       0.0014238125 0.0064419694 -0.0052759387 -0.0055406345
000300 5d 58 d5 3b bd 2a b5 39 27 88 0d 39 95 97 59 3b
       0.006510778 0.00034554853 0.00013497529 0.0033201922
000310 0b da 98 3b 4e 75 e4 bb 86 f1 00 3c 7b 6f 18 bc
       0.0046646646 -0.0069719916 0.007870084 -0.009303923
