testbed/models_v8/output_layer.pt (torch, 182552 bytes, 3 tensors)

weight f4 [200, 214]
000000 77 a1 07 3d 20 d4 38 bd 0a 35 4b bc ca 34 c7 3c
       0.03311297 -0.045124173 -0.012402782 0.024317164
000010 45 d9 13 bd c9 49 09 3d 1e 63 09 bd dc b9 6f 3d
       -0.036095876 0.033517633 -0.03354179 0.05852686
000020 93 6f 38 3d 79 8a 44 3d 68 9f 88 bd f6 44 47 3b
       0.04502828 0.04798362 -0.06671029 0.0030406094
000030 e6 ca 24 bd b5 f8 5d 3d c9 5a 47 bd 15 53 50 bd
       -0.04023256 0.054192264 -0.048670564 -0.050860483
000040 99 bd a9 bc f7 e2 32 3d 89 f4 7d bd a6 50 6f 3d
       -0.02072029 0.04367348 -0.062000785 0.05842652
000050 31 22 c5 bc 9a 1a 5e 3d e3 0e 09 3d ce 28 ff 3c
       -0.024064155 0.054224588 0.033461463 0.031147387
000060 5c 16 14 bd 00 4f 82 3c bf c2 76 3c 20 d1 29 3d
       -0.036154136 0.01590681 0.0150610795 0.041459203
000070 40 29 48 bd a7 0e 42 bd 04 cf 80 3d 50 b0 22 bd
       -0.048867464 -0.047377255 0.06289485 -0.039718926
000080 07 7f 02 bd 2c 72 10 bd 97 17 48 3d 98 04 1c 3c
       -0.031859424 -0.035265133 0.048850622 0.00952258
000090 39 a5 5e bd 0d 5f 2a bd 9b 7f 72 3d c8 a7 10 bd
       -0.054356787 -0.041594554 0.059203725 -0.03531626
0000a0 af 9b 23 3d 3e 51 7a bd 7e ef 82 bd 1c fc 88 3d
       0.039943393 -0.061112635 -0.06393336 0.06688711
0000b0 26 f9 e4 3c cc 77 83 bd 8a a3 81 bd 88 14 83 bd
       0.027950834 -0.06419334 -0.06330021 -0.064004004
0000c0 e8 4c 2a 3d 08 2a 7e bd 5e 20 09 bd fa 04 59 bd
       0.04157725 -0.062051803 -0.033478133 -0.05298326
0000d0 6f e4 cc 3c 48 11 d1 bc 04 02 64 bd 2b 25 01 bd
       0.02501127 -0.025520936 -0.055665985 -0.031529587
0000e0 f9 15 08 bd 26 12 54 bd e9 c1 2f bc 51 3e 83 bd
       -0.03322408 -0.05177512 -0.010727384 -0.0640837
0000f0 de 05 b9 bc cf 73 14 3b 0c 8c 68 bd 87 c6 63 bc
       -0.022585806 0.0022652035 -0.056774184 -0.013902313
000100 f7 84 0e 3b 2c fb b9 3c 32 56 6d 3d 89 75 f1 bc
       0.0021746734 0.022702776 0.05794353 -0.02947499
000110 77 b4 8b 3d 0c ca f8 bc eb 46 31 bd c4 89 17 3b
       0.0682153 -0.030369781 -0.043280523 0.0023122886
000120 b0 e2 80 3d 6f 94 f1 3c 40 ea 53 bc 92 cf bd 3c
       0.06293237 0.029489724 -0.0129342675 0.023170266
000130 57 ba 89 3d 58 18 01 bd 2e 16 03 bd c2 08 df bc
       0.06724995 -0.031517357 -0.032003574 -0.027225856
000140 a8 6e d4 bc 09 a3 26 3d 52 5e 88 3c 5a 99 39 3d
       -0.025931671 0.040682826 0.016646538 0.045312263
000150 86 37 5a 3d b9 56 63 bd 54 76 c8 3c 86 b5 a6 bc
       0.053275608 -0.055502627 0.024470486 -0.020350229
000160 15 c0 5d 3d 87 20 e8 3b 5a cc e2 bc 97 88 88 bb
       0.05413826 0.0070839557 -0.027685333 -0.0041666734
000170 e2 7c 7e 3d aa 6d 09 3d b8 5d 57 bd 63 d3 85 3d
       0.062130816 0.03355185 -0.05257961 0.065344594
000180 eb 43 7b bd 55 a9 41 3d 56 88 0f bd 23 6f b0 3c
       -0.06134407 0.04728063 -0.03504213 0.02153737
000190 73 c4 7c 3d 8f 27 fd bb 7f 78 83 3d 28 4b 93 3c
       0.061710786 -0.007725663 0.06419467 0.017980173
0001a0 c7 7b f3 3c 16 f5 1b 3b d8 12 fd bc e1 c5 6a bd
       0.029722108 0.0023797206 -0.030892774 -0.05731762
0001b0 a1 c3 2d bd 94 7f 2e ba 6c 95 41 bc 09 23 82 3d
       -0.042422894 -0.0006656584 -0.01181541 0.06354339
0001c0 a0 5c 3c bc 09 59 12 bc 1b aa c4 bc 9c 0f 55 3d
       -0.011496693 -0.00893236 -0.024006894 0.05201684
0001d0 e8 93 25 bd d5 4e cb 3c eb e0 ab bc 5f 12 85 bd
       -0.040424258 0.024817863 -0.020981273 -0.06497645
0001e0 ca 56 92 bc 82 6f 55 bd 87 31 4a bd 8e 08 3b 3d
       -0.01786365 -0.052108295 -0.04936364 0.045662455
0001f0 66 4f 06 3d 97 e1 ca bc 20 63 65 3d 86 be 42 3d
       0.032790564 -0.024765773 0.056002736 0.04754498
000200 35 bc 5c bd 46 c9 82 3d 81 34 d5 3c dc 6c 5a 3d
       -0.053890426 0.06386046 0.026026012 0.053326473
000210 39 9b 26 bd aa a4 88 3d 88 01 5f 3d 82 f5 3d 3d
       -0.040675376 0.06672032 0.05444482 0.046376713
000220 7a 9d 42 3d dc f2 82 3d 90 eb 34 bd 70 41 5d 3d
       0.047513463 0.06393978 -0.044169962 0.054017484
000230 08 b2 cc 3c d9 e5 0e 3d 3e 4b 67 3d ae 3d 47 bd
       0.024987236 0.03488717 0.05646824 -0.048642807
000240 7a d6 44 bd 44 ec 06 3d bc b0 60 3d 63 6a 2a 3d
       -0.048056103 0.032940164 0.054856047 0.041605365
000250 ff 86 35 3d 79 55 7b bd e2 8b 45 3d 70 80 b6 bb
       0.044318195 -0.06136081 0.048229106 -0.00556951
000260 cb b7 3d bd 3a 6b 6c 3d cc 1a 0b bd b2 57 f2 3c
       -0.046317857 0.057719447 -0.033961102 0.029582832
000270 1f 5d 5b 3c 9f bd 9d 3c c0 47 76 3d d2 1b 8e 3c
       0.013388901 0.019255457 0.06012702 0.01734725
000280 9e 2f 49 bd b3 83 a0 3c ce 03 48 3d d2 96 2d 3d
       -0.049117677 0.01959405 0.048831753 0.04238016
000290 39 db 19 bd d1 31 21 3d f0 18 83 3d 09 28 88 bd
       -0.037562583 0.03935415 0.06401241 -0.06648261
0002a0 a3 f3 4a bd 08 ef a2 3c e6 91 34 bd f0 b0 8b bd
       -0.049548756 0.01988937 -0.044084452 -0.068208575
0002b0 e4 ec 88 bb a1 c5 5a bb 95 6f e5 3c 82 b3 15 ba
       -0.00417863 -0.0033381956 0.028007308 -0.00057106477
0002c0 55 05 4b bd b3 31 12 3d 83 79 78 bd 09 ac 18 3d
       -0.049565632 0.035691928 -0.060662758 0.03727344
0002d0 7b 38 4e 3c 1e 37 79 3d 08 dd 13 bd 71 c0 2c bc
       0.012586708 0.06084358 -0.036099464 -0.0105439285
0002e0 8e b6 9a bc da 93 61 bd 07 19 26 bd 08 28 16 3d
       -0.018885877 -0.055072643 -0.04055121 0.03665927
0002f0 a6 c3 13 3d 36 33 a8 bc 13 99 aa ba ff fb 1a bc
       0.036075257 -0.020532232 -0.001301559 -0.009459495
000300 89 ce 44 bd dc fc 05 bd 49 2f d2 bc 52 64 6c 3d
       -0.04804853 -0.03271185 -0.025657313 0.05771286
000310 0e e8 4b 3d f8 40 83 3d 92 a2 17 3d 81 ec a4 bc
       0.04978185 0.06408876 0.037020274 -0.020132305
000320 89 8f 80 bd 6f d9 dc 3c ac 8c 3a bd 7e 2c 11 3d
       -0.06277377 0.02695915 -0.04554431 0.03544282
000330 a3 14 03 bd 67 11 43 3d 3d 62 84 bd 58 d6 8c 3d
       -0.032002103 0.047624018 -0.0646405 0.0687682
000340 16 45 64 3d 1d e5 23 bd 45 14 28 bd 7c fe 5b 3d
       0.055729948 -0.04001342 -0.041034956 0.053709492
000350 6c a4 6d 3d a5 e1 a8 bb e5 be 5c 3c 69 d4 7d 3d
       0.058018133 -0.005153852 0.013473247 0.06197015
000360 4e b5 25 bc 00 ad bd 3b 5b 82 a4 3c b4 e9 3b bd
       -0.010114027 0.0057884455 0.02008169 -0.045877174
000370 04 1d 5f bd 72 71 08 3d 85 da 60 bd 57 00 77 bd
       -0.05447103 0.033311315 -0.054895896 -0.06030306
000380 14 67 5e bd 3b 51 17 3d 63 e2 04 3d c8 c9 db 3c
       -0.05429752 0.0369427 0.03244246 0.026829615
000390 b8 cd 02 bd b2 ed 92 3d 14 ca a2 bc 4a 9f c5 3c
       -0.03193447 0.07174243 -0.019871749 0.024123807
0003a0 2c a9 5c bd 73 e2 9c bc 6f 77 93 3c 0e a5 81 bd
       -0.053872272 -0.019150948 0.018001286 -0.0633031
0003b0 c0 d4 04 bd 7f 45 3e bd fc bf d3 3c 8a 6f 50 3d
       -0.032429457 -0.046452995 0.025848381 0.050887622
0003c0 da 3d 98 bd 20 75 0d 3d 80 2a 36 3c d0 da 88 3d
       -0.07433672 0.034535527 0.011118531 0.0668236
0003d0 69 6b 90 bc bc 9d 81 3d 8d 7a 27 bd 7d 3d ec bc
       -0.017629342 0.063289136 -0.040888358 -0.028837914
0003e0 74 a4 d6 3c 25 88 b5 3c 69 6a 13 3b 3b fd 37 bc
       0.026201464 0.022159645 0.0022493845 -0.011229808
0003f0 dc 4c 07 3d 22 2e 56 bd 9f 22 f3 3c c6 09 35 bd
       0.033032283 -0.05229009 0.029679595 -0.044198774

bias f4 [200]
000000 a7 68 52 bd c6 e6 b1 bc b8 d8 78 bc 07 66 12 bc
       -0.051369336 -0.021716487 -0.0151883885 -0.008935458
000010 9e 0e 46 3d 09 12 d0 3b ae 26 93 3c a9 9b 54 bd
       0.048353784 0.006349806 0.01796278 -0.05190626
000020 bb 08 3e bd ae c7 9b 3b 24 02 5e 3d ce d0 a9 3d
       -0.046395045 0.0047540283 0.05420126 0.082917795
000030 0c 85 80 bd de ba dc bc 05 52 55 3d 34 16 26 3d
       -0.06275377 -0.026944574 0.052080173 0.04054852
000040 67 b6 72 3c 35 5c d2 bc 3e 54 74 bc 04 fc b3 bc
       0.014813996 -0.025678733 -0.014912663 -0.021970756
000050 dc dd 99 bc 7f a4 4b 3d d9 11 5b bd a5 e5 3b 3d
       -0.018782549 0.049717423 -0.053483818 0.045873303
000060 ab 07 c5 bc 54 72 0c bd df 88 da 3c bc 16 24 bd
       -0.024051508 -0.03428872 0.026676593 -0.040060744
000070 e6 d2 cd 3b 97 70 6f bc f6 fd b4 bc a0 30 35 3d
       0.0062812446 -0.014614246 -0.022093754 0.044235826
000080 2d 4f 0b bd 69 00 c7 3c cf c1 84 bd 87 27 97 bc
       -0.034011055 0.024292188 -0.064822786 -0.018451465
000090 8a 92 5d 3d bf 72 70 3c 89 f1 f8 bc 02 15 3e bd
       0.05409483 0.014675795 -0.03038861 -0.046406753
0000a0 71 0d 85 3a 14 c0 f8 bc 27 89 26 3d 9c 59 6b 3d
       0.00101511 -0.030365027 0.040658142 0.057458505
0000b0 42 b7 12 bd 4e b6 96 bd 00 c7 d8 3c 86 50 64 3d
       -0.0358193 -0.073589906 0.026462078 0.055740856
0000c0 df 82 02 bd ff ab b1 3c 99 f5 40 3c 71 6c 17 3a
       -0.03186309 0.02168846 0.011777305 0.0005776352
0000d0 fa a2 0a bd 0d e4 b5 3c 09 18 f9 bc d1 e9 2b bd
       -0.033846833 0.02220347 -0.030406969 -0.04197103
0000e0 2e 6a 82 3d 4b 8a f3 3b 54 56 8d 3d 10 3f 09 3c
       0.063679084 0.0074322573 0.069012314 0.008376852
0000f0 01 63 2a 3d 9b 02 31 bd cf d8 3a 3d 13 48 a1 bc
       0.041598324 -0.043215375 0.04561692 -0.019687688
000100 ff c6 2d 3d cb d1 11 bd 20 59 16 bd 6d 7f 4f 3c
       0.042426106 -0.035600465 -0.03670609 0.012664658
000110 09 47 95 3d df 38 20 3d b3 e3 5d 3d 42 42 01 bc
       0.072889395 0.039116737 0.05417223 -0.007889332
000120 55 a0 ba 3c 45 10 8f bd 1a df 06 bd 57 1f 38 3d
       0.02278153 -0.06985525 -0.03292761 0.044951763
000130 7d 75 3f bd 47 dd 77 3d 6b d4 14 bd 35 d0 e4 3c
       -0.046742905 0.06051376 -0.03633539 0.027931312
000140 95 d9 84 3c 34 6d 60 bc df 25 0e 3d 97 b6 29 3d
       0.016217032 -0.013697911 0.034704085 0.041433897
000150 71 86 07 bd 12 07 0a bd 6e 4a f2 bc f3 fd 70 bd
       -0.033087198 -0.03369815 -0.029576506 -0.058835935
000160 91 33 7a 3d 1f f7 8d 3c 4a 97 7a 3d b4 25 13 bd
       0.061084334 0.01732975 0.061179437 -0.03592463
000170 bc 99 2b bd b3 45 a0 3b 3e 0a bb 3c fd da 75 3d
       -0.04189466 0.0048911213 0.022832032 0.060023297
000180 66 3e 13 3d a7 cb 26 bd 59 ff 5b 3d b8 c1 39 bd
       0.03594818 -0.04072156 0.053710315 -0.04535076
000190 9a 6f 3c 3d 2f 79 fe bb 3c 1b e3 bc 3a 68 ec bb
       0.04600487 -0.007765911 -0.027722947 -0.007214573
0001a0 77 c8 b0 bc 38 08 93 3c 01 06 1f 3c 4e 93 0e bd
       -0.021579964 0.017948255 0.009706021 -0.03480845
0001b0 46 5a 41 3c 17 39 8e bb f8 33 b9 bc e1 c1 16 bc
       0.011801308 -0.0043403017 -0.022607788 -0.009201498
0001c0 ff 5c d3 3c cd ef 5c 3d 21 82 35 bd b9 bb ae 3c
       0.02580118 0.05393963 -0.044313554 0.021329748
0001d0 aa 32 11 3b 4e e4 a8 3c 36 fa 49 3c b5 d7 69 3c
       0.0022155442 0.020616677 0.012327721 0.01427262
0001e0 b0 71 d6 3c 6f df 61 bd f3 82 24 bd c8 ac b5 3b
       0.026177257 -0.055144724 -0.040163945 0.005544279
0001f0 12 d9 a0 bc ef 46 76 3d 10 58 cd bc 6f 2d 68 3d
       -0.019634757 0.06012624 -0.025066406 0.056683954
000200 57 ea 19 3c 5e 5b 34 bd 2f 64 d0 3b 7b 3f 54 bd
       0.00939425 -0.044032447 0.006359599 -0.051818352
000210 5e 11 a0 bb 92 94 33 bd 45 1c 04 3d 1e 10 3a bc
       -0.004884883 -0.04384286 0.032253522 -0.011356382
000220 c2 14 29 3d 40 65 06 3d a0 f1 b1 39 e4 49 4a bd
       0.04127956 0.032811403 0.00033940095 -0.049386874
000230 b1 af 85 bd c0 7f 19 bd f7 0d 0d 3c 0e 18 2a bd
       -0.06527651 -0.037475348 0.0086092865 -0.041526847
000240 f8 1a 3c bd 79 40 94 3c 3a 12 35 bd 64 8f e0 3c
       -0.045924157 0.01809715 -0.044206835 0.027412124
000250 85 d7 92 3d 90 a0 3c bd b4 49 14 3d ed d2 20 3d
       0.07170013 -0.04605156 0.0362031 0.039263655
000260 3c c9 32 3d af 2a fc bb 55 6f 28 bd 82 ed 42 3b
       0.043648943 -0.007695518 -0.0411218 0.0029743616
000270 b4 fb 8d 3d fb 93 84 bc fc c2 e6 ba 13 14 4a bd
       0.06932774 -0.016183844 -0.0017605717 -0.04933555
000280 33 d3 d7 bc b4 e2 73 bd 2f 14 14 bd 6d 57 25 3c
       -0.026345825 -0.059542373 -0.03615206 0.010091645
000290 90 fd 7b 3d f2 54 99 3c 1f 5c 45 bc dd c2 0c bd
       0.061521113 0.018717263 -0.012045889 -0.034365524
0002a0 07 ef 6a 3b e7 79 06 3d 55 4a 2d bd 17 0b 5c bd
       0.0035848038 0.0328311 -0.042307217 -0.053721514
0002b0 2a 16 db bc 29 b0 69 3d f4 15 81 3d 06 c3 47 bd
       -0.026743967 0.057052765 0.06303015 -0.048769973
0002c0 1a 8b 12 bd c7 80 63 3d 6d c9 07 3d 89 22 b3 3b
       -0.03577719 0.055542734 0.03315108 0.0054667634
0002d0 68 de 53 3d 5a 53 08 bd 65 e4 ef bc b4 81 4f bd
       0.051725775 -0.033282615 -0.029283712 -0.050660804
0002e0 d3 38 63 3d eb 91 92 bd 4b a4 30 bc fc b9 b1 bc
       0.055474114 -0.07156738 -0.010781358 -0.02169513
0002f0 ab 24 66 3d 26 b1 a2 bc 76 c2 de 3a 50 aa 63 bd
       0.056187313 -0.019859862 0.001699521 -0.055582345
000300 9a 62 b6 ba d8 c9 92 39 8e 7d ba 3b ed 02 06 3c
       -0.0013914884 0.00027997675 0.005691237 0.0081794085
000310 89 cd 48 3c 29 b3 52 bd 8a 0d 92 3c 51 36 86 bd
       0.012256035 -0.05144039 0.017828722 -0.06553329

weight f4 [1, 200]
000000 5b 5c 9c bc b5 d5 e5 bc bf 53 5b 3d 80 07 5c bd
       -0.019087007 -0.028056005 0.053546663 -0.05371809
000010 47 4d 86 bd ea 80 2e bd d8 b0 8e 3d d9 8f 8a bd
       -0.06557708 -0.04260341 0.06967324 -0.06765718
000020 78 c8 0c 3d b5 a6 00 3d 16 fc 03 bd 28 cc c3 3d
       0.03437087 0.031408984 -0.03222283 0.09560424
000030 9e 1d 50 3d 82 ed 5e 3d f1 cd 0d bd ec fe 29 bd
       0.050809495 0.054425724 -0.03462023 -0.041502878
000040 41 47 87 bd 29 8c 63 bc 5e e1 a0 3c 75 9b ac 3d
       -0.066053875 -0.013888397 0.019638713 0.084280886
000050 9a e6 3d 3d 99 c4 bc 3c 82 02 88 bd c1 2e 70 bd
       0.046362497 0.023042964 -0.06641103 -0.058638338
000060 92 c5 03 3d fc 5e ad 3d 97 f6 88 3d 0a 18 d6 3d
       0.03217084 0.084653825 0.06687658 0.10453804
000070 c8 f8 bb 3c 7e 9a c0 bc 69 23 07 bd 89 67 39 3d
       0.022945777 -0.023511168 -0.032992754 0.045264754
000080 1c 32 e2 3c 19 0f 45 3d bb 59 c0 ba 69 45 26 bd
       0.027611785 0.0481101 -0.0014675179 -0.04059354
000090 69 4b dd bc a0 3f 5f bd 78 5e df 3c 29 b9 98 3d
       -0.027013497 -0.054504037 0.027266726 0.074571915
0000a0 a3 b1 01 bd fb 17 e5 3c f8 fd 2e 3d 03 ee 64 bc
       -0.03166355 0.027965536 0.042722672 -0.013972762
0000b0 6e 4a ba 3d 63 32 16 38 95 50 49 bd ad 63 09 3d
       0.090962276 3.5809713e-05 -0.049149115 0.033542324
0000c0 c9 8c 60 3d 78 d0 31 bd 91 8e 5d 3d 62 c2 04 bd
       0.054821763 -0.043411702 0.05409104 -0.03241194
0000d0 94 b2 43 3d b1 43 43 bc c4 db d5 bc cb 4c bc 3d
       0.047777727 -0.011917994 -0.026105769 0.091943346
0000e0 61 33 e3 3c ca eb a6 3c 89 b7 8f 3d d3 fa a3 3d
       0.02773446 0.020376105 0.070174284 0.08006825
0000f0 1c 8d ed bb b8 d3 5d bd 66 97 32 3d e5 d8 47 bd
       -0.0072494876 -0.05415699 0.043601416 -0.04879083
000100 22 a3 13 bc 49 0e 89 3d 19 31 d0 bc 3c 94 fb bc
       -0.009011062 0.06692178 -0.025414037 -0.030710332
000110 cb 36 41 3d b1 64 29 3d 41 f9 46 bc e0 31 3e bb
       0.047171395 0.041355792 -0.012144388 -0.0029021427
000120 80 ee 5b bd 6d cc 88 bd 9d b4 8f 3d e2 08 82 bd
       -0.05369425 -0.06679616 0.07016871 -0.063493505
000130 a4 ce 27 bd b8 8c 26 3d 9e 7b 18 bd 79 20 12 bd
       -0.040968552 0.040661544 -0.037227266 -0.0356755
000140 04 37 83 3c e8 58 3d bd ac 92 0d 3e c6 63 5c 3d
       0.016017444 -0.046227366 0.13825482 0.05380609
000150 c6 86 f5 bb ed 3c 55 3d b9 bd 49 bd 89 25 cb bc
       -0.007492873 0.052060056 -0.0492532 -0.024798172
000160 66 0d 84 3d e7 f7 83 bd 81 cc 84 3d 9e cc 8f bd
       0.06447868 -0.06443768 0.064843185 -0.070214495
000170 02 d7 55 3d 77 2c a3 3c 84 76 b7 3d 9e de 9a bc
       0.052207 0.019918663 0.08958152 -0.01890498
000180 26 4e 8e 3d c5 e4 f7 bc 54 aa 16 bc 10 6d 05 3d
       0.069484994 -0.030260453 -0.009195883 0.032574713
000190 c1 43 54 3d c2 a9 8c bd 0e 35 a6 3d 75 94 dc bc
       0.051822428 -0.06868316 0.08115588 -0.026926259
0001a0 e3 50 e9 bc 9f 19 cc bc 2d e6 86 3d f7 33 35 bd
       -0.028480953 -0.02491456 0.06586871 -0.04423901
0001b0 15 b7 ec 3c 02 70 24 bd d7 8e 82 bb 88 40 23 3d
       0.028895894 -0.04014588 -0.003984313 0.039856464
0001c0 0c 1f 80 3d ce 65 2e 3d 74 e8 af 3d 81 51 19 bd
       0.06255922 0.042577557 0.08589259 -0.037431244
0001d0 a7 05 1a 3d 39 f5 0c bd 3c c9 73 bd b8 d4 9d 3d
       0.037603047 -0.03441355 -0.059518084 0.077065885
0001e0 0a f2 a3 bc 71 1e 0a bd 58 fc d6 3c f7 17 35 bd
       -0.020012874 -0.033720437 0.026243374 -0.044212308
0001f0 d0 3f 82 bd 3a 77 48 3d c1 79 8f bc 9b ca ec bc
       -0.063598275 0.04894183 -0.017514111 -0.028905204
000200 6d 2a 85 3c c1 f4 fd bb f9 83 66 3d 68 fb bf 3b
       0.016255582 -0.007750124 0.056278203 0.0058588274
000210 31 34 4f bd 5f f2 b4 bc 6b 37 f3 3c 9d 8b 9f 3d
       -0.050586883 -0.022088228 0.029689511 0.07790301
000220 82 76 17 3d 6f bf 91 3c 33 b0 d5 3c 22 4f f4 3d
       0.036978252 0.017791478 0.026084995 0.11929156
000230 25 2f a8 bc e0 65 56 bd b7 2b bf 3c e1 b1 62 bc
       -0.020530293 -0.05234325 0.023336275 -0.013836355
000240 21 48 57 bd 76 29 9b 3d bc cf bb bc cd c7 95 3d
       -0.05255902 0.075762674 -0.022926204 0.073134996
000250 9f 27 19 3d d3 7e 28 bd 5c b3 5f bd c2 d5 7b 3d
       0.0373913 -0.041136574 -0.05461441 0.061483152
000260 dd a4 5f 3d 84 c6 5b 3c 54 a8 55 bc 3e ed 9d 3c
       0.054600585 0.013414029 -0.013040621 0.019278165
000270 93 57 15 3d a4 c3 0c bd 1b e0 b0 bc 54 d3 69 bd
       0.03646047 -0.034366265 -0.021591237 -0.057086304
000280 53 17 a0 3d b7 26 d8 3c 60 7c 89 3d 93 0b 66 bd
       0.07816949 0.026385648 0.06713176 -0.05616338
000290 27 da 8e 3d 07 e5 63 3d dd 68 fc 3c 6d 61 43 bd
       0.06975203 0.05563834 0.030811721 -0.047700334
0002a0 b2 eb 5d bd 29 4f fc bc 21 ff 99 3c 92 bb 29 bd
       -0.054179855 -0.030799465 0.018798413 -0.041438647
0002b0 6f 05 ea bc ef 4e a1 3d f8 97 74 3d b8 eb aa 3c
       -0.028567044 0.078763835 0.05971524 0.020864353
0002c0 c6 3e cc 3d 16 89 38 3d 43 d6 b2 3c 31 e5 33 bd
       0.099729106 0.04505261 0.021830684 -0.043919746
0002d0 1b 2e 67 3d cc d0 8d 3c a0 45 b4 3c 1c fc 47 3d
       0.056440454 0.017311476 0.022005856 0.048824415
0002e0 f7 86 86 3d 15 19 76 bc 98 99 d4 bc 6d 22 82 bc
       0.06568711 -0.015020628 -0.025952145 -0.015885556
0002f0 de cf 43 3d 63 82 be 3d cc 54 e6 3d 39 ee 38 bd
       0.04780566 0.09302213 0.112466425 -0.04514906
000300 37 44 7f bd 87 dd 76 bd 24 f1 a3 bc 37 ee 2d bd
       -0.062320914 -0.06026986 -0.020012446 -0.042463508
000310 de a2 10 bd 15 04 2d 3d c1 e8 8b 3d b9 60 97 bc
       -0.035311572 0.04224022 0.06831504 -0.018478738
