ckpts/lstmcell_time.pt (torch, 493081 bytes, 4 tensors)

weight_ih f4 [600, 1]
000000 14 1f 0d 3d d2 54 b4 3d 33 18 24 3d a1 11 1f bc
       0.034453467 0.08805241 0.04006214 -0.009708793
000010 9f 52 9a bd e2 57 79 3d db 22 1d bd e1 54 0f 3e
       -0.0753529 0.060874827 -0.03836332 0.13997222
000020 18 b2 a7 bd 53 fe 35 3c 71 a8 2b 3d dd ba 8b 3d
       -0.081882656 0.011107999 0.041908685 0.06822751
000030 62 95 88 bd 64 65 c5 3c 42 01 7f 3c d3 1e ce 3d
       -0.066691175 0.024096198 0.015564265 0.10064473
000040 5c c3 78 3d 72 d5 43 3c 13 2a 04 3d ec 47 d3 bb
       0.060733184 0.011952745 0.032266688 -0.0064477827
000050 e7 f5 95 bb 2c 1a 47 3d 1a 96 f7 bc d1 2c 03 bd
       -0.004576433 0.048608944 -0.030222941 -0.032025162
000060 94 41 45 3c 12 53 e3 3b 95 84 cb 3c 60 81 24 bd
       0.012039561 0.006937393 0.024843493 -0.040162444
000070 7b 18 58 3c a9 80 65 3d 65 4b ac 3d 85 0a aa 3c
       0.01318943 0.056030903 0.08412818 0.02075697
000080 b6 d8 34 bd 93 8f 97 3b 75 f2 d8 bc 05 6a 8a bd
       -0.044151984 0.0046252697 -0.0264828 -0.06758503
000090 9d f8 98 3d bc a6 87 3d 48 83 ff 3d 17 1d 14 3e
       0.07469294 0.06623599 0.12476212 0.14464222
0000a0 f5 ed f1 3b e5 67 cb 3b a3 ec ea 3c de 32 bf 3d
       0.007383103 0.0062074536 0.02867729 0.09335874
0000b0 12 a8 42 bc 27 e8 5d 3d 64 63 45 3d c8 e9 18 bd
       -0.011880891 0.054176476 0.04819049 -0.037332326
0000c0 50 a0 c6 3c f3 42 a0 bc fe 81 61 3d 4f d2 02 3d
       0.024246365 -0.019563174 0.05505561 0.031938847
0000d0 92 da 34 bd d0 28 93 3d aa 95 ae ba 4a 4f e7 bc
       -0.044153757 0.07185519 -0.001331975 -0.02823605
0000e0 5d 0e ce bc b7 10 0e 3d 82 e2 0b bd a1 3c 8a 3c
       -0.025153333 0.03468391 -0.03415156 0.016874613
0000f0 c7 a8 b8 bc 2b 08 61 bc 84 25 01 be e2 90 fb bc
       -0.022541417 -0.013734858 -0.12611967 -0.030708734
000100 3e 83 a0 3c 70 ec e3 bb d9 ce fc bb c6 9e 09 bd
       0.019593831 -0.006955676 -0.007715088 -0.033598684
000110 14 40 87 3d bd fb 5f 3d 80 af 99 bd 39 2a a9 3b
       0.06604019 0.054683436 -0.07504177 0.005162504
000120 e0 80 1f 3d 72 0c 44 bd 01 14 5b 3a 7e aa 5e bd
       0.038941264 -0.04786343 0.0008357168 -0.054361813
000130 d3 3a 1e bd fb ae cb bc eb 7a af 3c 89 a2 f4 3b
       -0.038630318 -0.02486371 0.021420917 0.0074656648
000140 05 00 5e 3d cc 56 c7 3d f8 db ab bc bb a4 7f 3b
       0.054199237 0.09733352 -0.020978913 0.00390081
000150 15 ca d6 3b 03 89 14 bc 63 dc 36 bb 99 65 56 3d
       0.006554852 -0.009065869 -0.0027902357 0.052342985
000160 00 14 ff bb ef e6 c4 3c 5c da 49 bd 90 66 37 bc
       -0.0077843666 0.024035899 -0.04928051 -0.011193886
000170 86 9b 0c bd 0f 0e 70 bc 6e c3 85 bd bd 59 f5 bc
       -0.034328006 -0.014651789 -0.06531416 -0.029950017
000180 5d db c0 3d ce 0d a0 3c eb f1 83 3d e1 64 0d 3d
       0.0941684 0.019537833 0.064426266 0.034520034
000190 86 94 2f bd b9 cf 70 3d ff 7c 8b 3d bb 0a c4 bc
       -0.042866252 0.05879185 0.068109505 -0.023930898
0001a0 af c7 ae 3d 09 aa 05 bd b2 3e 94 bd bf d7 91 3d
       0.085341804 -0.03263286 -0.07238521 0.071212284
0001b0 02 35 d9 bc 01 f7 5e bc 9b 4b 34 3d 44 3f 1c bd
       -0.026514534 -0.013608695 0.044017415 -0.038146272
0001c0 01 13 f0 bc 24 92 06 3d 71 7f 06 3d 0e 5e e7 ba
       -0.029305937 0.032854214 0.03283638 -0.0017651932
0001d0 c1 01 fd bc a5 76 a8 3d 48 08 2b bd 7d 7b 9f bd
       -0.030884625 0.08225755 -0.041755944 -0.077872254
0001e0 5b 77 5c 3d d6 1e ab bb 78 52 d5 bc c6 e9 9f bd
       0.053824764 -0.005222182 -0.0260403 -0.078082606
0001f0 58 26 b9 3c d6 8e 7f 3d 56 86 1d bd be 57 bc bc
       0.022601292 0.06239208 -0.03845819 -0.022991057
000200 b1 d9 a0 3d dc 9b c0 3d ac 99 ab 3b 77 e7 3a bc
       0.07854021 0.09404728 0.005236825 -0.011407725
000210 b1 22 58 3c b9 fb 60 bd 25 a5 38 3d bd 6e bf 3d
       0.013191865 -0.05492756 0.04507937 0.093472935
000220 4e b5 26 3d 77 d5 1c bd f5 30 1b 3d dc 19 79 3d
       0.04070025 -0.038289513 0.037888486 0.060815677
000230 5b ec 56 bd 6e 54 cb bd c9 8a 4b bd bf 12 e7 3b
       -0.0524715 -0.09928213 -0.049692903 0.0070517953
000240 1b f7 8b 3d 12 81 c1 3c 5d 11 71 3d fc d7 1e 3d
       0.06834241 0.023621116 0.05885445 0.038780198
000250 65 f8 c8 bc 14 a9 a1 3d fd cb 0e 3c 53 73 18 bd
       -0.024532506 0.07893577 0.008715627 -0.037219357
000260 04 36 a0 bd 89 77 25 bd c4 ff c1 3c 63 8a 1d 3c
       -0.07822803 -0.0403972 0.023681529 0.0096155135
000270 07 96 67 3d 4d 0e 7a bc 90 a6 9f 3d b7 97 92 3d
       0.05653956 -0.015262199 0.07795441 0.071578436
000280 37 69 8c bc 80 22 25 3c be e9 b7 bc f9 51 b5 bd
       -0.017140014 0.010079026 -0.022450324 -0.08853526
000290 ce 6b f9 bc a8 6e a0 bd f3 b6 e9 3c 11 0a 56 bc
       -0.030446913 -0.07833606 0.02852962 -0.013063923
0002a0 0e 72 d6 3c 8e 55 a5 bd ac 37 0f 3d 8a 8b 3d 3d
       0.026177432 -0.08072959 0.034965202 0.046275653
0002b0 2c 0c 0f 3d 16 f6 72 3d b5 9c 09 bc ca 32 a4 3d
       0.034923717 0.059316717 -0.008399178 0.080175
0002c0 d2 8a ee bc 68 fa f7 3c cc 97 2a 3c 7d 7c 9f 3b
       -0.029118929 0.03027077 0.010412168 0.004867135
0002d0 83 f2 78 3d 96 85 fe 3c ac 81 50 bc bc 47 03 bd
       0.060778152 0.031069558 -0.012726229 -0.032050833
0002e0 c7 77 78 3d ea d9 1b 3c 4e a5 06 3d 16 4a 81 3b
       0.060661104 0.009512404 0.03287249 0.0039455993
0002f0 5b bd 73 bc c1 24 99 bb cd ff 20 3d 39 87 e5 bc
       -0.014876689 -0.004673571 0.03930645 -0.02801858
000300 a2 af 6b 3c 74 5d 0e 3d df 3d 7f 3c bb d5 92 3c
       0.014385136 0.034757093 0.015578716 0.01792418
000310 f9 20 17 3d 11 e5 92 bd bf 68 0d bd 69 92 ea bc
       0.03689668 -0.07172597 -0.03452372 -0.028634267
000320 1b 2b 84 3c 33 ad a8 3b c8 86 2a 3d 9f ac 0a bc
       0.016133836 0.0051476 0.041632444 -0.008464008
000330 e1 5d fe bb 55 a6 94 3b 99 e0 72 bc 02 1d 2d bd
       -0.007762656 0.00453643 -0.014824056 -0.042263992
000340 44 38 61 bc 26 20 96 3c 5a 82 25 3c d9 d8 aa 3c
       -0.013746325 0.018325876 0.010101879 0.020855354
000350 97 36 aa bd 16 22 98 bb 74 ab 80 bc 3a 12 d9 3b
       -0.083111934 -0.0046427352 -0.015706755 0.006624487
000360 a1 e4 7e bb 22 48 88 3d 48 49 f1 3c 0a fa 95 3b
       -0.0038893598 0.06654383 0.029453889 0.004576926
000370 d5 2e b4 bc fc 93 a9 bc 96 9e 94 bd 17 2b 93 3d
       -0.021994988 -0.020700447 -0.0725681 0.07185953
000380 56 82 8f bb 8e 09 91 3d b3 17 84 3c 2c c7 84 bd
       -0.004379551 0.070819005 0.016124582 -0.064833015
000390 63 19 6b bb b8 12 0e bd 44 ea 20 3c fc 51 c4 bd
       -0.0035873286 -0.03468582 0.009821478 -0.0958595
0003a0 73 28 a8 3b 9d 09 4f bd c0 aa 57 3d 54 fe 4d bd
       0.005131775 -0.050546277 0.052653074 -0.050291374
0003b0 a7 43 b8 bc c7 34 94 3d a4 23 c8 bc e6 25 78 bd
       -0.022493197 0.07236629 -0.024431057 -0.060583018
0003c0 4a f7 9a bc 92 f4 a4 3d da cb 78 bd 8d c7 6a bb
       -0.018916745 0.080544606 -0.060741283 -0.0035824508
0003d0 5a 8c 87 3b a8 8b 4d 3d 1e 44 33 3c 84 4c 5f 3d
       0.0041366043 0.050182015 0.010941533 0.05451633
0003e0 a5 78 16 3b 40 78 8e 3c 9b 9d 4a 3d 75 46 78 3d
       0.0022960093 0.017391324 0.04946671 0.060614068
0003f0 20 8c d3 3d c3 e2 23 bd e1 2f da bc 3d 58 cc bc
       0.10329461 -0.04001118 -0.026634159 -0.024944419

weight_hh f4 [600, 200]
000000 6c f7 d1 3c a0 9e 2c bc 77 08 2e 3d 5b 73 3c bd
       0.025630675 -0.010535866 0.04248854 -0.04600845
000010 96 ee e2 bc 05 1f 93 3c 4c 86 2a bc b6 14 b6 3c
       -0.027701657 0.017959127 -0.010407995 0.022226673
000020 5c a1 b5 3c 6c 16 27 bb fa 79 68 3c a0 3a af 3c
       0.022171669 -0.0025495542 0.014189238 0.02139026
000030 41 49 60 3c c2 93 31 bd 48 a7 3f 3d f8 6a 6a bd
       0.01368934 -0.043353803 0.04679039 -0.05723092
000040 8f 30 8d bd 07 74 15 bd 79 b4 63 bc 72 4f 47 bc
       -0.068940274 -0.036487605 -0.0138980085 -0.012164937
000050 b1 dd 25 bd 3c 33 b0 3c 38 6a b3 3d 9b 8e 2f bc
       -0.040494625 0.021508805 0.08760494 -0.010715152
000060 10 1d 51 bd 09 7a fb 3c 6d c9 89 3d 82 28 65 3d
       -0.051053107 0.03069784 0.06727872 0.055946834
000070 6c 77 81 3d ab 85 4f bc e7 98 56 3d 09 96 5d bd
       0.06321606 -0.012666146 0.052391913 -0.054098163
000080 0e 47 8a 3c 0e 2b 5f 3d d8 f1 16 bd 36 1e 13 3d
       0.016879585 0.05448442 -0.036851734 0.035917483
000090 1e 7e 77 3d 10 5c 13 3d 26 37 96 3c 14 77 ba 3b
       0.06042301 0.03597647 0.018336844 0.0056904647
0000a0 90 32 1a 3d 00 ae 22 3d 4a 65 a0 bd 11 36 19 bd
       0.037645876 0.03971672 -0.07831819 -0.037405077
0000b0 90 73 18 3d 70 07 82 3d 0f b4 95 3d 1a 66 71 3c
       0.037219584 0.06349075 0.07309734 0.014733816
0000c0 d8 04 bc 3d fd 95 07 bd e2 26 e0 bc 4a 04 49 3c
       0.09180611 -0.033102024 -0.02736229 0.012269089
0000d0 bb b4 6d 3d e9 96 9e 3d f4 d2 ea 3c b8 b3 a4 3d
       0.058033686 0.077436276 0.028665043 0.08042091
0000e0 21 35 53 3d d9 09 b3 3c ed 9c 6b 3d cb 27 2e bd
       0.05156434 0.021855282 0.057522703 -0.04251842
0000f0 13 a5 51 3b 68 e1 12 bd 20 e8 2e 3d 67 89 70 3d
       0.003198926 -0.035859495 0.04270184 0.058724787
000100 6e 7e 80 3d 86 b7 1b 3d 4e dc 74 3d e6 06 c3 3b
       0.062741145 0.03801682 0.05978041 0.00595175
000110 23 e9 9c 3d ef 69 40 3d f4 c2 85 3d b1 30 05 bc
       0.07661655 0.046976026 0.06531325 -0.008129285
000120 f7 97 7d bd a5 a5 80 3d 5b e6 06 bc a3 8b 06 bd
       -0.061912503 0.06281594 -0.008233632 -0.03284801
000130 9e a0 be bc bf b2 80 bd 51 1a f9 bb 75 14 1e 3c
       -0.023269948 -0.06284093 -0.007602014 0.009648432
000140 1e d9 15 3d 61 8b 8b bc d8 2e 1a bd 40 35 e8 3b
       0.036584012 -0.017034234 -0.03764233 0.007086426
000150 49 12 a8 bd 70 47 86 3c 10 bb 0f 3d 1c 45 28 bd
       -0.082066126 0.016391486 0.035090506 -0.041081533
000160 b0 dd 84 3d 46 22 b0 3d eb 3d 66 bd d9 40 c6 3b
       0.06487596 0.08600287 -0.056211393 0.006050211
000170 fc 08 48 3d 3e 17 ca bc db 64 91 3d f0 02 ad bd
       0.048836693 -0.024669286 0.07099315 -0.08447826
000180 54 49 48 3d e9 ef 70 bd 09 e7 06 bc 85 b1 7d bd
       0.048898056 -0.058822546 -0.008233794 -0.061936874
000190 a9 dd dc 3a 4d 29 d4 3c 70 98 2e bd 12 07 34 3d
       0.0016850728 0.0258986 -0.042625844 0.043952055
0001a0 f8 bf 15 bd 5a ef 2b bc 62 1f 0f 3d 32 dc 48 bd
       -0.03656003 -0.010494078 0.03494204 -0.04903812
0001b0 d9 9f fd 3c 4b c3 a5 3b 46 90 40 bd 30 e9 be bc
       0.03096001 0.005058681 -0.04701259 -0.023304552
0001c0 50 31 32 bd 87 8b 3a 3d 4e 33 91 3d c1 c1 9b 3c
       -0.04350406 0.04554322 0.07089864 0.019013287
0001d0 dd c7 1e 3d cc 79 9e 3b 31 fc 1f bd 5f b7 13 3d
       0.038764823 0.0048362967 -0.039058868 0.03606355
0001e0 6c 5b 38 bd 26 29 4b 3a 19 e3 87 bc bc f7 e0 bc
       -0.04500906 0.0007749967 -0.01658778 -0.027461879
0001f0 9d cd 8b 3d 8c c6 9e bd 96 a5 3f 3d 0b 43 16 3c
       0.06826327 -0.077527136 0.046788774 0.009171258
000200 fb d8 0b 3d 7e 5a f6 3b 60 a1 96 3b 22 4e 0f bd
       0.034142476 0.0075181117 0.004596874 -0.034986623
000210 40 68 bc bd dd 3c 3d 3d d7 33 ae 3b 7a 0d 69 bd
       -0.091995716 0.046200622 0.0053162384 -0.056897618
000220 ee ca 26 bc 98 fa b7 3c a4 06 4c 3d 1f a9 79 3d
       -0.010180218 0.02245836 0.04981102 0.060952302
000230 a4 e8 6a 3d 59 ec 40 3b 0e 29 b7 ba 30 98 32 3d
       0.05735077 0.002943775 -0.0013974027 0.04360217
000240 36 ef 08 3d c5 68 6f bd cb b7 e4 3b 9c de 51 bd
       0.033431254 -0.058449525 0.0069799176 -0.051237687
000250 b7 fd 20 3d f9 f4 0b 3d b6 14 57 bd 21 02 58 bd
       0.03930446 0.03416917 -0.052509986 -0.052736405
000260 8d 08 13 bd b6 24 53 bc 69 bc df 3b 11 2f 20 3c
       -0.035896827 -0.012887171 0.00682788 0.0097768465
000270 fe b8 8b 3d ec 65 18 3d 02 01 53 bd 64 b1 a4 3d
       0.06822394 0.037206575 -0.051514633 0.08041647
000280 47 06 a6 bc e7 8c 87 3d 3d 5e 34 3c 81 21 52 3d
       -0.020266665 0.06618672 0.011008796 0.051301483
000290 1e 2a 91 bd be 29 08 bc 47 99 b3 bd a9 ad 8f bd
       -0.07088111 -0.008310733 -0.0876947 -0.07015545
0002a0 85 15 b0 bb d4 ba 99 3c 3a be 08 3d 00 97 ea 3c
       -0.005373659 0.018765844 0.03338454 0.028636456
0002b0 ca 81 34 bc fa 6e 9d bd ce 93 cc bd a2 f1 9e bc
       -0.011017272 -0.07687183 -0.09989129 -0.019402329
0002c0 ef 85 21 bd df f4 da 3b 73 40 42 3d d2 ef 45 3d
       -0.03943437 0.006682023 0.047424745 0.048324414
0002d0 98 6f e6 3c 2b 08 6f bd 28 d0 b5 bc 8e b7 ec bc
       0.028129384 -0.0583574 -0.022193983 -0.02889612
0002e0 ae 19 db bc 20 93 22 bd 22 5c 03 bd 90 82 64 3c
       -0.026745643 -0.03969109 -0.032070287 0.013947144
0002f0 ec 06 f2 bc ee 97 7f 3c d3 c7 51 3d f2 20 96 3d
       -0.029544316 0.015600188 0.051215958 0.073305026
000300 53 d6 40 bd 3a e0 8e 3d 69 e0 ff bc 59 0b 52 3c
       -0.047079396 0.069763616 -0.031234937 0.012820088
000310 9b f8 2e 3d c2 0e df bb 41 0c 7a 3a 50 5e 50 3b
       0.042717557 -0.006807179 0.0009538569 0.0031794496
000320 64 76 10 bd 22 ea 29 bd e4 87 c5 bd b1 67 89 bb
       -0.035269156 -0.041483052 -0.0964506 -0.004193269
000330 63 7f 3c 3c a0 c6 3e 3d 37 fe 67 bd 27 49 20 3d
       0.011504981 0.046576142 -0.056638923 0.039132264
000340 96 8b ac 3c a4 d3 40 3d a4 d8 9a bc f0 d8 a6 3d
       0.021062654 0.047076836 -0.01890213 0.08146846
000350 10 18 96 3d 10 08 0c 3d a3 62 41 3c ae 2f 05 bc
       0.07328808 0.034187376 0.011803302 -0.0081290435
000360 2b 3e 9c 3c e9 d3 06 bd 56 27 8c 3d 8b 48 06 3d
       0.019072613 -0.032916937 0.0684344 0.032784026
000370 ad db 64 bd 44 5b 20 bd da 95 21 3b af a8 74 3d
       -0.05587356 -0.039149538 0.002465597 0.05973118
000380 1c ee d7 bd d3 11 95 3d 5f 7a ff 3d bd 62 4f 3c
       -0.10543463 0.0727879 0.12474512 0.012657818
000390 85 5a 5f bb 22 06 89 bc 91 c6 78 bd 10 3f d3 3d
       -0.0034081053 -0.016726557 -0.060736243 0.103147626
0003a0 00 e6 29 3d 19 be 56 bd 3a d6 65 bd fc 51 91 bd
       0.04147911 -0.052427385 -0.056112505 -0.070957154
0003b0 55 c7 23 3d 0b 06 90 3d 1e 88 a2 3d ca 65 21 3d
       0.03998502 0.070324026 0.079361185 0.039403714
0003c0 c7 c1 d7 3c 3d 70 0b 3d aa a0 be 3c e3 23 e3 bc
       0.026337517 0.034042586 0.02326997 -0.027727073
0003d0 77 56 d1 3c 0b c6 81 3d 82 6c 42 bd 14 15 00 bd
       0.025553925 0.06336602 -0.047466762 -0.0312701
0003e0 e6 64 d4 bc d9 88 32 3c cd 9a 33 3d 60 bf 81 3d
       -0.025927018 0.010896885 0.0438488 0.0633533
0003f0 0b ac 54 3c fe 63 a1 3d d3 67 f0 ba 47 6a d5 3c
       0.012980471 0.078804 -0.0018341489 0.026051654

bias_ih f4 [600]
000000 31 cc 05 bd 88 7f cb bc d4 d4 81 ba 97 5f b4 bc
       -0.032665435 -0.024841085 -0.0009905347 -0.022018237
000010 43 ff 44 bd b6 45 13 3d 6d ba b7 b9 4c b3 b6 3d
       -0.048095 0.035955153 -0.00035043378 0.08920917
000020 eb 21 e5 bc 1d 63 2c 3d ff 5f 85 3d 38 e6 9b 3b
       -0.027970275 0.04208671 0.065124504 0.004757669
000030 52 84 19 3d 45 e1 e2 bc 23 3a 8d 3b 7c 8f 34 3d
       0.037479706 -0.027695308 0.004309909 0.04408215
000040 b1 49 59 3d 91 5c 0d bb 52 a7 89 bc c1 a1 d9 bc
       0.053048793 -0.0021570066 -0.016803417 -0.026566388
000050 2b 59 0d bd 1f 9c 59 3d 1b 05 3a 3d a9 d3 39 bd
       -0.034508865 0.053127404 0.045415025 -0.04536787
000060 d2 72 ac 3d b8 9f 80 3d 70 65 e5 b9 f1 f2 6a bc
       0.08420338 0.06280464 -0.0004375386 -0.014340148
000070 72 63 1b 3c a5 5d 88 3d 81 e6 06 bc d1 77 58 3d
       0.009484159 0.06658486 -0.008233667 0.05284864
000080 00 46 93 3d c9 25 1f 3d 7c 5a 0b bb fc f8 94 3c
       0.07191086 0.038854394 -0.002126365 0.018185131
000090 66 dc f1 3d df b2 c6 bc d9 0d f7 3c 01 08 0e bd
       0.11809616 -0.024255214 0.03015797 -0.034675602
0000a0 f7 4a bb bc 1f e2 d7 bd a5 58 5b bd e7 25 23 3d
       -0.022862894 -0.10541176 -0.053551335 0.03983107
0000b0 94 7e db bb 36 1f 0b 3d fb 54 65 bd 83 df 4f bd
       -0.006698439 0.033965312 -0.055989247 -0.050750267
0000c0 90 e3 fe 3c f7 73 8a bc 89 07 07 bc 34 64 92 3d
       0.03111437 -0.016901 -0.008241543 0.071480185
0000d0 8a 52 37 3c cb e9 12 bd 7e 05 b6 3c 15 79 6e 3c
       0.011189112 -0.035867494 0.022219416 0.014555235
0000e0 a4 22 88 3c 3b 3a 26 bd d2 73 bd bb 2d 02 e2 bc
       0.01661808 -0.040582877 -0.005781629 -0.027588928
0000f0 b7 08 f9 39 d8 77 cb bc a2 c6 b7 bc 27 ea 0c bd
       0.00047499474 -0.02483742 -0.022433583 -0.034402993
000100 74 3d e0 3c 06 0c 24 bd 7a 33 d7 3c 83 e6 66 3d
       0.027373053 -0.04005053 0.026269663 0.056372177
000110 ee 94 a3 3d 30 ed c6 3d 27 dd 89 ba b1 b3 5a bb
       0.079873905 0.09713209 -0.0010518179 -0.0033371265
000120 d5 fe ee 3c a9 fe 46 bd b7 35 33 3c 9f 42 b7 3c
       0.029174248 -0.048582707 0.0109381 0.022370635
000130 b6 3a 2f 3c ee 88 3f bd 0e 2c 30 3b 1b 72 00 3c
       0.01069515 -0.046761446 0.0026881727 0.007839705
000140 67 fe 67 3d f7 39 1f bd 44 75 82 bc 32 40 76 3d
       0.0566391 -0.03887364 -0.015925057 0.060119815
000150 69 62 d4 3d ff c7 7b 3d 6d 8b f2 bc 0a 91 4b 3b
       0.10370333 0.061470028 -0.029607499 0.0031061792
000160 bb 41 44 3d f2 ff a2 3d 90 d7 4d bc 3d 78 5a 3d
       0.047914248 0.07958974 -0.012563601 0.053337324
000170 b6 30 08 bd 92 2c 90 bd 19 51 c4 3b 61 20 77 3c
       -0.03324958 -0.07039751 0.005991113 0.015083403
000180 9b ad 33 3d 3b 2d d1 3c a1 bf d4 bb 12 28 3c 3d
       0.043866735 0.025534263 -0.0064925705 0.04593665
000190 9d 23 b8 bd ac b2 f4 bc b6 73 e8 3c 1e 07 d7 bc
       -0.08991168 -0.029870354 0.028375488 -0.02624851
0001a0 f5 0f ab 3d d4 ab 6f 3d 6e 3a 81 bd 7e b2 7b bd
       0.08352653 0.058513477 -0.06309973 -0.06144952
0001b0 eb 03 33 bd f1 fe d3 3c 88 7d fb 3c 49 20 81 3d
       -0.04370491 0.025878401 0.030699506 0.06304986
0001c0 99 be 2d 3d 8f 2f ae 3d 0b 22 9e bc e0 3a a0 bc
       0.042418096 0.08505165 -0.019303342 -0.019559324
0001d0 f9 1b 6e 3d 2f 22 33 3d 22 f2 26 bd 9d 33 38 3d
       0.058132146 0.043733772 -0.04075826 0.044971097
0001e0 75 5a 95 3a 74 b1 6b bd 81 fc fe 3c 3e 3b 38 3d
       0.0011394756 -0.05754228 0.031126263 0.044978373
0001f0 04 87 3c bd 73 45 89 bb 2a 40 c1 bd fb 01 ff bc
       -0.0460272 -0.004189187 -0.094360664 -0.031128874
000200 57 25 81 3d ee 89 8e bd 58 ab 41 bd 88 30 24 3d
       0.0630595 -0.06959902 -0.047282547 0.040085346
000210 1d b8 1d bd be 68 38 bd bc b2 91 bc bc f3 61 3d
       -0.038505662 -0.045021765 -0.017785423 0.055164084
000220 8b 19 35 3c 1b 6b 00 bd 4f ce e3 39 eb 0a 55 3c
       0.011053453 -0.031352144 0.00043450526 0.013003091
000230 b3 e8 25 3d 76 66 8b bd f7 dd a9 bd d4 f0 d1 bb
       0.040505122 -0.06806652 -0.082942896 -0.006406883
000240 47 42 25 bd 9c 55 da 3a 8c 41 27 3d ba e9 07 bd
       -0.04034641 0.0016657594 0.040833995 -0.033181883
000250 d2 38 af 3b da 1c aa 3d 10 70 10 3d 47 67 c1 bd
       0.0053473497 0.08306284 0.03526312 -0.09443527
000260 0d d4 6f 3d d9 a0 8e bd 2e 1c 4d 3d b7 83 3b 3d
       0.058551837 -0.06964273 0.050075702 0.04577991
000270 d1 5a a2 bd d8 e3 d4 3a 14 79 75 bd c5 1d a3 3d
       -0.07927478 0.0016242219 -0.059929922 0.079646625
000280 58 25 38 bc 5a 2d 34 bd d5 a0 18 bd 17 4d e8 3c
       -0.011239372 -0.043988563 -0.037262756 0.028357072
000290 07 84 c5 3d 24 50 80 bd 03 9e 40 bd 93 41 5d bd
       0.09644323 -0.062652856 -0.04702569 -0.054017615
0002a0 6e 30 6e bd a8 05 98 3d 26 c0 6b bd 4f be a3 bd
       -0.058151655 0.07422954 -0.057556294 -0.07995283
0002b0 e7 c9 07 bd f9 fd 97 3d 99 a3 50 3c bb 2d 51 3d
       -0.033151533 0.07421488 0.012734317 0.051069003
0002c0 6b 5a 99 bd 15 b6 57 3d 14 2d 82 bc fb 79 15 bd
       -0.07487949 0.05266388 -0.015890636 -0.036493283
0002d0 ed 87 1b bd 6d 4d 31 3c 80 73 6e 3d 22 a5 81 3d
       -0.037971426 0.010821682 0.058215618 0.06330325
0002e0 39 4a 3b bd 0f 49 73 bd 39 2c b0 3d 0e e6 2e 3c
       -0.04572508 -0.059395846 0.08602185 0.0106749665
0002f0 0a b6 7d bb e2 17 1f 3b 5c 53 1f bd ea 96 52 3d
       -0.003871324 0.002427571 -0.038897857 0.051413454
000300 4c 68 fb bc 45 b9 ba bb 9b 65 a2 3d 64 b2 14 bd
       -0.030689381 -0.0056983554 0.07929536 -0.03630294
000310 6c 60 f6 bb 92 58 30 3d cb d1 85 bd 7a c7 3c bc
       -0.0075188186 0.043053217 -0.065341555 -0.011522168
000320 6b f0 ff 3c b0 1e 7b bc bb a0 c4 3d 95 2c 99 3d
       0.03124257 -0.015327141 0.096009694 0.074792065
000330 09 3a 7e 3d b6 89 a8 bc 4d 8a a1 3c 5f e9 99 ba
       0.062067065 -0.020573478 0.019719267 -0.0011742524
000340 b9 14 3d 3d ad 41 00 bd bc 2b 9c 3d e5 e5 2c 3c
       0.04616234 -0.031312633 0.07625529 0.010552858
000350 db b2 4e 3d e3 92 a7 bc 5e 02 62 bd db 19 2e bd
       0.05046354 -0.020455783 -0.05517804 -0.042505126
000360 db 4e 02 bd 5d 71 6d bc 00 af 52 bc 47 03 b0 3c
       -0.031813484 -0.01449236 -0.012859106 0.021485938
000370 1d d9 a6 bb 6d c9 10 bc 79 10 8e bc cc 3d b8 bc
       -0.0050918 -0.008837086 -0.01734184 -0.022490405
000380 ef c6 fd bc be d7 a6 3d 65 43 b3 3d ae c6 ca 3d
       -0.030978648 0.08146618 0.08753089 0.099011764
000390 f2 68 38 bd af 1f 96 bd 2b 37 9f 3d ef 4a 90 3d
       -0.04502196 -0.07330262 0.07774194 0.070455424
0003a0 05 c2 70 bd 97 72 52 3d f1 a3 b8 bb 30 dd f3 bb
       -0.05877878 0.051378813 -0.0056347777 -0.007442139
0003b0 eb 04 2b bd 7e de 7b 3d 52 85 8a bb bf 85 ca bc
       -0.041752737 0.061491482 -0.004227319 -0.024721978
0003c0 be 69 87 3d 18 f7 20 3b e8 6d f5 bc 30 87 3b bc
       0.066119656 0.0024561342 -0.029959634 -0.011445805
0003d0 22 1b 61 3d 8a a8 55 3d 25 75 85 3d ad c0 3a bd
       0.054957516 0.052162685 0.06516484 -0.045593906
0003e0 75 ec fb 3c 07 f7 b8 3c bb b9 f3 bc c1 b9 bc 3b
       0.0307524 0.02257873 -0.02975165 0.0057594483
0003f0 27 db a5 3d 03 cd ca 3c c3 9c 16 3d 70 38 22 3d
       0.080984406 0.02475596 0.036770593 0.039604604

bias_hh f4 [600]
000000 4e b1 1f bd a4 ab d4 bc ce f5 4c bc 56 97 27 3d
       -0.03898745 -0.02596075 -0.012509776 0.04091581
000010 fc 2f 28 3d f0 d3 8d bd 56 da 9a bd 18 49 d2 bc
       0.041061386 -0.069251895 -0.075611755 -0.02566962
000020 92 c2 2e bc 2e 8a ef 3c 7b 8c 82 bd 3a e1 33 bd
       -0.010666506 0.029240694 -0.06374451 -0.043915965
000030 55 c7 48 bc 6b 7f 9d 3d b0 3d 36 bb 80 ac f4 bb
       -0.012254556 0.07690319 -0.0027807765 -0.0074668527
000040 6f ed 84 3d fc fe 15 bd af 7c 02 3d 89 1d 88 b9
       0.06490599 -0.036620125 0.03185719 -0.00025961947
000050 5d 05 43 bd 6c 01 97 3c f7 36 81 3c fe 51 66 3d
       -0.047612537 0.018433295 0.01577328 0.056230538
000060 c0 55 38 bc 51 b8 5b 3d be da 8c bd aa b1 ea bb
       -0.011250913 0.053642575 -0.06877659 -0.0071622925
000070 2c 83 54 3d 26 63 df bc 54 9f 87 3d 50 66 5d 3b
       0.051882908 -0.027268957 0.06622186 0.0033782907
000080 87 d5 67 bc ee 5c e9 3c 4a bd 29 3d 88 f0 90 bd
       -0.01415003 0.028486695 0.041440286 -0.07077128
000090 20 64 ef 3b db 8d 3a bc a7 74 27 bd 0f a3 89 3b
       0.007305637 -0.01138636 -0.040882733 0.0042003463
0000a0 91 47 83 bc e4 7e ba bd 54 69 6b bc 37 7e a8 3c
       -0.016025336 -0.09106234 -0.014368374 0.020567996
0000b0 87 02 2b 3d 8a 07 6e 3d 3c 78 e2 3c 48 cc 43 3d
       0.041750457 0.05811266 0.027645223 0.04780224
0000c0 38 b5 82 bc 11 d0 9e bc 6b 68 33 3d 21 3f 80 3d
       -0.015955552 -0.019386323 0.043800753 0.06262041
0000d0 24 9b 69 bd 5b 75 dc bc b8 5c 39 bd 68 57 cc 3c
       -0.05703272 -0.026911428 -0.04525444 0.024944022
0000e0 e7 34 6b bb e4 94 48 3b 93 56 66 bc 8d 0f 9d 3d
       -0.0035889687 0.0030606324 -0.014058727 0.07668982
0000f0 4b 05 5e bd 1c 89 68 3d 4f fa b4 3c 37 05 8d bd
       -0.054204267 0.056771383 0.022092013 -0.0688576
000100 13 81 dc 3b d5 92 32 3d fe 14 23 bd 61 cc 9c bd
       0.006729254 0.04359706 -0.03981494 -0.0765617
000110 1d ec 08 3d 1a 69 f4 3c 6b 5c b8 bc 2d 65 c0 bd
       0.0334283 0.029835273 -0.022505006 -0.09394298
000120 d0 76 97 39 10 16 58 bd 86 11 92 3c d0 0b 00 3c
       0.00028889487 -0.052755415 0.017830621 0.007815316
000130 32 be 88 3d 2f a7 a1 bd 16 37 90 bd c7 9d a9 bc
       0.06676902 -0.07893216 -0.07041757 -0.020705117
000140 bc 88 af 3a 44 d6 69 bd c7 1a 4e bd a0 aa 64 3d
       0.001339219 -0.057089105 -0.050318506 0.055826783
000150 10 ec d6 3d 18 2d 84 3d b5 13 21 3d a9 42 54 3d
       0.10494244 0.064539135 0.039325435 0.051821385
000160 ea 8c 37 bd b6 21 93 3d df 40 37 bd 93 e8 77 3d
       -0.04481212 0.07184164 -0.0447396 0.060524534
000170 2a 07 fc 3c 2c 86 b7 3c 12 e0 2f 3c 30 a9 87 3d
       0.030765135 0.022402845 0.010734575 0.06624067
000180 02 4a a3 3d 02 0a 6a bd 74 11 0a bc b3 12 d2 3c
       0.079731 -0.05713845 -0.008427013 0.025643682
000190 a2 80 54 bd b3 3a bf 3d 20 3b e9 bc f5 d2 9e bd
       -0.051880486 0.09337368 -0.028470576 -0.077550806
0001a0 5c e3 cc 3d 68 e9 94 bd ab 98 69 bd 03 6a 78 bd
       0.10004303 -0.07271081 -0.05703036 -0.060647976
0001b0 57 57 9f bc 23 71 5b bd 7f 8a fb bc 99 f0 17 3b
       -0.019450827 -0.053574692 -0.030705689 0.002318418
0001c0 da 21 3e bd dc 5c e8 bc 6c d1 3a bd 09 01 2e 3d
       -0.046419002 -0.028364591 -0.045609877 0.042481456
0001d0 7c 46 b0 bc cb 33 87 3c f3 ce b1 bb 42 47 e0 3b
       -0.021517985 0.016504189 -0.0054262816 0.006844432
0001e0 34 7b 62 3d fd 3b 09 bd 19 81 40 bd 14 1d 21 3d
       0.055293277 -0.033504475 -0.046998117 0.03933437
0001f0 00 bb 6a 3d 3f 7c a1 bd c9 40 3e bd e5 98 be bc
       0.057307243 -0.07885026 -0.046448503 -0.023266265
000200 db f0 06 3d 23 52 0f 3d d2 df 5a 3d e6 1b 34 3d
       0.03294454 0.03499044 0.053436108 0.04397192
000210 6b c0 18 bd a4 14 26 bc f6 48 43 3c 06 79 1e 3d
       -0.03729288 -0.010136757 0.011919251 0.038689636
000220 0f 86 92 bc d4 76 62 bd af d5 f1 bc d3 2e 8f bd
       -0.01788619 -0.055289105 -0.029520838 -0.06991353
000230 a9 41 77 bb 6e fd bb 3b d1 f8 96 bd a8 c7 88 3d
       -0.0037728345 0.0057369983 -0.07371677 0.066787064
000240 1c 2f 57 bd af 8d 11 bd 74 07 84 3d e9 40 31 3c
       -0.05253516 -0.03553551 0.06446734 0.010818698
000250 2e 65 fa bc 7d 7e 10 3c 9c 4c 6c bd 2a ba d5 bc
       -0.030565824 0.00881922 -0.057690248 -0.026089747
000260 09 56 b4 bc b0 47 ee 3c 93 36 b2 3c 08 fc 93 bc
       -0.022013681 0.029086918 0.021754539 -0.018064514
000270 1e d1 ff 3b a6 b7 58 3d 00 c0 5f 3d de 48 30 bd
       0.007806911 0.052909516 0.054626465 -0.04303824
000280 1e b5 3d bd 1a 50 84 3d 22 5d 9b bd 4a d1 83 bd
       -0.046315305 0.06460591 -0.07586123 -0.06436403
000290 1d bc d5 3b 42 10 88 3d 7e 5c 97 bc ef b4 cf bc
       0.006522669 0.06643726 -0.01847672 -0.02535483
0002a0 05 c1 80 3d 04 da 9f 3c ba 47 af bc 83 2e 66 bc
       0.062868156 0.019513138 -0.021396507 -0.014049175
0002b0 e3 bd bc bc e5 54 43 bd ff fa a2 3d 5e d5 c8 3d
       -0.023039764 -0.047688384 0.0795803 0.098063216
0002c0 f5 5a e2 bc d8 d0 79 bd 06 b3 ad 3d 14 aa d2 bc
       -0.027631262 -0.060990185 0.08481412 -0.025715865
0002d0 48 25 7b 3d 71 d6 8c 3d bd 39 2d 3d 73 c1 6c 3d
       0.06131485 0.06876839 0.04229139 0.057801675
0002e0 12 c1 4b bd 9c da 9d bd a6 e1 88 3d 7a 55 59 bd
       -0.049744673 -0.07707712 0.06683664 -0.053060032
0002f0 5a 37 fc bc 30 3a 1e bd 34 be 54 3d 75 14 ee bb
       -0.030788112 -0.03862971 0.051939204 -0.0072656223
000300 a3 a4 a8 3c 32 c4 f2 bc 81 b1 c6 3d df bd 4f 3d
       0.020586317 -0.029634569 0.09701825 0.050718185
000310 b3 1c ba 3d 50 3f 59 bd ea 9d 26 3d f4 a0 fd bc
       0.09087505 -0.053038895 0.040677942 -0.030960537
000320 b3 28 7f 3d be 7e 60 3d a7 0e 3d 3d 9a f1 a7 3d
       0.062294673 0.05480837 0.04615655 0.08200379
000330 14 3e 05 3d 53 31 3b 3d d2 88 83 bd fa d6 77 3d
       0.032529905 0.045701336 -0.06422581 0.060507752
000340 a1 08 9c bc fc b5 77 3d 2e bd 90 3d fe 4a 0a bd
       -0.019047083 0.06047629 0.07067333 -0.033762924
000350 18 cd 74 3d 60 51 f6 3c 70 33 e3 3c 73 2f 4e bd
       0.059765905 0.0300681 0.027734488 -0.05033822
000360 17 ca 77 3d 1a d5 f5 3b f9 70 40 bd 62 84 96 3d
       0.060495462 0.0075022103 -0.04698274 0.07349469
000370 9c ce 3b 3d 5c fc ca bc ca 3c 5a 3c 70 72 0b 3c
       0.045851335 -0.024778537 0.013320157 0.008511171
000380 6a 91 40 3d 5a 05 bc 3d 73 9e d0 3d b6 e6 2f 3d
       0.047013678 0.09180708 0.10186472 0.042944632
000390 70 8f 45 bd 8f 80 99 bc 35 9d 40 bd 6f 0c 09 3d
       -0.048232496 -0.01873806 -0.047024924 0.033459123
0003a0 c1 b7 55 3d ea 07 ec bc 64 69 c3 bc df 0b 2f bd
       0.052177195 -0.028812367 -0.023853965 -0.04273593
0003b0 aa 3a 03 3c 3c 41 f6 bc b8 25 31 3d fa 9b 3b 3d
       0.008009592 -0.030060403 0.043248862 0.045803048
0003c0 ce 34 82 3c b7 a9 97 3d 35 bc 60 bc 96 61 91 3d
       0.01589432 0.074054174 -0.013716747 0.07098691
0003d0 f8 48 b3 ba 8b 5e d1 3c 3f 0e 14 3d bc 71 1a 3d
       -0.0013678363 0.025557777 0.0361464 0.03770612
0003e0 c4 09 dc 3c 3d b6 47 bd e3 6c 0e bd 5a fc 45 bd
       0.026860125 -0.04875778 -0.03477181 -0.048336364
0003f0 87 ba ab bc ec be 39 bd 50 b4 98 bd ef 23 91 3d
       -0.020962967 -0.045348093 -0.07456267 0.07086932
