ckpts/lstmcell_rate_link.pt (torch, 970778 bytes, 4 tensors)

weight_ih f4 [600, 200]
0	0x3bcb1e8f	0.006198711
1	0xb8a9734f	-8.080026e-05
2	0x3bfd26d3	0.0077255755
3	0x3d052887	0.032509353
4	0xbca5dcd7	-0.020246906
5	0x3b184bd1	0.002323855
6	0xbcab0a9d	-0.020879084
7	0x3d02d5d3	0.0319422
8	0xba795dab	-0.0009512554
9	0xbd1b949a	-0.037983514
10	0x3d4b9722	0.04970468
11	0x3c88098e	0.016606119
12	0xbda3d108	-0.07998854
13	0xbcc4683f	-0.02397549
14	0x3cac1644	0.02100671
15	0x3c10c31f	0.008835583
16	0x3cc52ba5	0.024068663
17	0xbab3f92d	-0.0013730876
18	0xbdc50a4e	-0.09621106
19	0xbceb919b	-0.028755954
20	0xbd921672	-0.07133187
21	0xbc1b4ec8	-0.009479232
22	0xbc8339e7	-0.01601882
23	0xbd0f971a	-0.03505621
24	0x3d04f6dc	0.032461986
25	0x3d056d34	0.032574847
26	0xbd7aa59f	-0.061193105
27	0xbd810b04	-0.06300929
28	0x3d945033	0.07241859
29	0xbc9cf3f5	-0.019159297
30	0x3d1a81b3	0.037721347
31	0xbda41292	-0.080113545
32	0xbcbef82b	-0.023311695
33	0x3d5754ad	0.052570987
34	0xbc5b3bc5	-0.013380949
35	0xbd9388ec	-0.0720385
36	0x3db6a3b9	0.08917946
37	0x3c8f0a33	0.017460918
38	0xbca7ba39	-0.02047454
39	0xbdaf3ad4	-0.085561424
40	0x3dd1cf0e	0.10244571
41	0xbd826956	-0.063677475
42	0xbd5be61b	-0.053686243
43	0x3b87d414	0.0041451547
44	0xbc7e2097	-0.0155107
45	0x3cf43757	0.029811544
46	0x3d3e07c7	0.046394136
47	0xbd647c9e	-0.055782907
48	0xbdb5a9fc	-0.088703126
49	0x3cbf38d6	0.023342531
50	0x3bb5e027	0.0055504027
51	0x3c206caa	0.0097915325
52	0x3daf1760	0.0854938
53	0xbdbd3339	-0.092382856
54	0xbcd69ea9	-0.026198702
55	0x3d86824a	0.065678194
56	0x3d8f262f	0.06989705
57	0x3d05099d	0.03247987
58	0xbcd6a044	-0.026199467
59	0xbd915d8b	-0.0709792
60	0xbdd658e2	-0.10466172
61	0xbd05a163	-0.032624613
62	0xbd024d67	-0.031812098
63	0xbc90d50b	-0.017679712
64	0xbcd2570e	-0.025676277
65	0x3d1c9098	0.038223833
66	0xbd6a0c9d	-0.057140935
67	0x3d5c425f	0.053774234
68	0x3d201512	0.039082594
69	0xbc4e1606	-0.012578493
70	0xbca69e96	-0.020339292
71	0xbcabfb98	-0.020993993
72	0xbbc49cce	-0.006000138
73	0xbd64b616	-0.055837713
74	0xbc9bb94f	-0.01900926
75	0x3c09673c	0.008386429
76	0x3c51e7df	0.01281163
77	0xbd37ec03	-0.044902813
78	0xbc0cf54e	-0.008603407
79	0x3d3c8764	0.046027556
80	0xbd50d9d6	-0.050988995
81	0xbdade1bb	-0.0849032
82	0x3bba5311	0.005686172
83	0xbcfae23e	-0.030625459
84	0xbcc02e20	-0.023459494
85	0xbcd1ff0d	-0.025634313
86	0xbcf7cd28	-0.030249193
87	0xbd5270ac	-0.051376984
88	0x3d74dc31	0.059780303
89	0xbcfe035d	-0.031007463
90	0x3d868b3e	0.06569527
91	0x3cf947af	0.03042969
92	0x3db00cf9	0.08596224
93	0x3d278a6d	0.040903497
94	0xbcb26b25	-0.021779606
95	0xbd67376c	-0.05644934
96	0x3d167217	0.0367299
97	0xbd17f61a	-0.037099935
98	0x3d1cca35	0.038278777
99	0x3d58874d	0.052863408
100	0x3d354854	0.04425843
101	0x3cb3ffbe	0.021972533
102	0xbdd7e5b9	-0.10541863
103	0x3c1e7721	0.009671957
104	0x3d013e51	0.03155357
105	0xbd92efb2	-0.071746245
106	0x3c517871	0.012785063
107	0x3c9a9e24	0.018874235
108	0xbc928b3b	-0.017888656
109	0xbbfae500	-0.0076566935
110	0x3ccad82a	0.024761278
111	0xbd05447a	-0.032536007
112	0xbc093b2c	-0.008375924
113	0x3cd1224e	0.025529053
114	0x3d253857	0.040336933
115	0xbc4894d1	-0.012242512
116	0xbd8af4d3	-0.06784978
117	0xbda36c40	-0.079796314
118	0x3d2074ce	0.039173894
119	0x3d2f8740	0.042853594
120	0xbda4b2f0	-0.08041942
121	0x3d2c8752	0.04212124
122	0xbcc6b861	-0.02425784
123	0xbcdc118b	-0.026863834
124	0x3c657ce0	0.014006823
125	0x3da41ad8	0.080129325
126	0xbd2658c7	-0.04061201
127	0xbcf60d51	-0.030035647
128	0xbba15dd0	-0.0049245134
129	0xbce6054e	-0.028078701
130	0xbd49c8a9	-0.04926363
131	0xbd22ee6f	-0.03977817
132	0x3db58d5d	0.088648535
133	0xb68bf981	-4.171569e-06
134	0x3d50f015	0.05101021
135	0x3d11b44b	0.03557233
136	0x39707e4a	0.0002293523
137	0xbdb7faf8	-0.08983415
138	0xbcf5b6a0	-0.029994309
139	0xbd8474c2	-0.06467582
140	0xbb2ca3d5	-0.0026342769
141	0xbcea011d	-0.028564984
142	0x3c138f50	0.009006336
143	0x3d29ecb6	0.04148551
144	0x3d164fe8	0.0366973
145	0x3ca57f8a	0.020202417
146	0x3d960ccf	0.07326662
147	0x3d0e9aa0	0.03481543
148	0x3d12b1ee	0.03581422
149	0xbd5b18f0	-0.05349058
150	0x3d421795	0.04738577
151	0xbd8e4045	-0.06945852
152	0x3be3481b	0.006936086
153	0x3c4c56e0	0.0124718845
154	0xbc06d37f	-0.008229136
155	0xbd785743	-0.060630094
156	0xbcd89769	-0.026439385
157	0xbd775f20	-0.060393453
158	0x3d0a1f29	0.033721123
159	0xbcd24e7b	-0.025672188
160	0xbd1a5319	-0.037676904
161	0x3cf6ec07	0.030141843
162	0x3cea5b7f	0.028608082
163	0xbd5cd3f0	-0.053913057
164	0xbcc78b00	-0.024358273
165	0xbd584795	-0.05280264
166	0x3bfdd80d	0.0077467025
167	0xbb8048e5	-0.0039149397
168	0xbd94cafb	-0.07265278
169	0xbd993bf1	-0.07482136
170	0xbd8b6dbd	-0.0680804
171	0xbbfa96b6	-0.0076473607
172	0x3d7f986b	0.062401216
173	0xbc379688	-0.011205323
174	0x3d69bece	0.05706673
175	0xbb93e569	-0.004513432
176	0x3d108ea5	0.035292286
177	0xbce36bfe	-0.027761456
178	0xbd5eea9e	-0.054422967
179	0xbd5d4beb	-0.05402748
180	0xbc7529cf	-0.014963581
181	0x3dbe4f65	0.09292487
182	0x3bd247a1	0.0064172302
183	0xbcf337d0	-0.0296897
184	0x3c78c18f	0.015182867
185	0xbd8db229	-0.06918747
186	0xbd179966	-0.037011527
187	0xbc63f394	-0.013913054
188	0x3cab8511	0.020937474
189	0x3d3eebd1	0.04661161
190	0x3c6a4adb	0.0143000735
191	0xbc56ae80	-0.0131031275
192	0xbd842159	-0.06451673
193	0x3c97d533	0.018534278
194	0xbd339659	-0.043844555
195	0xbcc73398	-0.024316594
196	0xbc078e6a	-0.0082737
197	0x3c09e8c0	0.008417308
198	0xbd97f6c6	-0.07420115
199	0xbd306b0c	-0.043070838
200	0xbcb86943	-0.02251113
201	0xbc54a73a	-0.012979323
202	0xbd5db818	-0.054130644
203	0xbd192782	-0.037391193
204	0x3d4ec67c	0.05048226
205	0xbd7c57ac	-0.061607048
206	0x3d0b10d7	0.033951607
207	0x3c91f151	0.017815264
208	0xbd4a700d	-0.049423266
209	0xbd548c87	-0.05189183
210	0xbd57881d	-0.052620042
211	0x3bead5d7	0.007166605
212	0xbc3640e4	-0.01112387
213	0xbd413d45	-0.04717757
214	0xbca48a1a	-0.020085383
215	0x3c130949	0.008974382
216	0x3cee20ea	0.029068429
217	0x3d30f063	0.043198
218	0xbc1bbd8d	-0.009505642
219	0x3d74eb42	0.05979467
220	0x3c900059	0.01757829
221	0xbc24d060	-0.010059446
222	0x3d3a2159	0.04544196
223	0xbd2d6c13	-0.042339396
224	0x3cd5d2b7	0.026101453
225	0x3cd41119	0.025887059
226	0xbc22c54c	-0.009934735
227	0xbda56df3	-0.08077612
228	0x3db083fb	0.08618923
229	0xbbf4d68b	-0.0074718646
230	0xbc56fa8b	-0.013121258
231	0xbc85bb4b	-0.01632466
232	0x3d95b6c0	0.073102474
233	0xbaa79196	-0.0012784477
234	0xbd92b869	-0.0716408
235	0xbc2fef68	-0.010738231
236	0xbd04ba87	-0.03240445
237	0xbc95e588	-0.018297926
238	0x3ce58638	0.028018102
239	0xbd77ebb5	-0.060527522
240	0x3d386144	0.045014635
241	0x3d6549b6	0.0559785
242	0x3c3cc24e	0.011520935
243	0x3d42c8fd	0.04755496
244	0xbd7405d8	-0.059575886
245	0x3c5bdcfe	0.013419388
246	0x3d923fca	0.07141073
247	0x3d84470d	0.06458864
248	0x3c8d5a1f	0.017254887
249	0xbd6efd25	-0.058346886
250	0xbd509187	-0.050920036
251	0xbd17124a	-0.036882676
252	0x3d8e34ae	0.069436416
253	0xbd457465	-0.048206706
254	0x3cc9992c	0.02460917
255	0xbd01a7a7	-0.031654026

weight_hh f4 [600, 200]
0	0xbcc06f80	-0.023490667
1	0x3d900a49	0.07033212
2	0x3dae91a3	0.08523872
3	0x3d47930b	0.048724215
4	0xbcb97a53	-0.022641337
5	0xbcacbe01	-0.021086695
6	0xbd997fc5	-0.07495073
7	0xbd10bddb	-0.03533731
8	0x3ac356f7	0.0014903237
9	0x3d403318	0.046923727
10	0x3cc7fce5	0.024412582
11	0xbbc98b5c	-0.006150646
12	0xbc9d99f7	-0.019238455
13	0xbd49b2fe	-0.049242966
14	0xbd4a41a8	-0.04937902
15	0xbcf7bd5f	-0.030241666
16	0xbcf74124	-0.030182429
17	0xbbb15166	-0.005411315
18	0xbc713676	-0.014722457
19	0xbc84a08d	-0.016189838
20	0xbcfaf3af	-0.030633776
21	0xbc773273	-0.015087712
22	0x3cc24fbd	0.023719663
23	0xbccf929d	-0.025338465
24	0xbcda15e6	-0.02662177
25	0xbcfa3abc	-0.030545585
26	0x3d1c1802	0.038108833
27	0xbd93155f	-0.071818106
28	0xbd17df1d	-0.03707801
29	0xbc8efd18	-0.017454669
30	0x3d285626	0.041097783
31	0x3d237e71	0.039915506
32	0x3ca97900	0.02068758
33	0xbd01bfd6	-0.03167709
34	0xbdbab13a	-0.091158345
35	0x3d05667d	0.032568444
36	0x3d00dcee	0.031460695
37	0xbd923b62	-0.071402326
38	0xbd4b9db5	-0.049710948
39	0x3d2fa623	0.04288305
40	0xba3d7d37	-0.00072284363
41	0x3d8d7b9c	0.06908342
42	0xbd5cd6ae	-0.053915672
43	0x3c86125b	0.016366174
44	0x3d64d568	0.055867583
45	0x3b976a21	0.004620806
46	0x3cf148a9	0.029453592
47	0xbc225717	-0.009908459
48	0x3cdb3e76	0.026763182
49	0xbc2a8648	-0.010407992
50	0x3d44519b	0.047929388
51	0xbd12771d	-0.035758127
52	0xbd3b26d9	-0.045691345
53	0x3cf0eab2	0.029408786
54	0xbd3febe3	-0.04685582
55	0xbd6e66f4	-0.058203653
56	0xbd017c6a	-0.03161279
57	0xbc685944	-0.014181439
58	0x3d18a98f	0.03727108
59	0x3d4d0e54	0.050062492
60	0xbb023266	-0.0019866466
61	0x3d0df474	0.034656957
62	0xbd0795f7	-0.033102002
63	0xbc35aedf	-0.011089056
64	0xbc2112f7	-0.009831182
65	0x3cf9dd07	0.030500902
66	0xbd842954	-0.06453195
67	0xbd931348	-0.07181412
68	0xbd2f904c	-0.04286222
69	0x3c5ef3ae	0.013607902
70	0x3d05b4bb	0.03264306
71	0x3cfb997f	0.030712841
72	0xbd7318de	-0.059349887
73	0x3c09c65f	0.008409112
74	0xbc5611fe	-0.013065813
75	0x3cadaae9	0.02119966
76	0x3d6b3948	0.057427675
77	0xbbe38959	-0.0069438634
78	0x3da440c6	0.08020167
79	0x3cd8bae0	0.026456296
80	0xbca0f824	-0.019649573
81	0x3b887561	0.0041643833
82	0x3ca053b7	0.019571168
83	0x3cd01ac3	0.025403386
84	0x3cde0afb	0.027104845
85	0x3d3a30d0	0.045456707
86	0x3d2d5c21	0.04232419
87	0xbd95f340	-0.07321787
88	0xbd2b3484	-0.04179813
89	0xbd09dbe0	-0.033656955
90	0xbd1bf5d5	-0.03807624
91	0xbc916fd9	-0.017753528
92	0x3d0fd02b	0.035110634
93	0x3dba53a7	0.09097987
94	0xba71be51	-0.000922178
95	0xba934292	-0.001123505
96	0xbd28237d	-0.04104947
97	0xbcc9d2b2	-0.0246366
98	0xbd7eb8b9	-0.062187884
99	0xbc708398	-0.014679812
100	0xbd8b22e1	-0.06793762
101	0x3d0803ed	0.03320687
102	0x3beb1792	0.0071744407
103	0x3d908024	0.07055691
104	0xbd5aa27a	-0.053377606
105	0xbda08bed	-0.07839189
106	0x3d65b797	0.056083288
107	0xba6609ed	-0.0008775283
108	0xbc3796fb	-0.01120543
109	0x3d44572e	0.047934704
110	0xbb0083c5	-0.001960979
111	0xbd0c1c78	-0.034206837
112	0x3d121fd2	0.035674877
113	0x3d055253	0.032549214
114	0xbb3ec52c	-0.0029109223
115	0x3d2b75de	0.041860454
116	0x3d5b9d3f	0.05361676
117	0xbd5c4703	-0.05377866
118	0xbb228adb	-0.0024802003
119	0xbd8b6bc9	-0.06807668
120	0xbd5fe5a8	-0.054662377
121	0x3d89aef9	0.067228265
122	0xbd5bb97a	-0.05364368
123	0xbd643cae	-0.05572193
124	0xbd2b769d	-0.041861165
125	0xbd5eec72	-0.05442471
126	0xbc9402ad	-0.018067682
127	0x3d5a95ce	0.05336552
128	0x3cbc3ed4	0.022979178
129	0xbcbcd986	-0.023052942
130	0x3db2499f	0.08705448
131	0x3daf5a21	0.085621126
132	0xbcb6c78d	-0.02231195
133	0xbb5f12a7	-0.0034038217
134	0xbb9ab4b0	-0.0047212467
135	0xbda8c56d	-0.08240781
136	0xbdce058b	-0.10059651
137	0x3d7024b2	0.058628745
138	0xbd31f507	-0.043446567
139	0xbdb04d6d	-0.08608518
140	0x3d0d06bb	0.034430247
141	0xbca7b21a	-0.020470668
142	0xbd943fe8	-0.07238752
143	0xbcd1e741	-0.025622966
144	0x3c8436a4	0.016139336
145	0x3bc51f88	0.0060157217
146	0xbd0389e6	-0.032113932
147	0x3d8d5469	0.069008656
148	0x3c6e99cf	0.014563038
149	0xbd96f594	-0.07371059
150	0x3cd23528	0.025660113
151	0x3c8c696d	0.017140115
152	0xbbb8dbba	-0.005641428
153	0x3d120d0b	0.03565697
154	0xbd095391	-0.03352696
155	0xbc0f3020	-0.008739501
156	0xbd6379bf	-0.055536028
157	0x3d69f0f8	0.05711457
158	0xbca67df2	-0.020323727
159	0xbd0cbab0	-0.034357727
160	0x3d1d71b1	0.038438503
161	0xbc9f46a1	-0.019442858
162	0xbc0b1ce8	-0.0084907785
163	0xbc8ba8dc	-0.017048292
164	0xbcb4ba33	-0.022061443
165	0xbd13dfa8	-0.036101967
166	0xbd191501	-0.037373547
167	0x3d5d6c43	0.054058325
168	0xbd1ee9e4	-0.038797274
169	0x3d19124e	0.037370972
170	0x3ca317f3	0.01990888
171	0xbd6fcb95	-0.05854376
172	0xbc93cb4d	-0.018041277
173	0x3ce7e199	0.028305816
174	0xbd0cf42d	-0.03441255
175	0xbcedfd4e	-0.02905145
176	0xbca307d0	-0.019901186
177	0xbdb3fa3d	-0.087879635
178	0xbd19e3f9	-0.037570927
179	0x3b86c097	0.004112314
180	0x3d8a04eb	0.06739219
181	0xbd2af432	-0.04173679
182	0x3caca348	0.021073952
183	0xbd059433	-0.032612037
184	0xbd223546	-0.039601587
185	0x3d13a197	0.036042776
186	0xbc96ddb6	-0.018416267
187	0xbd847303	-0.06467249
188	0xbbe6e36d	-0.0070461542
189	0x3d9e8c2c	0.077415794
190	0xbc048ab2	-0.008089708
191	0x3ccaf909	0.024776952
192	0xbb21d1cc	-0.00246917
193	0x3dafedcf	0.0859028
194	0xbcf319fe	-0.02967548
195	0x3c7affc7	0.015319771
196	0xbc3a4806	-0.011369711
197	0x3cfb966c	0.030711375
198	0xbd007406	-0.03136065
199	0xbc072780	-0.008249164
200	0xbd943b19	-0.072378345
201	0x3aec6a8a	0.0018037122
202	0x3da2f3f8	0.079566896
203	0xbd33e075	-0.04391523
204	0x3ccb65aa	0.02482875
205	0x3d4342b4	0.047671035
206	0xbdb0e1b0	-0.086367965
207	0x3bcd6bf8	0.0062689744
208	0xbc54c796	-0.012987038
209	0xbd565ec0	-0.052336454
210	0xbda3461e	-0.07972358
211	0xbca33b5d	-0.019925768
212	0x3dc904c2	0.098153606
213	0x3d83d4ae	0.0643705
214	0x3c344f1b	0.011005188
215	0xbc6984ca	-0.014252851
216	0x3cc76a59	0.024342703
217	0x3d27aba2	0.040935166
218	0xbd1e5307	-0.0386534
219	0x3ba6ed60	0.0050942153
220	0x3d2a945e	0.0416454
221	0x3d448f13	0.04798801
222	0xbd83080b	-0.063980184
223	0x3cacaa83	0.0210774
224	0xbd9b8e00	-0.07595444
225	0xbd6e6ed8	-0.058211178
226	0xbd2a8c79	-0.04163787
227	0xbd3e7a72	-0.04650349
228	0xbcfa74ad	-0.030573213
229	0x3ca8e58d	0.02061727
230	0xbc3cdd4b	-0.01152737
231	0xbd1e9db8	-0.03872463
232	0x3c92b0ac	0.01790651
233	0x3d800bea	0.062522724
234	0x3c6cca2a	0.014452497
235	0xbce31c7f	-0.027723549
236	0xbd188701	-0.037238125
237	0x3d8982d4	0.067144066
238	0xbd14a3c9	-0.03628901
239	0xbd6f3ea7	-0.05840936
240	0xbbc2d69c	-0.0059459936
241	0xbd97d242	-0.0741315
242	0xbd154223	-0.036440026
243	0xbd397fc3	-0.04528786
244	0xbd5b78bd	-0.053581942
245	0xbdb6ad29	-0.089197464
246	0x3d0c49d6	0.034250103
247	0xbd349107	-0.04408362
248	0x3d441b1a	0.04787741
249	0xbc3ccc0c	-0.011523258
250	0xbcc1bfac	-0.023650967
251	0xbd927cc9	-0.07152707
252	0x3d71c54b	0.059026044
253	0xbc284014	-0.010269184
254	0xbc7550d2	-0.014972882
255	0xbd25aa64	-0.0404457

bias_ih f4 [600]
0	0x399cb3fb	0.00029888735
1	0xbb807d56	-0.003921191
2	0x3d653de4	0.055967227
3	0xbd7f38e5	-0.06231012
4	0xbbc85720	-0.0061139017
5	0x3db94daa	0.09048016
6	0xbd602753	-0.054725002
7	0x3dace53a	0.08442159
8	0xbd9b1120	-0.07571626
9	0x3aabf2a5	0.0013118578
10	0xbd62fd44	-0.055417314
11	0x3c5515c1	0.013005675
12	0xbd19443e	-0.037418596
13	0x3c0f7ae5	0.008757328
14	0x3c85bcd5	0.016325394
15	0x3d401d1e	0.04690277
16	0x3d50b0e5	0.05094995
17	0x3d853788	0.06504732
18	0x3c8e777d	0.01739096
19	0x3c174fd4	0.009235341
20	0x3cb6a063	0.022293275
21	0xbb4a18df	-0.0030837578
22	0xbd4d78ba	-0.050163962
23	0xbc26978e	-0.010167969
24	0xbc557473	-0.013028252
25	0xbd2e9ad8	-0.04262814
26	0x3c2aec77	0.010432354
27	0x3d458c23	0.048229348
28	0xbdb3cc8e	-0.0877925
29	0x3c24bb08	0.010054357
30	0xbd1c782b	-0.03820054
31	0xbc4bca8a	-0.012438426
32	0x3cc70cf3	0.024298167
33	0xbc16dc3c	-0.009207781
34	0x3d934ffb	0.071929894
35	0xbd6807f4	-0.05664821
36	0x3d8443ff	0.06458282
37	0xbcb6bc3a	-0.02230655
38	0xbd88b1f3	-0.06674566
39	0x3c412b60	0.011790127
40	0xbcab3de0	-0.020903528
41	0x3d2bd750	0.041953385
42	0x3d480ab4	0.048838332
43	0xbc33d7fb	-0.010976787
44	0xbb2445c8	-0.0025066007
45	0xbd4f6507	-0.050633457
46	0x3c33bb09	0.010969886
47	0x3db0d1d3	0.08633771
48	0xbcdf93ef	-0.02729222
49	0xbdaa6ba0	-0.08321309
50	0xbcb958a6	-0.022625279
51	0x3cf7c785	0.030246506
52	0xbc8c7d69	-0.017149644
53	0x3d87805e	0.06616281
54	0xbd234190	-0.039857447
55	0xbd894262	-0.06702115
56	0x3d7707fb	0.060310345
57	0x3d5b2f04	0.053511634
58	0xbd4ec505	-0.05048086
59	0xbd4cc524	-0.049992695
60	0x3c85b6ec	0.016322576
61	0xbd1d663b	-0.038427573
62	0x3cadfbf6	0.021238308
63	0xbd109b95	-0.035304625
64	0xbd804bb1	-0.06264437
65	0xbced5704	-0.028972156
66	0x3d2f5e92	0.0428148
67	0xbcbb5bae	-0.022870865
68	0x3d0d20e4	0.034455195
69	0x3cbcdbe3	0.023054069
70	0xbd35326f	-0.04423755
71	0x3d9a735a	0.07541533
72	0xbd05b8b0	-0.032646835
73	0x3d2345c0	0.03986144
74	0xbd61af09	-0.055098567
75	0xbd412f51	-0.047164265
76	0x3d5cc024	0.053894177
77	0x3bff2b1e	0.0077871224
78	0x3c9f5cbf	0.019453404
79	0x3db3fafb	0.08788105
80	0xbd3fc3fe	-0.046817772
81	0x3d44c443	0.048038732
82	0x3cc34a01	0.023838999
83	0x3d20ac2e	0.039226703
84	0xbc879b15	-0.016553441
85	0x3d8bb52a	0.06821664
86	0xbd91684d	-0.07099972
87	0xbbf76425	-0.00754978
88	0x3ad71d5d	0.0016411949
89	0x3d22c65e	0.03973996
90	0xbd24fe1e	-0.040281408
91	0x3d8c5972	0.06852998
92	0x3d601c1f	0.05471432
93	0x3c158dd8	0.0091280565
94	0xbd810306	-0.06299405
95	0xbcf17420	-0.029474318
96	0x3cb4828d	0.022034908
97	0xbc76bd63	-0.015059802
98	0x3cd38f12	0.025825057
99	0xbc4dc058	-0.012558065
100	0x3c8e7648	0.017390385
101	0xbd0a4490	-0.033756793
102	0xbd026caf	-0.03184193
103	0xbd18fd67	-0.03735104
104	0xbd6ac80a	-0.05731968
105	0x3d5c577a	0.05379436
106	0x3d20e417	0.039280023
107	0xbcd32150	-0.02577272
108	0xbd1c31f5	-0.03813358
109	0xbd3949c2	-0.045236357
110	0xbb3e99a5	-0.0029083278
111	0xbc8a80d5	-0.016907135
112	0x3cf14fed	0.029457057
113	0x3d8d6bce	0.06905328
114	0xbd5cc83c	-0.053901896
115	0x3d90266a	0.07038577
116	0xbd84dddc	-0.06487629
117	0xbd3c180b	-0.045921367
118	0xbc251a9b	-0.010077144
119	0xbcd4d79b	-0.025981715
120	0x3c8422a6	0.016129803
121	0x3b99cd77	0.004693683
122	0xbd86d551	-0.065836556
123	0xbd00e295	-0.031466085
124	0xbd36ec71	-0.04465908
125	0x3d95317a	0.072848275
126	0xbd4fc4da	-0.05072484
127	0x3dbb7c83	0.09154608
128	0xbd90410e	-0.07043658
129	0xbbd28247	-0.0064242217
130	0xbd67a380	-0.05655241
131	0x3d90cc75	0.07070247
132	0xbd7dbdbe	-0.06194853
133	0xbd095c17	-0.03353509
134	0x3d9a1a7d	0.075245835
135	0xbd818912	-0.06324972
136	0xbd7ee913	-0.062233996
137	0x3d8d8474	0.06910029
138	0x3d24da75	0.0402474
139	0x3b959fe7	0.004566181
140	0xbc02b10c	-0.007976782
141	0x3d8dabfa	0.069175676
142	0x3d845d9d	0.06463168
143	0xbcb90057	-0.02258317
144	0xbd810174	-0.06299105
145	0xbd69315f	-0.05693185
146	0x3c689b77	0.014197222
147	0x3d257d1b	0.040402513
148	0x3d0e4f48	0.034743577
149	0x3c856b12	0.016286407
150	0x3ba2eeed	0.00497233
151	0xbc388068	-0.011261083
152	0xbc938bcb	-0.018010994
153	0x3d993f2d	0.07482753
154	0xbd3a6ac6	-0.045511983
155	0xbd127d7f	-0.035764214
156	0xbd69f19d	-0.057115186
157	0x3d62b933	0.0553524
158	0xbd9164b7	-0.07099288
159	0x3b047389	0.0020210466
160	0x3cbfb692	0.023402486
161	0x3d338609	0.043828998
162	0xbd9040f4	-0.07043639
163	0xbca5490d	-0.020176435
164	0xba062065	-0.00051165215
165	0xbd8a842e	-0.067634925
166	0xbd3921d6	-0.045198284
167	0x3d4dc87d	0.05024003
168	0xbc8d86c8	-0.017276183
169	0x3c4385d8	0.011933766
170	0x3d8f7432	0.07004584
171	0xbd268df3	-0.040662717
172	0x3d7b5a92	0.06136567
173	0x3d23b4c2	0.039967306
174	0x3daf1b00	0.08550072
175	0x3ccd368e	0.025050428
176	0x3c82113c	0.015877359
177	0x3d4f5b05	0.050623912
178	0x3d6fa743	0.058509123
179	0x3d464311	0.048403803
180	0xbd2f96d5	-0.042868454
181	0x3d2294c0	0.03969264
182	0xbb79eecc	-0.0038136719
183	0xbd8db01e	-0.06918357
184	0xbd70a8b0	-0.058754623
185	0x3ce9cbbd	0.028539533
186	0x3cf1b64e	0.029505875
187	0x3cfb692e	0.030689802
188	0xbd039b37	-0.032130446
189	0xbbe43443	-0.006964238
190	0xbd101509	-0.03517631
191	0xbbb8e49f	-0.005642488
192	0x3d42c1fc	0.04754828
193	0x3cd126c8	0.025531188
194	0x3cdba105	0.026810179
195	0xbcf86c78	-0.03032516
196	0x3d258ca8	0.040417343
197	0x3bdb3224	0.006689327
198	0xbc7d2154	-0.015449841
199	0x3db5818b	0.08862599
200	0x3d4a0673	0.049322557
201	0x3d89159e	0.06693576
202	0x3b7d3f76	0.0038642562
203	0xbd473647	-0.048635747
204	0xbcb6cd91	-0.022314819
205	0x3b1e8675	0.002418903
206	0x3cce2b3b	0.025167098
207	0x3cdd0775	0.026981095
208	0xbcfc6834	-0.030811407
209	0xbd71627a	-0.058931805
210	0x3d9642d8	0.07336968
211	0xbd1d8ca7	-0.038464215
212	0xbd3c3150	-0.045945466
213	0x3d78f4c4	0.0607803
214	0xbc8d9aea	-0.017285783
215	0x3d9736c8	0.073834956
216	0xbcfb47bc	-0.030673854
217	0xbc9f8441	-0.019472243
218	0x3d8224dd	0.06354687
219	0x3d0b7150	0.03404361
220	0xbcca20cd	-0.024673844
221	0x3cfb28c7	0.030659093
222	0xbd204337	-0.0391266
223	0x3d59a768	0.053138167
224	0x3d778ef2	0.060439058
225	0x3be844ce	0.0070882803
226	0xbce292ed	-0.02765795
227	0x3d88c93f	0.0667901
228	0x3c78e11b	0.015190388
229	0xbd5949f4	-0.053049043
230	0xbd4aac46	-0.0494807
231	0xbd0960a2	-0.03353942
232	0x3b7b6cef	0.003836449
233	0xbb4bc093	-0.0031090125
234	0xbca147f1	-0.019687625
235	0x3d8fe21e	0.0702555
236	0xbada8f11	-0.0016674717
237	0x3d42949e	0.047505014
238	0xbc9d6780	-0.019214392
239	0x3a56ace9	0.0008189218
240	0xbbfc9ea5	-0.0077093416
241	0xbd908784	-0.070570976
242	0x3cf71d10	0.030165225
243	0x3d1a91f8	0.037736863
244	0xbd037b33	-0.032099914
245	0xbd5682ed	-0.052370954
246	0xbd7ff8ee	-0.062493257
247	0x3dbd7fc4	0.09252885
248	0x3d17d257	0.03706583
249	0xbcc5b0b3	-0.024132108
250	0xbd57299d	-0.05252992
251	0x3d09ecf9	0.03367326
252	0xbcf961d2	-0.030442152
253	0x3d5e7632	0.05431194
254	0x3d0bb66c	0.034109518
255	0x3cbb7155	0.02288119

bias_hh f4 [600]
0	0x3d088c05	0.033336658
1	0x3cca5f59	0.024703668
2	0xbc85e638	-0.016345128
3	0xbc09359a	-0.008374596
4	0xbcf96edd	-0.030448372
5	0xbd335f69	-0.043792162
6	0xbce60332	-0.028077696
7	0x3d85685a	0.06514044
8	0x3c2016ea	0.009771088
9	0xbd3367b0	-0.043800056
10	0xbd3e7f7c	-0.046508297
11	0x3c86cc4d	0.01645484
12	0x3d38aae5	0.045084853
13	0xbcbc6843	-0.022998935
14	0xbc838d1e	-0.0160585
15	0xbc1c959a	-0.009557152
16	0x3d072a58	0.032999367
17	0x3d6a83f9	0.057254765
18	0x3d696344	0.056979433
19	0x3c8b44a6	0.017000508
20	0xbc108210	-0.008820072
21	0x3cc0cc5f	0.023534952
22	0x3c895b51	0.016767176
23	0xbd3116cd	-0.043234635
24	0xbbb1cfc6	-0.00542638
25	0xbd2f1895	-0.042748053
26	0x3c3c09ea	0.011476973
27	0xbd308945	-0.04309966
28	0xbda7bba4	-0.081900865
29	0x3c55f472	0.013058769
30	0x3d2e61b9	0.042573664
31	0xbcbbd59c	-0.022929005
32	0x3d94c754	0.07264581
33	0x3cb5cd8f	0.022192745
34	0x3d9d04cb	0.0766693
35	0xbd2c21d1	-0.042024437
36	0x3daf3b44	0.08556226
37	0x3cecb37b	0.028894177
38	0x3bcbfd6b	0.006225278
39	0x3d3c00e9	0.045899305
40	0x3d9591b7	0.073031835
41	0xbd35656a	-0.04428617
42	0xbbf3f745	-0.0074452483
43	0xbd178cbb	-0.036999445
44	0x3bed349f	0.007238939
45	0xbd39b583	-0.04533912
46	0x3c20f3e7	0.009823776
47	0x3cdbb1ea	0.026818234
48	0x3bddec4d	0.006772554
49	0xbc070ab1	-0.008242295
50	0xbda450f9	-0.08023257
51	0xbd666e6e	-0.056257658
52	0x3d5cff40	0.053954363
53	0x3c21238f	0.009835138
54	0x3cd3565c	0.025798015
55	0x3d6d5340	0.05794072
56	0xbd006f8f	-0.03135639
57	0x3b88ec3e	0.004178553
58	0xbd838659	-0.06422109
59	0xbd456b6f	-0.04819816
60	0x3d0f6573	0.03500886
61	0x3d7ccef0	0.06172079
62	0xbba061a0	-0.0048944503
63	0xbd00a2e3	-0.03140534
64	0xbcc250de	-0.023720201
65	0x3d68bbe1	0.0568198
66	0xbd785960	-0.06063211
67	0xbcac6eed	-0.021048987
68	0x3caf2ec5	0.021384606
69	0x3d35bca8	0.04436937
70	0x3d650a75	0.055918176
71	0xbcc44771	-0.023959847
72	0xbd8a7f4d	-0.06762562
73	0xbc40e461	-0.0117732
74	0x3d0bfbce	0.034175687
75	0xbd90c43c	-0.07068679
76	0xbd227c5f	-0.03966939
77	0xbd32f146	-0.043687128
78	0xbd824edf	-0.063627
79	0xbcd5111f	-0.02600914
80	0xbd2b7f03	-0.041869175
81	0x3cc1b120	0.02364403
82	0x3ce0fe81	0.027465107
83	0x3c83867d	0.01605534
84	0x3d428a25	0.047495026
85	0x3c68df75	0.014213433
86	0x3d16f29b	0.03685246
87	0xbd6d58a3	-0.05794586
88	0x3d0de83a	0.034645297
89	0xbd9e6e48	-0.07735878
90	0x3d683289	0.05668882
91	0xbd868822	-0.06568934
92	0x3bfaadc4	0.007650109
93	0xbcaec34e	-0.021333363
94	0xbc9cc4a8	-0.019136742
95	0x3d4d4277	0.050112214
96	0x3d5b324f	0.053514775
97	0x3d90285d	0.07038949
98	0xbd676aff	-0.056498524
99	0xbd8a9021	-0.06765772
100	0x3d05c1ca	0.032655515
101	0x3da6ea60	0.08150172
102	0xbd92bb5d	-0.07164643
103	0x3c9155cb	0.017741105
104	0xbd59bef8	-0.053160638
105	0x3ac0af06	0.0014700599
106	0xbcf0d763	-0.02939958
107	0x3cbfd88d	0.02341869
108	0x3d394119	0.045228098
109	0xbd0bafd7	-0.03410324
110	0x3d043f20	0.032286763
111	0xbd8bc00a	-0.06823738
112	0xbb9c78e5	-0.004775154
113	0xbc0b3e9d	-0.008498815
114	0x3d79ae4f	0.06095725
115	0x3cb4a509	0.022051351
116	0x3d9687da	0.073501304
117	0xbd287981	-0.0411315
118	0x3d9ffae1	0.07811523
119	0x3d61f6a4	0.055166855
120	0x3d843635	0.06455652
121	0xbcbede51	-0.023299368
122	0xbd32338a	-0.043506183
123	0x3d2f16c0	0.042746305
124	0x3d48f708	0.049063712
125	0xbb0efe14	-0.0021818923
126	0x3d289370	0.041156232
127	0x3c693e2f	0.014236017
128	0x3d3a4d81	0.04548407
129	0xbd1e294d	-0.038613606
130	0xbd505175	-0.050858933
131	0x3d5f9456	0.054584824
132	0xbcadac34	-0.021200277
133	0xbd8dd6b5	-0.06925718
134	0x3d10c6cb	0.035345834
135	0xbcaa19c2	-0.020764235
136	0xbcab2e81	-0.020896198
137	0x3d58009c	0.052734956
138	0x3b5c1aa2	0.003358521
139	0xbd818a15	-0.06325165
140	0x3cf24f3e	0.029578801
141	0x3c69ae1f	0.014262705
142	0xbd673749	-0.05644921
143	0xbc1e3b99	-0.009657764
144	0x3d3343bd	0.043765772
145	0x3c33e721	0.010980398
146	0xbce3fdd8	-0.027831003
147	0x3d0f5ce4	0.035000697
148	0x3d77912f	0.060441192
149	0x3d6bfa7b	0.057611924
150	0xbc51df3b	-0.01280957
151	0xbc57dc3e	-0.013175068
152	0xbb7f21ff	-0.0038930175
153	0x3ddeb5f7	0.10874551
154	0x3d99403d	0.074829556
155	0x3d8e87e7	0.06959515
156	0xbd533c18	-0.05157098
157	0xbd560fe6	-0.052261256
158	0xbd88cd3a	-0.06679769
159	0x3d3652ff	0.044512745
160	0x3d11d3ef	0.035602506
161	0xbcb3af64	-0.021934219
162	0x3d6592f1	0.056048337
163	0xbc135413	-0.008992213
164	0x3ddd34f4	0.10801116
165	0xbd53625a	-0.051607467
166	0xbabc961a	-0.0014387995
167	0x3d8d056b	0.06885799
168	0x3d3014f5	0.042988736
169	0x3c5a39e3	0.013319465
170	0xbd4d6680	-0.05014658
171	0xbd5a662e	-0.053320102
172	0x3be00c69	0.006837417
173	0xbcfc566a	-0.030802924
174	0x3cd5ce49	0.026099341
175	0x3cb5374b	0.022121092
176	0x3c971859	0.018444227
177	0x3ba64b96	0.0050749285
178	0xbcc24640	-0.023715138
179	0x3d74b547	0.059743192
180	0xbd2b15bc	-0.041768774
181	0xbc97ab3a	-0.018514264
182	0x3d4edfbe	0.050506346
183	0xbd8b7463	-0.068093084
184	0xbccd07b8	-0.025028095
185	0xbcf31b93	-0.029676234
186	0xbc2372b9	-0.0099760825
187	0xbce5fa7a	-0.028073538
188	0xbc38dcb1	-0.011283086
189	0x3cbba5f9	0.02290629
190	0xbd5ccf9e	-0.053908937
191	0x3c808a51	0.015690954
192	0xbc969668	-0.018382266
193	0x3d0d3c23	0.03448118
194	0x3d1bc6f1	0.038031522
195	0x3d9b2342	0.07575084
196	0x3ba5ea26	0.005063313
197	0xbc946bff	-0.018117903
198	0xbb6bc9a1	-0.0035978334
199	0xbd05969d	-0.03261434
200	0x3ca658c0	0.020305991
201	0x3d5bfe73	0.05370946
202	0xbc8539da	-0.016262937
203	0xbd295dca	-0.04134921
204	0xbd2f1721	-0.042746667
205	0xbca7c3d4	-0.02047912
206	0xbd18da5b	-0.037317615
207	0x3d0ac749	0.03388146
208	0x3da5f17f	0.08102702
209	0x3d1caaa2	0.038248666
210	0xbd507d03	-0.05090047
211	0x3ca62f57	0.020286245
212	0x3c8d09b8	0.017216548
213	0x3c2726b4	0.010202099
214	0xbd4d7540	-0.050160646
215	0x3daa1601	0.08304978
216	0xbb2e8e65	-0.0026635167
217	0xbc47e555	-0.012200673
218	0xbd589366	-0.052874945
219	0x3cb98776	0.0226476
220	0x3d753a15	0.059869844
221	0xbcc21c3a	-0.0236951
222	0x3d90eb9d	0.0707619
223	0x3d941886	0.0723124
224	0xbb2068b7	-0.0024476477
225	0x3c972399	0.018449591
226	0xbda04c31	-0.07827032
227	0x3da05b76	0.07829945
228	0x3c550577	0.013001791
229	0x3d6db6ea	0.05803577
230	0x3b42b53e	0.002971008
231	0xbd14fb72	-0.03637261
232	0x3d1a3b23	0.037654053
233	0x3a32a5a0	0.0006814841
234	0xbd4f72ed	-0.05064671
235	0x3c5a3221	0.013317616
236	0xbca57d0d	-0.02020123
237	0x3d3ef78e	0.046622805
238	0x3d8d6013	0.0690309
239	0xbc2956ba	-0.010335619
240	0x3d94fc79	0.07274718
241	0x3d556b3e	0.052104227
242	0x3c825ac2	0.015912417
243	0x3d92799a	0.071521
244	0xbd48e5f0	-0.04904741
245	0xbda6c8d1	-0.081437714
246	0x3cb5333e	0.02211916
247	0x3dacb62c	0.08433184
248	0xbcfc16b3	-0.030772543
249	0xbd8146e4	-0.063123494
250	0x3d88ae38	0.066738546
251	0x3dcae914	0.099077374
252	0x3c558c0b	0.013033877
253	0xb9f4b5c4	-0.00046674733
254	0xbd8c2b36	-0.06844179
255	0xbcbcf31c	-0.023065142
