flowsim/model_no_flowsim/gnn_layer_0.pt (torch, 696467 bytes, 7 tensors)

weight f4 [200, 200]
-0.01311023 0.03546943 0.08287475 -0.012560294 0.031086398 0.063899525 0.030355051 -0.03132587
0.026430193 0.06121021 -0.038457707 -0.07105357 0.0087957885 -0.026728733 -0.0554826 0.017964657
0.051978428 -0.061816692 -0.028436428 0.023612568 0.012782977 0.035567738 0.0034989375 -0.009706711
0.04541086 -0.0026195312 0.031858593 0.061852694 -0.038128898 -0.0054330453 0.05901289 -0.02138092
0.041547686 0.031425584 -0.03648809 -0.000527093 0.0040199854 -0.010643528 -0.05859685 0.009258503
0.010586621 -0.021357942 -0.05391347 0.058473874 -0.0036515188 -0.030304948 0.060533427 0.026727363
-0.069032036 0.01984717 -0.063985765 -0.06881684 0.00726438 -0.025391355 0.039309356 0.039995663
0.044163596 0.038584057 -0.10210183 -0.045669775 -0.053349882 -0.058356185 0.031865083 -0.03254916
-0.04925994 -0.06525171 0.010765667 -0.05108691 -0.003201736 0.088713914 0.036008548 -0.04792957
0.05363725 0.03136507 0.015106321 -0.009502436 -0.011081948 -0.05214988 0.0024198443 -0.03585412
-0.0023319952 0.036122717 -0.019111661 0.098531015 -0.03153899 -0.059813567 -0.05843433 -0.061366487
-0.055841826 0.075108804 0.04895683 0.062034056 -0.07515543 0.03182203 0.0059349937 0.018900588
-0.07633156 0.06222288 0.0392589 -0.0127831455 0.014702404 0.07166249 -0.0713878 -0.011498981
0.046517782 -0.036501464 0.021353832 -0.01912392 0.01649501 0.036563437 0.03392466 -0.049656782
0.044632535 0.014370165 -0.062191553 0.029231872 0.07281886 -0.08080094 0.060202803 -0.04806811
0.06160338 0.05511033 -0.0035016746 0.067247435 -0.04515993 0.050166123 -0.08494472 0.055484954
-0.044656105 -0.079926744 -0.0051275427 -0.010568619 0.08270806 -0.036269527 0.00857736 0.006627837
-0.012734276 -0.043080397 0.01896427 0.08704388 -0.00045777927 0.023391875 0.03535547 0.078157715
-0.0017180516 0.03449959 0.004937181 0.012524196 0.0017326449 -0.04974937 -0.009262538 -0.0013472849
0.05530981 -0.040516876 -0.070114255 0.04009037 0.007883099 0.028092477 0.03707009 -0.036483444
-0.0035125162 0.050717108 0.052516326 0.06411422 -0.045944348 -0.019278286 0.012828146 -0.009237052
-0.025233982 0.014240977 0.02219602 0.04048871 -0.00055243913 0.02917923 -0.007138385 0.005424505
-0.043226246 0.027481224 -0.054837808 -0.002070746 0.052777663 -0.005919236 -0.09193817 -0.007075803
-0.020866925 -0.061097447 0.030969147 -0.075908385 0.008519877 -0.014610379 -0.03692387 -0.06118642
0.030060206 0.0555923 0.010492544 0.00905232 0.018951856 0.007990999 -0.05121403 0.034814045
0.0032819642 0.015946988 0.102107 -0.023788083 0.036546722 -0.0128378635 -0.008490163 -0.05611033
-0.046159513 -0.07085131 0.007561436 -0.02649235 -0.0007494037 -0.06665892 0.03677163 -0.052480154
0.036241915 0.034363844 0.012051615 -0.0466131 0.03758458 0.052965224 -0.06250831 -0.06665446
0.05293369 -0.077459924 -0.06491112 0.0508531 0.041791793 -0.005659248 -0.049961776 0.055709682
0.06655975 0.048296724 0.050599378 -0.017770663 -0.010765591 0.025482291 -0.007814371 -0.03349779
-0.038150817 0.03861877 -0.022790397 0.0359838 -0.006286643 0.012688309 -0.014472606 0.020183498
0.041277606 0.03372419 -0.033674613 0.020559967 -0.039561078 0.024892988 -0.008501762 -0.004896273
00000000: 4acc 56bc 6548 113d 3dba a93d b1c9 4dbc
00000010: e7a8 fe3c c1dd 823d 28ab f83c 8e4f 00bd
00000020: 2284 d83c 8fb7 7a3d d485 1dbd 8984 91bd
00000030: 361c 103c 37f6 dabc b941 63bd 9e2a 933c
00000040: 55e7 543d 8033 7dbd 83f3 e8bc 256f c13c
00000050: b16f 513c 7aaf 113d 6e4e 653b e608 1fbc
00000060: bd00 3a3d 71ac 2bbb 287e 023d 4059 7d3d
00000070: 0c2d 1cbd b007 b2bb 80b7 713d 0a27 afbc
00000080: e82d 2a3d 1db8 003d 8974 15bd 9d2c 0aba
00000090: 15ba 833b 3162 2ebc 4003 70bd fab0 173c
000000a0: 8273 2d3c daf6 aebc 5fd4 5cbd 4d82 6f3d
000000b0: 524e 6fbb 1542 f8bc e6f1 773d 58f3 da3c
000000c0: ab60 8dbd 8896 a23c f80a 83bd d8ef 8cbd
000000d0: 090a ee3b 8801 d0bc d902 213d 7ed2 233d
000000e0: e3e4 343d 510a 1e3d c41a d1bd 3b10 3bbd
000000f0: 6885 5abd e506 6fbd f684 023d 4552 05bd
00000100: cac4 49bd b0a2 85bd 7b62 303c 8240 51bd
00000110: 37d4 51bb a4af b53d b37d 133d cc51 44bd
00000120: bcb2 5b3d a978 003d 8180 773c 1bb0 1bbc
00000130: 0f91 35bc 1d9b 55bd 4096 1e3b c5db 12bd
00000140: 63d4 18bb 6af5 133d 0f90 9cbc a1ca c93d
00000150: 072f 01bd 12ff 74bd d658 6fbd 6d5b 7bbd
00000160: 66ba 64bd a5d2 993d f586 483d 6c17 7e3d
00000170: 17eb 99bd d157 023d 567a c23b 68d5 9a3c
00000180: b953 9cbd 6bdd 7e3d f1cd 203d 6670 51bc
00000190: 5ae2 703c c9c3 923d c433 92bd 3966 3cbc
000001a0: 6e89 3e3d 8f82 15bd 3bee ae3c c4a9 9cbc
000001b0: 8b20 873c 8bc3 153d 96f4 0a3d e964 4bbd
000001c0: 9bd0 363d d770 6b3c 92bc 7ebd ae77 ef3c
000001d0: 0e22 953d f77a a5bd 3797 763d 11e3 44bd
000001e0: d353 7c3d 5fbb 613d 5a7c 65bb 06b9 893d
000001f0: 9ef9 38bd fe7a 4d3d 7ff7 adbd 3144 633d
00000200: 52e9 36bd a2b0 a3bd f204 a8bb 0028 2dbc
00000210: d862 a93d 5b8f 14bd 0e88 0c3c 542e d93b
00000220: 6da3 50bc 1275 30bd f55a 9b3c 1044 b23d
00000230: 1802 f0b9 51a0 bf3c e6d0 103d 2711 a03d
00000240: 3f30 e1ba 714f 0d3d 13c8 a13b 4932 4d3c
00000250: ea19 e33a ffc5 4bbd e6c1 17bc 6197 b0ba
00000260: 8a8c 623d 06f5 25bd 1098 8fbd cd35 243d
00000270: 1d28 013c 3222 e63c cfd6 173d aa6f 15bd
00000280: 3e32 66bb bebc 4f3d 5c1b 573d 514e 833d
00000290: 2430 3cbd 7fed 9dbc 252d 523c 0157 17bc
000002a0: 7fb7 cebc fd52 693c 6ed4 b53c 7dd7 253d
000002b0: 90d1 10ba 4809 ef3c 1de9 e9bb 0cc0 b13b
000002c0: 010e 31bd 4e20 e13c 9c9d 60bd 5ab5 07bb
000002d0: 642d 583d 27f6 c1bb 144a bcbd 23dc e7bb
000002e0: 1df1 aabc 5141 7abd 02b3 fd3c db75 9bbd
000002f0: f496 0b3c 5f60 6fbc 7c3d 17bd 9d9e 7abd
00000300: d240 f63c c0b4 633d ebe8 2b3c 2f50 143c
00000310: ec40 9b3c aeec 023c cdc5 51bd 2c99 0e3d
00000320: 3916 573b 42a3 823c 7a1d d13d 3adf c2bc
00000330: 04b2 153d e755 52bc 531a 0bbc f2d3 65bd
00000340: c211 3dbd 7e1a 91bd ecc5 f73b 7c06 d9bc
00000350: a273 44ba 7984 88bd d99d 163d 6ef5 56bd
00000360: 6772 143d 1ac1 0c3d 2374 453c 61ed 3ebd
00000370: 4af2 193d 10f2 583d 5b04 80bd 2282 88bd
00000380: ffd0 583d 4fa3 9ebd 1ff0 84bd 574b 503d
00000390: df2d 2b3d 3771 b9bb b8a4 4cbd d62f 643d
000003a0: 7a50 883d c9d2 453d 4b41 4f3d c893 91bc
000003b0: 2962 30bc 3dc0 d03c d907 00bc fb34 09bd
000003c0: 0844 1cbd b72e 1e3d edb2 babc c063 133d
000003d0: 2f00 cebb a0e2 4f3c 821e 6dbc dd57 a53c
000003e0: b512 293d 6022 0a3d 64ee 09bd 606d a83c
000003f0: cc0a 22bd 61ec cb3c f94a 0bbc ea70 a0bb

bias f4 [200]
-0.041830435 -0.0591885 -0.005977059 -0.015194366 -0.058762588 -0.002019219 0.02808096 -0.078106895
-0.03575 -0.023154298 0.088047005 0.01992388 -0.027262414 -0.011014277 0.036004785 0.06568616
-0.013789635 0.032459117 -0.030658606 0.053268246 0.044430792 0.04831521 -0.003990738 0.0084703835
-0.05505923 0.00910687 0.0015873348 0.030474024 -0.0131247565 0.06176836 -0.05006283 0.036081273
0.019351186 0.08165538 0.018654572 -0.028579013 0.025630362 -0.0045087407 -0.02724084 -0.062074088
0.033651758 0.039692294 -0.00897501 0.05820876 0.013685847 0.013423124 -0.007218509 0.024597012
0.0064537656 -0.035637 -0.020745276 -0.048656575 0.050900754 -0.030878836 -0.048555706 0.031428527
-0.06793814 0.012078137 -0.06818294 -0.00060749357 0.057563517 -0.014370879 -0.04579077 -0.028252838
0.062136676 -0.04218497 0.014894787 0.058972366 -0.055564884 -0.047126453 -0.0863453 0.04905814
0.017682081 0.035708208 0.065134436 -0.053740807 -0.04097092 -0.027707618 0.02969882 -0.040486246
0.020615282 -0.031174948 -0.040127493 -0.07940125 0.055443924 0.029114272 -0.07729395 -0.049122203
-0.049066473 0.07583739 0.021305265 8.554075e-06 -0.025442135 -0.01996925 0.023376737 -0.014398644
-0.045966793 0.045923665 0.033396024 0.04266524 -0.06761225 -0.060586236 -0.045218203 0.019583479
0.026814185 -0.023665842 -0.025872609 0.025710266 0.038761206 0.00928463 0.035413764 -0.0041040895
-0.07917211 0.0652298 -0.054956716 0.012401328 -0.029121274 0.049167585 0.06041938 0.028814806
-0.019089326 -0.052199632 0.06579493 0.058900084 -0.043689616 0.050609354 -0.024855854 0.05369082
-0.034015328 -0.0187981 -0.0077906144 0.044596285 0.08423997 -0.08731817 -0.005247246 -0.016331244
0.013008891 -0.0020713198 -0.041992433 -0.046502035 -0.06915008 -0.025332864 0.05287388 0.025255388
0.034518443 -0.008808596 -0.058371488 0.07762969 -0.025911612 0.0122046 0.059550934 0.021056946
-0.060026746 -0.042787112 0.031389046 0.006877312 0.06831182 -0.0823053 0.026251556 0.059664052
-0.036483675 0.064839505 -0.070151635 -0.057901245 -0.03686224 -0.030640034 -0.0019609514 -0.044059854
-0.06199995 -0.014022808 -0.053954337 0.033791475 -0.06715957 -0.046639685 0.038139306 0.025933417
-0.003658573 -0.0001652351 -0.058717873 0.023619093 0.0022271008 0.0127770025 -0.072431125 0.03630331
0.030933222 0.044566292 0.05467607 -0.032609373 -0.06131439 -0.044775642 0.04302126 0.04289134
0.013710442 -0.07186235 0.048977327 -0.016905092 -0.074479386 0.02092005 0.046057507 -0.017088486
00000000: 6456 2bbd a46f 72bd 34db c3bb caf1 78bc
00000010: 0ab1 70bd e054 04bb 0b0a e63c 82f6 9fbd
00000020: 986e 12bd 15ae bdbc fd51 b43d 6837 a33c
00000030: 6d55 dfbc 3a75 34bc c179 133d 7786 863d
00000040: eced 61bc daf3 043d c227 fbbc ce2f 5a3d
00000050: 10fd 353d 2be6 453d bdc4 82bb 5dc7 0a3c
00000060: ca85 61bd fb34 153c 1e0e d03a a9a4 f93c
00000070: 3809 57bc d200 7d3d af0e 4dbd f5c9 133d
00000080: 6186 9e3c f03a a73d 79d1 983c 891e eabc
00000090: c4f6 d13c 0fbe 93bb 2f28 dfbc 6641 7ebd
000000a0: 6dd6 093d 6394 223d ec0b 13bc 4f6c 6e3d
000000b0: 9a3a 603c aaec 5b3c 3e89 ecbb ac7f c93c
000000c0: 1c7a d33b 1af8 11bd fff1 a9bc 1e4c 47bd
000000d0: 4f7d 503d 9df5 fcbc 59e2 46bd 33bb 003d
000000e0: 2723 8bbd 61e3 453c 7fa3 8bbd 3440 1fba
000000f0: b9c7 6b3d d673 6bbc 1a8f 3bbd 7f72 e7bc
00000100: 0783 7e3d 26ca 2cbd 4409 743c 028d 713d
00000110: 0198 63bd ab07 41bd ced5 b0bd 30f1 483d
00000120: 03da 903c c542 123d 3465 853d 521f 5cbd
00000130: 20d1 27bd 16fb e2bc f14a f33c e8d4 25bd
00000140: 61e1 a83c 9b62 ffbc ba5c 24bd 1f9d a2bd
00000150: 2b19 633d 0e81 ee3c 4a4c 9ebd 5d34 49bd
00000160: edf9 48bd a250 9b3d 6188 ae3c 7983 0f37
00000170: 066c d0bc 8d96 a3bc 9280 bf3c 4ae8 6bbc
00000180: ad47 3cbd 741a 3c3d 45ca 083d bfc1 2e3d
00000190: 4b78 8abd 4629 78bd b936 39bd 886d a03c
000001a0: 6ca9 db3c dede c1bc cbf2 d3bc 569e d23c
000001b0: 12c4 1e3d 901e 183c 060e 113d 997b 86bb
000001c0: fd24 a2bd 3497 853d 4b1a 61bd f12e 4b3c
000001d0: bd8f eebc f363 493d 507a 773d 070d ec3c
000001e0: 3861 9cbc 48cf 55bd 7ebf 863d 3741 713d
000001f0: e2f3 32bd c14b 4f3d 819e cbbc e8ea 5b3d
00000200: a853 0bbd 79fe 99bc 6948 ffbb 98aa 363d
00000210: 0186 ac3d ded3 b2bd 17f1 abbb 1ac9 85bc
00000220: 3e23 553c fbbe 07bb 4200 2cbd eb78 3ebd
00000230: 8f9e 8dbd de86 cfbc 4892 583d 63e4 ce3c
00000240: 3663 0d3d ee51 10bc f116 6fbd 51fc 9e3d
00000250: 9744 d4bc cdf5 473c aeeb 733d 9e7f ac3c
00000260: 9bde 75bd 8a41 2fbd cd91 003d 135b e13b
00000270: 11e7 8b3d ae8f a8bd 810d d73c 4b62 743d
00000280: e86f 15bd 93ca 843d a9ab 8fbd db29 6dbd
00000290: dcfc 16bd cf00 fbbc 4e83 00bb 1b78 34bd
000002a0: a9f3 7dbd ebbf 65bc 39ff 5cbd ee68 0a3d
000002b0: f58a 89bd 4109 3fbd f637 1c3d 5172 d43c
000002c0: abc4 6fbb f642 2db9 2782 70bd d47c c13c
000002d0: 8df4 113b a256 513c c556 94bd c8b2 143d
000002e0: ab67 fd3c 258b 363d 04f4 5f3d 6891 05bd
000002f0: cc24 7bbd aa66 37bd 1037 303d d4ae 2f3d
00000300: c3a1 603c 912c 93bd 739c 483d 8c7c 8abc
00000310: a688 98bd 8660 ab3c cca6 3c3d 27fd 8bbc

weight f4 [300, 200]
-0.01419278 0.023857845 -0.046939347 -0.0021500099 -0.013605651 0.017920244 -0.000629579 -0.048275795
-0.012731197 0.05241575 0.025611192 0.013686927 -0.016066499 0.023230398 0.016223313 0.0656816
0.06759531 -0.07052307 0.05671122 -0.057698973 0.032178804 0.002695453 0.038880005 -0.0492715
-0.040776968 -0.022566134 -0.0450357 0.007015556 0.032142315 0.0025830376 -0.002465968 0.06277088
0.027515596 0.06545608 -0.049792282 0.06583691 0.010810705 -0.04334697 0.042068955 0.0065130848
-0.0041248566 0.05307684 0.051756024 -0.003497658 -0.026191209 0.069278374 -0.05181949 -0.035544306
-0.06362732 0.027196864 0.020091988 -0.05908474 -0.039912593 -0.047519643 -0.020269668 0.012018751
0.021253645 0.011720412 0.024245547 -0.03266918 0.040559854 0.017969506 -0.0579175 0.008193923
0.054800544 0.010970056 -0.049183756 -0.02572129 -0.03470294 -0.0364254 0.00062561594 0.06610158
-0.067883484 0.047545515 0.09790829 0.059534833 -0.0478598 0.034988776 0.041433405 -0.026082937
-0.058568284 0.027095424 0.034734927 -0.05569615 0.049852517 0.0024557712 0.011419268 -0.030984385
-0.05928152 0.026787853 -0.04467157 0.03619521 -0.0661669 0.018045729 -0.0042118374 -0.03697209
0.02654419 0.08263099 -0.047064096 -0.019419286 0.045488045 -0.038782626 -0.053469114 0.07181943
0.063973255 -0.044511825 0.034736942 -0.029584985 0.049192335 0.0537172 0.020555124 -0.047460523
0.020179285 0.054968957 0.0069133188 -0.02513647 -0.060053766 -0.040018007 -0.054517277 0.030145757
-0.049674004 -0.042827252 0.042520165 -0.04661831 -0.0028601785 0.053615607 -0.04959594 -0.06721709
0.010890005 -0.05556498 -0.02632791 0.050434534 -0.009336506 -0.026670124 0.02081052 0.07441186
-0.008101027 -0.042478006 -0.03048682 -0.0039321952 0.015042661 0.07609036 0.013647445 -0.0028829696
-0.0726242 0.051277842 0.019705627 0.034818985 -0.02420796 -0.06889841 0.056802835 -0.005914437
-0.013186452 -0.047714937 -0.04792019 -0.04932354 -0.05369927 0.023588674 0.0031743916 0.011598151
0.033416558 -0.06271109 0.026331304 -0.059392624 -0.02326963 -0.047068335 -0.07974924 0.034108058
-0.048941106 -0.071997955 0.029091727 0.07812532 0.009029565 0.02001782 -0.037512828 0.059207413
0.021109452 0.03275028 -0.059600882 -0.063131094 0.042039428 -0.030097988 -0.044270206 0.010748521
0.05581974 -0.015935507 0.03809043 -0.0050596823 0.019312741 -0.0037212516 0.016158275 0.017001193
-0.04022845 -0.049344912 -0.007999105 -0.030144665 -0.039219096 0.043038674 0.05771369 0.00028568352
-0.009725703 -0.0045069545 -0.061086085 -0.06383496 -0.033928577 0.03952379 0.0055230455 -0.008261959
0.04077648 0.033476636 0.038320307 0.0036442108 0.0024505663 -0.073984526 -0.04587667 -0.06166342
-0.028493293 0.0391504 0.046361417 -0.06250478 -0.052599285 0.056169584 0.05143956 0.060037274
0.0063650203 0.07157538 -0.08542296 0.019630501 -0.04534353 0.017812314 0.07360076 -0.037020143
-0.011885023 -0.04231193 0.03766079 0.048709415 0.01125986 0.041763514 0.034566574 -0.046374917
-0.013862955 0.041930087 0.047389213 -0.015444977 0.016152686 -0.049520046 -0.0027059081 0.03887333
-0.014889623 -0.057103895 0.007491951 -0.031803418 0.018411033 0.056971524 0.036802754 -0.063606694
00000000: d588 68bc 8771 c33c 7943 40bd 2ee7 0cbb
00000010: 3dea 5ebc 7acd 923c 550a 25ba d7bc 45bd
00000020: 8396 50bc e6b1 563d 90ce d13c 223f 603c
00000030: e49d 83bc ad4d be3c c1e6 843c 1384 863d
00000040: 696f 8a3d 666e 90bd 064a 683d c255 6cbd
00000050: eccd 033d 32a6 303b a440 1f3d ead0 49bd
00000060: c005 27bd 9ddc b8bc 5b77 38bd c0e2 e53b
00000070: a9a7 033d 2e48 293b 149c 21bb 058e 803d
00000080: 6368 e13c d60d 863d fef2 4bbd 80d5 863d
00000090: 621f 313c 988c 31bd 7f50 2c3d b76b d53b
000000a0: ce29 87bb 1a67 593d 20fe 533d f738 65bb
000000b0: f28e d6bc d2e1 8d3d ac40 54bd e896 11bd
000000c0: 0a4f 82bd f5cb de3c f497 a43c d702 72bd
000000d0: 637b 23bd f5a3 42bd 930c a6bc 4cea 443c
000000e0: 201c ae3c f906 403c 999e c63c 1ed0 05bd
000000f0: 1722 263d c934 933c e73a 6dbd ce3f 063c
00000100: 8976 603d c0bb 333c e874 49bd 74b5 d2bc
00000110: ac24 0ebd cd32 15bd 6000 243a 4460 873d
00000120: 7f06 8bbd 16bf 423d 2484 c83d ccda 733d
00000130: a308 44bd 6450 0f3d 13b6 293d e2ab d5bc
00000140: 4ce5 6fbd 39f7 dd3c 3646 0e3d a521 64bd
00000150: 2732 4c3d 01f1 203b e217 3b3c f7d2 fdbc
00000160: 2ed1 72bd 3372 db3c 89f9 36bd 6e41 143d
00000170: 8382 87bd a3d4 933c 7403 8abb 0c70 17bd
00000180: 3373 d93c 703a a93d 48c6 40bd 3215 9fbc
00000190: ac51 3a3d 88da 1ebd 6e02 5bbd 1116 933d
000001a0: 6904 833d 0852 36bd 5348 0e3d 365c f2bc
000001b0: e77d 493d 9106 5c3d 3863 a83c f765 42bd
000001c0: 074f a53c 2127 613d 1f89 e23b 00eb cdbc
000001d0: f0fa 75bd ece9 23bd 824d 5fbd 3cf4 f63c
000001e0: f876 4bbd a16b 2fbd a029 2e3d d7f2 3ebd
000001f0: d571 3bbb 0a9c 5b3d 1d25 4bbd 1da9 89bd
00000200: fe6b 323c 1b98 63bd a1ad d7bc 7194 4e3d
00000210: 25f8 18bc 4e7b dabc d37a aa3c 3f65 983d
00000220: 2cba 04bc 6bfd 2dbd 7fbf f9bc a5d9 80bb
00000230: 7e75 763c 43d5 9b3d 8899 5f3c 34f0 3cbb
00000240: ffbb 94bd b708 523d b26d a13c 5a9e 0e3d
00000250: c64f c6bc 9c1a 8dbd 17aa 683d e5cd c1bb
00000260: fd0b 58bc bd70 43bd f647 44bd 7b07 4abd
00000270: c4f3 5bbd 093d c13c 7409 503b 2c06 3e3c
00000280: cddf 083d ac6e 80bd bfb4 d73c ae45 73bd
00000290: f39f bebc baca 40bd 9253 a3bd e4b4 0b3d
000002a0: 7876 48bd aa73 93bd c651 ee3c 2b00 a03d
000002b0: bef0 133c 69fc a33c 0da7 19bd 7983 723d
000002c0: bbed ac3c 2825 063d 0e20 74bd e04a 81bd
000002d0: 8931 2c3d 0e90 f6bc ad54 35bd 911a 303c
000002e0: 3da3 643d 2e8b 82bc b604 1c3d b1cb a5bb
000002f0: c135 9e3c 3ee0 73bb 5c5e 843c 1646 8b3c
00000300: 96c6 24bd e41d 4abd ae0e 03bc f2f1 f6bc
00000310: 34a4 20bd 5249 303d 3165 6c3d cbc7 9539
00000320: 8e58 1fbc 13af 93bb 6735 7abd e7bb 82bd
00000330: b1f8 0abd b3e3 213d aafa b43b 2b5d 07bc
00000340: 3d05 273d cc1e 093d c1f5 1c3d b6d3 6e3b
00000350: ae99 203b 3385 97bd 2de9 3bbd c892 7cbd
00000360: c46a e9bc 2b5c 203d 78e5 3d3d 8202 80bd
00000370: 5972 57bd 1412 663d 4ab2 523d a5e9 753d
00000380: a991 d03b 1d96 923d 3cf2 aebd 25d0 a03c
00000390: 23ba 39bd 21eb 913c ffbb 963d 6fa2 17bd
000003a0: 66b9 42bc 464f 2dbd 3342 1a3d 8683 473d
000003b0: 477b 383c 3810 2b3d ae95 0d3d a0f3 3dbd
000003c0: 7321 63bc e2be 2b3d 311b 423d ee0c 7dbc
000003d0: a352 843c 88d5 4abd 9b55 31bb a439 1f3d
000003e0: 9bf3 73bc c6e5 69bd 0a7f f53b 4d44 02bd
000003f0: bcd2 963c f95a 693d 7cbe 163d 3a44 82bd

bias f4 [300]
0.087348826 -0.04661075 0.049571134 0.0200318 0.014226669 -0.08551386 0.03911913 -0.024338366
-0.042017817 -0.004821718 -0.001300498 0.03179444 -0.014093413 0.034890227 0.02189045 -0.051412076
-0.023996662 0.06384292 -0.029465461 -0.03818492 -0.017691664 -0.08002594 -0.034195416 -0.012614383
-0.014253092 -0.032616988 -0.058901474 0.022488404 0.053645004 0.04310869 0.012870169 -0.06318593
0.055913825 -0.04750803 0.006814193 -0.08323158 0.004114057 -0.08426445 0.030569281 -0.012939599
0.051335905 0.022859547 -0.058508717 -0.008528342 -0.020296935 -0.0058558946 0.035034437 -0.03225616
0.019331489 0.03700528 0.066734225 0.015036372 -0.040815316 0.051338397 0.0008951387 -0.024167279
-0.02207892 0.076496616 0.045686826 0.0344656 0.040469825 0.061103504 0.02229098 0.04081862
-0.06773334 0.024123985 0.03970017 -0.0012306048 -0.028145537 -0.053538784 -0.05688259 -0.04791855
-0.04681791 -0.022000765 -0.024086349 0.08254081 0.022011977 0.0641974 -0.04125013 0.09174668
0.08884152 -0.035975385 -0.07253733 0.05781194 -0.05163552 -0.0031139748 0.042036977 0.024468504
0.0025624335 0.06369665 0.011086893 0.051364858 0.033426646 0.017426299 0.0020205174 -0.030329887
-0.043434057 0.042115454 -0.053993795 -0.08735115 -0.0816629 0.06031924 0.013767868 0.005724597
0.024207145 -0.016553065 0.076750465 -0.019875085 -0.012929099 0.00959892 0.047334746 -0.016315786
-0.03211337 -0.066276595 -0.05720234 -0.054932028 0.040730618 -0.01872709 -0.028766802 0.08031901
0.08289548 0.022371605 0.04565337 0.0040499065 0.087752916 -0.051291127 -0.034651373 0.043149978
-0.014476846 -0.028062297 0.02029068 -0.05569385 -0.018097326 0.044541616 -0.018292395 0.070791155
0.03845595 0.08217642 -0.028100496 -0.042072695 0.06270768 0.022304 -0.06475055 0.059654973
-0.03505072 -0.058358412 0.058694277 -0.04363119 -0.07975386 0.005312065 0.05229274 -0.083341785
-0.038269795 0.07102386 0.06321901 -0.064023726 -0.04558484 -0.049094886 -0.052963864 0.052755855
-0.032676246 -0.071739174 -0.010873102 -0.07153014 -0.024996415 -0.020220889 -0.040901106 0.05516396
0.018221801 -0.02289818 0.012254904 0.05963984 0.023233822 0.053790405 0.06731477 -0.005061921
-0.022269432 0.034451462 -0.011341188 0.05709251 -0.049452275 0.04403942 -0.059910726 0.065626875
0.048348416 -0.016600586 0.08018273 -0.0839604 -0.056494825 -0.052977923 -0.074502334 0.04324282
-0.03089823 -0.024489628 -0.035827387 -0.07266241 -0.0028923752 -0.0005908877 -0.032917526 -0.03971376
-0.08695815 -0.07866575 -0.061109636 -0.01061641 -0.07434694 0.023837797 -0.015180122 0.04037666
0.01932488 -0.07728754 -0.0026806798 -0.044311658 -0.0050412375 -0.019580053 -0.05464499 -0.06671415
-0.046961367 0.007615314 -0.06051328 0.029892286 -0.033074934 -0.0546192 0.036949974 -0.0023962632
0.08244893 -0.031647492 0.021368166 -0.04737279 -0.054751836 0.040305167 -0.054629307 -0.05378513
-0.011980959 -0.06788974 0.019801674 0.07757485 0.02194145 0.012937751 0.05843653 0.031167014
0.031229146 0.0731887 0.065218806 -0.025781523 -0.05203053 -0.05061043 0.027859058 -0.025755204
-0.0077375644 -0.0037586389 0.015084734 -0.055168096 0.015175407 0.0069579068 -0.0032199034 0.03876296
00000000: f1e3 b23d eaea 3ebd 1a0b 4b3d bb19 a43c
00000010: fa16 693c e421 afbd 613b 203d 4161 c7bc
00000020: e01a 2cbd 81ff 9dbb 7975 aaba e33a 023d
00000030: 0fe8 66bc 0ee9 0e3d 9a53 b33c 7895 52bd
00000040: a694 c4bc 14c0 823d 8d61 f1bc ca67 1cbd
00000050: 1cee 90bc a4e4 a3bd 7e10 0cbd 8fac 4ebc
00000060: cd85 69bc 6499 05bd ac42 71bd 9a39 b83c
00000070: ddba 5b3d bd92 303d 67dd 523c a067 81bd
00000080: e505 653d c897 42bd 9849 df3b 5275 aabd
00000090: 36cf 863b d792 acbd 6e6c fa3c 9d00 54bc
000000a0: 9945 523d f243 bb3c d6a6 6fbd 75ba 0bbc
000000b0: c245 a6bc cee2 bfbb 4580 0f3d 091f 04bd
000000c0: 125d 9e3c d992 173d f4ab 883d 1d5b 763c
000000d0: f62d 27bd 3648 523d bea7 6a3a 75fa c5bc
000000e0: dade b4bc 42aa 9c3d 1c22 3b3d cd2b 0d3d
000000f0: b0c3 253d ab47 7a3d 939b b63c 6d31 273d
00000100: c7b7 8abd aa9f c53c a59c 223d 3f4c a1ba
00000110: 7891 e6bc 7c4b 5bbd b8fd 68bd 3e46 44bd
00000120: 23c4 3fbd f33a b4bc bc50 c5bc 280b a93d
00000130: 7652 b43c ed79 833d e5f5 28bd afe5 bb3d
00000140: 8bf2 b53d ed5a 13bd 748e 94bd 36cc 6c3d
00000150: c47f 53bd d413 4cbb f72e 2c3d 2c72 c83c
00000160: 80ee 273b 6473 823d cda5 353c f563 523d
00000170: 61ea 083d 99c1 8e3c a86a 043b 6276 f8bc
00000180: e9e7 31bd 4181 2c3d 9928 5dbd 29e5 b2bd
00000190: e13e a7bd 4f11 773d a092 613c 6695 bb3b
000001a0: 104e c63c 4b9a 87bc 592f 9d3d 13d1 a2bc
000001b0: 92d4 53bc ca44 1d3c 14e2 413d afa8 85bc
000001c0: 4f89 03bd 06bc 87bd 004d 6abd 6800 61bd
000001d0: 26d5 263d 8e69 99bc 5ba8 ebbc 4b7e a43d
000001e0: 1bc5 a93d a844 b73c 07ff 3a3d 14b5 843b
000001f0: cdb7 b33d a516 52bd 99ee 0dbd 08be 303d
00000200: 4b30 6dbc e7e2 e5bc a438 a63c 3c1f 64bd
00000210: d840 94bc 4571 363d efd9 95bc f4fa 903d
00000220: fc83 1d3d 1c4c a83d 0333 e6bc 6b54 2cbd
00000230: e26c 803d e1b6 b63c f09b 84bd c658 743d
00000240: 5891 0fbd 3b09 6fbd 6969 703d 9eb6 32bd
00000250: fe55 a3bd d510 ae3b ea30 563d 19af aabd
00000260: cac0 1cbd f574 913d f878 813d df1e 83bd
00000270: 2bb7 3abd b817 49bd a3f0 58bd 8616 583d
00000280: 87d7 05bd fdeb 92bd 1825 32bc 657e 92bd
00000290: 48c5 ccbc 47a6 a5bc eb87 27bd 9bf3 613d
000002a0: e345 953c f794 bbbc cbc8 483c e848 743d
000002b0: db54 be3c 5453 5c3d 53dc 893d 79de a5bb
000002c0: 626e b6bc fa1c 0d3d 64d0 39bc d6d9 693d
000002d0: 788e 4abd ae62 343d f364 75bd 6267 863d
000002e0: fd08 463d f4fd 87bc d836 a43d 6ef3 abbd
000002f0: 1e67 67bd 61ff 58bd ae94 98bd 621f 313d
00000300: 491e fdbc 799e c8bc bdbf 12bd 08d0 94bd
00000310: 018e 3dbb cde5 1aba 87d4 06bd e5aa 22bd
00000320: 1d17 b2bd 821b a1bd 194e 7abd 73f0 2dbc
00000330: 3543 98bd 7c47 c33c 0cb6 78bc ff61 253d
00000340: 364f 9e3c ee48 9ebd 58ae 2fbb 2480 35bd
00000350: f730 a5bb 5966 a0bc 6dd3 5fbd 6ea1 88bd
00000360: 905a 40bd e289 f93b c6dc 77bd abe0 f43c
00000370: 9579 07bd 62b8 5fbd db58 173d a00a 1dbb
00000380: fcda a83d cda0 01bd 4b0c af3c f809 42bd
00000390: 7643 60bd 0817 253d fbc2 5fbd cc4d 5cbd
000003a0: c94b 44bc c709 8bbd 1f37 a23c 90df 9e3d
000003b0: 8ebe b33c dcf8 533c 255b 6f3d f751 ff3c
000003c0: 44d4 ff3c f5e3 953d 7091 853d c633 d3bc
000003d0: f71d 55bd e24c 4fbd ae38 e43c 94fc d2bc
000003e0: 658b fdbb 7f53 76bb f625 773c f1f7 61bd
000003f0: 45a2 783c 27ff e33b 0405 53bb e9c5 1e3d

weight f4 [300, 200]
0.010694849 0.0690206 -0.012356794 -0.06677022 -0.004401021 -0.053673122 0.053243365 -0.015081773
-0.05343786 0.052809376 -0.023303432 -0.031035157 -0.044248194 -0.04802426 0.05094192 0.06409178
0.06370251 -0.049584918 -0.027311737 -0.06317615 -0.026265997 -0.021527935 -0.030577978 0.017066816
-0.02940876 -0.018409574 0.06896594 0.044725936 -0.05110949 0.0023155117 0.07259328 0.0366441
0.0068218857 0.036873702 0.05959624 0.020694919 -0.06307955 0.036193345 0.05640963 -0.020969195
0.018086286 -0.057539806 0.0043822667 -0.009335169 0.008181588 -0.034351863 0.089001045 0.02352234
-0.009873595 0.0072046863 0.019061089 -0.023133239 -0.038477812 -0.004061192 -0.045864817 0.022147039
0.06741132 -0.07606072 0.029421372 -0.014241721 0.024188103 0.01698269 0.060716808 0.058705516
-0.07526283 -0.059465997 0.039128803 -0.027312573 0.023835866 0.0133739645 0.065450475 0.0036587063
-0.009550468 0.039604664 -0.012934746 0.022820784 0.05991036 -0.036909007 -0.038425595 -0.035605296
0.058156032 0.038858652 0.03822645 0.015598913 -0.025110189 0.0489624 -0.0118525885 0.036085866
0.037390836 -0.021670904 0.06074467 0.056141995 0.02294718 -0.02763793 -0.06706227 -0.060984023
-0.02877981 -0.07371884 0.057566773 -0.07099678 -0.07053279 -0.0705257 -0.02620437 -0.0017917303
0.04532962 -0.021769065 -0.05552138 -0.022710722 -0.03996974 0.0040173787 0.014163965 -0.0617501
0.0070797657 -0.06800056 0.045583878 -0.05286933 -0.067598835 -0.0006789129 -0.059626758 -0.0058948165
-0.03960691 -0.0026005968 0.0033851005 -0.07565712 -0.03229461 0.076130584 -0.05542461 -0.033151094
-0.03448209 -0.029096738 0.0641963 -0.005676755 0.0134935845 0.0071697254 -0.052758165 0.04383771
-0.028356211 -0.036319908 0.046288487 -0.046908278 0.074624255 0.017629242 0.029509211 -0.036911774
0.047784124 0.04129749 0.010580969 0.004108952 0.014097241 0.05307561 0.023883745 0.026887972
-0.05189514 0.0005688491 -0.01715793 0.047483537 -0.03956866 0.02963462 -0.010779776 0.001316024
0.011658492 -0.020888941 0.049475137 0.0049197483 0.027089957 -0.010750491 -0.011433815 0.0062278826
-0.028809683 -0.052991822 0.027159825 0.06422164 0.008790179 -0.04383051 0.001791486 0.06130161
-0.04845707 0.02338563 0.0362215 -0.005124354 -0.0033428236 0.022322036 -0.06121949 -0.026073186
-0.056939736 0.06654477 0.025115516 -0.013042599 0.0044702925 -0.041354537 -0.03237742 -0.075952925
-0.03157785 0.058873013 0.039469082 -0.041089766 -0.043800034 -0.060410447 0.0029416326 0.04834813
0.08390717 -0.017689127 -0.041932773 0.06974585 0.0001986407 -0.030702002 0.057984028 0.07357473
0.031530946 -0.023578865 -0.042768896 -0.042461984 0.037771847 0.053226054 -0.041502953 -0.043592162
0.061089482 -0.030602956 0.018517543 0.06613928 0.007694629 -0.012043172 0.027443117 -0.043589566
0.039577395 -0.0049032313 0.00590064 -0.0064774393 -0.02820157 0.06491458 -0.05068639 0.05996833
0.056884617 -0.07525299 -0.05136796 -0.008746951 0.008847742 0.039829172 -0.0059425347 -0.022172846
0.02911095 0.008190401 0.10184985 0.0007680937 -0.067279615 0.0020315195 -0.08289146 -0.06477498
0.01231245 -0.048088923 -0.047753435 -0.02055895 0.060409367 0.02910279 0.044912033 0.026329739
00000000: 7339 2f3c ac5a 8d3d 2774 4abc d3be 88bd
00000010: 7136 90bb 59d8 5bbd b715 5a3d 8a19 77bc
00000020: a8e1 5abd a54e 583d d7e6 bebc 713d febc
00000030: 983d 35bd 16b5 44bd 7aa8 503d 8d42 833d
00000040: 7676 823d 8e19 4bbd ddbc dfbc 7f62 81bd
00000050: ca2b d7bc 5a5b b0bc ab7e fabc b5cf 8b3c
00000060: a4ea f0bc adcf 96bc 043e 8d3d 8b32 373d
00000070: 2f58 51bd d7bf 173b c9ab 943d 2018 163d
00000080: 208a df3b e108 173d 301b 743d 6488 a93c
00000090: da2f 81bd 793f 143d c90d 673d 97c7 abbc
000000a0: b129 943c dcae 6bbd 1e99 8f3b 89f2 18bc
000000b0: 110c 063c 8ab4 0cbd 2e46 b63d ecb1 c03c
000000c0: dcc4 21bc 4a15 ec3b 0026 9c3c eb81 bdbc
000000d0: e99a 1dbd bf13 85bb bfdc 3bbd b56d b53c
000000e0: f20e 8a3d b9c5 9bbd 1705 f13c 1b56 69bc
000000f0: 2126 c63c 481f 8b3c 30b2 783d 3275 703d
00000100: 6623 9abd 9e92 73bd 8645 203d 9ebe dfbc
00000110: 6f43 c33c 791e 5b3c e60a 863d e8c6 6f3b
00000120: 9179 1cbc 8038 223d 42ec 53bc a7f2 ba3c
00000130: 9164 753d e62d 17bd 2864 1dbd dcd6 11bd
00000140: 0535 6e3d 402a 1f3d 5793 1c3d 9592 7f3c
00000150: e2b3 cdbc cc8c 483d 5c31 42bc c6ce 133d
00000160: 2227 193d 2e87 b1bc 67cf 783d 26f5 653d
00000170: b9fb bb3c f168 e2bc f257 89bd 62ca 79bd
00000180: a3c3 ebbc e7f9 96bd 23cb 6b3d c366 91bd
00000190: 7f73 90bd c76f 90bd 8caa d6bc 7ed8 eaba
000001a0: 8dab 393d 0a55 b2bc 636a 63bd d60b babc
000001b0: 4fb7 23bd 37a4 833b fa0f 683c aced 7cbd
000001c0: 61fd e73b e143 8bbd 29b6 3a3d 838d 58bd
000001d0: 4271 8abd 13f9 31ba 303b 74bd 4e29 c1bb
000001e0: db3a 22bd c66e 2abb 90d8 5d3b 1ff2 9abd
000001f0: 5a47 04bd 5aea 9b3d ea04 63bd 71c9 07bd
00000200: 183d 0dbd 485c eebc 5a79 833d 1304 babb
00000210: 3214 5d3c 04f0 ea3b f218 58bd 2c8f 333d
00000220: 494b e8bc 2fc4 14bd ff98 3d3d e522 40bd
00000230: 9ad4 983d 336b 903c 4dbd f13c cd30 17bd
00000240: 49b9 433d 8f27 293d cd5b 2d3c 63a4 863b
00000250: 1df8 663c d065 593d d8a7 c33c 2a44 dc3c
00000260: 0090 54bd d11e 153a ca8e 8cbc 197e 423d
00000270: bf12 22bd 4dc4 f23c a89d 30bc 707e ac3a
00000280: 4203 3f3c 491f abbc 71a6 4a3d d735 a13b
00000290: c2eb dd3c d422 30bc e554 3bbc 4413 cc3b
000002a0: 4902 ecbc f40d 59bd 487e de3c a386 833d
000002b0: af04 103c 9f87 33bd 4cd0 ea3a 6617 7b3d
000002c0: ec7a 46bd 3993 bf3c ff5c 143d 32ea a7bb
000002d0: 4613 5bbb b4dc b63c 4ac1 7abd 6f97 d5bc
000002e0: a439 69bd a048 883d 0ebf cd3c a0b0 55bc
000002f0: 887b 923b 6063 29bd 309e 04bd 358d 9bbd
00000300: c757 01bd d424 713d 55aa 213d be4d 28bd
00000310: aa67 33bd f270 77bd 68c8 403b b008 463d
00000320: 86d7 ab3d cae8 90bc b3c1 2bbd ead6 8e3d
00000330: 354a 5039 c482 fbbc a980 6d3d 59ae 963d
00000340: 9826 013d 7728 c1bc 702e 2fbd 9eec 2dbd
00000350: a7b6 1a3d 9003 5a3d 00ff 29bd b28d 32bd
00000360: f738 7a3d 0db3 fabc 1ab2 973c 0874 873d
00000370: 3a23 fc3b b950 45bc 63d0 e03c f98a 32bd
00000380: e81b 223d 49ab a0bb 285a c13b b340 d4bb
00000390: fb06 e7bc eff1 843d 889c 4fbd 5aa1 753d
000003a0: d8ff 683d 3d1e 9abd 3667 52bd 5f4f 0fbc
000003b0: 1ff6 103c ea23 233d 98b9 c2bb d4a3 b5bc
000003c0: 167a ee3c 0831 063c a796 d03d e559 493a
000003d0: e5c9 89bd 3e23 053b ffc2 a9bd bfa8 84bd
000003e0: 29ba 493c e4f8 44bd 1b99 43bd 3e6b a8bc
000003f0: d06f 773d f968 ee3c aef5 373d 77b1 d73c

weight f4 [300]
0.987879 1.0012308 1.0087962 0.97794825 0.9745527 1.0113537 0.99152255 1.0044467
1.0300089 0.9919925 1.0105195 0.9953739 0.99726564 1.0105864 0.98011845 0.9904899
1.0002891 1.0189031 1.0167974 0.9721191 1.0139767 1.0060548 0.9893747 0.9885439
0.9946962 0.99432284 0.99102426 0.99360967 1.0023214 0.99321854 1.0002617 1.0209055
0.9961495 0.9744719 1.004803 1.0233487 0.99699825 1.015189 0.9959702 1.0258584
0.97509074 0.99325156 0.98470575 0.99941957 1.002896 1.0007696 0.998939 0.9721206
1.0112253 1.0348648 1.0102909 1.0062852 1.0352327 1.0118642 1.0025035 0.99137676
0.9840425 1.0031016 1.0168419 1.0248438 1.0209459 0.99384505 0.9798339 1.0170805
1.0041183 0.99292755 0.9922959 1.007448 1.0033591 1.0077792 0.99680984 0.9914573
0.9924966 0.97856474 1.0083694 1.0043056 0.9845251 0.99422103 0.97036386 1.0145792
1.0166775 1.0009071 1.0240273 1.0145966 0.99721456 1.0035185 1.0031481 1.0123374
1.0076827 1.0060842 0.987178 1.021501 1.0028454 1.0009503 0.98869205 1.0002826
0.99930316 0.9873224 1.0017383 1.0201379 1.0175883 0.99683845 1.0000046 0.9792172
0.98413056 0.98976785 1.0064554 1.0296655 0.9984717 0.9936317 1.0021459 1.0001289
0.9908786 1.0004812 1.0062295 1.0003909 1.0076241 1.0084136 1.011859 1.005795
1.0026237 1.0012296 1.0059539 0.97812545 0.9923952 0.997214 1.0211108 0.9974127
0.99544847 1.0078766 1.0166907 1.0204055 1.006225 0.99700886 1.0040951 1.0003512
1.0081499 0.9847224 0.9936585 0.99866426 0.9860769 0.9886618 1.0113643 0.993079
0.99599063 1.021435 0.99482614 0.9893824 0.9965631 1.0138673 0.99992186 1.027212
1.0023592 0.983566 0.99648064 0.99947524 0.98730636 1.0064148 1.0080552 0.99589914
0.9973571 0.98903495 0.9919739 0.99137145 1.0199062 1.0049522 0.9910269 0.9992581
0.9976735 0.9892903 0.9941982 0.9952268 1.0025271 1.0161285 0.9996299 0.9870006
0.987113 0.9986975 1.0098474 1.0035707 1.0003598 1.0006448 1.0202531 0.9873831
0.98773146 0.9869785 1.0006511 0.99528486 1.0180849 0.982068 0.99411637 1.0023303
0.9979041 0.9961536 1.0036383 1.0070373 0.9956927 0.99854505 0.9874281 1.0008659
0.98078924 0.98698974 0.99518114 1.0205951 1.0131936 0.9977322 0.98665935 0.99344146
0.98200566 0.9961866 1.0026215 1.0000062 0.9743402 0.99962 1.0162946 1.0108328
0.98122734 1.0243169 1.0037762 0.9961207 0.9767269 0.99809784 0.99800944 1.0153744
1.0139401 1.0145113 1.0087633 1.0066453 1.0203106 0.98659706 1.0053443 0.99490875
0.99381554 0.99491185 1.0014437 1.016465 0.98046017 1.0091947 0.9954954 1.007677
0.9958633 0.98418313 0.9834724 0.9841468 0.99239206 1.033896 0.9891864 0.9954304
0.978612 0.99065 0.99604726 1.007295 0.9962972 1.0049613 1.0014931 0.9957232
00000000: a3e5 7c3f 5528 803f 3c20 813f d15a 7a3f
00000010: 497c 793f 0a74 813f 6cd4 7d3f b691 803f
00000020: 55d7 833f 38f3 7d3f b458 813f d3d0 7e3f
00000030: cd4c 7f3f e55a 813f 0be9 7a3f bf90 7d3f
00000040: 7909 803f 6b6b 823f 6b26 823f ccdc 783f
00000050: fdc9 813f 67c6 803f a947 7d3f 3711 7d3f
00000060: 69a4 7e3f f18b 7e3f c4b3 7d3f 345d 7e3f
00000070: 114c 803f 9243 7e3f 9308 803f 08ad 823f
00000080: a703 7f3f fe76 793f 629d 803f 17fd 823f
00000090: 473b 7f3f b7f1 813f e7f7 7e3f 544f 833f
000000a0: 8c9f 793f bc45 7e3f ad15 7c3f f6d9 7f3f
000000b0: e55e 803f 3819 803f 77ba 7f3f e5dc 783f
000000c0: d56f 813f 7376 843f 3651 813f f4cd 803f
000000d0: 8182 843f c484 813f 0952 803f deca 7d3f
000000e0: 36ea 7b3f a265 803f e027 823f 152e 833f
000000f0: 5bae 823f a16c 7e3f 65d6 7a3f b22f 823f
00000100: f386 803f 8030 7e3f 1b07 7e3f 0ef4 803f
00000110: 126e 803f e9fe 803f ee2e 7f3f 25d0 7d3f
00000120: 4214 7e3f 3883 7a3f 4012 813f 168d 803f
00000130: d609 7c3f 4585 7e3f c469 783f bbdd 813f
00000140: 7d22 823f b91d 803f 5413 833f 4dde 813f
00000150: 7449 7f3f 4b73 803f 2867 803f 4694 813f
00000160: bffb 803f 5ec7 803f b3b7 7c3f 8bc0 823f
00000170: 3d5d 803f 241f 803f ec1a 7d3f 4309 803f
00000180: 55d2 7f3f 29c1 7c3f f638 803f e193 823f
00000190: 5540 823f ce30 7f3f 2700 803f faad 7a3f
000001a0: fbef 7b3f 6d61 7d3f 88d3 803f 14cc 833f
000001b0: d79b 7f3f a65e 7e3f 5146 803f 3904 803f
000001c0: 38aa 7d3f c50f 803f 21cc 803f cf0c 803f
000001d0: d4f9 803f b213 813f 9984 813f e4bd 803f
000001e0: f955 803f 4b28 803f 19c3 803f 6e66 7a3f
000001f0: 9d0d 7e3f 6b49 7f3f c2b3 823f 7056 7f3f
00000200: b6d5 7e3f 1a02 813f ec22 823f a69c 823f
00000210: fbcb 803f f93b 7f3f 3086 803f 820b 803f
00000220: 0e0b 813f c416 7c3f 6760 7e3f 76a8 7f3f
00000230: 896f 7c3f f118 7d3f 6374 813f 6d3a 7e3f
00000240: 3ef9 7e3f 62be 823f edac 7e3f 2a48 7d3f
00000250: c21e 7f3f 67c6 813f e1fa 7f3f af7b 833f
00000260: 4e4d 803f fbca 7b3f 5b19 7f3f 9cdd 7f3f
00000270: 1cc0 7c3f 33d2 803f f407 813f 3ff3 7e3f
00000280: cb52 7f3f 6531 7d3f 00f2 7d3f 85ca 7d3f
00000290: 498c 823f 46a2 803f f0b3 7d3f 61cf 7f3f
000002a0: 8867 7f3f 2142 7d3f c683 7e3f 2fc7 7e3f
000002b0: cf52 803f 8010 823f bfe7 7f3f 12ac 7c3f
000002c0: 70b3 7c3f a4aa 7f3f ae42 813f 0175 803f
000002d0: ca0b 803f 2115 803f a797 823f 24c5 7c3f
000002e0: f8db 7c3f 9faa 7c3f 5615 803f fdca 7e3f
000002f0: 9b50 823f cf68 7b3f 697e 7e3f 5c4c 803f
00000300: a576 7f3f ec03 7f3f 3877 803f 99e6 803f
00000310: b7e5 7e3f a6a0 7f3f 17c8 7c3f 601c 803f
00000320: 0115 7b3f 5cab 7c3f 31c4 7e3f dca2 823f
00000330: 54b0 813f 616b 7f3f b595 7c3f 2e52 7e3f
00000340: b964 7b3f 1606 7f3f e755 803f 3400 803f
00000350: 5c6e 793f 19e7 7f3f f115 823f f862 813f
00000360: b731 7b3f d11c 833f bd7b 803f c401 7f3f
00000370: c60a 7a3f 5783 7f3f 8c7d 7f3f caf7 813f
00000380: cac8 813f 82db 813f 281f 813f c1d9 803f
00000390: 8a99 823f a091 7c3f 1faf 803f 57b2 7e3f
000003a0: b26a 7e3f 8bb2 7e3f 4f2f 803f 861b 823f
000003b0: 70ff 7a3f 4b2d 813f c9d8 7e3f 8ffb 803f
000003c0: e6f0 7e3f 6df3 7b3f d9c4 7b3f 0bf1 7b3f
000003d0: 680d 7e3f b456 843f 523b 7d3f 87d4 7e3f
000003e0: 5186 7a3f 3d9b 7d3f f4fc 7e3f 0bef 803f
000003f0: 550d 7f3f 92a2 803f ed30 803f b7e7 7e3f

bias f4 [300]
0.0043640113 0.0001471291 0.001843518 0.001833508 0.0008112018 -0.002337573 -0.0043464866 0.0014704339
-0.00066170475 -0.0034492444 -0.0056177545 -0.0044945986 -0.0007145102 0.0027924906 0.00020136991 -0.00070006656
-0.0022607746 0.0035828915 -0.0019277859 -0.010728227 -0.0022985833 0.0014932989 -0.001763506 9.00547e-05
0.011529089 0.011377796 0.007061796 0.003319187 0.0034472875 0.006496043 4.828758e-05 -0.0006748251
-0.005262824 0.00088059186 0.013628338 -0.011573907 0.00699964 -0.0024962607 0.0077779153 -0.0076724486
-0.011181799 -0.005555526 0.00204992 -0.006034965 0.0007860332 -0.0051318407 0.0002896261 -0.0010920237
-0.0028165253 -0.0036098394 0.00994242 -0.006699663 -0.0003013499 -0.008729742 -0.001794605 -0.00264925
0.002192721 0.003351099 -8.299881e-05 0.0014133285 0.006459342 -0.007714 4.663771e-05 -0.012583853
0.0005541706 0.0049780277 -0.003850125 -0.0043331906 -0.004975605 -0.0010510118 -0.0028564846 -0.0028667413
-0.0012540028 -0.008787894 -0.0010209663 0.0044085975 0.008491571 -0.0012130645 0.014033315 0.0013587825
0.0021310342 -0.00757604 -0.007923633 -0.0042181322 -0.0014977256 0.0023498593 0.0070148306 0.003627867
0.0068405727 -0.0018852229 0.007068539 0.0049691573 0.0014612374 -0.008822071 0.0028424677 -0.0084558185
-0.00769358 -0.0035938215 -0.0045514354 -0.0057725334 -0.0076899217 -0.0027604043 -0.009586937 -0.004581171
-0.0041559893 -0.006590812 -0.004069675 0.002209965 0.0019128211 0.0076677017 0.0069584628 -0.002005119
-0.025797835 -0.0010604976 -0.0025212597 0.0086246645 0.008151173 0.0012094763 -0.00033946603 0.0029218842
0.0039614458 -0.0011032308 -0.0021252083 -0.013662655 0.010132304 0.0023825227 -0.00038291694 0.00030577078
0.00033766893 -0.0055054883 6.400859e-05 -0.004722308 0.0081241885 -0.009054853 -0.0077272933 -0.0073056845
0.002378195 0.00019131986 -0.0027193811 -0.004201838 -0.004961981 -0.010786001 -0.0022777678 -0.0030249136
-0.005086235 0.0028969191 -0.010167716 -0.010947018 0.003458673 8.046173e-05 0.0008279125 -0.007670618
-1.6465481e-05 -0.0003098169 -0.0026440653 -0.008330313 -2.2796678e-06 0.0024284932 -0.0056940992 -0.0073924516
0.0032021278 0.011257211 0.0016251729 0.008429795 0.0009123322 -0.003129067 -0.0047599995 -0.0022968901
-0.0065028355 -0.0037291052 5.325992e-05 -0.0013293094 0.0006670433 -0.005793366 0.013622613 -0.00057658856
-0.0041969474 0.0015858392 -0.005192073 -0.0040024878 0.0073966086 -0.00032005177 -0.0012782031 -0.004903954
0.0022034873 -0.0017571886 0.009655568 -0.0017630174 3.8575054e-06 0.009073511 0.0021749446 0.0032510443
-0.0027108656 -0.0039401515 -0.00031007396 -0.006777849 0.0054274057 -0.0007887898 0.007858663 -0.009829528
-0.020152679 0.00551097 0.0051105386 -0.0004751696 0.0007759255 -0.00856037 0.00013603596 -0.006905438
0.011239492 0.00041923684 -0.004440366 -0.008936404 0.001422759 0.0023782102 0.0007534252 -0.010783101
-0.0014280113 0.00095497956 0.000821617 -0.0013692413 0.007071655 0.0047636367 -0.005000047 0.005171131
0.0018687525 0.0008232953 0.0054228255 -0.0015484396 0.007262001 0.0059905024 -0.003048255 0.006895597
0.0012866367 -0.00073197467 0.005369996 0.0004674425 0.0064725815 -0.00076003413 0.0008983584 0.008062748
0.0018615386 0.011712443 -0.0046526394 -0.001836647 -0.006558306 -0.007967945 -0.0011357121 0.0010126407
0.0062125586 -0.0038397424 0.0063915704 -0.0033078843 -0.010591888 0.0039784373 -0.010030115 -0.0029665518
00000000: fbff 8e3b ab46 1a39 33a2 f13a 5252 f03a
00000010: d5a6 543a f831 19bb f96c 8ebb 93bb c03a
00000020: 4176 2dba b80c 62bb 2415 b8bb 6d47 93bb
00000030: f84d 3bba 3802 373b d326 5339 ac84 37ba
00000040: 8129 14bb f2ce 6a3b c3ad fcba 72c5 2fbc
00000050: d4a3 16bb ccba c33a 7125 e7ba c0db bc38
00000060: 81e4 3c3c ef69 3a3c a366 e73b b886 593b
00000070: e3eb 613b c2dc d43b 6588 4a38 bfe6 30ba
00000080: c473 acbb 85d7 663a 6549 5f3c 7ca0 3dbc
00000090: 3c5d e53b 4e98 23bb e2dd fe3b 2a69 fbbb
000000a0: dd33 37bc 210b b6bb f357 063b f5c0 c5bb
000000b0: cc0d 4e3a 0029 a8bb f5d8 9739 3c22 8fba
000000c0: 7495 38bb 0e93 6cbb 88e5 223c d988 dbbb
000000d0: 80fe 9db9 3107 0fbc f438 ebba 0a9f 2dbb
000000e0: c1b3 0f3b 1d9e 5b3b a60f aeb8 6f3f b93a
000000f0: e3a8 d33b b9c5 fcbb dc9c 4338 812c 4ebc
00000100: c245 113a b91e a33b 6152 7cbb 70fd 8dbb
00000110: 660a a3bb 1bc2 89ba dc33 3bbb f0df 3bbb
00000120: 5a5d a4ba 19fb 0fbc f2d1 85ba ff75 903b
00000130: 3b20 0b3c b1ff 9eba fdeb 653c 2d19 b23a
00000140: d2a8 0b3b 6e40 f8bb 20d2 01bc 4238 8abb
00000150: 554f c4ba 1900 1a3b aadc e53b 82c1 6d3b
00000160: e226 e03b 9519 f7ba 349f e73b 50d4 a23b
00000170: fe86 bf3a 738a 10bc b248 3a3b 468a 0abc
00000180: 6d1a fcbb 5286 6bbb 3524 95bb 8527 bdbb
00000190: bdfb fbbb e6e7 34bb 8712 1dbc a61d 96bb
000001a0: f72e 88bb bdf7 d7bb e95a 85bb 0fd5 103b
000001b0: a0b7 fa3a 5841 fb3b d103 e43b 5168 03bb
000001c0: fb55 d3bc 6500 8bba b83b 25bb 774e 0d3c
000001d0: 7f8c 053c 4a87 9e3a 5cfa b1b9 157d 3f3b
000001e0: 04cf 813b 489a 90ba 1447 0bbb 54d9 5fbc
000001f0: f701 263c 1924 1c3b 3ec2 c8b9 dc4f a039
00000200: 2809 b139 6267 b4bb 5a3c 8638 97bd 9abb
00000210: 511b 053c ce5a 14bc 3c35 fdbb 8664 efbb
00000220: 7edb 1b3b 099d 4839 a537 32bb 92af 89bb
00000230: 1d98 a2bb c4b7 30bc 9a46 15bb a13d 46bb
00000240: 6eaa a6bb 3dda 3d3b 7e96 26bc 1f5b 33bc
00000250: e7aa 623b 90bd a838 4408 593a cf59 fbbb
00000260: 5a1f 8ab7 ec6e a2b9 0e48 2dbb dd7b 08bc
00000270: 65fc 18b6 5b27 1f3b 9195 babb 613c f2bb
00000280: cada 513b 2a70 383c c103 d53a 1f1d 0a3c
00000290: 9429 6f3a 0811 4dbb c5f9 9bbb 6c87 16bb
000002a0: bd15 d5bb 0164 74bb 6763 5f38 393c aeba
000002b0: 85dc 2e3a 47d6 bdbb 6131 5f3c 3426 17ba
000002c0: 8c86 89bb efdb cf3a 4422 aabb 4d27 83bb
000002d0: 405f f23b 9fcc a7b9 6189 a7ba 59b1 a0bb
000002e0: 6268 103b 7751 e6ba 6332 1e3c 0c15 e7ba
000002f0: b86f 8136 10a9 143c 8489 0e3b 790f 553b
00000300: c7a8 31bb 631c 81bb 6c91 a2b9 b818 debb
00000310: 61d8 b13b cac6 4eba 9fc1 003c 070c 21bc
00000320: 3b17 a5bc 5e95 b43b 4e76 a73b 2f20 f9b9
00000330: 7b67 4b3a cb40 0cbc e0a4 0e39 0347 e2bb
00000340: d925 383c 04cd db39 7d80 91bb ff69 12bc
00000350: df7b ba3a bfdb 1b3b 8281 453a 9bab 30bc
00000360: 1c2c bbba 9857 7a3a c961 573a 1d78 b3ba
00000370: 57b9 e73b 4818 9c3b 6fd7 a3bb 9772 a93b
00000380: eef0 f43a 6ad2 573a f5b1 b13b 03f5 caba
00000390: 14f6 ed3b fa4b c43b 3cc5 47bb 76f4 e13b
000003a0: 5da4 a83a fde1 3fba cbf6 af3b 1213 f539
000003b0: f317 d43b 073d 47ba d07f 6b3a 9e19 043c
000003c0: dffe f33a 8ce5 3f3c 2b75 98bb a6bb f0ba
000003d0: 0fe7 d6bb fc8b 02bc 2ddc 94ba 95ba 843a
000003e0: b892 cb3b 30a4 7bbb 6170 d13b 17c9 58bb
000003f0: 9989 2dbc 8d5d 823b 5a55 24bc 7b6a 42bb
