flowsim/model_no_flowsim/output_layer.pt (torch, 182680 bytes, 3 tensors)

weight f4 [200, 214]
00000000: 50f1 433c 1f71 75bd f80e 92bc b0d6 0b3d
00000010: 15b4 46bd c1bc 0c3d 3ce6 6ebd 84c8 8d3d
00000020: b0de 113d 7920 243d eee5 86bd ae74 7e3b
00000030: e27b 71bd bf91 0c3d 8764 8cbd 08fd 8ebd
00000040: 4c25 36bd a0e8 253d 700f 21bd 043d b33d
00000050: 2856 1cbc d096 0d3d 4a36 823d 90e8 763c
00000060: ab37 2ebc 8718 673c f5a7 763c 0053 8a3d
00000070: 662c f5bc dd7d f3bc deb8 b03d b68c 76bd
00000080: f169 50bd aec6 5abd bf25 ab3c 0ff3 49bc
00000090: f9c5 bfbc 73e3 d6bc c212 383d 3713 4abd
000000a0: 6dc2 d53c 56c1 b6bd 8374 8ebd ecf8 373d
000000b0: 9be0 1e3d 06bf 7fbd 8e6d 2bbd a980 02bd
000000c0: f3bb 873d c682 4fbd ab44 bebc 2ed6 15bd
000000d0: ce49 5b3d 1548 b93b 8b72 efbc 8577 9bbb
000000e0: 68b0 59bd 207e aebc 7a13 0d3c f777 abbd
000000f0: 286c 9abc 47f3 83bc cd03 65bd 1ed6 adbc
00000100: 635b 80bc 1217 d3ba 5aea 523d 260c dcbb
00000110: 5890 843d 051a 68bd 8de7 ddbc 7f1f cd3c
00000120: 83e4 713c 4bd5 42b9 f91e 94bc b7c2 183d
00000130: 34a1 273d f395 5bbd 84ed 46bd 02a9 09bd
00000140: ae69 0dbd d1fc 833d 8e46 21bb c738 563d
00000150: 21bb 803d b786 b6bd 976a 613d e7b0 b1bc
00000160: 4b0d ee3c b504 783c bde9 3cbd 3052 30bc
00000170: 1ce3 823d f67d 283b 7250 8bbd d1e1 263d
00000180: b0be 2fbd e1bd 873d 1e4f c5bc 75d4 073c
00000190: fe84 1b3d 518e 3d3c 7588 403d 0eb1 163d
000001a0: 4823 853b f5a3 c23c 2bfe 67bd 2516 dcbd
000001b0: 3198 8ebd d727 c5bc 2ba3 03bd 5054 953d
000001c0: f117 aa3a 9429 e0bb 806b 7ebd fb48 7c3d
000001d0: e19a 74bc f9b6 27b9 00ba 5a3c ead0 bfbd
000001e0: 85d8 3cbc 4ee8 25bd a41f 7fbc fc24 663d
000001f0: 7a92 403d 3845 0ebd e5ca 9f3d 3230 893d
00000200: 5c2b 88bc 66dd 823d 770c 3a3d 8675 823d
00000210: d0b2 5bbc 54a3 3f3d 952b ac3d 9aa5 283d
00000220: 503d 7d3c 4995 133d 7d4f 8fbd 55cf 553d
00000230: 635c a73b fa43 3b3d 14a6 7b3d 5108 84bd
00000240: 0911 9fbd a24e 163c 74df 993d 0116 f23c
00000250: 9b3d 053d cf2d 91bd a5df 8b3d adc2 9ebc
00000260: 6311 66bd 5c13 9a3d 6d9f 66bd 2af0 423b
00000270: 48ef f53c 0923 203d 85d3 2d3d 694b 323d
00000280: 4218 8dbd 1673 f7bb a927 f03c 1761 1c3d
00000290: 7964 d8bc 662e 243c 1092 153d a280 30bd
000002a0: 032d 94bd 44df 64bc b817 8fbd b600 21bd
000002b0: 51b2 813c de6e 673c ee2b e63b 35b5 63bc
000002c0: 548b febc 7e8d 853d e6d3 7fbd fe3a ac3c
000002d0: 445a a83c 3e17 423d 1f42 14bd 72fe 063c
000002e0: 5dcc 13bc e34c 47bd f44e 6ebd bb8a 493c
000002f0: 9a5b e73b 018d 3ebd ab80 8d3c 9b1e 9d3c
00000300: d14a 85bd 5478 17bc 6694 13bd b532 363d
00000310: c6be 8c3d 33a5 ae3d 9144 ee3b 7c99 42bc
00000320: b8e8 a5bd 85ab 373d 5fb6 7abd 64cd be3c
00000330: 9c45 72bc 178e 8b3d 2bab 25bd 6a11 c53d
00000340: 3374 b93d b867 7fbd a0d0 80bd 5a7a 983d
00000350: 46fe 4b3d 9d39 47bc 6195 2bbc f5d6 253d
00000360: c53b 9dbc b542 d7bb 9a9c b83c 99dc 31bd
00000370: 7793 98bd 95f4 c13c 6acd 56bd 3cf3 6cbd
00000380: f959 54bd 565e 213d 9698 9c3c 6d00 363c
00000390: b4ff 4ebd 8249 a13d 1382 1fbd c619 7c3c
000003a0: 59ed 09bd 2d63 e2bb f8e1 103d 223b a3bd
000003b0: f08f a0bc 687d 1fbd 5c48 453d 7510 343d
000003c0: 0f9c 9cbd 0bfb 7b3d def6 273d 12d6 b33d
000003d0: 6ecf 633c b0c3 0e3d f937 75bd 5cb4 64bd
000003e0: 50f3 5fbb 454a d5bb 6bf6 ed3c a920 6cbb
000003f0: 0d53 373c 962b 9ebd 67b0 f13a 5b99 86bd
0.011959389 -0.059922334 -0.017829403 0.03414029 -0.048511583 0.034359697 -0.058325037 0.06923011
0.035612762 0.04007003 -0.06586824 0.003882687 -0.058956034 0.03431868 -0.068551116 -0.06981856
-0.044469163 0.04050505 -0.039321363 0.08751872 -0.009542026 0.034567654 0.06358011 0.015070096
-0.010633389 0.014104969 0.0150546925 0.06754112 -0.029928397 -0.029723102 0.086290106 -0.060192786
-0.050882284 -0.053412132 0.020892022 -0.012326016 -0.02340983 -0.026231503 0.044939764 -0.04933473
0.026093686 -0.08923595 -0.069558166 0.044915125 0.03878842 -0.062438034 -0.041852526 -0.03186098
0.06627645 -0.050661825 -0.023226103 -0.03658121 0.053537183 0.005654345 -0.029229423 -0.0047444724
-0.05314675 -0.021300375 0.008610601 -0.08372491 -0.018850401 -0.016107215 -0.055911828 -0.021220263
-0.015668577 -0.0016104898 0.051493026 -0.0067153154 0.06472844 -0.05666544 -0.027087951 0.025039433
0.014763954 -0.0001858074 -0.018081175 0.03729507 0.04092522 -0.0536098 -0.048566356 -0.033608444
-0.034524612 0.06444705 -0.0024608704 0.05230024 0.06285692 -0.089124136 0.055033293 -0.021690799
0.029059073 0.015137841 -0.046121348 -0.0107617825 0.06390974 0.0025709844 -0.06802453 0.0407427
-0.042906463 0.066280134 -0.024085578 0.0082904 0.037968628 0.011569575 0.047005136 0.036789946
0.0040630437 0.023759821 -0.056638878 -0.10746411 -0.06962622 -0.024066849 -0.03213803 0.07291472
0.0012977106 -0.006840894 -0.06211424 0.061593037 -0.014929504 -0.00015994524 0.01335001 -0.09366019
-0.011526232 -0.040504746 -0.015571509 0.056187615 0.04701469 -0.03473398 0.07802371 0.06698646
-0.016622238 0.06389885 0.045422044 0.06370072 -0.013409331 0.04678662 0.0840675 0.041173555
0.015456513 0.03603104 -0.06997583 0.05219968 0.005107449 0.045719124 0.06143768 -0.06446899
-0.07766921 0.009174021 0.075133234 0.029551508 0.032529455 -0.070888154 0.06829766 -0.019379938
-0.056168925 0.07523224 -0.056304384 0.00297452 0.030021325 0.039095912 0.04243805 0.043528948
-0.068893924 -0.007551561 0.029315786 0.03817853 -0.026415097 0.010020828 0.03651625 -0.043091424
-0.07235148 -0.013969246 -0.06986946 -0.03930732 0.015832098 0.014125554 0.00702428 -0.013898184
-0.031072296 0.06521128 -0.06245794 0.021024223 0.020550855 0.047385447 -0.03619587 0.008239375
-0.009020892 -0.04865731 -0.058180764 0.012301142 0.0070604803 -0.04652119 0.017273268 0.019179633
-0.06508411 -0.009244997 -0.036030196 0.04448195 0.06872325 0.08527603 0.0072713573 -0.011877414
-0.08101028 0.04484131 -0.06120908 0.023291297 -0.014787104 0.06814211 -0.04044644 0.09622462
0.09055366 -0.062354773 -0.06289792 0.07445212 0.04980304 -0.012159732 -0.010472626 0.040488202
-0.01919354 -0.0065692314 0.022535611 -0.04342327 -0.07450002 0.023676196 -0.052441992 -0.057849154
-0.051843617 0.039396606 0.019115727 0.0111085 -0.050536826 0.07875349 -0.038942408 0.015387004
-0.033673618 -0.0069087953 0.03537175 -0.07970263 -0.019599885 -0.038937956 0.04816471 0.043961007
-0.07646953 0.06151871 0.041006915 0.08781065 0.013904436 0.03485459 -0.059867833 -0.055836067
-0.0034172125 -0.0065090978 0.029048165 -0.003603021 0.011189234 -0.07723157 0.0018439413 -0.06572219

bias f4 [200]
00000000: 2ec1 92bd 7451 29bd db72 aabc 9f15 13bd
00000010: fe6e 003d 4951 dfbb e6b6 943c 4518 81bd
00000020: 8c9c 4dbd 8083 d4bb 4ef5 6c3d 51fc 983d
00000030: 7a62 87bd 144c 25bd f2c8 f83c 849a cc3c
00000040: 7dad ff3b ab99 59bd c710 1fbc 43ec 6dbc
00000050: 9b42 b4bc 0867 2d3d 9c56 78bd 8fa3 383d
00000060: edea e5bc 00d9 16bd e661 993c dc7a 14bd
00000070: f4e7 b83b 831e 7bbc 4799 1cbd 7595 333d
00000080: 05c4 02bd 899a 333c aaab 1cbd 1c65 0bbd
00000090: b086 d03c b3f9 cb3b d512 05bd 0f00 78bd
000000a0: 984d 80bc 8738 f9bc 7a2d 053d 19ab 193d
000000b0: 3c98 d2bc 6558 6cbd 9bdf bf3c 6044 6b3d
000000c0: feb1 1dbd 5be0 793b 85c1 ca3b 0ab6 21bc
000000d0: faa2 0abd d0ef 833c 4441 01bd 86cf 2ebd
000000e0: 392d 3d3d 405d 8b3b fc9f 6d3d 4d5b b6ba
000000f0: 1b80 cc3c 3f2a 44bd 3fcc 183d 2d82 0ebd
00000100: 4f15 2a3d dd32 0abd eb7c 77bd a89e 8a3c
00000110: 943c 843d 640d 273d 175a 613d 9b89 9cbc
00000120: 31a7 38bc bc6c b8bd 3ac4 33bd 9e40 df3c
00000130: 2a65 4bbd 871b 603d cc24 77bd 86f1 be3c
00000140: 6fff 713c 3594 c9bc 03ff d23c 7385 293d
00000150: 15e5 3ebd 1af7 5cbd 6eff fabc 7fe4 8dbd
00000160: 89e7 4e3d ddad aebc fe8b 6d3d f00f 34bd
00000170: ba1e 31bd 0ceb 7a3b 0c97 c33c c0f8 693d
00000180: 60d7 c63c 3eb4 95bd f130 fd3c 9463 2abd
00000190: 6a0c 443d f665 80bc c437 f4bc d22f ddbc
000001a0: 436d c9bc 151f 9e3c ff3d 0e3c 79b7 20bd
000001b0: 6d4e 7b3c 6851 d1bc d06e 84bb 5a44 84bc
000001c0: 26ba 833c f359 3b3d 00ea 5ebd 4807 a83b
000001d0: 1230 32bc 19c8 163c fe0c 69bc cced 983c
000001e0: 2755 2c3c 3535 87bd 3672 1ebd eeeb d0bb
000001f0: 1430 20bd 550f 513d 860c 07bd fe27 f23c
00000200: 9b7a c73b c209 90bd f90c 7f3b bf10 26bd
00000210: 60f4 97bc 8c98 3ebd 720e 203d 33d5 62bc
00000220: faba 223d e954 cc3c 7eeb 4abb cfb3 85bd
00000230: 29dd 9fbd 356f 1dbd c4c8 9f3c 3e88 3abd
00000240: f3fc 5dbd 3006 473c 1b7d 58bd 1025 7f3c
00000250: 84d2 973d d662 51bd ed34 7a3c 3ff7 203d
00000260: c4ac 0d3d 963b b8bb fb3c 2ebd 51ad 6c3c
00000270: ff5f 963d 85b0 bebc c330 f13a 39fd 88bd
00000280: 7c93 1ebd 1d04 73bd 1563 03bd b82b 343a
00000290: 3949 633d 1aa7 593c 44c5 ffbb 2ae9 5cbd
000002a0: 621f 19bc 98e2 c93c e6e3 2ebd de4c 74bd
000002b0: 9bad 11bd 2dd5 7e3d a2e8 753d 7bc4 3cbd
000002c0: 9825 73bd 7268 323d d8c2 243d 2ff2 82bc
000002d0: a604 2e3d b1e2 1cbd a091 f9bc 8b4a 55bd
000002e0: 0ba8 6c3d fc68 99bd 04f0 95bc eb34 2abd
000002f0: a68a 1e3d 9851 c5bc a349 83bc c915 85bd
00000300: 4244 c3bc 27ae edbb b628 7abb 7298 bfbb
00000310: e46f abbb 1c5d 54bd a6ac 4e3c a944 abbd
-0.07165752 -0.041337445 -0.02080672 -0.03590929 0.03135585 -0.00681511 0.018153619 -0.06303457
-0.050198123 -0.0064854026 0.05785113 0.074700005 -0.0661058 -0.040355757 0.030369256 0.024976023
0.007802664 -0.053125065 -0.00970859 -0.014521661 -0.022004416 0.042334586 -0.060629472 0.045077857
-0.028066123 -0.03682804 0.01872344 -0.03624998 0.0056428853 -0.015327099 -0.038232114 0.043843705
-0.03192522 0.010962137 -0.03824965 -0.034031972 0.025454849 0.006224835 -0.032488663 -0.06054693
-0.015662 -0.030422462 0.032514073 0.037516687 -0.025707357 -0.057701487 0.023422053 0.057438254
-0.038499825 0.003812811 0.00618762 -0.009870062 -0.033846833 0.016105562 -0.031556383 -0.04267838
0.046185706 0.0042530596 0.0580139 -0.0013912708 0.02496343 -0.04789185 0.03730416 -0.034792114
0.041524228 -0.033739913 -0.060421865 0.016921356 0.06456867 0.040784255 0.055017557 -0.019108584
-0.01127033 -0.090051144 -0.043888308 0.027252492 -0.049657024 0.054713752 -0.060337827 0.023308527
0.014770373 -0.024606803 0.025756365 0.041387033 -0.04660519 -0.053946592 -0.030639376 -0.06928348
0.050513778 -0.021323139 0.057994835 -0.04396051 -0.043242194 0.0038287072 0.023875736 0.057121992
0.02427262 -0.07309769 0.030907126 -0.04159887 0.0478634 -0.015673619 -0.029811747 -0.027000342
-0.024588233 0.01930193 0.008681773 -0.039237473 0.015338522 -0.025551513 -0.00404153 -0.016145874
0.016079973 0.04574008 -0.05442238 0.005127821 -0.010875719 0.00920298 -0.014224289 0.018668078
0.010518349 -0.06601945 -0.03868314 -0.0063757813 -0.03910835 0.051040012 -0.032970928 0.029560085
0.0060876138 -0.07033111 0.0038917644 -0.040543314 -0.018549144 -0.0465322 0.039076276 -0.013844776
0.039729096 0.024942832 -0.0030963118 -0.065284364 -0.07805855 -0.038436133 0.019504912 -0.045540087
-0.05419631 0.012147471 -0.052853685 0.015572801 0.074131995 -0.051119648 0.015271408 0.039298292
0.03458859 -0.0056223376 -0.042538624 0.014445619 0.073425286 -0.02327753 0.0018401373 -0.066889234
-0.03871487 -0.059330095 -0.032076914 0.00068729697 0.055489752 0.013284469 -0.0078054983 -0.0539333
-0.009345861 0.024644181 -0.04269781 -0.05964362 -0.035565954 0.06221502 0.06003631 -0.046085816
-0.059362024 0.043556638 0.04022488 -0.015984623 0.0424849 -0.038302127 -0.030464947 -0.052073043
0.057777446 -0.07490727 -0.018302925 -0.041554373 0.038706444 -0.024086758 -0.016026324 -0.06498296
-0.023836259 -0.0072534266 -0.0038171238 -0.0058470303 -0.0052318443 -0.05184661 0.012614405 -0.08362705

weight f4 [1, 200]
00000000: 9918 81bb 859d f8bb 0815 933c 4f1a bcbc
00000010: 0538 3fbd 7382 06bd 4fb6 6a3d 282e 56bd
00000020: d64e 703c b4e1 203c 08b0 efbc 7679 f33b
00000030: 6e88 af3c 254f 4e3d f584 c9bc 0ef0 e4bc
00000040: f818 51bd 709a 97b9 6aea 2a3c 93eb 063c
00000050: f4a1 713c cafc b63b c9ef 75bd cc3c 47bd
00000060: 5ac5 e53b 9086 1e3d 9d71 b43b 0f17 2c3d
00000070: dd57 fc3b 41dd 7cbc e89d adbb ed9f 063d
00000080: 19a2 2f3c 8abc ce3c da57 073c 3667 2fbd
00000090: dbf4 37bc c01b 3cbd a4f5 2e3c d0d0 493d
000000a0: bafb a5bc 7fb3 11bc f535 a43c d033 01b9
000000b0: 5739 2c3c 65d0 cb3b b8fe 34bd 741a 033d
000000c0: 05ef e83d 7cd9 aebc b590 453d c23f c5bc
000000d0: 94b2 433d eff3 36bc 41fc e0bc 19b8 623d
000000e0: a36a 9f3b ec21 e53b 87a8 483d fa63 da3b
000000f0: 32db a0bb bee4 47bd 1b76 393c 5f87 0fbd
00000100: dad9 96bb fa92 5a3d f4e2 d0bb 46be 0ebd
00000110: 53de 403d ce87 ac3c 0fa1 c9bc 9e2e 5c3a
00000120: dc26 dabc aef3 3abd 531c af3d 0cdd 21bd
00000130: a226 19bd 8d44 813c 8885 bcbc b316 d9bc
00000140: bf68 123c 8f4a 2abd 5328 813d 2424 cb3c
00000150: bab5 b139 5f3a 8b3b d9d6 51bd 857f 81bc
00000160: 7f01 3f3d 78ba fdbc fe13 b73c 6ebb 32bd
00000170: bd19 e23c 64c4 253c 19fc c63c b417 8cbc
00000180: f7ed 1c3d 5694 08bc 21eb 6bbb a88d 543c
00000190: 761a 393d 48f1 09bd 02a0 003c 5c73 8cbc
000001a0: 6f14 12bc d81d c6bc 1729 133d 4fe7 2cbd
000001b0: 4500 5c3c c0ab 97bc 63c2 f73b 80f0 443c
000001c0: 3ca1 673d b8b5 4d3c d398 1f3d 235e a8bc
000001d0: 3319 233c 0a04 96bc 25fd 18bd 1856 f23c
000001e0: 3e80 10bc f4bd bbbc 7baa 803c 26f3 f7bc
000001f0: 83bf 3dbd c12a c43c 8bce 37bc 9e0b 29bc
00000200: c055 1b3c c783 ba39 a6c1 e33c 5468 173c
00000210: a94b 23bd f9e5 98bc 41ce 773c c917 283c
00000220: 5b76 c93c d856 d0ba 426b f93b 0cac 543d
00000230: a238 28bc 80ed 17bd 6958 253c bee3 20bc
00000240: 0b62 43bd 0fd8 4bbb 51ed 89bc a803 923d
00000250: b0a8 9e3c d1e8 0cbd cd3a 0ebd 8a2f 753d
00000260: c92b 623c c785 d53b 8945 52bc 4bd4 3a3c
00000270: a346 c43b 7f69 b8bc 4ab6 9abc cd2b 3fbd
00000280: cf80 b63d 4d7e 043c 2033 6c3d 1745 45bd
00000290: 448f bd3d ab38 ae3c 7088 a13c 3ffe eabc
000002a0: 719b 17bd 274e d1bc 2245 713c d428 36bd
000002b0: 95f9 67bc b195 003e eb85 983d c149 023c
000002c0: 0cee 633c 34a9 053d 57bc 5a3c 9bc4 f4bc
000002d0: 47c0 c83c 3556 f43b d96c 783c 7767 d73c
000002e0: 2391 603d e769 8cbc b212 69bc 7b96 51bb
000002f0: b458 793c 325f 8d3c 77b6 303d 6cda 17bd
00000300: 9f69 04bd 295c 7bbd fd5d 48bc 0983 21bd
00000310: 80de 70bc 4107 b23c de7f ae3c 903d f8bb
-0.0039397 -0.007587137 0.017954364 -0.022961764 -0.046684284 -0.03283925 0.05730277 -0.05229011
0.014667233 0.009819437 -0.029258743 0.0074302508 0.02142736 0.050368447 -0.024599532 -0.027946498
-0.051049203 -0.0002891603 0.010431865 0.008234876 0.014748085 0.005584334 -0.06004313 -0.048641965
0.0070120515 0.038702548 0.005506708 0.042014178 0.007700904 -0.01543361 -0.005298365 0.03286736
0.010719799 0.025236387 0.008260692 -0.04282304 -0.011227812 -0.045924902 0.0106786825 0.049271405
-0.020261634 -0.008892893 0.02004526 -0.000123217 0.010511718 0.006219911 -0.04418823 0.03200765
0.11373714 -0.021343939 0.048233707 -0.024078254 0.047777727 -0.011166557 -0.027464034 0.05535135
0.004865007 0.006992569 0.048988845 0.00666475 -0.0049089426 -0.04880213 0.011319662 -0.03504121
-0.0046036066 0.053362824 -0.006374711 -0.034849428 0.047087025 0.02106085 -0.024612932 0.00083992805
-0.026629858 -0.045642547 0.08550324 -0.039517447 -0.03739036 0.015779758 -0.023012891 -0.026500082
0.008936106 -0.04157501 0.06306519 0.024797507 0.00033895468 0.0042489017 -0.051230285 -0.015807876
0.046632286 -0.030972704 0.0223484 -0.043635778 0.027600164 0.010117624 0.024290131 -0.017101146
0.03831288 -0.008336147 -0.0035998302 0.012973227 0.04519125 -0.03367737 0.007850649 -0.017144851
-0.008916005 -0.024184152 0.03592786 -0.04221278 0.013427799 -0.018514514 0.0075610145 0.01202023
0.05655025 0.012555532 0.038964104 -0.0205527 0.009954738 -0.018312473 -0.037350792 0.029582068
-0.008819638 -0.022917725 0.015706291 -0.03026731 -0.046325218 0.023946168 -0.011218677 -0.010317711
0.009480894 0.00035574866 0.0278023 0.009241182 -0.039867077 -0.018664347 0.015124858 0.010259577
0.02459257 -0.0015895022 0.007611663 0.05192189 -0.010267409 -0.037091732 0.010091879 -0.009819923
-0.047700923 -0.0031104123 -0.016836794 0.071296036 0.019367546 -0.03440172 -0.034724046 0.05985979
0.0138043845 0.0065161916 -0.012833961 0.011403154 0.005989866 -0.022511242 -0.01888575 -0.04667263
0.08911287 0.008086753 0.057665944 -0.048161592 0.092558414 0.021267256 0.019718379 -0.028685687
-0.037013475 -0.025549961 0.014725955 -0.04447253 -0.014158626 0.12557103 0.07447418 0.007952155
0.013911735 0.032632068 0.013350568 -0.029878905 0.024505747 0.0074565657 0.01516267 0.026294453
0.054825913 -0.017140342 -0.014225649 -0.0031980562 0.015218902 0.017257307 0.043142762 -0.037073538
-0.03232729 -0.061367188 -0.01222944 -0.039431605 -0.014701486 0.021731975 0.021301206 -0.007575698
