testbed/backends/m4/models_v9/lstmcell_time.pt (torch, 493081 bytes, 4 tensors)

weight_ih f4 [600, 1]
000000 9d 60 77 3c d6 f4 85 3c 65 02 21 bd aa 89 56 bd
       0.015098718 0.016352098 -0.039308924 -0.05237738
000010 ec 78 dd b9 79 12 8d bd 0a 15 78 bc 87 68 3a 3d
       -0.000422425 -0.06888289 -0.015141735 0.04550984
000020 2f db b5 3c a0 45 e1 3d c7 45 49 3c aa 7e 72 3d
       0.022199241 0.10999608 0.012284703 0.059202828
000030 a0 9c 0a bd d8 7f e9 ba f9 ee 39 bd b3 7d f6 bb
       -0.033840775 -0.001781459 -0.045393918 -0.0075223087
000040 71 6f 93 3c 37 38 b3 3c ed 91 50 bd 79 fb 52 3c
       0.017997475 0.021877391 -0.050920416 0.012877339
000050 c7 53 f1 ba 56 b6 92 3d 3f 75 7e bd d7 2b 74 bc
       -0.0018411808 0.07163684 -0.062123533 -0.01490303
000060 2d 29 89 3c 57 25 ed bc b6 ff f0 3d 06 60 aa bb
       0.016743267 -0.02894847 0.11767523 -0.005199435
000070 d0 10 8b bd b9 74 7f 3c 35 04 ae bb 53 8c 7c 3d
       -0.06790316 0.015591794 -0.00531056 0.06165726
000080 26 c3 36 3d 0f 4e 66 bd 87 a6 01 bc bc eb 0f bd
       0.0446197 -0.056226786 -0.007913238 -0.035136923
000090 d2 f5 13 bd 17 84 6a 3d fb 2a e3 3a 76 31 37 3d
       -0.036123104 0.057254877 0.0017331535 0.044724904
0000a0 ad 86 05 bd ce 97 8b 3d 38 40 b8 3c e2 b2 ac bb
       -0.03259914 0.06816064 0.02249156 -0.005270348
0000b0 b5 de 8d 3d 05 61 05 bd c3 e5 6b 3d eb cf 94 bd
       0.069272436 -0.03256323 0.057592165 -0.0726622
0000c0 79 3b b6 3c c4 ba 4b bd d7 c7 56 3d 2d 35 0f bd
       0.022245156 -0.04973866 0.052436676 -0.03496282
0000d0 67 5c a8 bc 64 29 b3 3d 6e b7 6a bc 33 dd c8 3d
       -0.020551873 0.08748129 -0.01432596 0.098078154
0000e0 de 71 c9 bc d2 cd 8c bc 46 a7 45 3c 49 be 07 bd
       -0.024590429 -0.017187987 0.012063807 -0.033140454
0000f0 9b 38 88 bd b9 a7 d8 3b 99 fc 7a 3c 79 1c 4b 3d
       -0.06651422 0.006611791 0.015319013 0.0495877
000100 2d d1 81 39 db b2 46 3d 8d bc df bc 82 96 59 3d
       0.00024760645 0.048510414 -0.027311588 0.05312205
000110 35 d5 c7 3c 1b 6b 47 bd b0 a4 bf 3d d4 b2 86 bd
       0.024393657 -0.048686128 0.093575835 -0.065770775
000120 77 2d 7f bd 1e 54 7c bd 8d 3b 1f 3b b8 90 0e 3d
       -0.062299218 -0.061603658 0.002429697 0.034805983
000130 1a 5e 65 3d c4 4c 8a bd 07 db 46 bd fd 25 82 3c
       0.055997945 -0.06752923 -0.048548725 0.015887255
000140 c0 d3 57 bd 94 b1 31 3d 94 30 11 bd 56 30 a8 3d
       -0.052692175 0.043382242 -0.03544672 0.08212344
000150 27 b0 48 3c 8b 43 90 3d 93 c1 05 bd 42 e4 3d 3c
       0.012249029 0.07044133 -0.03265531 0.011590065
000160 a8 1e a2 bc e0 8f cc 3d a3 c4 5c 3c 0c f4 3f 3d
       -0.019790009 0.099883795 0.013474616 0.0468636
000170 8e 6b a3 3d 06 18 4a 3b 01 ad ee bb 87 ca a7 3d
       0.07979499 0.0030837073 -0.0072838073 0.08192926
000180 c5 5d a6 3c 6f f8 ab 3c eb fb 14 bd 61 f6 5e bd
       0.020308385 0.020992486 -0.03637306 -0.054434184
000190 8c 9e 90 3d a9 a3 92 3d 78 b3 52 bd 2b 69 2b 3d
       0.070614904 0.07160122 -0.051440686 0.041848343
0001a0 cb 17 cf 3c ef 88 af bc aa fe c8 bb 83 8b 02 bd
       0.0252799 -0.0214276 -0.006133874 -0.03187133
0001b0 fe 41 57 bc c6 b8 6f bd 83 00 cd 3c 75 1f 1a bd
       -0.013138292 -0.058525823 0.025024658 -0.037627656
0001c0 8f 62 ea 3c 78 5e 99 3d 83 71 01 3c 32 52 c8 bb
       0.02861145 0.074887216 0.007900598 -0.006113314
0001d0 88 97 26 3d 8f 49 6d bc 99 a4 f7 bc 41 ec 6e bd
       0.040671855 -0.01448287 -0.030229853 -0.058330778
0001e0 06 de 4d 3d 80 40 65 bb 21 ee 8a bd 13 36 a6 3b
       0.050260566 -0.0034981072 -0.06783701 0.005072364
0001f0 55 cd ca 3d ae ed 7f 3c 2e ec 9e 3c e3 32 49 3d
       0.09902445 0.015620632 0.019399729 0.049120795
000200 b2 dc c5 bc dd de a8 3d e2 60 3e bd e9 64 97 bc
       -0.024153087 0.08245633 -0.046479113 -0.018480735
000210 6f 04 2d bd 7b a5 ad bc 9d 86 84 3d 2a 94 11 bd
       -0.042240556 -0.021197071 0.06470988 -0.03554169
000220 3b 4c 9e 3d 48 50 90 bc da a8 5a bc 25 e3 04 bc
       0.077293836 -0.017616406 -0.013345921 -0.008110796
000230 df 1d 19 bd c7 af b4 3d d0 4e ad 3c 2f 52 19 3d
       -0.037382003 0.08822589 0.021155745 0.037431892
000240 82 97 a6 3d 9b 45 8f 3d d9 44 58 bb 90 39 71 bd
       0.081343666 0.06995698 -0.003300002 -0.058892787
000250 5f a5 1b 3d 20 13 5e 3d c6 54 d5 3d 95 35 36 bd
       0.037999507 0.054217458 0.1041656 -0.044484694
000260 8c 0b 33 bd 9f a8 74 bd 10 d8 ff 3c 2c 9a 2f 3c
       -0.043712184 -0.059731122 0.031230956 0.01071791
000270 05 fb 41 bb 7f af b7 3d d8 c8 f5 bb 21 59 2c 3d
       -0.0029599082 0.0896902 -0.007500749 0.042077187
000280 9c cd 8d bc 17 7d 87 3d 48 b3 79 3d b8 b7 59 3c
       -0.017309956 0.06615656 0.06096199 0.013288431
000290 29 88 d1 3c cc b8 22 3d a1 67 7a 3d 78 f4 5a bd
       0.025577622 0.039727017 0.061133984 -0.0534558
0002a0 40 21 ab bc 0b 55 12 bd a4 c7 82 bc 29 88 22 bc
       -0.020889878 -0.035725635 -0.015964337 -0.009920158
0002b0 c1 13 25 3d e9 fb f3 bc 0b e6 a4 3b b8 d2 00 bd
       0.040302042 -0.029783206 0.005032306 -0.031450957
0002c0 e2 c9 33 bd 1b ca f7 bc e7 8a 5a bd 57 bd b6 3d
       -0.043893702 -0.030247739 -0.053355124 0.089228325
0002d0 bd b1 b8 bc 33 1f bc 3c 9b b1 9b 3d 3a e9 28 bd
       -0.02254569 0.022964096 0.07602235 -0.041238047
0002e0 60 fd c0 3c 4b ee 6c 3d 7e 12 4b 3d 8c 15 52 3d
       0.023558319 0.05784444 0.049578182 0.05129008
0002f0 40 6e bc bc d5 ed 02 3d 7c 03 70 3d ac 2c 7c 3d
       -0.02300179 0.031965096 0.058597073 0.06156604
000300 31 64 1a bc e7 2e ae 3d 5b ff 4f bd 1b a6 a3 3c
       -0.009423302 0.0850504 -0.050780635 0.019976666
000310 57 81 0d 3d 30 9f 91 bd a0 b9 ae bb 61 6b 79 3c
       0.034547176 -0.07110441 -0.005332187 0.015223355
000320 fd 40 fa bc 05 d3 0f bc 66 78 af bc f2 db c7 bb
       -0.030548567 -0.008778338 -0.021419715 -0.0060992176
000330 37 68 ae 3c b4 85 60 3d 6f 3c a8 3c a7 ec 95 3c
       0.021289928 0.05481501 0.02053663 0.018301321
000340 0b 5c 2e 3d 19 7f f6 3b 00 94 40 bc 89 cc 89 3d
       0.042568248 0.0075224754 -0.011754036 0.06728465
000350 54 ca 19 3d 81 5b 3f bd c1 f5 65 3c a0 58 57 bd
       0.03754647 -0.046718124 0.014035643 -0.052574754
000360 80 9c ee bc 13 85 bd bc aa 4e 9a bc a9 0f 41 bd
       -0.02912736 -0.023134744 -0.018836338 -0.047134075
000370 c0 b4 bf 3c 5c 2b aa 3d f3 70 1d 3d b0 72 b7 3c
       0.023401618 0.083090514 0.038437795 0.022393554
000380 3f a9 aa bc b5 18 37 bd 74 b1 72 3d e2 7a 19 3d
       -0.020832656 -0.044701297 0.059251264 0.037470706
000390 6b 6d 4c 3d 5f 25 4d 3d e6 3f 6e bc 4a 89 9b bc
       0.049909037 0.050084468 -0.014541602 -0.018986363
0003a0 cc 28 43 3d dd 2c 18 3b 3c 64 5e bb 5a c6 54 bc
       0.04764633 0.00232201 -0.0033934256 -0.012986744
0003b0 77 03 2e 3c e8 5d d5 bc 95 38 0b 3d 1a 03 6b 3d
       0.010620943 -0.026045755 0.033989508 0.057376005
0003c0 ac 36 4b 3c 6c 65 9c 3d a0 40 08 3c 6e a1 a1 3d
       0.0124031715 0.07636532 0.008316189 0.078921184
0003d0 9e 3a 91 3b 05 13 b1 3c 37 67 52 3d 4a 69 26 3d
       0.0044320365 0.021615515 0.051367965 0.040627755
0003e0 01 f5 5b 3d 76 bf c5 3c 06 cf 8f 3d d1 67 90 3d
       0.05370045 0.024139147 0.070219085 0.070510514
0003f0 d9 f6 4d bd 19 ad 81 3d 16 d8 0c bd 2a 49 62 bd
       -0.05028424 0.06331844 -0.034385763 -0.055245556

weight_hh f4 [600, 200]
000000 f0 0c aa 3c 2f 6c 8f 3c d6 71 c1 3d 3c fe ee 3d
       0.020758122 0.01750764 0.094455406 0.11669585
000010 e0 49 6e 3d 12 65 59 3d 35 25 22 bc de cf 58 3d
       0.05817592 0.053074904 -0.009896566 0.052932613
000020 21 12 f2 bc ed 02 1b bd 10 9d c6 3c 27 1d 60 bd
       -0.02954966 -0.037844587 0.024244815 -0.0547153
000030 43 45 1f 3d 7b e0 9c 3d 6b 58 58 3d 75 1c 68 bd
       0.038884412 0.07660004 0.052818697 -0.056667764
000040 81 87 4b 3d eb 05 04 3d 54 d5 91 bc f5 db 45 3d
       0.049689773 0.032232206 -0.017801918 0.04830547
000050 e5 2f 33 3d f5 d8 82 bc bb 76 c4 3b ae 62 92 bd
       0.043746848 -0.015972594 0.005995599 -0.07147728
000060 f4 9f 56 bc 8a ca 4f 3d 47 d9 17 3c 2d 19 3f bc
       -0.013099659 0.050730266 0.009268112 -0.011663717
000070 7b 79 45 3d 29 61 75 bd c1 da a7 bc 8f 47 57 bd
       0.048211556 -0.059907112 -0.020490052 -0.052558478
000080 b1 39 bb 3b 6e cf 7c bd 92 aa a4 3c 30 16 6f 3d
       0.0057136645 -0.061721258 0.020100866 0.05837077
000090 67 8f 64 3d 48 fc 81 bd ae 1d 69 3d f8 77 93 bc
       0.05580082 -0.06346947 0.05691307 -0.018001541
0000a0 14 27 2e bd 42 4e 2c 3d 18 7b ff bb 2e 61 8c 3c
       -0.042517737 0.04206682 -0.0077966563 0.017136183
0000b0 db e9 27 3d 2e d5 6d bd 47 e0 5b bd 43 9d 3e bd
       0.040994506 -0.058064632 -0.053680684 -0.046536695
0000c0 90 da 62 bd d6 8b 3a 3c 0a cf 63 bb e1 93 03 3c
       -0.05538422 0.011385879 -0.0034760856 0.008030863
0000d0 ca ee 8d bc 93 04 8f bc 28 2d 40 bc 93 74 7c 3d
       -0.017325778 -0.017458236 -0.011729516 0.06163461
0000e0 91 4b 43 3d 7d 18 a2 bc 30 e7 99 3d b5 1e a2 bb
       0.047679488 -0.019787068 0.07514799 -0.004947508
0000f0 a1 4e 96 bd 22 e7 4f 3b 2c b0 ac 3c 0d 81 9a bd
       -0.07339216 0.003172346 0.021080099 -0.07544146
000100 28 2d 05 bd 16 21 fc bc 34 7c 74 bd ba 13 46 3d
       -0.032513767 -0.030777495 -0.05968876 0.048358656
000110 22 ed 90 3d a3 2f 46 3d 03 aa 8b bd d0 9c 5e 3d
       0.070764795 0.048385274 -0.068195365 0.054348767
000120 64 5e ee bc 30 10 f6 3c 23 a1 a5 3d 94 26 05 bc
       -0.029097743 0.030037016 0.08087375 -0.0081268735
000130 3a 8b 08 bd 8f 85 52 3d 77 0c a1 bd dd d7 83 3d
       -0.0333359 0.051396903 -0.078637056 0.06437657
000140 d3 0d 63 3c f2 b0 fc 3c f4 ef ab 3d f0 aa ae bd
       0.013858276 0.030846093 0.08395377 -0.085286975
000150 38 56 a0 bd 85 77 6e bd 02 3e 34 3c fa 92 75 bd
       -0.07828945 -0.05821945 0.011001112 -0.05995462
000160 1a 16 87 3d b6 af 13 3d 90 1a e8 bc 2b 9c 87 bd
       0.065960124 0.036056243 -0.028332978 -0.066215836
000170 c8 fc da bc ec 12 ba 3d 63 db 02 3b 83 1b 79 bd
       -0.026731864 0.0908564 0.001996719 -0.060817253
000180 a3 30 22 bc 07 05 e5 bc ca 73 85 bc 98 40 e3 3c
       -0.009899291 -0.027956499 -0.016290564 0.027740762
000190 49 34 4d 3d 21 35 62 bd 5d c2 59 3d a6 9c 4c bc
       0.05009869 -0.05522645 0.053163875 -0.01248852
0001a0 03 ae 0a 3d a2 5f 4b 3d 0c 15 53 3d d1 6d f0 3b
       0.033857357 0.04965175 0.051533744 0.00733731
0001b0 d8 25 53 bd 15 b6 cf 3c 54 d9 96 3d 13 f5 86 3c
       -0.051549762 0.025355378 0.07365671 0.016474282
0001c0 29 f5 f6 bc 06 05 8f 3c bf e9 05 bd 8d c1 03 3c
       -0.030146198 0.01745845 -0.03269362 0.008041752
0001d0 e6 d3 4b 3b da af e5 bc 49 73 0e bd 72 5c 92 3b
       0.0031101643 -0.028037954 -0.034777913 0.0044665867
0001e0 18 bb f5 bc 27 a6 05 3d 97 e5 87 bc 12 2a 70 bd
       -0.02999644 0.03262916 -0.01658897 -0.05863387
0001f0 ce 6a ad 3d 42 28 6a 3d 20 06 01 3d 06 dc 95 3d
       0.08467637 0.0571673 0.031499982 0.07317357
000200 15 39 94 bc 65 13 45 bc d5 b8 04 3d 65 8d 35 3b
       -0.018093625 -0.01202855 0.032402832 0.0027702686
000210 3b b3 3d bc 40 22 a6 3c bf 28 9a 3d 8b c6 2e 3d
       -0.011578376 0.020280004 0.07527303 0.042669814
000220 6e 43 08 bc 62 4a fd bb 23 a6 ab 3c b5 c2 25 bd
       -0.008316858 -0.0077298144 0.020953244 -0.04046889
000230 4c d8 36 3d 80 bf 9c bd 10 83 5a 3d 72 fa f7 bc
       0.04463987 -0.07653713 0.053347647 -0.030270789
000240 58 23 80 3d b2 e0 42 bd e6 4e 72 3d 33 fb 83 3d
       0.06256741 -0.047577567 0.059157275 0.06444397
000250 31 9a 3f bd 10 5d 86 3d 37 e0 55 bd 54 df 60 3d
       -0.046777908 0.06560719 -0.05221578 0.054900482
000260 6b 2b e4 3c 27 0a 77 bd 56 78 85 3c c9 85 99 3c
       0.027852735 -0.060312416 0.016292732 0.018740552
000270 cd 18 c3 bc 9b 81 80 3d d6 e0 c5 3c 48 79 b0 bc
       -0.023815537 0.0627472 0.024155062 -0.021542206
000280 74 e5 4d bd a6 ce d4 3b 85 f6 9e 3d 0e a4 33 bd
       -0.05026765 0.006494361 0.077618636 -0.043857627
000290 c4 05 31 bd c7 23 cc bb f8 2c 7a 3d f4 b0 75 3d
       -0.04321839 -0.006229851 0.06107804 0.05998321
0002a0 72 9e 90 bd cb d9 b6 bc b5 1d 57 3d 69 08 7f 3d
       -0.07061471 -0.022320649 0.052518565 0.06226388
0002b0 b5 9c 4c bd 69 dc 72 3d e9 cb 32 3c 77 93 cb bc
       -0.049954135 0.05929223 0.010912874 -0.02485059
0002c0 72 f9 15 bd 52 87 54 3d 52 1e a3 bb 53 b9 03 bd
       -0.036614843 0.051886864 -0.0049779797 -0.03215916
0002d0 4a a4 57 bb 27 93 01 bc 71 00 96 3d 65 82 5c bd
       -0.003290432 -0.007908619 0.07324303 -0.05383529
0002e0 1f a7 89 bd d4 f2 68 3d 8b da 41 bd 6b fc 04 3c
       -0.06721329 0.056872204 -0.04732756 0.008116822
0002f0 7e 40 8d 3d 2f 59 93 3c b2 f4 70 bd 32 90 6d 3d
       0.068970665 0.017986862 -0.05882711 0.057998843
000300 c7 45 86 3c a0 a4 0c 3d f5 96 89 bd e2 09 2d bd
       0.016390694 0.034336686 -0.06718246 -0.042245753
000310 54 d3 a1 3d ff c5 08 3c a1 8d 0d 3d aa 49 3a bc
       0.07901636 0.008347987 0.034558896 -0.011370102
000320 7e 2b 4d bd 07 4d 9e 3d 84 e6 b1 bd c5 77 b6 bd
       -0.050090306 0.077295355 -0.086865455 -0.08909563
000330 06 61 80 bd a9 94 a4 bc d8 e9 aa bd ce 98 ad bc
       -0.06268506 -0.020090418 -0.083453834 -0.021191027
000340 74 13 87 bd 57 d4 f5 3c c3 8b 36 bd 75 5a cc bc
       -0.06595507 0.030008478 -0.04456688 -0.024945477
000350 bb c7 de 3c 10 0d 62 3b 4f 9e 02 3d 43 c1 5f bd
       0.027194848 0.003449265 0.031889256 -0.054627668
000360 cd aa 4d bc bf 6b fd 3c 3e 22 38 3c fd da f1 3c
       -0.012552929 0.030935166 0.011238633 0.029523367
000370 a8 78 08 3d 85 dc f6 3b c9 dc 48 3d 30 58 03 bc
       0.03331819 0.007533612 0.049038682 -0.008016631
000380 d3 cd 64 bd 67 b7 25 bc ef c4 25 3d 91 79 90 bc
       -0.05586035 -0.010114527 0.040471014 -0.017636092
000390 54 81 77 3d 71 84 49 3d f9 07 f8 bc 9f a7 cb bb
       0.06042607 0.04919857 -0.03027724 -0.0062150504
0003a0 7f 86 98 bc 5e 2c 0b 3c fa f6 89 3d 34 be 54 3d
       -0.01861882 0.008494465 0.0673656 0.051939204
0003b0 33 8a 02 bd 16 bf 3a 3d 76 08 42 bc c5 7e 40 bd
       -0.03187008 0.04559239 -0.011842838 -0.046995897
0003c0 c5 1f 0a 3d 6c 54 e6 ba 98 b7 61 bd f2 f3 97 bb
       0.033721704 -0.0017572767 -0.05510673 -0.004637235
0003d0 70 20 1a bc ea 15 f4 3c cd 9e 72 bd 96 a9 7d bd
       -0.009407148 0.029795606 -0.059233475 -0.061929308
0003e0 cf b5 72 bd 2f 58 57 3d bc 89 17 bd c2 b4 25 bd
       -0.059255417 0.052574333 -0.036996588 -0.040455587
0003f0 48 69 57 3d ce 4f 3b 3c 10 f0 ea 3a 18 9b 0b 3d
       0.05259064 0.011432601 0.0017924327 0.034083456

bias_ih f4 [600]
000000 5b 44 93 bb 28 13 97 bd fc dc 4d 3d a0 67 13 b9
       -0.0044942326 -0.07376701 0.050259575 -0.00014057616
000010 1a fd d1 3c f5 41 18 bd 35 87 0b 3d 43 3d a5 3d
       0.025633384 -0.037172277 0.03406449 0.08068325
000020 5d e4 8c 3d 85 e9 1b 3e 9c d1 d4 3d de 0f 3a 3c
       0.06879494 0.152258 0.10391542 0.011356322
000030 e4 fa 8f 3d 60 13 0c 3d f3 b3 20 bc 91 57 51 3c
       0.070302755 0.034198165 -0.009808528 0.012777225
000040 89 e8 07 bd 00 87 13 3d 41 45 3e 3c fe 0c cb 3c
       -0.033180747 0.036017418 0.011613191 0.024786469
000050 7c 02 02 3c e1 ce a3 3d 01 19 6d 3d 70 87 1b 3d
       0.007935163 0.079984434 0.057885174 0.03797096
000060 89 10 dd bb a2 8e 26 3d bc 53 0b 3e 54 25 b3 3d
       -0.006746356 0.04066337 0.13606161 0.08747354
000070 bd 78 cc bc b5 54 95 bc a0 ff 96 bd d1 b3 1a bd
       -0.024959916 -0.018228868 -0.07372975 -0.037769143
000080 aa 0e e0 3c f2 6b b9 bd 0d 43 5b 3d dd af e2 bc
       0.027350742 -0.09053792 0.05353074 -0.027671749
000090 49 55 8f 3d 4e ed 59 3c bb d0 d4 bc 63 66 46 bd
       0.06998689 0.013301207 -0.025978437 -0.048437487
0000a0 a8 23 47 3d 17 b9 0f 3c bc 37 bd bc bc 5e 04 3c
       0.04861799 0.008772156 -0.023097865 0.008079227
0000b0 6f ef 0b 3d cb ca 98 3d ab 55 6d bc 2d 4a 01 3c
       0.03416389 0.07460555 -0.014485757 0.00789122
0000c0 9b 52 bb 3b fd 51 1a 3c 6b 3e 3e bc c7 07 9d 3b
       0.0057166344 0.009418962 -0.011611561 0.004792187
0000d0 00 f8 ca 3b 65 cb fb 3c 7d 19 51 bd c4 76 42 3d
       0.0061941147 0.030736635 -0.0510497 0.047476545
0000e0 94 5b 34 3c b1 53 c2 3d 07 de ee 3c 69 25 41 3b
       0.011008162 0.09488619 0.029158605 0.002947176
0000f0 18 0d 89 bc 91 6a 30 3d fb da 00 3e 25 2f f0 3d
       -0.016729876 0.04307038 0.12583534 0.11727742
000100 bd 2c 80 3c c6 7f 2b bd d9 b9 94 bc c1 f3 78 3d
       0.015646333 -0.0418699 -0.018155025 0.060779337
000110 2a 67 0f 3d fc ed 97 3c ad 6b 35 3a 45 83 60 bb
       0.035010494 0.018546097 0.0006920647 -0.003425793
000120 48 3b 03 3d f0 17 49 3d 7e 35 67 3d c0 8e 4e 3c
       0.032038957 0.049095094 0.0564475 0.012607276
000130 5c 4d 01 3e 21 c7 2c bd 30 ba b1 3c d4 3a 09 3b
       0.12627167 -0.04218209 0.021695226 0.0020939605
000140 cb 1d 28 3c 5b 5c 7e 3d 12 fc 59 3d f3 a6 d3 3d
       0.010261009 0.062099796 0.05321891 0.103345774
000150 2e a2 0e 3d e7 f9 ab bb f9 ef 83 3c 13 43 1d 3d
       0.034822635 -0.0052482965 0.016105639 0.038394045
000160 2b 5f 00 3d e3 af c7 3b 28 de 1d bd 6c 67 f7 3c
       0.03134076 0.0060939654 -0.038541943 0.030200683
000170 de 18 30 bd b2 83 9b 3d 8f 57 12 3d b8 af 91 3d
       -0.042992465 0.07593478 0.035728034 0.07113594
000180 3e ef e8 bc 10 2f b4 bb c7 45 8d bd a6 81 a5 3c
       -0.028434392 -0.0054987743 -0.068980746 0.020203423
000190 75 ac 0d bc 72 ad 27 bd 11 e4 0c bd a6 2b 29 bd
       -0.008647074 -0.040936895 -0.03439719 -0.041301392
0001a0 cf b8 d3 3c d8 62 d5 bc 58 b9 71 3d f6 61 25 bd
       0.02584496 -0.026048109 0.05901465 -0.040376626
0001b0 7a 05 a7 3d 27 5c 27 bd d1 a6 36 3d 0f 64 a6 3d
       0.081553414 -0.040859368 0.044592682 0.081245534
0001c0 69 1a 8b 3d ef e1 3a 3d f8 0b ee 3a 1e 89 95 3c
       0.06792147 0.045625623 0.0018161526 0.01825386
0001d0 02 bd a5 3b 83 43 05 3d 5a a5 93 bd b0 52 8f bd
       0.005057932 0.032535087 -0.07209273 -0.06998193
0001e0 a8 af 9d bd 09 7c 18 3d a2 86 0d 3b 4a 08 c7 3d
       -0.076995194 0.037227664 0.002159514 0.09718378
0001f0 8f 1e b2 3d 05 3b 8a ba d8 c5 2a 3d 94 3e 28 bd
       0.08697235 -0.0010546154 0.041692585 -0.041075304
000200 21 28 7f bd 22 f1 f0 3c f3 6e 6d 3d 0a ee 60 3c
       -0.06229413 0.029411856 0.057967138 0.013728628
000210 1c f9 b3 bc 2a 86 9d bd fb 5f f7 3c a0 f5 cf 3d
       -0.02196937 -0.076916054 0.030197134 0.10154271
000220 a9 9e 08 bd a8 fc 16 bd ab 14 8c 3c ef 10 cb bc
       -0.033354435 -0.036862046 0.017099699 -0.024788348
000230 8d 8c ff 3d fc bf c9 3d f2 6c bd 3b bc 44 08 3d
       0.1247798 0.09851071 0.0057808096 0.033268675
000240 96 c1 67 3d be 6c ac 3d 31 d0 76 bd 6b 6a 6e 3d
       0.056581102 0.084191784 -0.06025714 0.058206957
000250 9e 0d fd 3c 3e 32 8a 3d 5f d6 ee 3d 95 0c d7 3d
       0.030890282 0.06747864 0.11661982 0.10500447
000260 1f 91 3a 3d e3 5e 9b 3d 23 4c 38 3d 0c 8b d8 3d
       0.045548555 0.075864576 0.044994485 0.10573396
000270 b2 f4 8e 3d d0 9e 1e bc ed 1e ae bc d1 01 89 3d
       0.06980266 -0.009681419 -0.021254981 0.066897996
000280 e4 28 ef 3c 75 8d 1b bd f4 1a 20 bd 1f af 7c 3d
       0.029194303 -0.0379767 -0.039088205 0.061690446
000290 95 26 0f bc fd bb 54 3c 9f d6 7c bc da cb 48 3d
       -0.008737226 0.012984273 -0.015432029 0.049022533
0002a0 95 69 4a 3d 99 90 1f 3d 98 ce 54 bd 49 4a 96 3d
       0.049417097 0.03895626 -0.051954836 0.073383875
0002b0 4c 64 19 bd 6d 86 98 3d b1 29 9d 3d 8b 1b 5b 3d
       -0.037449166 0.07447515 0.07673968 0.053493064
0002c0 ca 72 38 3c 56 a6 5a 3b 3c c8 40 bd a0 66 02 3d
       0.011257837 0.0033363304 -0.04706596 0.031836152
0002d0 03 a3 7b 3d 99 f9 03 bc 57 3a 70 3b 14 29 00 3d
       0.061434757 -0.008055114 0.0036655867 0.031289175
0002e0 2e 7a 55 3c e6 e3 4d bd 55 c7 35 3d 1b ba 28 bd
       0.013029618 -0.05026617 0.04437955 -0.04119311
0002f0 d7 c3 80 bc 43 3b 99 3c ec fd 8b 3d 6e 3b 3a bb
       -0.015718384 0.018705016 0.06835541 -0.002841677
000300 55 41 54 3c bb bf 08 3c ce da b9 3d 05 fa 04 3d
       0.0129550295 0.008346493 0.09074937 0.032465
000310 3c 39 40 3d 4b eb 6a 3b 29 1b f1 3c a9 86 ea 3c
       0.046929583 0.0035845812 0.029431896 0.028628664
000320 2f 27 64 3d aa 49 3d 3c 97 00 a2 3d ef 8b 9c bc
       0.05570143 0.011553207 0.07910269 -0.019109694
000330 e0 05 33 bd b8 67 f5 ba 23 9c 4c bd 37 61 d0 bc
       -0.043706775 -0.0018722927 -0.04995359 -0.02543698
000340 c3 82 88 bd b7 48 0a 3d 14 ab 76 3d 0e 7a bc bc
       -0.06665566 0.033760753 0.060221747 -0.023007419
000350 ea 62 21 bd fb 16 a6 bd 90 d7 80 bc bc dd bc 3d
       -0.039400972 -0.08109852 -0.015727788 0.0922198
000360 d6 6c b5 bc 67 27 0c bc 1a 93 12 3d b6 cb 91 bd
       -0.022146624 -0.008554316 0.03578482 -0.07118933
000370 bc 51 0f bd e5 3d 2d bc 0a b9 26 3d bc 61 d1 3c
       -0.034990057 -0.010573839 0.04070381 0.025559299
000380 01 53 98 3c 20 b7 0a 3d 64 1f 84 bc 6a 04 e3 bb
       0.018594267 0.033866048 -0.01612825 -0.0069280164
000390 ad b9 14 3d 62 a9 40 bd 09 fe 51 3c 39 21 87 3d
       0.036309887 -0.047036536 0.012816914 0.065981336
0003a0 65 41 24 bd 16 44 23 3d 4a ea bd 3d 39 e7 85 bd
       -0.040101428 0.039859854 0.09273203 -0.06538243
0003b0 dc d4 54 3d 84 32 8e 3d 0a 53 af 3b 93 1d 90 3d
       0.05196081 0.06943229 0.005350475 0.07036891
0003c0 ed e3 4f 3c 16 cc 9c 3c 3f 0c 2e 3c 35 35 a8 3d
       0.012688619 0.019140285 0.010623037 0.082132734
0003d0 30 16 41 bd ef 60 89 bd 46 36 dc 3c 2d 94 41 3d
       -0.0471403 -0.06707942 0.026881348 0.047260452
0003e0 0b d7 1c bd a1 ac d1 3c 05 ec 61 ba 8f 33 12 bd
       -0.03829102 0.025595011 -0.00086182385 -0.0356937
0003f0 2f 74 12 3d 3c ad a5 bd f4 de 7d bd 06 d1 54 3d
       0.035755333 -0.080896825 -0.061980203 0.051957153

bias_hh f4 [600]
000000 df a9 85 3d 18 74 b6 bd 17 68 24 bb 67 ad 08 3d
       0.06526541 -0.08908862 -0.0025086456 0.033368494
000010 c7 a0 b4 3c 1a 0e 2d bc a7 2d 43 bb 4c fd 0f 3d
       0.02204932 -0.010562444 -0.002978185 0.035153672
000020 b8 50 7a 3c 5f c2 3f 3d 41 63 73 3d e7 fb a6 bc
       0.015278034 0.046816226 0.059420828 -0.020383788
000030 e9 01 67 3c ad e5 1a 3d 4b 1e 39 3d 56 d6 09 bd
       0.0140995765 0.037816692 0.045194905 -0.033651672
000040 7d 0e a3 3d b1 c2 8c 3d b6 ac 0f 3d 7a b5 4a bd
       0.07961748 0.06873072 0.03507682 -0.049489476
000050 6a 0d c4 bc 3b 51 78 3d 99 fb 22 bd 59 20 7e 3d
       -0.023932178 0.060624342 -0.039790723 0.062042568
000060 91 37 0f 3d 13 46 53 bd 9f 43 13 3e df 64 8f 3d
       0.0349651 -0.0515805 0.14381264 0.070016615
000070 79 cc 20 bd 15 83 cb bc 13 72 88 3b fb 84 13 3c
       -0.0392575 -0.024842778 0.0041639893 0.009003873
000080 f0 fa 4a 3d eb fa b8 bd cc eb 10 bd 38 e2 26 bd
       0.04955572 -0.09032234 -0.035381123 -0.040743083
000090 74 ab 9c 3d 11 c8 7e bc 9e 2d 7c 3c 49 b5 2e bc
       0.076498896 -0.015550629 0.015391735 -0.010663339
0000a0 17 b8 2e bc 10 3e 5f 3d 2d 8c d5 3d df cb 13 bd
       -0.010664008 0.054502547 0.10427127 -0.0360831
0000b0 dc 76 0f 3d 11 ab 27 3d a1 38 2c 3b ef a1 c5 ba
       0.035025463 0.040934626 0.002627887 -0.0015078167
0000c0 b1 3a cd 3b 15 32 ec bc 82 a6 1c 3d 74 d9 81 bd
       0.0062631 -0.028832475 0.03824473 -0.06340304
0000d0 c6 43 d0 bc f4 b7 a0 3d 09 3e de 3c 39 75 54 3c
       -0.025422942 0.07847586 0.02712919 0.012967401
0000e0 62 66 12 3d 32 23 1f 3d d9 c1 49 3d 22 e0 fa 3c
       0.03574217 0.038851924 0.049257133 0.030624453
0000f0 f8 c1 ac 3d 84 af 13 3c cf 6c c9 3c 48 37 57 ba
       0.08435434 0.009014014 0.024588017 -0.00082098367
000100 a2 3b 63 b9 11 10 aa 3b f0 f1 b4 3b 3c 52 78 3d
       -0.00021670622 0.0051899035 0.0055220053 0.0606253
000110 6e 57 64 bd cc ff e7 3c 3c 80 1c 3d c8 5b 0e 3c
       -0.055747442 0.028320216 0.03820823 0.008688875
000120 b5 da 55 3d 07 1d 56 3d 99 44 3b 3d 9e 82 b6 3d
       0.05221053 0.052273776 0.045719717 0.08911632
000130 95 62 5c 3d 15 9d 33 3d ed 1f 2c bc b1 d2 af 3d
       0.053804953 0.043850977 -0.010505659 0.08585108
000140 6b fe 2d bd af af d9 bb 02 ec c3 bc c8 80 12 bc
       -0.04247896 -0.0066432576 -0.023916248 -0.008941837
000150 3b b1 46 bc 40 a4 6b 3d b8 bf 48 3d 51 4d 55 3d
       -0.012127216 0.057529688 0.049010962 0.052075688
000160 31 b3 98 3d 4e 67 8c 3d 54 06 18 3c 78 35 36 bd
       0.07456053 0.06855641 0.0092788525 -0.044484586
000170 07 a2 03 3b e2 4a e9 3d f6 60 83 3d d9 65 e7 3c
       0.002008559 0.11391236 0.06414978 0.028246807
000180 f1 ca 69 bd f9 34 c8 3c 0a 62 49 3c c7 b5 db bc
       -0.057078306 0.024439322 0.012291441 -0.026820077
000190 eb 8b 24 bd ba 26 c2 bc bc 58 17 bd 7c 9b 06 3d
       -0.0401725 -0.023700107 -0.036949858 0.032863125
0001a0 8e 23 5c 3d b5 65 9a bd 54 f1 83 bb e9 c7 a7 3c
       0.053744845 -0.0753893 -0.0040265713 0.020481067
0001b0 b3 0a 9b 3d 39 09 4f bd 90 2d 02 3d 6a 70 b9 bb
       0.075704 -0.050545905 0.031781733 -0.0056591528
0001c0 f4 19 86 bd 44 f1 c2 3d eb e9 9f 3c 7c e3 0a bd
       -0.06547919 0.09518674 0.01952072 -0.033908352
0001d0 d6 37 1f bd 49 ce a5 3d 86 12 4a bd 25 d8 16 3d
       -0.03887161 0.080959864 -0.04933407 0.036827225
0001e0 63 2e 93 39 7d 56 60 3d b7 30 94 bc 67 c5 aa 3d
       0.00028072586 0.05476998 -0.018089635 0.08338433
0001f0 af da 8c 3c f3 1d e3 3d 13 fc 90 bd 5a 87 8d 3d
       0.01719412 0.11089697 -0.07079329 0.06910582
000200 51 fc 1a bc 59 fe 75 3d 16 68 45 bc 44 e3 e8 3c
       -0.009459571 0.060057018 -0.012048742 0.028428681
000210 fc 15 ff bb 09 3e f1 bb b7 da 88 3d 75 08 34 3d
       -0.007784603 -0.0073621315 0.066823415 0.043953378
000220 00 47 25 bd cf 4d c7 3c d1 ad 5c 3c 4f 86 cb 3c
       -0.040350914 0.024329094 0.013469175 0.024844317
000230 bb 5e e1 3d e2 d7 e2 3d 54 04 62 3c 5a a3 33 bb
       0.110043965 0.11076333 0.013794977 -0.0027410598
000240 c6 90 1d bd 26 a6 db 3d a4 24 35 3d 90 94 96 3d
       -0.038468145 0.1072505 0.044224396 0.07352555
000250 97 27 a6 bc 0c 3b a9 3c 85 4f 0d 3c 06 13 ab 3d
       -0.02028255 0.020658039 0.008624916 0.08353238
000260 b5 35 a7 bc c0 8c 55 bd 55 53 84 3d 84 a9 ca 3d
       -0.020411352 -0.052136183 0.06461207 0.09895614
000270 a4 8e 9d 3d 2a 90 89 3d 5b 76 04 b9 ed 1d 74 3d
       0.07693222 0.0671695 -0.00012632592 0.059598852
000280 9a 64 b1 3d 79 2c 2e bd df 14 22 bd de 4c cd 39
       0.08661766 -0.04252288 -0.039570685 0.00039157917
000290 b3 fc 56 3d 79 60 d9 3c d0 a8 7e bc 8c 21 02 bd
       0.052487087 0.02653526 -0.015543178 -0.031770274
0002a0 e5 ff 4c 3d e3 3f ab 3d 02 39 2c 3d 6c 6f 01 3e
       0.050048728 0.08361795 0.042046554 0.1264016
0002b0 12 a9 cb 3c 88 72 21 3d 97 84 1f 3c df de 0f 3d
       0.024860892 0.039415866 0.009736202 0.035124656
0002c0 ce cd 89 bc ea 3f 8e 3d bf 26 08 3d e6 69 87 3c
       -0.016821768 0.069457844 0.033240076 0.016529988
0002d0 55 a8 3b 3d 0e d1 09 bc 42 ba 96 3c 16 3b 24 3d
       0.04581483 -0.008411659 0.018399362 0.04009541
0002e0 a3 f9 19 bd 31 93 58 bd 95 0d 27 3d e8 66 91 3d
       -0.037591588 -0.052874748 0.040784437 0.07099706
0002f0 dd ae a6 3a c7 51 78 3d fe 61 7a 3c ba fa 27 bd
       0.0012716908 0.060624864 0.015282152 -0.041010596
000300 cc 59 c2 bc 07 9c c7 3d 04 ea 1b 3c f4 e5 98 3d
       -0.02372446 0.09746557 0.009516243 0.07465735
000310 10 0f 3e 3c 8a 18 89 bc aa 78 b1 3d 37 c0 62 3d
       0.011600271 -0.016735334 0.08665593 0.05535909
000320 49 85 17 bb 64 61 04 bb 38 35 16 3d 78 0d 59 3d
       -0.0023120216 -0.002019965 0.036671847 0.05299136
000330 b3 94 6d 3d 53 a9 85 3d e5 d7 54 3d 18 02 70 bd
       0.05800314 0.06526437 0.051963706 -0.058595747
000340 17 21 53 bd 5e 1d 81 bb ee 78 a9 3d bf 4b 3e bd
       -0.05154523 -0.0039402684 0.08275019 -0.046458956
000350 0c 51 73 bd e9 de 87 bd 17 e9 8a 3c 04 8e 70 3d
       -0.059403464 -0.066343136 0.016956849 0.058729187
000360 22 87 38 3c 21 6c e5 3c 52 8b 33 bc 6a ff cf 3c
       0.011262687 0.028005661 -0.0109585095 0.025390346
000370 7b 10 d3 bc 1a 7c 5f 3d 46 bb 39 bd 27 29 59 bd
       -0.025764694 0.05456171 -0.045344613 -0.05301776
000380 62 0e 81 bd 8d 96 87 bd bb 70 5d bd 4d 54 d3 bb
       -0.063015714 -0.06620512 -0.054062586 -0.0064492584
000390 8b 0c 7c 3c 85 e6 0e bd 96 1b 4f bd 91 3f a2 bc
       0.01538385 -0.03488781 -0.050563417 -0.019805701
0003a0 be b6 ee 3b 33 a4 09 3b a7 66 4e bc 07 55 09 bd
       0.007284968 0.0021002411 -0.012597716 -0.033528354
0003b0 3a 34 b4 3c a0 98 27 bc f9 98 13 3d ab dd d8 bc
       0.02199756 -0.01022926 0.036034558 -0.026472887
0003c0 13 b1 8c 3c 2b 85 09 bd 91 30 0b bd d9 be 56 3d
       0.01717428 -0.033574264 -0.033981863 0.0524281
0003d0 37 c1 a7 bd e1 c0 fe 3c 8b 72 88 bd a9 d1 5c bb
       -0.0819115 0.031097831 -0.06662472 -0.0033694303
0003e0 db 12 08 bc 63 58 66 3d 80 f1 5c bd 05 c0 64 bc
       -0.008305277 0.056236636 -0.05394125 -0.013961797
0003f0 db 8c 3a 3d 2e 4b 87 bd 5b 24 4a 3d 65 a7 60 bd
       0.045544486 -0.06606136 0.049351078 -0.05484714
