testbed/models_v1/gnn_layer_0.pt (torch, 696275 bytes, 7 tensors)

weight f4 [200, 200]
00000000: 5c65 283d 307c 693c a5d1 02bc fb6b 4d39
00000010: f314 c93c c3c7 ebbc fe26 163d de31 073d
00000020: 6f04 c8bc cae9 d73c 8a18 f13b f1d1 753d
00000030: 15f7 fb3c 629f 213d 65ab 0fbd 117f cbbc
00000040: d814 3d3b 152d 52bd aea8 783d 25a7 fd3c
00000050: d3da 4d3d 0237 833d bf6a 85bd 4139 13bc
00000060: 1638 683d a990 96bd c62a 93bd 8864 f4bc
00000070: 6011 8b3c 433a e239 9e66 2a3d 0d91 acba
00000080: 0d45 71bd 8cd5 3bbc db9b c2bc 3283 093d
00000090: 68bb 2739 f8ea f83c 03bc 02bd 3fbd b1bb
000000a0: 8fcb 223c 6df2 6d3d 6acc 69bd 8d15 57bd
000000b0: 9e09 fc3b 12d3 223d 7439 55bd 69ba 30bd
000000c0: 0004 b93c da00 4fbd 20a9 093d df72 bb3c
000000d0: 6b57 3e3d d69a 1dbd a7de 13bd 8005 14bd
000000e0: 3c14 8a3c 42cf 43bd 4e8a 10bd 18a0 4fbd
000000f0: be06 76bc 24cf 823d 56ca 9a3c 384b d8bc
00000100: 42ea fe3c a6de a63c 7f77 8b3c e72c c2bc
00000110: 552d 853b 1ae7 46bd ac9d 99bd 031b 9b3c
00000120: 4236 90bd 64eb 5ebd 2577 c7bc e110 1fbd
00000130: d30b 97bd 4c25 a6bc 999e dc3b 7c6c 47bd
00000140: f517 053d 04eb 56bd 12c0 18bd e1f7 843d
00000150: ccb3 9d3d a352 973d b8f6 2e3d 29cd 7b3d
00000160: 6db3 53bd 39dc d9bc 18ed 5b3d 1afe 86bd
00000170: 1976 68bd 4807 0e3d 0471 9a3c eb40 863d
00000180: af93 1e3c dd66 263d 6339 21bd f1c9 d3ba
00000190: 9776 5ebd 2935 8dbc 4eb7 79bd ca74 5abd
000001a0: d0e5 8e3d 86ff ad3c 62ea 36bd 07f7 3d3c
000001b0: 6034 933d d284 61bc debb 5f3b e277 663d
000001c0: 1d5c 62bc 0292 b03c 12b5 c0bb d565 3dbc
000001d0: ba74 75bd dd96 1abc 2c37 5b3d d35c 50bd
000001e0: 5acb 30bd a871 5b3c 8b13 293d 2e9a 763c
000001f0: 0490 f9bb 73e7 373d 4e94 0d3d 8a08 51bc
00000200: d24d 5dbd 60b1 653d f92f 76bd 88a0 5b3c
00000210: a000 2abd 8f4b 93bb 7827 553b b367 5c3d
00000220: b9dd 96bc 0ce3 9b3c f3b2 1f3c a6be 8dbd
00000230: cdf3 4a3c f3d8 3fbd f55e 583b 96cd 11bd
00000240: 4c33 fabb 879b 553c 709b 683d 5522 f53c
00000250: 5d32 393d fa07 6f3d b055 99bc 1463 153d
00000260: 2e69 36bc fd95 5abb d817 583d ad2f 253d
00000270: 0d69 e13b 6066 b7bc 1c46 84bc 4ee3 90bd
00000280: 333a b0bc 6ab5 7c3d 2dc7 263d bbe9 023d
00000290: 6586 0c3c 557e 1a3c c708 423c 00a8 123c
000002a0: b8d7 203a e339 6d3c 5f26 803d 2f2e 843d
000002b0: bc3c 383d bf5c c53b 6c2c 06bd 80d0 8a3c
000002c0: a7e1 5e3d adc7 953b baa6 123d 833b fb3b
000002d0: 869d b13c f525 183d b4a7 06bd 23bf 8abd
000002e0: 2817 61bc 5001 323c 4e48 c43c 12ea 4d3c
000002f0: 6d68 883c fd98 873d 4229 6a3c 8c2f 6abc
00000300: 064a c9bc d459 333d 983b 09bd 6916 11bd
00000310: 8ffb 7f3d 9dfb 64bd e901 97bb 9c8e 88bd
00000320: 1574 1b3d 3561 413c d76f 2abc 8ca2 c33c
00000330: e333 88bc 7232 9cbc a8da f6bc 1ed3 05bd
00000340: 817d 3bbc 1c11 793d 1dc5 a93c 37cf 0e3d
00000350: 2abe 10bd f1fc 853d 79b6 403c 62a1 d73c
00000360: e854 043d 95fd 103d f453 8c3b 0e44 373d
00000370: 615b 36bc 1a33 923d bd6f 39bd 6895 ec3b
00000380: 2e02 993c 572b c9bc fee5 9dbd 75ca 92bc
00000390: 1b32 ff3b 792b 263d 122c 11bd e769 813c
000003a0: 8007 17bd 5109 253d 0e56 c33c 0f95 8bbc
000003b0: 37a3 2bbd ef2f 84bc 8975 cfbc 07f6 2ebd
000003c0: f3b3 29bc 4a74 df3a fe42 8bbb 0fa8 423c
000003d0: bf8a 803c 0c59 26bb 3f93 7fbd e5c5 54bd
000003e0: 2ea9 7d3d 7756 703d 880e 8fbc ba8c 96bd
000003f0: 581d 3f3d ec71 f0bc 8d96 763d 76d6 7a3d
0.04111229 0.0142508 -0.007984553 0.0001959055 0.024546122 -0.028781777 0.03665828 0.03300654
-0.024416177 0.026356596 0.0073576616 0.06001467 0.030757466 0.03945864 -0.035075564 -0.024840863
0.0028851535 -0.051312525 0.06070774 0.03096349 0.050257515 0.06406976 -0.06514501 -0.008985818
0.056694113 -0.073518105 -0.07185893 -0.029833093 0.016976058 0.00043149487 0.04160177 -0.0013165787
-0.058903743 -0.011464488 -0.023755958 0.033572383 0.00015996175 0.03038548 -0.031917583 -0.005424171
0.009936227 0.058092523 -0.05707971 -0.052510787 0.007691576 0.039752074 -0.052056745 -0.043146525
0.022584915 -0.05053792 0.033608556 0.022881923 0.046470087 -0.03847774 -0.03610101 -0.036138058
0.016855352 -0.04780508 -0.035288148 -0.050689787 -0.015016256 0.06387165 0.01889531 -0.026403055
0.031117562 0.020369839 0.017024754 -0.023703052 0.004064242 -0.04856024 -0.07500777 0.018933779
-0.07041599 -0.054423705 -0.024348805 -0.038834456 -0.07375302 -0.020281456 0.0067327735 -0.048687443
0.03249355 -0.052470222 -0.037292548 0.06492592 0.07700309 0.073888086 0.042715758 0.061474953
-0.051684786 -0.026594268 0.053692907 -0.06591435 -0.05675325 0.034674913 0.018852718 0.06555351
0.009678765 0.04062544 -0.03936137 -0.0016158206 -0.054312315 -0.017237263 -0.06096583 -0.053334035
0.06977427 0.021240007 -0.04465712 0.01159454 0.07187724 -0.013764577 0.0034139077 0.056266673
-0.013815907 0.021553997 -0.0058809603 -0.011559923 -0.059925772 -0.009435383 0.053519413 -0.050869774
-0.04316268 0.013393797 0.041278403 0.015051408 -0.007616045 0.04489846 0.034565262 -0.0127583835
-0.054029293 0.05607736 -0.060104344 0.013404973 -0.041504502 -0.0044950913 0.0032524746 0.053809833
-0.018416272 0.019029163 0.009747255 -0.06921129 0.012387228 -0.04683776 0.0033015583 -0.035596453
-0.0076355096 0.013037569 0.05678886 0.029923597 0.045214046 0.058357216 -0.018717617 0.03647144
-0.011133475 -0.003335356 0.052757114 0.04032867 0.006878978 -0.022387683 -0.016146712 -0.07074605
-0.021512127 0.061696447 0.040717293 0.031961184 0.008576964 0.009429534 0.011842913 0.008951187
0.000613566 0.014479133 0.06257319 0.06454121 0.044979796 0.006023019 -0.032757208 0.016945124
0.054414418 0.0045709223 0.035803534 0.0076670065 0.021681558 0.037145574 -0.032874778 -0.06774738
-0.013738431 0.010864571 0.023960259 0.012568014 0.016651357 0.06620977 0.014292063 -0.014293563
-0.02457143 0.04378684 -0.0335041 -0.035421763 0.062495764 -0.05590402 -0.004608382 -0.066678256
0.0379525 0.011802961 -0.010402641 0.02388122 -0.016626304 -0.019067023 -0.03013356 -0.03267204
-0.011443497 0.060807332 0.020723874 0.034865584 -0.035337605 0.06542385 0.011762255 0.02632207
0.032307535 0.035398085 0.004282469 0.044742636 -0.011130185 0.07138653 -0.045272578 0.007219959
0.018677797 -0.024556799 -0.07709883 -0.017918805 0.0077879555 0.040568803 -0.03544242 0.015797568
-0.036872387 0.040292088 0.023844745 -0.01703885 -0.0419037 -0.016136138 -0.0253246 -0.0427151
-0.010357845 0.0017048207 -0.0042499295 0.011880889 0.01569116 -0.0025382666 -0.062396284 -0.05194654
0.06192892 0.05867621 -0.017462984 -0.0735106 0.046658844 -0.029351197 0.06020217 0.061239682

bias f4 [200]
00000000: 0a3b 3c3d d322 06bc 527a c8bc 3f60 343c
00000010: 14da 80bd d5e3 e83c b7a2 30bb 26c8 2bbd
00000020: 99a4 a0b9 0bfd d7bc c2b3 cfbc 73e9 403d
00000030: e5dc 363d 531a 81bd a9b7 883c 8c6f 77bd
00000040: 003f 44bd 7cd0 163d bfaf 053d 550b 07bd
00000050: 2e02 bb3c fdad 953b fca1 d63c 37a2 393d
00000060: f5a3 21bd 8099 4f3d e5f9 fbbc d615 6fbc
00000070: d19b de3c dd20 a2bb ffe3 6d3d c181 47bd
00000080: 3434 5d3d 78d1 60bd 3048 9fbc 2b46 1bba
00000090: 2389 463d 409e 14bc 1fcb 6fbc 157b 16bd
000000a0: 89dd 28bd 8a2c 52bc 579c f33c dfb3 463d
000000b0: c7ff 36bd f2c9 083d be75 f73c 4004 6bbd
000000c0: d1cf c4bc 5fb7 033d 7425 00bd ca22 2dbd
000000d0: 54fe 643d 479f 28bd f922 873d 78b9 5c3d
000000e0: aded 0b3c ceca b73c f914 2f3b dcf7 87bb
000000f0: 1627 7a3d 8c4f 9fbd c45b 4f3d a4e3 ce3c
00000100: d8f8 84bd 9355 08bc f88f 8c3d e9e8 a43c
00000110: 715f 303d e50b edbb a8ff 5c3d 84b6 b43c
00000120: 72d0 bcbc ebb3 f93c b912 27bd aa03 62bd
00000130: a14e 9c3c acbc 6abd fb6c 843d 9581 2a3c
00000140: c3da 093c db4e 3f3c bde2 1cbd 7717 61bc
00000150: a629 f73c 40d1 5d3d 1f6b 363d b9bb 913d
00000160: b8f7 04bd 8ad6 debc 663f 04bd 5c2f fabc
00000170: afec d5bc d453 753d 3d2e febc 23c1 233d
00000180: eea2 7d3c a709 40bd 90bc d0bc 84d3 27bc
00000190: cdd3 9cbc 2f40 803d 2ae6 033d 7648 073b
000001a0: c71f 6cbd 8658 373d 965c 123d 238c d73c
000001b0: c8b3 76bc e664 0c3c 943f 033d a23e 0cbd
000001c0: d130 84bc 9a4e f0bc 91fc 3b3d 9e34 2fbb
000001d0: 7cf1 53ba ee5f 6f3d 64db 69bc 07a2 393c
000001e0: 5dff b7bc 7dc6 97bc 591c 7abd 8736 24bd
000001f0: 5dbc 9bbd b719 d73c 5276 81bd 6adf 3e3d
00000200: 3e26 92bd 8358 b53c 1aaa 563d 4b87 d0bc
00000210: 6c6d 8bbd fc76 1f3d 44d9 54bd 8ad0 403c
00000220: 27cf 85bd d0d2 5abb 500c cdbc e45e e83b
00000230: f02c 013c 7680 303d 5efa 8ebc 505f 663c
00000240: d689 08bd b0ce 273d c705 053d 4a8e 913d
00000250: fcda 013c a1ff e13c e509 f03a a633 4d3d
00000260: 496f a63a b748 853d ac07 3e3d 7f33 91bd
00000270: 9418 643b 2a23 31bd 8159 afbb b92c c4bb
00000280: c90e 4e3c aeab 92bd 1b0b bbbc d60c 0c3c
00000290: 60db 283d 307b 3dbd 9b3a e2bb 64e3 bf3c
000002a0: bb27 553d 025d 0f3d b4ed 8dbd 26f1 06bd
000002b0: aca8 bc3c a561 56bd 3ff5 a23c 5f14 913c
000002c0: b590 7dbd 40d0 af3c 6e3d 093d 54a8 80bd
000002d0: 3aa4 5dbd 7b5a 9dbc 135d 893b 736e 38bc
000002e0: 4338 353c ab0d 8dbd 66dd 42bd 4848 58bd
000002f0: 1ed1 713d bb3d 35bd 6719 273d 568c 123d
00000300: 820d c93c 8b9a 503d 53a4 933d 8009 2ebc
00000310: 93a7 15bd 6a36 36bc be0d 6d3d bbc4 67bd
0.04595474 -0.008187014 -0.02447239 0.011009275 -0.06291595 0.028428951 -0.0026952454 -0.041938923
-0.00030640213 -0.026365777 -0.02535427 0.047097635 0.044644255 -0.06303849 0.016689138 -0.060409114
-0.047911644 0.03681992 0.032638308 -0.03296979 0.022828188 0.00456786 0.026200287 0.045320716
-0.039463002 0.0506835 -0.030758807 -0.014592608 0.027173908 -0.0049477653 0.058078762 -0.048707727
0.054004863 -0.054887265 -0.019443601 -0.00059232366 0.048470628 -0.009070933 -0.01463583 -0.036738474
-0.041226897 -0.012828002 0.029737635 0.048511382 -0.044677522 0.033395715 0.030207511 -0.0573771
-0.024024876 0.0321573 -0.031285718 -0.042269506 0.05590661 -0.041167524 0.065984674 0.053887814
0.008540553 0.022435572 0.0026715382 -0.00414942 0.06107243 -0.07778844 0.050624624 0.025255032
-0.06492776 -0.008321184 0.06863397 0.020130591 0.04305977 -0.007234084 0.05395475 0.022059686
-0.023048613 0.0304813 -0.04078934 -0.055179276 0.019080462 -0.057308838 0.06466099 0.010406871
0.008413973 0.011676515 -0.038302172 -0.013738505 0.030171227 0.054154634 0.044535752 0.071158834
-0.032462806 -0.02720191 -0.032287024 -0.03054016 -0.026113836 0.059894398 -0.031027908 0.03997911
0.01548074 -0.046884205 -0.025480539 -0.0102433 -0.019143963 0.06262242 0.032201923 0.0020642555
-0.057647493 0.044762157 0.035732828 0.02631194 -0.015057512 0.008568978 0.032043055 -0.03423942
-0.016136559 -0.029334355 0.045895163 -0.0026734243 -0.0008084995 0.058441095 -0.014273498 0.011330134
-0.022460634 -0.018527264 -0.06106219 -0.040091064 -0.07604287 0.026257379 -0.06321396 0.046599783
-0.071362 0.022136932 0.052408315 -0.025455138 -0.0680798 0.03893183 -0.051965013 0.01176847
-0.06533652 -0.0033389814 -0.025030285 0.00709139 0.007884249 0.04309126 -0.017453369 0.01406081
-0.033334576 0.040968597 0.032476213 0.071072176 0.007925745 0.027587714 0.0018313496 0.050098084
0.001269796 0.0650801 0.046394035 -0.070899 0.0034804689 -0.043246426 -0.005351246 -0.0059867767
0.012576767 -0.071616516 -0.022832444 0.008547982 0.041224837 -0.04626006 -0.006903959 0.023423858
0.052039843 0.03500081 -0.06930104 -0.03294482 0.023029648 -0.052339215 0.019892333 0.017709909
-0.06190558 0.021461606 0.03350585 -0.06282106 -0.054111697 -0.019208184 0.0041920035 -0.011256802
0.011060777 -0.068873726 -0.047574423 -0.052803308 0.05903732 -0.044248324 0.04079571 0.035778366
0.024542574 0.050928634 0.07209077 -0.010622382 -0.036536764 -0.011121372 0.057874434 -0.0565841

weight f4 [300, 200]
00000000: 6276 163d 7154 ccbc e02f d13c 7958 8d3d
00000010: 2fec f23c df1e fbbc 731c 753d 65b8 85bd
00000020: f9e5 af3c 1690 483c 95ed 83bd ca7c acbc
00000030: 65e8 54bc 4c31 53bd f187 7cbd 3c4b 0abd
00000040: 1f76 6e3d 86af 6bbd ade9 c4bc a2dc 0abc
00000050: 2ab2 703d a980 4c3d 6ea4 95bc 9525 cfbc
00000060: 593b dabb eca5 6f3d 5793 1ebd e835 22bc
00000070: ada2 d43c a37a 983a 09b1 8ebd 0c09 8fbd
00000080: b2df 183d b3b4 fc3c 4555 e13c b25f 1b3c
00000090: 54f4 8abd 9044 8a3d e9ce 05bc 516f d4bc
000000a0: 9036 6abd e211 a73c da52 80bd 737b 08bd
000000b0: 3e2f 093b d322 9dbc a6e5 b7bc c76a e23c
000000c0: 693c f33c d389 4dbd efed 62bd bfee f0bb
000000d0: 4134 98bd a3f6 8b3c 3667 8bbc e466 293d
000000e0: 6ae7 77bd 8068 21bd fd44 753c d144 113d
000000f0: 9eb2 6ebd b07f 483d aaef 3d3d 8fa2 b43c
00000100: 0cff 3b3d ef3e 59bd d7f8 8d3c 7eb1 fcbc
00000110: c8ce 02bc ca19 44bd a9e6 99bc c7ef e43a
00000120: 770e 82bd 9daa 153d 0718 68bd a317 aa3c
00000130: 7607 8d3c 81ef e7bc a69c 423c 0df7 1dbd
00000140: a8cc f63b b7f1 883d d692 5fbd 162c 5ebd
00000150: 7675 4b3c 5b24 f53c c082 19bd 4864 fdbb
00000160: da73 973d 95b7 353d 2592 213d 6e53 8fbd
00000170: aeab 3f3d 65c7 bcbc ef02 bf3c 604a a6bc
00000180: e09a 63bd e618 c3bc 67c0 5fbd 4a4c 45bd
00000190: 04f6 cd3c 2542 163c 951c 8b3d be88 28bd
000001a0: 2b0b 8cbd 385b 1d3d 907b 8dbd 90bd bcbc
000001b0: a4c8 acbc cab3 3dbd 8907 08bc 097c 17bd
000001c0: 7886 0abd 673f 683d ba67 8f3b 5df6 aa39
000001d0: d70d 5b3d 0a19 713d 5e05 cd3c 4665 123d
000001e0: f1fb 52bd b8a8 a5bd ad12 50bd 906b 3d3d
000001f0: 6be9 383d 43b6 c9bc b108 353d 98a3 8f3a
00000200: 0ce9 0d3c bad1 21bd 906c 2b3d ba60 3b3c
00000210: 07da 6e3d 0992 aa3b c2b6 aa3c bb64 6fbd
00000220: 92d9 88bd 6234 303d 5534 403d 6701 463c
00000230: 6a1e 253d a5ea 17bd 65f7 263d 7bed 1cbd
00000240: cb30 d6bc 569d 00bd ca8f 97bd 2d59 afbb
00000250: 10cd 84bd 2a13 e73c 6c68 fc3c 9112 c03c
00000260: e2ac 5f3d f583 40bd 4a4d 8cbc 351c c9bc
00000270: 3005 d43b 84b9 81bd 2d8f 09bd f498 47bd
00000280: d947 32bc cd1e e13b 0c33 d03a 256a 823d
00000290: 51a9 c2bc 2d5c 743d 3a00 463c 76c9 383c
000002a0: ce78 44bb da20 d93b 8b9e babc 2faf 14bc
000002b0: 11c6 443d 9bd6 64bd 24c1 2cbd 928d 62bd
000002c0: 4fb6 403d eb3f 95bc 1390 b63c 3668 d53b
000002d0: 469f d8bc 839f 44bd 71a3 85bd 5eff 1dbd
000002e0: 3d50 833d 720b 02bd bf81 7b3c fc85 80bd
000002f0: 349d 363c c5fe 373c 5a1f 73bc 026a 5ebd
00000300: f2b4 963c a0c1 75bd 13c1 7ebd df21 83bc
00000310: 23b7 073d 2272 083d c5b1 09bd 5ab0 5dbc
00000320: 2b97 8a3c f734 26bb 0ac1 343c 3e3b 633c
00000330: b185 8e3c aebc 563d 3b05 d33b fe73 363d
00000340: d287 993c 0bdd 623d 731c 7fbd 100b 603c
00000350: 16cf 243d 5605 1e3d 7d38 23bd 543f d63c
00000360: c5c4 87bd 6c75 fb3c 744c 743d e909 833c
00000370: 6039 83bd bb78 0fbb 0ba2 6cbd 5983 7a3d
00000380: a400 8abd 6550 333d 8957 c2bc 2318 6b3c
00000390: fb94 353b 67df 8a3d fcb7 d43b 7976 e3ba
000003a0: c52b 25bd 8c11 54bd 1043 973c 8476 ac3c
000003b0: b2b3 8cbd f3da 063d f022 8abd c45b f83c
000003c0: ec02 e13c 3aea 713d a798 4b3d bc1b 413c
000003d0: c31e 3c3d b67e 1f3d a1df eeba 0081 f5bc
000003e0: 574f 7f3d 573b d1bc 399b 88bd 163b f9bc
000003f0: 6435 89bd 2d75 a03b c40b 763c b3f7 783d
0.036733992 -0.024942609 0.025535524 0.069016404 0.029653637 -0.030654369 0.059841584 -0.06529311
0.021471964 0.012241384 -0.064417996 -0.021055598 -0.01299486 -0.051560685 -0.06165308 -0.033763155
0.058218118 -0.05754044 -0.024037207 -0.0084754545 0.05876366 0.049927387 -0.018266883 -0.025286475
-0.006659907 0.058507845 -0.038714733 -0.009900548 0.025956476 0.0011633228 -0.069673605 -0.069841474
0.037322707 0.030847883 0.02750648 0.009483265 -0.06784883 0.067513585 -0.008167007 -0.025931986
-0.05718094 0.02039427 -0.06265803 -0.033320855 0.00209327 -0.019181645 -0.022448372 0.027638806
0.029691892 -0.050180268 -0.055402692 -0.0073526795 -0.07431842 0.017085379 -0.017016988 0.04135789
-0.060523428 -0.0394063 0.014970061 0.03546602 -0.05827581 0.048949897 0.04637114 0.02205017
0.04589753 -0.053038534 0.01733057 -0.030846354 -0.007983871 -0.047876157 -0.018786745 0.0017466479
-0.06350415 0.036539663 -0.05666354 0.020763224 0.017215472 -0.028312447 0.011878168 -0.038565684
0.007531721 0.066867284 -0.054583393 -0.054241262 0.012418142 0.029924562 -0.03747821 -0.0077329017
0.07395144 0.04436453 0.039446015 -0.06998335 0.046794586 -0.023044297 0.023316829 -0.020299137
-0.055567622 -0.023815583 -0.05462685 -0.048168458 0.025141723 0.0091710435 0.06792561 -0.041146033
-0.068380676 0.03841707 -0.06908333 -0.02303961 -0.021091767 -0.04631404 -0.008302578 -0.036983524
-0.033819646 0.05670109 0.004376379 0.00032608482 0.053479996 0.05886177 0.025026973 0.035741113
-0.0515098 -0.08088821 -0.05079906 0.046245158 0.04514448 -0.024623042 0.044197742 0.0010958789
0.00866152 -0.03950665 0.04185158 0.011436636 0.058313396 0.005205397 0.020839099 -0.058445673
-0.06682123 0.043018706 0.046924908 0.012085295 0.04031221 -0.03708901 0.040763278 -0.038312417
-0.026146313 -0.031400047 -0.074004725 -0.0053512068 -0.06484425 0.02820738 0.030811511 0.023446353
0.054608233 -0.047000844 -0.017126698 -0.024549583 0.006470345 -0.063342124 -0.03358381 -0.04872985
-0.010881388 0.006870127 0.0015884354 0.06367902 -0.023762377 0.05965822 0.012085015 0.011278501
-0.0029979232 0.0066262307 -0.022780677 -0.00907497 0.048040453 -0.055868726 -0.04217638 -0.055310793
0.047048863 -0.018218955 0.022285497 0.006512667 -0.026443135 -0.048003685 -0.065253146 -0.038573615
0.064117886 -0.031749196 0.015350758 -0.062755555 0.011145879 0.011230175 -0.014839018 -0.054300316
0.018396828 -0.05999911 -0.06219585 -0.016007362 0.033133637 0.03331197 -0.0336168 -0.013530815
0.016917786 -0.002536116 0.011032352 0.013869105 0.017397733 0.052426033 0.0064398325 0.044544213
0.018741522 0.055386584 -0.06228299 0.0136745125 0.040236555 0.038579307 -0.039848793 0.026153244
-0.06629328 0.03069564 0.059643224 0.015995936 -0.06407428 -0.002189203 -0.057771724 0.06116042
-0.067384034 0.043777842 -0.02372338 0.014349016 0.0027707207 0.06780892 0.006491659 -0.0017354033
-0.040324945 -0.051774547 0.018464595 0.021052606 -0.06870212 0.03292365 -0.06744945 0.030317195
0.027467214 0.059061266 0.049706127 0.011786398 0.045927774 0.0389392 -0.0018224606 -0.029968739
0.062331524 -0.02554099 -0.06670231 -0.030423682 -0.066996366 0.004896781 0.015017454 0.0607831

bias f4 [300]
00000000: 8398 103d f761 6bbd a480 0dbd 6412 5ebc
00000010: 4f03 0a3d 2b9e 863d 318a 863d a126 603d
00000020: 3fda 71bd 439b cebc 774e e2bb a24b 7c3c
00000030: 51de 2dbc 9fac 87bd 7e12 05bc a2db 43bd
00000040: a2a9 72bd a7e1 0ebc 148a e4bc 7dd1 b4bc
00000050: 4ca8 753d 4c6a c3bc 96e4 223d 646c 8fbb
00000060: ac20 dbbc 7402 76bd fa04 623d bdf9 57bd
00000070: 06e1 583d 7eb9 36bd feb4 173d 7041 22bd
00000080: b2d5 02bd bb80 133d cd80 24bd c178 3cbd
00000090: d3a5 52bb 46d2 58bd 362e eabc e16c 23bb
000000a0: 0200 843d 03db 23bd 8ca3 263d f84a 6b3d
000000b0: 06f1 24bc 2d83 56bd 3398 a13c 11ec b83c
000000c0: fa72 283d a676 233d d5a5 703d ddfe 01bd
000000d0: e21b 66bc d2e7 533d 0571 61bd e94e 643d
000000e0: 1e18 4b3d fcbd 503d af73 7c3d 92f4 14bd
000000f0: 31b1 2bbc 8a9f 7e3d 458b fabc cfe4 013d
00000100: 7679 363c 8afc 03bb 4a4d 03bc c947 b93c
00000110: 8f35 47bd 915f 29bd c3f5 f13c a90c 863d
00000120: 846e 4abd a530 3fbd c3a2 7e3d 7c6f 543d
00000130: d7b8 32bd 1338 fbbc 28a7 6abd 487b 88bc
00000140: 30f3 5dbd 3b67 81bd 822d 53bd adc1 8a3b
00000150: 0358 643d 2eb4 82bc 9445 5bbd 016c 413d
00000160: d868 813c 0b7f 163d 961f 5abd 39fc 053d
00000170: e971 9e3c 585f b33b e6c4 3ebd 1f98 b23c
00000180: 184e 31bc 56eb 6cbd 1834 ea3c 485a 04bd
00000190: 86e4 793d 09c7 acb9 e171 233d f88e 84bd
000001a0: 4271 113d da09 4ebd 64e2 653d 3fb0 503d
000001b0: 1ed7 d6b9 25e4 853d d897 383d bd6a 873d
000001c0: e74a 7e3d f05b 563d bd7b 5ebd aad3 78bd
000001d0: f0ec babc bd4c 253d 8757 013d 6c12 6b3d
000001e0: bf25 41bd dade 923c 7611 0ebd ca8b ee3c
000001f0: 297c 53bd f0d8 5d3d 228d b23c 3b5e 633d
00000200: 97c7 7d3d 724d 7b3d 058b 2fbb bc5b 123d
00000210: d61a 62bd 9045 183c 587e 603d 46fc ad39
00000220: 212b 583d 7a2b 7d3c dd00 bcba 7b68 7d3d
00000230: f7f5 583c 17c0 e23c 8816 213d 0777 993c
00000240: 8309 443d 19cf 7fbd dcbc ab3c c559 233d
00000250: 0fee 353d e507 b03c 9365 7b3c acb2 66bd
00000260: 3cc6 9238 c893 893c ccb4 a03c afaf d1bc
00000270: b736 f83b 6752 803c ab9a 00bd fc6f d63c
00000280: 4488 31bc 463e bfba 1e86 4bbd bb07 e43c
00000290: 68ee fbbc 0c6c 57bd 23b0 01bd 875e b33c
000002a0: e733 2c3d 91cb 91bc 8bdd 5abd 4533 e2ba
000002b0: 9f9b 703d 75ef 30bd 5aa9 853d f865 8b3d
000002c0: 7c7e 3dbc 1f01 2c3d 726f 913d 2363 43bd
000002d0: 5e0e 1cbd e291 0d3c b737 7f3c 8215 b53c
000002e0: 46db 763d 789e c13a bd96 343d 65b0 cb3a
000002f0: 660e 6d3d fb4e 1c3d 70da c3bc 29d1 47bd
00000300: cbd4 013d 3637 74bd 38a2 ca3c 4dd8 84bd
00000310: 16b8 28bd 486b 64bd d49a 4fbc dcc9 75bc
00000320: a0ce 0abd 89c0 6fbd 6d13 dc3b 15dc 393d
00000330: b7fc 84bd dacb 2d3d ae76 633d 712f ba3b
00000340: 2886 95bd be24 99bd 3ac6 8dbd b673 6f3c
00000350: 314e f33c 15a3 1d3c da14 12bc 5e59 80bc
00000360: 5c28 75bc ba67 003d ca69 8a3d db43 48bd
00000370: ea0d 2ebc ff14 823d 3e3e 6a3d f362 1e3d
00000380: 1b43 71bd ab8c 513d 868f 9b3b 0804 77bd
00000390: 609c 463d 17ce 09bd 62d8 21bd d12c c83c
000003a0: 99a2 5c3c 1d4e 32bd abe1 b63c e35a 89bd
000003b0: f5e4 9fbc 405c 2f3d 9851 bfbc 1c41 8abd
000003c0: c9f2 4f3d 0e4c 8b3c 6cc3 5abc 55c9 163d
000003d0: bdba 6f3d bafc 043d 32d1 63bd e83c a2bc
000003e0: 8ba2 56bd d181 6a3d a1e9 463d 734c 22bd
000003f0: cdc2 6dbd a94f 413c 3898 e83c 64cc c6bc
0.035301697 -0.057466473 -0.03454651 -0.013554189 0.03369456 0.06573137 0.06569327 0.05472434
-0.059046026 -0.025220519 -0.0069063264 0.015398892 -0.010612086 -0.06624722 -0.008122085 -0.04781688
-0.059243806 -0.008720792 -0.027897872 -0.022072548 0.059974954 -0.023854397 0.039768778 -0.004376935
-0.026748978 -0.060060933 0.055180527 -0.052728403 0.052948974 -0.044610493 0.037037842 -0.039613187
-0.031942077 0.03601144 -0.040161896 -0.046013597 -0.0032142296 -0.052934907 -0.028586488 -0.0024936723
0.06445314 -0.040003788 0.040683314 0.057444543 -0.01006723 -0.052371193 0.019725895 0.022573503
0.041125275 0.039908074 0.0587519 -0.031737197 -0.014044734 0.051734753 -0.055039424 0.055739317
0.049583547 0.050962433 0.061633762 -0.036366053 -0.010479257 0.062163867 -0.030583987 0.03171235
0.011137357 -0.0020139539 -0.008014033 0.022617238 -0.04863506 -0.041350905 0.029536134 0.065453835
-0.049421802 -0.04667725 0.06216694 0.051864132 -0.04363331 -0.030666387 -0.05728832 -0.016660348
-0.054187 -0.06318518 -0.05155707 0.0042345137 0.055747997 -0.015955057 -0.05353315 0.04722214
0.015797064 0.03674225 -0.05325278 0.03271124 0.019341426 0.0054740123 -0.046574496 0.021801053
-0.010821842 -0.05784162 0.028589293 -0.03231266 0.061008953 -0.0003295469 0.039903525 -0.064725816
0.0355084 -0.050302364 0.056124106 0.05094933 -0.00040977536 0.06537656 0.045066684 0.066121556
0.06208315 0.052333772 -0.054317225 -0.060748734 -0.022818059 0.040356386 0.031577613 0.057390615
-0.047155138 0.01792853 -0.03468462 0.029119391 -0.05163208 0.054161966 0.021795813 0.055509787
0.06195792 0.061353154 -0.0026785743 0.035732016 -0.055201374 0.009293929 0.05480799 0.0003318509
0.052775506 0.01545226 -0.0014343519 0.06186722 0.013242236 0.027679486 0.039328128 0.018733514
0.047860634 -0.062453363 0.020964079 0.039880533 0.044416483 0.02148814 0.015344041 -0.05632274
6.9987465e-05 0.0167941 0.01961746 -0.025596468 0.007574882 0.015664292 -0.031397503 0.026176445
-0.010835711 -0.0014590702 -0.04968845 0.027835717 -0.03075333 -0.052593276 -0.031662118 0.02189566
0.042041685 -0.017797263 -0.053433936 -0.0017257711 0.05874216 -0.043197114 0.06526442 0.06806558
-0.011565801 0.041993257 0.07101335 -0.047701966 -0.03809964 0.008640738 0.015577248 0.022104982
0.06026771 0.0014771959 0.044089068 0.001554024 0.05787506 0.03816126 -0.02390787 -0.048783455
0.031697076 -0.059622966 0.024735555 -0.064865686 -0.041191183 -0.055766374 -0.012671191 -0.01500174
-0.03388846 -0.058533225 0.006716183 0.045375902 -0.06493514 0.042430736 0.055533104 0.005681925
-0.07300979 -0.07477711 -0.06922574 0.01461499 0.02970037 0.009621401 -0.008916104 -0.015667614
-0.014963236 0.03134892 0.06758459 -0.048892837 -0.010623435 0.06351661 0.057188265 0.038668584
-0.058901887 0.051159542 0.004747334 -0.06030658 0.048488975 -0.03364381 -0.039513 0.024435433
0.013466501 -0.043531526 0.022324404 -0.067067884 -0.019518355 0.042812586 -0.023354337 -0.067507
0.050768647 0.01700404 -0.013352256 0.0368131 0.058527697 0.03246758 -0.055619426 -0.019804433
-0.052401107 0.05725271 0.04856265 -0.03962369 -0.058047105 0.011798778 0.028392896 -0.024267383

weight f4 [300, 200]
00000000: 4ca6 1e3d ff78 8fbd cc98 83bd fea6 503c
00000010: 6d7b be3c 6398 093d bd50 8c3b 0077 f4bc
00000020: 7014 56bd 6be9 053d 5efc 0b3d 3c0c 76bd
00000030: 4f40 95bc 2c93 3b3d 246d 5dbd da01 ee3c
00000040: 28cf 7dbd 0177 573d 8820 373d 9931 a53c
00000050: 9200 883c 5fe3 39bd 3fd5 8bbb 56ca ec3c
00000060: d979 61bb baeb 82bd ed1b 88bd bdd3 573b
00000070: 1ab0 40bd df19 853c c52b 923d 16a0 90bc
00000080: c27e 88bd b497 573d 6adc 85bd c654 1a3d
00000090: 620b 913d 424d 4bbd e574 623c 3047 c93c
000000a0: 4709 613c 96ef 92bd 1dc7 e4bc 574e a5bc
000000b0: a7fa 8d3d 3a87 a7bc d168 b83c 6870 843d
000000c0: 7b23 cd3c d5e8 a23c 2bc7 6abd 8a44 aa3c
000000d0: 4246 0cbc 5e48 e73c be6c 4fbc 26ef bb3c
000000e0: b2a7 afbc 8df0 df3b d535 963d 22a8 56bd
000000f0: f7ba b73c 79b0 493d 9b1a 303d edf9 223d
00000100: a9ca babc 8ee5 31bd 0dfa 843d 58ba a6bc
00000110: 81a1 e7bc 8e1a 293d d7b9 023c 93dc 28bd
00000120: 5abf 73bd f2e6 ac3c 7fe6 b73c b5b5 d83c
00000130: 06d9 973c 5d64 0bbd 69e0 493d ca1c 543d
00000140: 706d 5a3d 28c1 5abd 60d8 0d3c 9acc 7e3c
00000150: aba5 593d 90a9 8c3d 6d4f c63c 588f 203d
00000160: f7e5 033c 3479 903d 100b aa3b b1f7 263d
00000170: 1ca7 a83c 6be7 203d db95 f3bc c0db d33b
00000180: 2a45 6ebd 98ac 323d 0a81 2bbd f6fa 1dbd
00000190: 3a03 7cbd 08bf 96bc 99bb 1d3d 79c3 24bd
000001a0: a603 f2bc d929 1a3d 1aaf 83bd d85c 833d
000001b0: 1ce4 65bb 1b4a 44bd b4e8 baba 1ebc 813c
000001c0: 6777 513d f102 e63c 3364 893d 7e43 0e3c
000001d0: 19e1 303d 9da8 8ebd 052a 83bd 9e60 403c
000001e0: 5e9c 07bc bd93 43bd c36b 8f3d e9fb bf39
000001f0: c8df 13bd acbb 013c 8fbb 803c fead 973c
00000200: 0006 9a3d 658d 6ebd 16b3 233b 083b 493d
00000210: b8e8 3d3c ee5b 41bd 6d68 bfbc 2b91 26bd
00000220: 960a 5a3c ca4b 8dbc 6981 4f3d 8c70 73bd
00000230: 1074 623c ffa8 c9bc 7da1 40bd 77a3 2dbd
00000240: e7f4 66bd a0fe 2abb 20ae 7ebd d602 1c3d
00000250: 6ed6 35bd 49be a4bb 4278 ca3c 36ad 6a3d
00000260: 5fe9 1f3c 5171 c83c a47f e13c 8082 84bd
00000270: 3af3 f93c e22c 1b3d 617d 933d 2518 54bd
00000280: 75ab bd3c e66e 9fbc 0cc1 2abd ffec 683d
00000290: 1a64 edbb 40b3 35bd 6110 dcbc afaa 90bd
000002a0: 39d6 37bd 5d48 893d 1d65 37bd 5050 89bd
000002b0: 0704 1cbd 7727 98bd ab1f 3a3c 256e d1bc
000002c0: 21fc 7c3d 5da2 a73c bf06 d03b 4af2 5dbd
000002d0: 6012 19bd 18d5 763d 348b 70bd d188 5bbd
000002e0: da0f 553d 8ccd 65bd 7e5e 3a3d 4a11 523d
000002f0: 12eb ac3c 6bea 84bd f0c7 f9bc 4e21 14bd
00000300: 117d e53b ecc7 e7bc 4c82 383d 5d02 69bd
00000310: 7d05 713d 5b88 03bd f8ed a7bc edfa 953d
00000320: 7cd1 1ebd 9104 523c 75df 68bd 7f18 2abc
00000330: 06b9 8c3d c6a0 5e3c a7a7 dcbc 248a 0b3d
00000340: 04f0 113d 9a37 3d3d 29ce 123d 49e2 90bd
00000350: bf76 3a3c 6ff3 80bd 4acd 87bc 47a9 103d
00000360: cfa8 62bc eb8f f3bc bb77 4b3d b08c f1bb
00000370: f897 753d 9fe4 8bbd 5a5a 22bb 82cd 8d3b
00000380: 53c6 b03b f080 22bc f3ce 823d 45f9 433d
00000390: c587 56bc 7408 dbbc 84fc f03c 08f9 3dbd
000003a0: 7386 f13b 02f6 89bc 32c4 50bd dacb 473d
000003b0: 55a6 863d 1cbd 85ba 8b4f 71bd e040 1bbc
000003c0: c4a6 253c c905 73bd 5954 813d 855b ce3c
000003d0: 198f 4a3d f831 6b3a 6168 69bd 8fcc 3b3d
000003e0: 6d23 563d b26b cabb a4ca 593d fbf2 5d3b
000003f0: 62ee 053d bcb0 6ebd 24b1 69bd d8e3 5fbd
0.03873281 -0.070055 -0.06425628 0.012735127 0.023252213 0.033592593 0.0042820857 -0.0298419
-0.052265584 0.032693308 0.034176223 -0.06007026 -0.018219141 0.04579465 -0.054059163 0.029053617
-0.061965138 0.052603725 0.04470876 0.020165252 0.016601834 -0.045382854 -0.0042673643 0.028905075
-0.0034404902 -0.063926175 -0.066459514 0.0032932602 -0.047042944 0.016247688 0.071372546 -0.01765446
-0.06664802 0.05263491 -0.06536181 0.037678503 0.07082249 -0.049634226 0.013821815 0.024570078
0.013735122 -0.07174604 -0.027926976 -0.020178957 0.06932574 -0.020450223 0.022510918 0.06466752
0.025041332 0.019886414 -0.057318848 0.020784635 -0.008561673 0.02823275 -0.0126602035 0.022941183
-0.021442268 0.006834096 0.073344864 -0.052406438 0.022428019 0.049240563 0.042994123 0.03978913
-0.022801714 -0.04343181 0.06493006 -0.020352527 -0.028275253 0.04128509 0.007978878 -0.04122598
-0.05950866 0.021106217 0.022448776 0.026453832 0.018536102 -0.03403126 0.04928628 0.051785268
0.053327024 -0.053406864 0.008657545 0.0155517105 0.05313651 0.06868279 0.024207795 0.039199203
0.008050433 0.07054368 0.005189307 0.04076356 0.020587496 0.039283197 -0.029734543 0.006465405
-0.05817143 0.04362163 -0.041871108 -0.038569413 -0.061526515 -0.018401638 0.038508985 -0.04022548
-0.029542755 0.037637565 -0.06429882 0.06414193 -0.003507859 -0.047922235 -0.0014260025 0.015836772
0.05113926 0.028077574 0.067085646 0.008683084 0.04318342 -0.06965754 -0.06404499 0.011741785
-0.008277027 -0.047748316 0.07002976 0.00036618047 -0.036102086 0.00791828 0.015714435 0.018515583
0.07520676 -0.058240313 0.002497857 0.049128562 0.011591129 -0.04720681 -0.023365224 -0.040665787
0.013308188 -0.017248053 0.050660525 -0.059433505 0.013821617 -0.024616716 -0.047029007 -0.04239222
-0.0563859 -0.002609171 -0.062177777 0.038088642 -0.04439395 -0.0050275666 0.024715547 0.057294093
0.00976023 0.024468096 0.027526684 -0.064702034 0.030511487 0.0378846 0.072016485 -0.05178084
0.023153046 -0.01946206 -0.04168801 0.056866642 -0.007244599 -0.0443604 -0.026863279 -0.07063805
-0.044882033 0.06703255 -0.044774164 -0.067047715 -0.03808978 -0.07429402 0.011360089 -0.025565216
0.061763886 0.020463163 0.0063484604 -0.054186143 -0.03737104 0.060261816 -0.058726504 -0.053597275
0.05201707 -0.056104228 0.04550027 0.05128602 0.021108184 -0.06490024 -0.030490845 -0.036164574
0.0070034345 -0.028293572 0.045046136 -0.05688702 0.058843125 -0.03211246 -0.020499215 0.07323251
-0.038774 0.0128184715 -0.05685373 -0.010381817 0.06871228 0.013588136 -0.026935412 0.034067288
0.035629287 0.046195604 0.03584114 -0.070744105 0.01138085 -0.06296431 -0.016577382 0.035317685
-0.013834192 -0.029731711 0.04967473 -0.0073715076 0.05995938 -0.068307154 -0.0024773092 0.004327477
0.005394736 -0.009918436 0.06387129 0.047845144 -0.013093893 -0.02673743 0.029417284 -0.046380073
0.007370764 -0.016840938 -0.050968356 0.048778392 0.06574694 -0.0010203454 -0.05891375 -0.009475917
0.010110561 -0.05933169 0.06314916 0.025190124 0.049452875 0.00089719845 -0.05698431 0.04584938
0.05227988 -0.006177389 0.05317177 0.0033866751 0.032698043 -0.058274016 -0.0570537 -0.054660648

weight f4 [300]
00000000: 9925 803f af09 813f 7a1e 803f c2f0 803f
00000010: 9b48 803f f74e 7f3f 205e 803f d116 803f
00000020: 52de 7e3f 8e14 7f3f fc9c 7e3f e621 803f
00000030: 72b9 7e3f 4cba 803f 2374 803f 65d8 7f3f
00000040: fa88 7f3f 39ff 7e3f c9f9 803f d429 813f
00000050: da40 803f 7389 7e3f 82b0 7f3f f943 803f
00000060: 7c4c 7f3f 8323 803f 4daf 803f 740c 803f
00000070: b4b9 7e3f 7189 7d3f bcf2 7f3f 97a2 803f
00000080: 7d67 7f3f 3b00 7e3f f2ae 7f3f 5f57 803f
00000090: 89f4 803f 7c56 803f 06d8 7e3f 159f 803f
000000a0: 4d5d 7f3f dd21 803f a50e 7f3f 3e3f 7e3f
000000b0: 9cd3 803f cd13 7f3f f1ad 803f 3346 7f3f
000000c0: 67e8 803f 7cd8 7f3f 8933 803f bb71 813f
000000d0: 6df3 7f3f bc5f 7f3f 8cb0 7e3f cf29 803f
000000e0: 6329 7f3f b1fc 803f 4b00 7f3f 3293 803f
000000f0: f4c7 803f c170 7e3f 739d 803f 025e 803f
00000100: f629 803f 17ad 7f3f c287 7d3f 9244 803f
00000110: 7573 7f3f 632b 803f 4119 7f3f 612f 803f
00000120: 0da4 813f 1f10 803f 039f 803f d150 7f3f
00000130: d464 803f fbc3 7f3f 1b80 7f3f 3d23 803f
00000140: c20c 803f e0e7 803f 5df3 7f3f 1696 803f
00000150: a013 7f3f 4189 803f c043 7f3f d9be 7f3f
00000160: 944f 7f3f e249 803f 4013 803f 66c8 803f
00000170: b52a 803f 9daa 803f a62c 803f e84b 803f
00000180: 4ae8 7f3f 0643 7f3f 8147 7f3f 97bb 7e3f
00000190: 7a40 7d3f c029 7f3f 37b6 7e3f 0663 803f
000001a0: 2391 7f3f bcc0 7f3f 33fe 7f3f bc6d 7e3f
000001b0: 182d 803f 6063 7f3f 32fb 7f3f e29e 7d3f
000001c0: 6379 803f 3ce3 7f3f 7d33 803f 02d3 7f3f
000001d0: af78 7f3f 2307 803f 8959 813f 6fa9 803f
000001e0: 60fc 7c3f 82f3 7e3f 211c 803f 0485 7f3f
000001f0: 397d 7f3f 3515 7f3f aa73 7e3f 6968 803f
00000200: 5b23 803f c388 803f 243a 803f d85c 7f3f
00000210: 578d 803f 5ec8 803f 9d88 7f3f e47a 7f3f
00000220: 6834 813f 2d83 803f 2184 813f a732 803f
00000230: 4438 803f 81eb 7d3f 4ba3 7e3f 4793 803f
00000240: ad0a 7e3f d847 803f f9b0 7d3f 5a9a 7e3f
00000250: e061 7f3f 4cba 803f 5923 7f3f c992 803f
00000260: bac4 7f3f fbd2 7f3f d283 7f3f fec7 803f
00000270: 5123 803f 1ae3 803f 5943 7f3f 10ba 7f3f
00000280: e6a2 803f 391f 803f 8d91 7f3f 1a70 803f
00000290: f5d5 7f3f 7d25 7e3f f1ad 7f3f 2fb2 803f
000002a0: aa49 803f d717 7f3f 44d3 7e3f cf2d 7f3f
000002b0: 64f1 803f 7a56 803f d306 813f dd89 803f
000002c0: 2b62 803f dd1c 803f 9f33 803f 1f31 803f
000002d0: f4bd 7f3f ea72 803f 5937 803f 1680 803f
000002e0: 8b78 803f bf6f 803f e360 7f3f 09d1 803f
000002f0: 4154 7f3f 14ae 803f 02a5 7f3f 6a16 803f
00000300: a575 7f3f 93c9 7d3f 91e7 7e3f 647a 803f
00000310: 286c 7e3f 5a2c 7f3f 53b8 7f3f 6618 7f3f
00000320: a4b7 7f3f 9b27 803f 1b95 803f 70cb 7f3f
00000330: 1dc8 7f3f 8c38 7f3f dd44 803f 468d 803f
00000340: 34ba 7f3f 2b8e 7e3f c9fc 803f c9b0 7e3f
00000350: 37b4 7f3f 5728 7e3f b2a4 7f3f 2144 7e3f
00000360: ccb7 7c3f f613 803f abc9 803f 5301 803f
00000370: 4f6c 7f3f 9d27 7f3f 5405 803f 686d 803f
00000380: 8057 803f 57c5 7f3f 029f 7f3f afad 7f3f
00000390: 9b46 803f 0b7a 803f 6efc 7f3f 13d1 803f
000003a0: 255b 7d3f 4660 7f3f a7c8 7f3f 4794 803f
000003b0: d1e5 7e3f 81f9 7f3f 4c34 813f 9d5e 7f3f
000003c0: 5eab 803f 6837 7f3f 6441 803f c8a1 803f
000003d0: eb3e 803f 966e 7f3f 9d56 803f 608d 7f3f
000003e0: 938d 803f fb20 813f 9e1c 803f ea2f 7f3f
000003f0: 7fba 7f3f f01f 7f3f 9110 803f a1ce 803f
1.0011474 1.008108 1.0009301 1.0073473 1.0022157 0.99729866 1.0028725 1.0006963
0.99557984 0.9964074 0.9945829 1.0010345 0.9950172 1.0056853 1.0035442 0.99939567
0.99818385 0.9960819 1.0076228 1.009089 1.0019791 0.9942848 0.99878705 1.0020744
0.9972608 1.0010837 1.0053498 1.00038 0.9950211 0.99037844 0.9997976 1.0049618
0.99767286 0.992191 0.9987632 1.0026664 1.0074626 1.0026393 0.99548376 1.0048548
0.9975174 1.0010334 0.9963172 0.9931525 1.0064578 0.9963959 1.0053083 0.9971649
1.0070924 0.99939704 1.0015727 1.0112833 0.99980813 0.99755454 0.9948814 1.0012759
0.99672526 1.0077115 0.9960982 1.004492 1.0061021 0.993908 1.004805 1.0028689
1.0012805 0.9987349 0.99035275 1.0020926 0.9978555 1.001324 0.9964791 1.0014459
1.0128189 1.000492 1.0048527 0.9973269 1.003077 0.9990842 0.9980485 1.0010754
1.0003893 1.0070763 0.9998072 1.0045803 0.9963932 1.0041887 0.99712753 0.99900585
0.997308 1.0022547 1.0005875 1.0061157 1.0013033 1.0052067 1.0013626 1.0023165
0.9996382 0.99711645 0.9971848 0.9950499 0.9892651 0.9967308 0.9949679 1.003022
0.99830836 0.99903464 0.9999725 0.9938619 1.0013762 0.9976101 0.9999267 0.9907056
1.0037044 0.9995611 1.0015713 0.9993135 0.99793524 1.0002178 1.0105449 1.0051707
0.98822594 0.99590313 1.0008584 0.9981234 0.9980045 0.99641734 0.9939524 1.0031863
1.001079 1.0041736 1.0017743 0.99751043 1.0043133 1.0061147 0.9981783 0.9979689
1.0094118 1.0040032 1.0118448 1.0015458 1.0017171 0.99187475 0.99467915 1.0044945
0.9923504 1.0021925 0.99098164 0.9945427 0.9975872 1.0056853 0.9966331 1.0044795
0.99909556 0.99931306 0.99810517 1.0061033 1.0010778 1.0069306 0.9971214 0.99893284
1.0049713 1.0009528 0.9983147 1.0034211 0.9993585 0.9927595 0.9987479 1.0054377
1.002248 0.9964575 0.99541116 0.99679273 1.0073667 1.002639 1.0080208 1.0042073
1.0029958 1.0008808 1.0015754 1.001499 0.9989922 1.0035069 1.0016891 1.0039089
1.0036787 1.0034102 0.9975721 1.0063792 0.99737936 1.0053124 0.99861157 1.000684
0.99788886 0.991357 0.9957209 1.0037351 0.99383783 0.9967705 0.9989063 0.99646604
0.9988959 1.0012087 1.0045503 0.99919796 0.99914724 0.9969566 1.0021015 1.0043113
0.998935 0.9943568 1.0077144 0.994885 0.9988436 0.99280304 0.9986068 0.99322706
0.9871795 1.0006092 1.0061544 1.0000404 0.9977464 0.9966982 1.0001626 1.0033388
1.0026703 0.9991049 0.99852 0.99874395 1.0021547 1.0037245 0.9999455 1.0063804
0.989672 0.99756277 0.99915546 1.0045251 0.9956942 0.9999009 1.0094085 0.99753743
1.0052297 0.9969392 1.0019956 1.0049372 1.0019201 0.99778116 1.0026432 0.99825096
1.0043205 1.008819 1.0008733 0.99682486 0.99893945 0.9965811 1.0005056 1.0063058

bias f4 [300]
00000000: dfab 8239 7d4a 0039 9b8f 1a3b 2137 db3a
00000010: 640f b33a d306 52bb da5b 7c3a fd85 533a
00000020: 1204 8f3b 9d63 44bb 2434 893b 471e 9d3b
00000030: 76b6 18bb f864 a5ba 8dde 0fba d3b3 1d3b
00000040: 5a19 c139 b3bf 743b 3d47 0c3b bf3e 353a
00000050: 19fb 80bb bd4d 94bb 9785 c439 fe8a 4eba
00000060: cfc5 4abb 804f 81bb 9e96 67bb 2929 973a
00000070: d50c c1ba e897 2fba 66c2 363b c067 f939
00000080: c290 9b3b 104e 933b 02a4 acb8 0482 3d3b
00000090: 71de c03a 57e0 763a 7fd4 863b ca4a 283a
000000a0: 8faf 2a3b c965 adb9 d9b3 cbba 7203 533b
000000b0: 9f16 27ba c308 b33a f5fc 4b3a cac5 4dba
000000c0: 185b 20bb 8780 8fbb 210e cf3a 4f54 94ba
000000d0: bf36 953a c466 ddbb e29d 84ba c352 73bb
000000e0: 5e0d 59b9 d705 c5ba 5af1 343a cf5e 5cba
000000f0: 86cf 243a f4f0 8db9 71cf 87ba 7180 8ab8
00000100: 02b9 1e3b 4a82 faba ace9 35bb 4672 553b
00000110: ad58 d13a 94f9 ec39 bc9f 72bb edc7 803a
00000120: c65b d8b8 0e74 513a 112b 1eba cccb 7ebb
00000130: 7d0e 67bb 611b 633b ca59 5ebb 3287 c4bb
00000140: 2349 373b 00b0 083b 6500 bd3a 90e5 97bb
00000150: 28b5 4fba ae14 04ba 19f7 efba 6515 10bb
00000160: ecac 553b 54bb 143b 9649 9fb9 acc9 7437
00000170: 1190 383b 929e 8339 33ef 8e39 8b4b 9abb
00000180: c459 3eba 8f83 3f3b 3638 60ba 7953 e13a
00000190: a73a b03a d58d 7cba a20d 36ba 1b85 8d3a
000001a0: f723 933b 5f4b cdba 21ae d4ba 713b 853b
000001b0: 5426 5a3b f6a4 5e3b f7c7 35bb 1ecb a7bb
000001c0: 67a3 bb3a 879a 5c3b 5cbb d4b9 6858 8a39
000001d0: d21d b939 2216 8e3a 791c efba 14d9 883a
000001e0: a4f9 64b9 8d83 b3bb 6e3e 5f3a 33ec b339
000001f0: e33f e9ba 8dc2 8cbb 9557 d7bb 69fc 913a
00000200: e8c8 043b 0fef 08bb 8310 3a3b f8c9 51bb
00000210: 57bf c73a b7e1 b73a 92fc a9ba 863f c0bb
00000220: a282 82ba e5d2 27bb c371 bab9 5eca 08bb
00000230: 7ac3 acba a7b8 34bb 7bed b3bb a62a 303a
00000240: 99bd 6abb aeea ed3a 272e efb8 3a3c debb
00000250: b15b 243b 3434 f03a b5d9 973b fc95 123b
00000260: 10a7 973a 5f8a e53a 459a 6cba d539 e13a
00000270: 53d9 993a eb34 d3ba f7cd 71ba a0e2 f0ba
00000280: 4373 91ba 53d4 c5ba 9c93 1e3b b532 9fbb
00000290: 53cb b53b 8820 3939 b6dc 34ba f02b 07bb
000002a0: b829 09ba 8cd1 a839 cbb2 673b 5fa3 2cbb
000002b0: 0cd0 fd3a a89f ae3a 7f3a 9538 76cf a7ba
000002c0: 18cd f5b9 e378 cbba add3 bd3a 5d34 d63b
000002d0: 6150 09bb 1c01 d0ba c0f1 113a a700 203a
000002e0: 5c54 2a3a 81d5 79ba 150f e73a cf37 2aba
000002f0: e2fd 0abb 2ae8 5b3a 9ee0 163b 427e dd3a
00000300: c40c 40ba e9ef 7e3b 45c6 29bb 84c2 9d3a
00000310: 145a f6b9 06b8 5bbb 56c5 c0b9 92f1 c5ba
00000320: 2873 d2ba ef77 afb9 ea11 1cbb fab3 1139
00000330: bd65 79ba 1523 393b 93a7 c6ba 1043 453b
00000340: 2c70 873a 344a 7abb e116 ab3a ccf4 d039
00000350: 633c 8e3a b37c de3a 3d4e 34ba d555 a13a
00000360: 6576 b23a 438e 893b 6fed 31ba 5cdd 1e3b
00000370: 3b46 0b3b b559 603b fed8 1dbb fe87 35bb
00000380: 8527 e0ba 6245 6039 7f5f 9538 0681 20bb
00000390: 8459 423a aa5b 3a39 2bf5 893a 7232 3fbb
000003a0: 7384 af3b 920a 5d3b e025 d53a 6c2a df39
000003b0: c3c5 90b9 47e3 9cbb a94c a2ba ae2c 063a
000003c0: a61a fcba 6085 d23b cc47 2bbb 64cf 353b
000003d0: 694b 28ba 732e 64ba 052a 11bb 1451 ccba
000003e0: 958b 9d38 853c ab3a ac00 3dbb 4cbc 09bb
000003f0: 65d9 083a f42a 383b ee6f db3a 85ab ae39
0.00024923586 0.0001223478 0.002358413 0.0016724804 0.0013661203 -0.0032047525 0.0009626724 0.0008068977
0.004364499 -0.00299666 0.004187124 0.004794869 -0.0023302115 -0.0012618592 -0.000548818 0.0024063482
0.00036830717 0.0037345707 0.0021404766 0.0006913952 -0.003936183 -0.0045258687 0.00037483565 -0.0007878988
-0.0030940657 -0.0039462447 -0.0035337578 0.0011532652 -0.0014728556 -0.0006698356 0.0027886867 0.0004757028
0.004747481 0.0044953898 -8.232148e-05 0.0028916607 0.001471473 0.00094175845 0.004114687 0.0006419836
0.0026044582 -0.00033072967 -0.001554127 0.0032198098 -0.0006373915 0.0013659227 0.0007781529 -0.0007849602
-0.0024468359 -0.0043793353 0.0015797057 -0.001131663 0.0011384113 -0.0067566354 -0.0010117854 -0.0037128187
-0.00020699712 -0.0015031648 0.0006902419 -0.00084064616 0.0006287027 -0.0002707314 -0.0010361505 -6.604277e-05
0.002421916 -0.0019112315 -0.0027757687 0.0032569333 0.0015971862 0.00045199378 -0.0037021479 0.0009825208
-0.00010316777 0.0007990011 -0.0006033639 -0.0038878797 -0.0035256438 0.003465377 -0.003392803 -0.005997562
0.0027967177 0.0020856857 0.0014419673 -0.0046355203 -0.0007923418 -0.0005038482 -0.0018307894 -0.0021985408
0.003260429 0.0022694664 -0.0003038167 1.4590489e-05 0.0028162042 0.0002510441 0.00027262568 -0.0047087125
-0.0007261301 0.0029222702 -0.0008553298 0.0017191014 0.0013445214 -0.0009634172 -0.00069447805 0.0010797115
0.0044903713 -0.0015662721 -0.0016226211 0.004065924 0.0033287005 0.0033972836 -0.0027737597 -0.005120649
0.0014315665 0.0033661441 -0.00040575385 0.0002638728 0.00035308168 0.0010840336 -0.0018242738 0.0010440671
-0.00021836773 -0.0054783286 0.00085160777 0.00034317523 -0.0017795529 -0.004295653 -0.00657172 0.0011137846
0.002026135 -0.0020894443 0.002839119 -0.0032011252 0.0015239519 0.001402906 -0.0012968949 -0.0058669476
-0.0009957145 -0.002560788 -0.00035561444 -0.0020872573 -0.0013180815 -0.0027575882 -0.0054909564 0.00067202223
-0.0035818575 0.0018151605 -0.000114050046 -0.006782082 0.0025079066 0.0018326105 0.004634107 0.002236723
0.0011570174 0.0017512551 -0.00090256735 0.0017183373 0.0011737741 -0.0016113793 -0.00092241116 -0.0018378086
-0.0011096973 -0.0015093185 0.0024196869 -0.0048583397 0.00554792 0.00017655094 -0.00068993436 -0.0020625554
-0.0005232352 0.00032199582 0.0035354372 -0.0026342494 0.0019364371 0.0013322728 7.1157694e-05 -0.0012802917
-0.00046882848 -0.0015523698 0.001448264 0.006537004 -0.002095245 -0.0015869471 0.00055673346 0.0006103613
0.0006497556 -0.0009530411 0.0017628396 -0.00064933015 -0.0021208455 0.0008388782 0.0023022066 0.001689859
-0.0007326121 0.0038900322 -0.0025905531 0.001203612 -0.0004698789 -0.0033526435 -0.0003676812 -0.0015101901
-0.0016056048 -0.0003346796 -0.0023814389 0.00013895324 -0.00095137564 0.002824967 -0.0015156142 0.0030099787
0.0010333112 -0.0038191201 0.0013053083 0.0003985524 0.0010851737 0.0016974419 -0.00068781135 0.0012308905
0.0013615607 0.004197867 -0.00067873945 0.0024240827 0.0021251577 0.0034233157 -0.0024085636 -0.0027699466
-0.0017101621 0.00021388152 7.122661e-05 -0.0024490966 0.00074138516 0.0001777249 0.0010525336 -0.0029174355
0.0053563653 0.0033728224 0.0016261898 0.0004256548 -0.00027613164 -0.0047878358 -0.0012382466 0.0005118352
-0.0019234016 0.006424591 -0.0026135324 0.0027742023 -0.00064199284 -0.0008704431 -0.002215029 -0.0015588128
7.5123426e-05 0.0013064301 -0.0028839512 -0.0021016775 0.00052203826 0.0028101774 0.0016741732 0.00033315658
