testbed/models_v1/lstmcell_time.pt (torch, 493081 bytes, 4 tensors)

weight_ih f4 [600, 1]
0	0x3c100e21	0.008792431
1	0x3ce3c975	0.027806023
2	0xbd059e19	-0.032621477
3	0xbd3b373b	-0.04570697
4	0xbc03a7c2	-0.008035602
5	0xbd7554e2	-0.059895404
6	0xbb667757	-0.0035166347
7	0x3d908848	0.070572436
8	0x3d0d4e96	0.034498774
9	0x3dbc9261	0.09207607
10	0x3ca3dfbd	0.020004148
11	0x3d957fa9	0.0729974
12	0xbc84f453	-0.016229784
13	0x3bc9f697	0.006163429
14	0xbd26384a	-0.040581025
15	0x3ca9b004	0.020713814
16	0x3c0a22be	0.008431135
17	0x3c53802f	0.012908979
18	0xbd3bffbe	-0.04589819
19	0x3c30a30d	0.010781062
20	0xbb2fb9df	-0.0026813669
21	0x3d8a9113	0.06765952
22	0xbd8c9e26	-0.06866102
23	0xbd0ccbe7	-0.034374144
24	0x3b9351cf	0.0044958363
25	0xbc68d3cb	-0.014210652
26	0x3ddf9351	0.1091677
27	0xbc33b5ee	-0.010968668
28	0xbd853246	-0.065037295
29	0x3ce78dfe	0.02826595
30	0x3b1bf1d4	0.0023795264
31	0x3d7e45ad	0.062078167
32	0x3d310c19	0.043224428
33	0xbc94dff3	-0.018173194
34	0x3c0bb42a	0.008526841
35	0xbca40d1c	-0.020025782
36	0xbd36a781	-0.044593338
37	0x3d612a6b	0.054972094
38	0xbc671a00	-0.01410532
39	0x3d20429e	0.03912603
40	0xbd2da8b7	-0.042397227
41	0x3dd6028b	0.10449704
42	0x3b344f58	0.0027513113
43	0xbd021b19	-0.031764124
44	0x3d8d02ef	0.06885325
45	0xbd20ec27	-0.039287712
46	0x3d60f3c7	0.054919984
47	0xbd809720	-0.06278825
48	0x3c1a6e70	0.009425744
49	0xbd45393d	-0.04815029
50	0x3d70201a	0.058624364
51	0xbcfd4e80	-0.03092122
52	0xbcd296b8	-0.025706634
53	0x3d7d6608	0.061864883
54	0xbc01c59a	-0.007920647
55	0x3dc615a4	0.09672096
56	0xbc4a53c9	-0.0123490775
57	0x3bab9cc2	0.005237193
58	0x3ca5396c	0.020168982
59	0xbd02bff5	-0.031921346
60	0xbd8d68ad	-0.06904731
61	0x39eee92d	0.00045568627
62	0x3d0e4074	0.034729436
63	0x3d835252	0.06412186
64	0x3ce7e898	0.028309152
65	0x3d99da1d	0.07512305
66	0xbc487ec5	-0.012237255
67	0x3d42907c	0.047501072
68	0x3cadac0d	0.021200204
69	0xbd87fc69	-0.0663994
70	0x3daec159	0.08532972
71	0xbd71cebe	-0.059035055
72	0xbd8470de	-0.0646684
73	0xbd6a8385	-0.057254333
74	0xbb488479	-0.0030596538
75	0x3cd5aa7b	0.026082268
76	0x3d7ff5c4	0.06249024
77	0xbd3a0619	-0.04541597
78	0xbd3863c6	-0.045017026
79	0x3c0dff98	0.008666895
80	0xbd5422ee	-0.051791124
81	0x3cd2d2c6	0.02573527
82	0xbcee946b	-0.029123506
83	0x3d9f369d	0.077740885
84	0x3bb0ecc8	0.0053993203
85	0x3d7e2af8	0.062052697
86	0xbc81c367	-0.015840245
87	0x3904263c	0.00012602744
88	0xbce84d8f	-0.028357295
89	0x3db7a19f	0.08966374
90	0xba852ec0	-0.0010161027
91	0x3d8f0f86	0.06985383
92	0x3d9fd801	0.07804871
93	0x3c65a9b9	0.014017516
94	0xbc658afd	-0.014010188
95	0x3dab2ca9	0.083581276
96	0x3d0209bc	0.031747565
97	0x3c5c0bf4	0.013430584
98	0xbd0da75b	-0.03458343
99	0xbd420459	-0.047367427
100	0x3dafacd3	0.085778855
101	0x3d70320c	0.05864148
102	0xbd2d3478	-0.042286366
103	0x3c7d7e07	0.015471942
104	0x3d30ae43	0.04313494
105	0xbb129943	-0.0022369183
106	0xbb8523dc	-0.0040631127
107	0xbc7bec33	-0.0153761385
108	0xbbfb9065	-0.0076771253
109	0xbd639207	-0.055559184
110	0x3c35d701	0.011098624
111	0xbcd464af	-0.025926916
112	0x3cb7fee6	0.022460412
113	0x3da26bb9	0.07930703
114	0xbb0afead	-0.0021208928
115	0xbbf2d02f	-0.0074100713
116	0x3d4e8951	0.050423924
117	0xbc05d017	-0.008167288
118	0xbd05e7b7	-0.032691684
119	0xbd5d911d	-0.05409347
120	0x3cd55c8b	0.026045104
121	0xbc73fab3	-0.014891314
122	0xbd9e33e4	-0.07724741
123	0x3cbc1390	0.022958547
124	0x3dd0708f	0.10177719
125	0x3c7fd920	0.0156157315
126	0x3cde0f1c	0.027106814
127	0x3d050679	0.032476876
128	0xbd0d9b4e	-0.03457194
129	0x3da05e2e	0.07830463
130	0xbd56e8d6	-0.052468143
131	0xbc79ca66	-0.015246009
132	0xbc2d5abd	-0.010580716
133	0xbc61199b	-0.013739015
134	0x3db4dfb7	0.08831733
135	0xbcbaf224	-0.02282054
136	0x3da22a87	0.07918268
137	0x3bff5ae7	0.007792819
138	0xbccfaad8	-0.02535002
139	0xb884149c	-6.298089e-05
140	0xbca1d8be	-0.019756671
141	0x3d9ea285	0.07745842
142	0x3cc88ca4	0.024481125
143	0x3c984f2a	0.018592436
144	0x3da0bf8d	0.078490354
145	0x3da815f3	0.082073115
146	0xbbc7d50e	-0.006098396
147	0xbd6e3728	-0.05815807
148	0x3d2d32af	0.042284664
149	0x3d52284b	0.051307958
150	0x3dde251f	0.10846924
151	0xbd1fcbaa	-0.03901259
152	0xbd21aa1d	-0.039468873
153	0xbd6ac41a	-0.057315923
154	0x3d30f6c7	0.043204095
155	0xbba542b4	-0.005043352
156	0x3c812cde	0.015768465
157	0x3d9f4d27	0.077783875
158	0xbb128b61	-0.0022360908
159	0x3d5b41e1	0.053529624
160	0xbb65d3aa	-0.0035068789
161	0x3d42c71a	0.04755316
162	0x3d75e31e	0.06003105
163	0x3c2c7716	0.010526439
164	0x3cafb0db	0.021446636
165	0x3d3070e3	0.043076407
166	0x3d8dee6e	0.069302425
167	0xbd3b6680	-0.04575205
168	0x3b78e039	0.0037975444
169	0xbd00e4e4	-0.031468287
170	0xb93bfc03	-0.00017927591
171	0x3b338bb9	0.0027396514
172	0x3d1a835c	0.03772293
173	0xbcc1ae68	-0.023642734
174	0x3b91037c	0.004425464
175	0xbce2e3fe	-0.027696606
176	0xbd639759	-0.05556426
177	0xbcb14857	-0.02164094
178	0xbd213930	-0.03936118
179	0x3dc51ba0	0.0962441
180	0xbce1cf72	-0.027564738
181	0x3c599ffa	0.01328277
182	0x3da0b47d	0.078469254
183	0xbc9bb1ae	-0.019005623
184	0x3cba23d6	0.022722166
185	0x3d704748	0.05866173
186	0x3d3e0788	0.0463939
187	0x3d484438	0.048893183
188	0xbc79cacc	-0.015246104
189	0x3c59d848	0.013296194
190	0x3d688a0d	0.05677228
191	0x3d50718b	0.050889533
192	0xba2e80eb	-0.00066567835
193	0x3d9194e0	0.07108474
194	0xbd81e91e	-0.06343292
195	0x3c8e0096	0.017334264
196	0x3d8e8e27	0.06960707
197	0xbd8536e4	-0.0650461
198	0xbc32014f	-0.01086457
199	0x3c82d763	0.015971845
200	0xbcdf27ec	-0.027240716
201	0xbc521b96	-0.01282396
202	0xbcc4ba7d	-0.024014706
203	0xbc38b06c	-0.011272531
204	0x3cbda7a3	0.023151224
205	0x3d95e1ae	0.073184356
206	0x3cb3d6c2	0.02195299
207	0x3c2ec850	0.010667875
208	0x3d1e69d4	0.038675144
209	0xbb7186f9	-0.0036854132
210	0xbc8eac8a	-0.017416257
211	0x3d9521cd	0.072818376
212	0x3d2232b9	0.039599154
213	0xbd17397a	-0.03692005
214	0x3ca811bf	0.020516274
215	0xbd5fb6f4	-0.054617837
216	0xbd051850	-0.03249389
217	0xbcb88aa0	-0.022527039
218	0xbcf38f73	-0.029731488
219	0xbd37f150	-0.044907868
220	0x3c89e866	0.016834449
221	0x3da30cc1	0.07961417
222	0x3d417296	0.04722842
223	0x3c7f0a65	0.015566443
224	0xbc8c34a6	-0.017114948
225	0xbd458bc5	-0.048228998
226	0x3c9d7c8c	0.019224428
227	0x3d3220fb	0.043488484
228	0x3d337a21	0.043817643
229	0x3d3b406f	0.045715746
230	0xbcc613a3	-0.024179285
231	0xbcca7793	-0.02471522
232	0x3d13bec1	0.03607059
233	0xba8dbca1	-0.0010813662
234	0xbb8f4f9c	-0.004373504
235	0xbc7d3d22	-0.01545647
236	0x3c654d7d	0.013995525
237	0xbd2a8898	-0.041634172
238	0x3d19bd48	0.03753403
239	0x3d796b91	0.0608936
240	0x3c675d7a	0.014121408
241	0x3d939aa9	0.072072335
242	0x3c749ddd	0.014930216
243	0x3d96d4b7	0.07364791
244	0x3c120ef0	0.008914694
245	0x3caa696d	0.020802224
246	0x3d48e50d	0.049046565
247	0x3ccb6e9a	0.024833012
248	0x3d7ed71b	0.06221686
249	0x3cd35f31	0.025802227
250	0x3d5e48e2	0.054268725
251	0x3d95e5ca	0.073192194
252	0xbd4b5624	-0.049642697
253	0x3d8dfd2a	0.06933053
254	0xbcf0d09a	-0.029396344
255	0xbd8bb944	-0.06822446

weight_hh f4 [600, 200]
0	0xbc06f402	-0.008236887
1	0x3cc04bbb	0.023473611
2	0x3d9f684e	0.077835664
3	0x3deba4d9	0.115060516
4	0x3d798d4d	0.06092577
5	0x3d80a717	0.0628187
6	0x3b2707d9	0.0025486855
7	0x3d2db9fc	0.042413697
8	0xbc8e198a	-0.017346162
9	0xbd71e852	-0.05905945
10	0x3cbcaae9	0.023030715
11	0xbd4a0d32	-0.04932899
12	0x3c94c613	0.018160855
13	0x3d874fa9	0.06606991
14	0x3d1353bc	0.035968527
15	0xbd203f6e	-0.03912299
16	0x3d4bb1bd	0.04973005
17	0x3d3aaa90	0.045572817
18	0xbc304a1d	-0.0107598575
19	0x3d4c4ff3	0.049880933
20	0x3d686b5a	0.056743003
21	0xbbfd589c	-0.0077315103
22	0x3badfd90	0.005309768
23	0xbd4f04a4	-0.050541535
24	0xbac6d810	-0.0015170593
25	0x3d7a192f	0.061059173
26	0xbce19f15	-0.027541677
27	0x3ba561f4	0.0050470773
28	0x3d1fc0fb	0.0390024
29	0xbd4caa50	-0.04996711
30	0xbce9cccb	-0.028540036
31	0xbda640b6	-0.081178114
32	0xbc36005c	-0.011108484
33	0xbd8ad449	-0.067787714
34	0x3a6fbaa0	0.0009144936
35	0x3d23f7b3	0.040031146
36	0x3d3b990c	0.045800254
37	0xbd8044a9	-0.06263096
38	0x3d75f429	0.060047302
39	0xbcdd8d9e	-0.027045067
40	0xbd55978f	-0.05214649
41	0x3d5ed0e0	0.054398417
42	0x3c8f4309	0.01748802
43	0xbbda786b	-0.006667187
44	0x3d48ef1c	0.049056157
45	0xbd6e344f	-0.058155354
46	0xbd8e2acf	-0.06941759
47	0xbbe77fee	-0.007064811
48	0xbd4977c3	-0.04918648
49	0x3a41d817	0.00073945656
50	0x3c21b754	0.009870369
51	0xbbb5a592	-0.005543419
52	0xbc857690	-0.016291887
53	0xbd64bc1e	-0.055843465
54	0xbc9f3e1e	-0.0194388
55	0x3d5b2c7d	0.053509224
56	0x3d529991	0.051415984
57	0xbad33b86	-0.0016115762
58	0x3d8932fe	0.06699179
59	0x39a9fe88	0.00032423832
60	0xbd7d1814	-0.06179054
61	0x3c4c646b	0.012475113
62	0x3d0455c8	0.03230837
63	0xbdad16a7	-0.08451586
64	0xbce3b365	-0.027795503
65	0xbc75e5e8	-0.015008427
66	0xbd5a10d6	-0.053238712
67	0x3d8c5982	0.0685301
68	0x3d7b3654	0.06133111
69	0x3d50413e	0.05084347
70	0xbd4a89e0	-0.049447894
71	0x3d3474fa	0.04405687
72	0xbd0b6043	-0.03402735
73	0x3c9a4a05	0.018834123
74	0x3d959fcc	0.073058695
75	0xbc2bff64	-0.010497902
76	0xbd32e000	-0.043670654
77	0x3d38d151	0.045121495
78	0xbd8bc1b5	-0.06824056
79	0x3d3e8f7a	0.04652355
80	0x37108ae3	8.615406e-06
81	0x3d140272	0.036135145
82	0x3d825f48	0.0636583
83	0xbd7c05b9	-0.061528895
84	0xbd89dea9	-0.06731922
85	0xbcfb7b19	-0.030698346
86	0x3bbcb15a	0.0057584466
87	0xbd853b68	-0.065054715
88	0x3d5e6148	0.054291993
89	0x3cb4fc23	0.022092884
90	0x3c1d138d	0.009587181
91	0xbd7b61df	-0.061372634
92	0xbcc0c57b	-0.023531666
93	0x3d856319	0.06513042
94	0xbc0f78cc	-0.008756828
95	0xbd9796aa	-0.07401784
96	0xbc9fbf34	-0.019500352
97	0xbc87858f	-0.016543178
98	0xbcb930f3	-0.022606349
99	0x3d080dd5	0.033216316
100	0x3d1a436b	0.03766195
101	0xbd77eeed	-0.06053059
102	0x3d3efd96	0.046628557
103	0xbc4dd9d1	-0.0125641385
104	0x3d19e551	0.03757221
105	0x3d1a493b	0.037667494
106	0x3d2bcc47	0.04194286
107	0x3c932eff	0.017966745
108	0xbd0f161e	-0.034933202
109	0x3c1f8437	0.009736112
110	0x3d71cf7a	0.059035756
111	0x3bfe9490	0.007769175
112	0xbd0510bb	-0.03248666
113	0x3cbd80d7	0.023132725
114	0xbd5b9e5e	-0.053617828
115	0x3ca2d5ce	0.01987734
116	0x3c1c4d10	0.0095398575
117	0xbcb6cd77	-0.02231477
118	0xbd22d44b	-0.03975324
119	0x3b053d2e	0.0020330655
120	0xbc8e8ae5	-0.017400214
121	0x3cea9623	0.028636044
122	0x3b2a2127	0.0025959702
123	0xbd8926cd	-0.06696854
124	0x3d9b0734	0.07569733
125	0x3d88ebc1	0.066855915
126	0x3caea3fb	0.021318426
127	0x3d76cbe0	0.060253024
128	0xbd3ffe77	-0.046873536
129	0xbcbc3971	-0.022976609
130	0x3c7161f3	0.014732826
131	0xbc29284d	-0.01032455
132	0xbd0a58e4	-0.03377618
133	0x3d0d10c1	0.034439806
134	0x3d88b9b9	0.06676049
135	0x3d388c0a	0.045055427
136	0xbc1046a2	-0.008805903
137	0xbc46a02d	-0.01212315
138	0x3d54fb80	0.05199766
139	0xbd296b0c	-0.041361853
140	0x3d245b95	0.040126402
141	0xbd3013bb	-0.042987566
142	0x3d886b58	0.06661099
143	0xbc8532d6	-0.016259592
144	0x3d8728f0	0.06599605
145	0xbd288753	-0.04114468
146	0x3d57fefa	0.0527334
147	0x3d6099b8	0.054834098
148	0xbd307976	-0.043084584
149	0x3d2818ae	0.04103916
150	0xbd1aa218	-0.03775224
151	0x3d6ff63d	0.05858444
152	0x3d27d4fd	0.040974606
153	0xbd8ef1e7	-0.06979733
154	0x3d256eb4	0.040388778
155	0x3cc72d4e	0.024313595
156	0xbd005cb7	-0.03133842
157	0x3d5750b7	0.05256721
158	0x3d4d842f	0.05017489
159	0xbd048879	-0.032356713
160	0xbd369568	-0.04457608
161	0x3c121dbc	0.008918222
162	0x3d9c92b3	0.07645168
163	0xbd736500	-0.059422493
164	0xbd1d739d	-0.038440336
165	0x39aad85a	0.0003258612
166	0x3d734513	0.059392046
167	0x3d891e9a	0.0669529
168	0xbd868673	-0.06568613
169	0xbbcc51cd	-0.0062353374
170	0x3d231842	0.039818056
171	0x3da900a1	0.08252073
172	0xbd55fc88	-0.052242786
173	0x3d88ecb7	0.06685775
174	0x3ce83ae7	0.0283484
175	0xbc94f105	-0.018181333
176	0xbd06ba52	-0.032892533
177	0x3d2522a2	0.04031623
178	0xbc3209bc	-0.010866579
179	0xbcc3213c	-0.023819558
180	0xbbc123dc	-0.0058941673
181	0xbc8ee259	-0.017441915
182	0x3d98ecee	0.07467066
183	0xbd6a9d11	-0.057278696
184	0xbd7870ea	-0.06065456
185	0x3d3664b9	0.04452965
186	0xbd60e06c	-0.054901525
187	0x3c9d50d2	0.019203577
188	0x3d618ce4	0.055066004
189	0x3c501511	0.012700335
190	0xbd7b0979	-0.06128833
191	0x3d703cac	0.05865161
192	0x3c9d5f9b	0.019210627
193	0x3d24421a	0.0401021
194	0xbd91d16b	-0.071200214
195	0xbd06e5d8	-0.03293404
196	0x3d95da57	0.07317036
197	0x3b0ef175	0.00218114
198	0x3d1a6990	0.03769833
199	0xbc99d211	-0.018776925
200	0xbd2c7ee6	-0.042113207
201	0x3d8f08ab	0.06984075
202	0xbd9a9b79	-0.07549185
203	0xbda09289	-0.07840449
204	0xbd1438df	-0.03618705
205	0xbcce8432	-0.02520952
206	0xbda40cf6	-0.080102846
207	0xbc4be88c	-0.01244558
208	0xbd880d3c	-0.06643149
209	0x3cea4338	0.028596506
210	0xbd660373	-0.056155633
211	0xbd42ce79	-0.04756019
212	0x3cc60d37	0.024176223
213	0x3c466fb0	0.012111589
214	0x3cfa6ae4	0.030568548
215	0xbd4cc24c	-0.049989983
216	0x3ba62d9b	0.0050713546
217	0x3d313ece	0.043272786
218	0x3ca22ea1	0.019797625
219	0x3b41b801	0.0029559138
220	0x3d07b64d	0.03313284
221	0x3af062da	0.0018340007
222	0x3d7a6e80	0.061140537
223	0xbcafa730	-0.021442026
224	0xbd6a5369	-0.057208452
225	0xbc10b8c0	-0.00883311
226	0x3cbc2600	0.022967339
227	0xbcb81536	-0.022471052
228	0x3d8cd938	0.06877369
229	0x3d2e4ce3	0.042553794
230	0xbce0b2ac	-0.027428947
231	0xbcb5d386	-0.022195589
232	0xbcc8cacd	-0.024510765
233	0x3c3ca272	0.011513339
234	0x3d6aa2e2	0.057284243
235	0x3d6b8029	0.05749527
236	0xbcba74f0	-0.022760838
237	0x3d2743e0	0.040836215
238	0xbc8e0968	-0.01733847
239	0xbd1d932d	-0.038470436
240	0x3d08ff8b	0.03344683
241	0x3bbc46f1	0.0057457616
242	0xbd80cd0f	-0.06289112
243	0xbcccab76	-0.024984103
244	0xbc8bf5f4	-0.017085053
245	0x3cddee2f	0.027091114
246	0xbd5a836e	-0.053347997
247	0xbd3808e2	-0.044930346
248	0xbd94b9ab	-0.07261976
249	0x3d78ce95	0.060743887
250	0xbd5ed074	-0.054398015
251	0xbce902bf	-0.028443692
252	0x3d92bbe1	0.07164741
253	0x3a4c5396	0.00077944377
254	0x3aa255d8	0.0012385203
255	0x3d1b7cbb	0.03796075

bias_ih f4 [600]
0	0xbc8706b6	-0.016482692
1	0xbd826580	-0.06367016
2	0x3d82c5c8	0.0638538
3	0x3c280dc4	0.010257188
4	0x3d163d4f	0.036679562
5	0xbd05ebd9	-0.032695625
6	0x3da6330b	0.081152044
7	0x3df7bd2e	0.1209663
8	0x3ddd80c7	0.10815578
9	0x3e111c7b	0.1417102
10	0x3de41caf	0.111382835
11	0x3c9b50d6	0.018959444
12	0x3d9c3a7a	0.07628341
13	0x3d58971e	0.05287849
14	0xbc2d3883	-0.0105725555
15	0x3b481bc9	0.003053414
16	0xbcf7fdb1	-0.030272337
17	0x3d4dc661	0.050238017
18	0x3ca2b93c	0.019863717
19	0x3d07839b	0.033084493
20	0x3c19de8e	0.00939144
21	0x3da8a16e	0.08233915
22	0x3d86a13e	0.06573723
23	0x3cc29861	0.0237543
24	0xbcced4ea	-0.02524801
25	0x3d153a48	0.036432534
26	0x3df4615d	0.11932633
27	0x3da86e55	0.08224169
28	0xbc5b68b0	-0.013391659
29	0xbc54d31b	-0.012989785
30	0xbd8e4255	-0.069462456
31	0xbd1fe28a	-0.039034404
32	0x3cd052ab	0.025430044
33	0xbd9dc5e7	-0.077037625
34	0x3d4a2942	0.049355753
35	0x3b2f7a8c	0.0026775924
36	0x3d99ff3a	0.07519384
37	0x3c3afc93	0.011412757
38	0xbcd9afbf	-0.02657306
39	0xbd8100f8	-0.06299013
40	0x3d049d90	0.032376826
41	0x3d1de773	0.038550805
42	0xbcb8f9e2	-0.02258009
43	0x3c74742c	0.014920276
44	0x3d469a66	0.04848709
45	0x3d7817d9	0.060569618
46	0xbcab384c	-0.020900868
47	0xbc0ea80e	-0.00870706
48	0x3c008d70	0.007846221
49	0x3cb36d2c	0.021902643
50	0x3b4cf2d1	0.003127266
51	0xb8e6a117	-0.0001099726
52	0xbb45f21e	-0.0030204128
53	0x3bd2eaf5	0.0064367005
54	0xbd3ff78b	-0.046866935
55	0x3d93c7aa	0.07215817
56	0xbc00cd7a	-0.007861489
57	0x3e0720f5	0.13196166
58	0x3d007cb9	0.031368945
59	0xbb3c59a9	-0.0028739965
60	0xbce6a763	-0.028155988
61	0x3d09f1ce	0.03367787
62	0x3e098660	0.13430166
63	0x3e0851c7	0.13312446
64	0x3da42854	0.080155045
65	0xbd02ceee	-0.031935625
66	0xbccf4531	-0.025301548
67	0x3d592e3a	0.0530226
68	0x3d04a695	0.032385428
69	0x3cacd76d	0.021098817
70	0xbc1d699c	-0.009607699
71	0x3b9eaa46	0.0048420755
72	0x3d3a4d49	0.04548386
73	0x3d3dbc79	0.04632232
74	0x3d8740e4	0.06604174
75	0x3c0493e6	0.008091902
76	0x3df1899e	0.117938265
77	0xbc56b386	-0.013104325
78	0x3d0a7dee	0.033811502
79	0xbbceac49	-0.006307159
80	0x3ba14e36	0.0049226535
81	0x3d9245fe	0.07142256
82	0x3d8c2af3	0.068441294
83	0x3de90865	0.11378554
84	0x3cc39b73	0.023877835
85	0xbb70999a	-0.0036712647
86	0x3d13e213	0.036104273
87	0x3ce02336	0.02736054
88	0x3c388027	0.011261023
89	0x3bb6a223	0.0055735274
90	0xbd4cd327	-0.050006058
91	0x3d99b2e5	0.075048245
92	0xbd0dd821	-0.034629945
93	0x3dcb3473	0.09922113
94	0x3d21dd96	0.03951796
95	0x3d7dc027	0.06195083
96	0xbd22ffc8	-0.039794713
97	0xbbdfa981	-0.0068256264
98	0xbd8617f8	-0.065475404
99	0x3c853c91	0.016264232
100	0x3805ec6b	3.1929852e-05
101	0xbd41d53c	-0.047322497
102	0xbccd8f89	-0.025092857
103	0xbd7ce51e	-0.06174194
104	0x3d6a38fe	0.05718326
105	0xbc8a26b8	-0.016864166
106	0x3d62c04a	0.055359162
107	0xbd19b387	-0.037524726
108	0x3d8b5d22	0.06804873
109	0xbcded520	-0.027201235
110	0x3d06e626	0.03293433
111	0x3dc97e6c	0.09838566
112	0x3d8a57f1	0.06755055
113	0x3d283663	0.041067492
114	0x3844820d	4.685116e-05
115	0x3c80402b	0.015655598
116	0x3c064e39	0.008197361
117	0x3d2b39fb	0.04180334
118	0xbd8cbbbe	-0.068717465
119	0xbd832d7c	-0.0640516
120	0xbd94a715	-0.07258431
121	0x3d0e27d7	0.034705963
122	0x3c0e7db3	0.008696961
123	0x3dcda4b1	0.10041178
124	0x3da8ace9	0.08236105
125	0x3b88f7b9	0.0041799215
126	0x3d64e65c	0.05588375
127	0xbd59b904	-0.05315496
128	0xbd766538	-0.060155123
129	0x3d14d621	0.03633702
130	0x3d9a136b	0.07523235
131	0x3c4b8167	0.012420989
132	0x3d0c553a	0.034260966
133	0xbd7114cd	-0.058857728
134	0x3d30d99e	0.043176286
135	0x3dbe9380	0.09305477
136	0xbc1d320e	-0.0095944535
137	0xbd1a46fe	-0.03766536
138	0xbb3415a2	-0.0027478714
139	0xbcc5db56	-0.02415244
140	0x3e0f7215	0.14008363
141	0x3dccb9f2	0.09996404
142	0x3c81ce7b	0.015845528
143	0x3d0b6d21	0.03403962
144	0x3d4a2bac	0.049358055
145	0x3dc5b5d4	0.096538216
146	0xbd4d8f9b	-0.05018578
147	0x3d82d3a3	0.06388023
148	0x3d6e3be1	0.058162574
149	0x3d6f06dc	0.05835615
150	0x3e031348	0.12800324
151	0x3ddc95a4	0.10770729
152	0x3d503caf	0.050839122
153	0x3dbf0c91	0.09328569
154	0x3d752571	0.05985016
155	0x3de0ea6f	0.10982215
156	0x3d962c0c	0.0733262
157	0xbbebe85e	-0.007199331
158	0xbb843dc5	-0.004035684
159	0x3dc84731	0.09779204
160	0x3d6f5e52	0.05843956
161	0xbd618a13	-0.05506332
162	0xbd101b5b	-0.03518234
163	0x3d7f52d8	0.062334865
164	0xbbfa1698	-0.007632088
165	0x3c87a910	0.016560107
166	0xbca15a29	-0.019696312
167	0x3d439db0	0.047757804
168	0x3da9e4b4	0.08295575
169	0x3d357e90	0.044310153
170	0xbd4febdd	-0.050762046
171	0x3df4ca29	0.119526215
172	0xbd2fd4ef	-0.04292768
173	0x3d6e5d55	0.058194477
174	0x3d8baea0	0.068204165
175	0x3d490d30	0.049084842
176	0xbc042899	-0.00806632
177	0x3bef6fc0	0.007307023
178	0xbcf740cf	-0.03018227
179	0x3d7b7073	0.061386537
180	0x3d9bbeb8	0.07604736
181	0x395bafce	0.0002095096
182	0x3d3df619	0.046377275
183	0x3d57066a	0.05249635
184	0xbb27edcb	-0.0025623913
185	0xbd3b3e65	-0.0457138
186	0x3d230081	0.039795402
187	0xbcecb28f	-0.028893737
188	0xbbb772f7	-0.0055984217
189	0x3cc96f79	0.024589287
190	0x3d8c9668	0.06864625
191	0xbc10f7ba	-0.008848125
192	0x3cb032a6	0.021508526
193	0x3c9ff112	0.019524131
194	0x3d8d3fbd	0.06896923
195	0x3d60759c	0.05479966
196	0x3db6d377	0.089270525
197	0x3b7051fa	0.0036669956
198	0x3d09d45e	0.033649795
199	0x3d41f6eb	0.04735462
200	0x3cfe5d0f	0.031050233
201	0x3be9d3ae	0.00713583
202	0x3db41ddc	0.08794758
203	0x3ca5a297	0.02021913
204	0xbd4b2a34	-0.049600795
205	0xbc08e265	-0.008354758
206	0xbd781174	-0.06056352
207	0xbd216f45	-0.039412756
208	0xbdf2b277	-0.11850446
209	0x3cf289c7	0.029606713
210	0x3d4c7304	0.049914375
211	0xbc91cb0c	-0.017797016
212	0xbd12a700	-0.035803795
213	0xbda7c268	-0.08191377
214	0xbc476587	-0.012170202
215	0x3db76e45	0.08956579
216	0xbce14eae	-0.027503338
217	0xbbd2f1f0	-0.0064375326
218	0x3c9b8ab3	0.018987035
219	0xbd8fcfc2	-0.070220485
220	0xbd3543d6	-0.044254147
221	0xbbca8bf9	-0.006181237
222	0x3d3278d9	0.04357228
223	0x3cbb42bc	0.02285897
224	0x3c859b4d	0.016309405
225	0x3d1e30ef	0.038620885
226	0xbc965473	-0.018350815
227	0xbb8ae8c9	-0.004239176
228	0x3d0c6e12	0.03428466
229	0xbd787071	-0.060654107
230	0x3b912063	0.0044289096
231	0x3d7d3c7d	0.061825264
232	0xbd1a5a0b	-0.037683528
233	0x3d1322bd	0.0359218
234	0x3d77cf74	0.060500577
235	0xbd87982d	-0.06620822
236	0x3d5d0aed	0.053965498
237	0x3d85e16a	0.06537135
238	0xba26ff0a	-0.0006370401
239	0x3da104d3	0.07862248
240	0x3c7e3e1d	0.015517739
241	0xbbc50b52	-0.0060133124
242	0x3ab06562	0.0013457949
243	0x3da7f797	0.08201521
244	0xbd40480f	-0.04694372
245	0xbd72aa1e	-0.059244268
246	0x3cedcd76	0.029028635
247	0x3d1641a3	0.03668369
248	0xbd34b580	-0.044118404
249	0x3ccc7df7	0.024962408
250	0xbbf5eecf	-0.007505275
251	0xbc721619	-0.014775776
252	0x3d149e9a	0.036284067
253	0xbd994938	-0.074846685
254	0xbd472c0b	-0.048625987
255	0x3d3d7420	0.046253324

bias_hh f4 [600]
0	0x3d5a38db	0.053276878
1	0xbda1c675	-0.07899181
2	0x3c35a05f	0.011085599
3	0x3d334410	0.04376608
4	0x3d078f30	0.03309554
5	0xbbc76cca	-0.0060859667
6	0x3d34ac3d	0.04410957
7	0x3d9a7e98	0.07543677
8	0x3d5fcd3f	0.054639097
9	0x3d148e89	0.036268745
10	0x3d88fcb6	0.06688826
11	0xbc516619	-0.01278069
12	0x3ca47f7f	0.020080326
13	0x3d67696b	0.05649702
14	0x3d35fcfb	0.044430714
15	0xbd31aa9d	-0.0433756
16	0x3da9036a	0.08252604
17	0x3da9e29a	0.08295174
18	0x3d3177c6	0.043327115
19	0xbd28b851	-0.041191403
20	0xbcb81f44	-0.022475846
21	0x3d80fb2a	0.06297906
22	0xbd02d224	-0.031938687
23	0x3d43e4e2	0.0478257
24	0x3c86de28	0.016463354
25	0xbd649a6c	-0.05581133
26	0x3e02209f	0.12707756
27	0x3d84adde	0.06478475
28	0xbce2d495	-0.027689258
29	0xbca097b6	-0.019603591
30	0x3c0a2477	0.008431545
31	0x3bfd95b4	0.0077387933
32	0x3d431d10	0.047635138
33	0xbd9d54e0	-0.07682204
34	0xbd220597	-0.039556112
35	0xbc2a4a87	-0.010393745
36	0x3da75562	0.08170582
37	0xbc8edc62	-0.017439071
38	0x3c726fa7	0.014797128
39	0xbcce91eb	-0.025216063
40	0xbcdc683e	-0.026905175
41	0x3dac9ba0	0.084281206
42	0x3dd69bac	0.10478911
43	0xbcef8ca2	-0.029241864
44	0x3d4a21dc	0.049348697
45	0x3cdc5a79	0.02689861
46	0xbb7831dc	-0.0037871515
47	0xbc945324	-0.01810605
48	0x3c09816b	0.008392672
49	0xbc85ee40	-0.016348958
50	0x3d590543	0.052983534
51	0xbd8be375	-0.06830493
52	0xbd0ddffd	-0.03463744
53	0x3d5de77b	0.054175835
54	0x3d0040fc	0.031311974
55	0x3d1a35d4	0.03764899
56	0x3c8a383b	0.016872516
57	0x3d9b7ffb	0.0759277
58	0x3d52cf4e	0.051467232
59	0x3ccb302e	0.024803247
60	0x3d955b7e	0.072928414
61	0xb9c654f4	-0.00037828798
62	0x3d076356	0.03305372
63	0x3c762ea2	0.015025767
64	0x3d83ab86	0.064292
65	0x3c77cb5a	0.015124166
66	0xbad4e941	-0.0016243831
67	0x3d588cb5	0.052868564
68	0xbd6f17f6	-0.05837246
69	0x3cfce943	0.030872947
70	0x3ce4a08d	0.027908588
71	0x3c8ae8e2	0.01695675
72	0x3d867642	0.06565525
73	0x3d4ac190	0.049501
74	0x3d6290a2	0.055313714
75	0x3dad4349	0.08460099
76	0x3d3a416b	0.045472544
77	0x3d955b9e	0.07292865
78	0x3ad31bbd	0.0016106289
79	0x3d9e9e18	0.07744998
80	0xbd43dc28	-0.04781738
81	0x3b2f9d52	0.002679665
82	0xbc0e6f8a	-0.008693585
83	0x3ac45563	0.001497906
84	0xbcbd01e1	-0.023072185
85	0x3d721a12	0.059106894
86	0x3d8d54a6	0.06900911
87	0x3d281bd1	0.041042153
88	0x3d5f27c6	0.05448129
89	0x3d8b5663	0.06803586
90	0xbb0f35a3	-0.0021852038
91	0x39be559c	0.00036303408
92	0x3c29eb94	0.010371108
93	0x3e0c7dc9	0.13719858
94	0x3d8b240b	0.06793984
95	0x3c9c26e9	0.019061523
96	0xbd8c298f	-0.06843864
97	0x3cbd5655	0.023112455
98	0x3c81683b	0.015796771
99	0xbcfbfae5	-0.030759284
100	0xbd00ff77	-0.03149363
101	0xbcf6760a	-0.030085582
102	0xbce278e9	-0.027645545
103	0x3c4b87cd	0.012422514
104	0x3dae3ffb	0.08508297
105	0xbd8796c2	-0.06620552
106	0xbbfbbae6	-0.007682192
107	0x3cbf2563	0.023333257
108	0x3d7ec51c	0.062199697
109	0xbd171783	-0.036887657
110	0x3ca4d9a4	0.02012331
111	0x3c3c1993	0.011480707
112	0xbd86dc6c	-0.06585011
113	0x3db99bb0	0.09062898
114	0x3c916b44	0.017751344
115	0xbd1587d4	-0.03650649
116	0xbd125bef	-0.035732206
117	0x3db8c994	0.09022823
118	0xbd3c3f36	-0.04595872
119	0x3d2f22ca	0.042757787
120	0x3b99b9c6	0.0046913354
121	0x3d560221	0.052248124
122	0xbc3d4543	-0.011552158
123	0x3db161cb	0.08661231
124	0x3c4e278b	0.01258267
125	0x3dedd658	0.116131485
126	0xbd67d7b0	-0.05660218
127	0x3d699410	0.05702597
128	0xbbefe16b	-0.007320573
129	0x3d892e22	0.06698252
130	0x3baaed5c	0.0052162837
131	0x3cde2ccb	0.027120968
132	0x3d466f1f	0.048445817
133	0x3c2f3fee	0.010696394
134	0x3da36f65	0.07980231
135	0x3d114427	0.035465386
136	0xbc87e9b8	-0.016590938
137	0x3cc0b90e	0.023525741
138	0xbbd101f3	-0.006378406
139	0x3cd0bc01	0.025480272
140	0x3e005b18	0.1253475
141	0x3de5d1d8	0.11221665
142	0x3cc37576	0.02385972
143	0xbb0117fd	-0.0019698136
144	0xbd3b26b0	-0.045691192
145	0x3df4ef4a	0.11959703
146	0x3d5e652c	0.054295704
147	0x3da2331d	0.07919905
148	0x3be50a97	0.006989788
149	0x3c3d0155	0.011535962
150	0x3ca3e7f2	0.020008061
151	0x3db09c07	0.0862351
152	0xbc77bdec	-0.0151209645
153	0xbd0e3186	-0.034715198
154	0x3da2bfb7	0.07946723
155	0x3dd308ee	0.103044376
156	0x3da4c5f9	0.08045573
157	0x3d8ea567	0.06965142
158	0x3c8c0671	0.017092915
159	0x3db95478	0.09049314
160	0x3ded4956	0.11586253
161	0xbd742916	-0.059609495
162	0xbd121546	-0.03566482
163	0x3a87cff2	0.0010361655
164	0x3d5b83ae	0.053592376
165	0x3cf6abaa	0.030111153
166	0xbca24348	-0.019807473
167	0xbd074fd5	-0.033035118
168	0x3dab2fdd	0.083587386
169	0x3db6370e	0.088972196
170	0x3d311bb4	0.04323931
171	0x3e30af76	0.17254433
172	0x3c9ec7e6	0.019382428
173	0x3cbd8673	0.0231354
174	0x3a9d5743	0.0012004155
175	0x3cfba100	0.03071642
176	0xbd140dcd	-0.036145974
177	0x3d966195	0.07342831
178	0x3d4d4e90	0.05012375
179	0x3d3cbec8	0.04608038
180	0x3d7782c4	0.060427442
181	0xb91a2d7d	-0.0001470353
182	0x3d7a4fac	0.061111137
183	0x3d7b1861	0.061302546
184	0xbd59d74d	-0.053183842
185	0xbd45edb0	-0.04832238
186	0x3d1446c0	0.036200285
187	0x3daa975f	0.08329653
188	0x3c3aa3cc	0.011391591
189	0x3d8835fa	0.0665092
190	0x3c7f257b	0.015572901
191	0xbd4094f2	-0.047017045
192	0xbc788f5e	-0.0151709
193	0x3dde804c	0.108643144
194	0xbc48eed2	-0.01226397
195	0x3dc6a3cb	0.0969921
196	0x3d5cf18a	0.053941287
197	0xbc886bc1	-0.016652944
198	0x3dba1bed	0.09087358
199	0x3d97b9d0	0.07408488
200	0xbcdce1e6	-0.026963186
201	0xbbd2f027	-0.00643732
202	0x3d3a7010	0.045517027
203	0x3dbd1257	0.09232014
204	0x3d557078	0.05210921
205	0x3d70c555	0.05878194
206	0x3d296287	0.04135373
207	0xbd94a069	-0.07257158
208	0xbdd3c03c	-0.103394
209	0xbc049e00	-0.008094311
210	0x3d945cfd	0.072442986
211	0xbd28f466	-0.0412487
212	0xbd649522	-0.055806287
213	0xbd898a65	-0.0671585
214	0x3ca80de2	0.020514432
215	0x3d65aefa	0.056075074
216	0x3bc18754	0.005906025
217	0x3cf6c373	0.030122494
218	0xbce3610c	-0.027756236
219	0x3cd7eefd	0.026359076
220	0xbd0f7a7d	-0.035028923
221	0x3d7179ca	0.058954038
222	0xbd2dfb77	-0.042476144
223	0xbd6438cc	-0.05571823
224	0xbd85bc42	-0.06530048
225	0xbd7bb37e	-0.061450474
226	0xbd668af1	-0.05628485
227	0xbb76714c	-0.0037604151
228	0x3c5aded6	0.013358792
229	0xbd46ad94	-0.04850538
230	0xbd717712	-0.058951445
231	0xbcc44b88	-0.023961797
232	0x3c1ef869	0.00970278
233	0xbaf0e737	-0.0018379454
234	0xbd379eb9	-0.044829104
235	0xbd0cb6ad	-0.0343539
236	0x3cc4a058	0.02400224
237	0xbc6a2193	-0.014290231
238	0x3cf62523	0.030047005
239	0xbc9540fb	-0.018219462
240	0x3ca3de1d	0.020003373
241	0xbd708ca2	-0.058727868
242	0xbd313044	-0.04325892
243	0x3d564316	0.052310072
244	0xbda75a0d	-0.08171473
245	0x3d1f789c	0.03893338
246	0xbd840ce8	-0.06447774
247	0xbc647e2e	-0.013946099
248	0xbc678cbd	-0.014132676
249	0x3d63c11f	0.055604097
250	0xbd7827ad	-0.060584713
251	0x3be3efe7	0.006956089
252	0x3d3cb745	0.046073217
253	0xbd75ceb8	-0.060011595
254	0x3d806ba5	0.062705316
255	0xbd78044b	-0.06055097
