testbedResults/backends/m4/models_v6/lstmcell_time_link.pt (torch, 493146 bytes, 4 tensors)

weight_ih f4 [600, 1]
00000000: 2c4b 20bd 229a 1c3d b3ba 41bd 68f5 33bd
00000010: b8ae aa3c 2e94 913d e19d 09bc 687e a53c
00000020: a431 07bd b45b 7cbd 84b0 66bc 273a 8f3c
00000030: b126 393d 1d94 263d ed8e ac3c 99e5 46bd
00000040: 1606 a8bc e240 fd3c 6d26 5abc bdf8 1cbc
00000050: 8e54 39bd 6fa6 d03c daa5 873d b11c 1dbd
00000060: 5b4a ff3c b54e 9abc aab4 6d3d 5ac8 013d
00000070: df7e 82bd e771 653d 8063 1c3d 44ba a43b
00000080: 2a77 afbc 8024 a7bc 955b a3bd 89ac 9d3d
00000090: fcb0 b1bc 2ae2 9b3c e12a 353b f579 bb3c
000000a0: 8e6b 19bd 7a23 8b3d 1359 f4bc c376 92bd
000000b0: 737e d03d a9f0 33bd b31e 493c 5050 333d
000000c0: 9077 14bc 06ba a9bd 0780 b73d 6db8 4b3d
000000d0: de44 963c abd6 48bd e4e9 913d e7aa 0f3d
000000e0: 102b 8a3d 6cd0 c63c c99f f4bb 855f 503d
000000f0: f2f6 ef3c d03a 663d 6929 13bd 8143 46bd
00000100: 5b7d 4c3d 1e0a ca3d 75a4 5dbd 3ae0 b33b
00000110: ea06 11bd 9e9d 9f3c eea2 8cbc 0a0e fb3a
00000120: 820e 4f3d 5f46 523d 1612 83bd 744e dc3c
00000130: 6c7f 113d f0e8 53bc a74c 153d b23b ac3d
00000140: c648 1b3d 4ac5 4b3d f2b9 d13c 1272 8d3d
00000150: 4add 7a3d 4147 4cbd cd24 213d bf80 ecbc
00000160: 75c0 d7bc 5350 08bd cb2a 03bd 1649 513d
00000170: 9db6 94bd 423b 4f3d e27a 8b3d 830d 663d
00000180: 2ea1 933d 6a89 073d 91a8 223d a0f6 983d
00000190: 8a79 08bd 75d8 713d 9818 493d b7ab 1e3d
000001a0: 6750 9b3c fcdf 4e3d 8611 153d 22e9 44bd
000001b0: a3d8 31bd d452 893d 323c 6f3d d204 063c
000001c0: b65b c83c 5274 a73b 7e24 473d 3921 e3bc
000001d0: 005c 1f3d 3359 173d 0fe6 9dbc 5d5c 983c
000001e0: 0b96 0e3d 927a f13c d240 edbc 980f 3d3d
000001f0: 73ba 14bd c143 403d bf33 1d3d b28c b2bc
00000200: bd6b 2abd 8d3a 0fbd 0ee1 353d 22ae 7bbd
00000210: 8794 673d b3cc f63c c4ce 6f3d 6263 11bd
00000220: a327 2f3d e9b1 bbbb c541 91bd 2920 f53c
00000230: b208 033c bb2f 923c a7e0 64bd 94a1 733d
00000240: 7f87 48bd 57d3 87bd e67d 2abd 7215 ab3b
00000250: a1e2 0bbd 49bd 93bc fac8 e73c 72bf 4e3d
00000260: 54bb 6ebc 39ae c7bb 70d9 7fbd 5a95 9b3d
00000270: fcdc 913c b435 4dbd 6aae 81bd fc71 cd3c
00000280: 6a4d 63bc d2ec 703d 6f96 b73c 4466 edbd
00000290: db2b 51bd 4e59 bf3c 334a 873d ec3c 87bd
000002a0: 0170 6d3d be19 353d dbac 63bc 3efe 06bd
000002b0: 8a92 8abc 33b3 bdbd 00c3 61bd 9d81 91bd
000002c0: 7a9d 47bd b169 33bd 99cc bc3b 19b0 a03c
000002d0: be71 fbbb b81d bdbc 9629 9cbd e0af 6e3d
000002e0: 717d 08bd 4a43 753c b6c0 e7bc ac08 23bd
000002f0: c6fc 413c f3b6 15bd 6b80 9fbc f07d 3d3d
00000300: 52f2 b4bc 00e4 4dbd 7ce4 86bd b0b6 1c3c
00000310: 233c 683d 6031 5cbd 38a2 2f3d 17f9 d8bd
00000320: c3e7 703d 0ec2 833d a161 4c3d 1384 603d
00000330: 82b5 57bd d25e d3bb af4b ca3b 90a5 4bbd
00000340: e2f1 6abc f375 733d 69e2 1e3d b444 7c3c
00000350: e567 833d 732f 683b ac84 743d 64af 9b3b
00000360: 5d8d 683c 4cdf a33d da72 3f3c 1009 f73c
00000370: b592 9e3c ae4d 043c 8a37 11bd 14fe 57bc
00000380: e3aa 12bd 361d 19bd 2d55 5d3d 5dbb c9bc
00000390: 2be7 1d3d 7429 ccbc 2da6 2cbc 3bcc 36bc
000003a0: 4f32 3dbd 31d4 aebc db3a 553c d431 a3bc
000003b0: 5609 32bd cc35 9e3d 07a0 6bbc c6cc 83bd
000003c0: a3ed 9d3b 796a 29bd f7ad 8c3d cdb7 56bd
000003d0: c94d 773d 0464 29bd 37ac ca3b a92f b1bb
000003e0: e69b 7cbb 43ea 343b 14c8 073d 5077 4a3d
000003f0: d057 483d 90c8 b63c 37f5 713d d85c e83c
-0.03913419 0.03823293 -0.04729719 -0.04393521 0.020835266 0.07108341 -0.008399458 0.020201877
-0.033006325 -0.061610892 -0.014080171 0.017483784 0.045202915 0.040668596 0.021064246 -0.048558805
-0.020510715 0.030914728 -0.0133148255 -0.009580788 -0.045246653 0.025469987 0.066234306 -0.03835744
0.031163385 -0.018836359 0.058033623 0.03168521 -0.06371855 0.05601683 0.038180828 0.0050270874
-0.021419127 -0.020403147 -0.07976452 0.07698924 -0.021690838 0.019028742 0.0027643966 0.022885302
-0.037456088 0.06793876 -0.02982763 -0.07151558 0.10180368 -0.043930683 0.012275386 0.043777764
-0.009061709 -0.08287434 0.08959966 0.04973643 0.018343385 -0.04903285 0.07124689 0.035075095
0.06746495 0.024269305 -0.007465337 0.050872345 0.029292557 0.05620843 -0.035928164 -0.04840422
0.049924236 0.09865211 -0.054111917 0.0054893764 -0.035406984 0.019484337 -0.017167535 0.0019153964
0.050550945 0.051336642 -0.06399934 0.026892878 0.03552191 -0.012933955 0.036450054 0.084098235
0.0379112 0.049748696 0.025601361 0.06906523 0.061246194 -0.04987264 0.039341737 -0.028869985
-0.026336888 -0.03327973 -0.032023232 0.05109509 -0.07261393 0.050593622 0.068105474 0.05616523
0.07208477 0.033090033 0.03971154 0.07468915 -0.033319034 0.05904432 0.04909572 0.03873798
0.018959237 0.050506577 0.036393665 -0.048073895 -0.04341949 0.06705251 0.058407016 0.00817986
0.024457794 0.005110302 0.048618786 -0.027725803 0.038906097 0.0369503 -0.01927474 0.01859873
0.03481106 0.029477391 -0.028961573 0.04615745 -0.036310624 0.046939615 0.038379427 -0.021795604
-0.041606653 -0.034967948 0.044404082 -0.061445363 0.05653813 0.030126905 0.058546796 -0.03549517
0.04276241 -0.0057279957 -0.07092623 0.029922562 0.007997679 0.017845025 -0.055878308 0.059480265
-0.048957344 -0.06632107 -0.041623972 0.0052210623 -0.034151677 -0.018034594 0.028294075 0.050475545
-0.01457103 -0.006093767 -0.062463224 0.07596846 0.017805569 -0.050100043 -0.06332095 0.025078766
-0.013873437 0.0588196 0.0224106 -0.11591771 -0.051067214 0.023358013 0.06605949 -0.06603417
0.057968143 0.044214003 -0.013896192 -0.032957308 -0.016915578 -0.09262695 -0.055117607 -0.071048
-0.048734166 -0.043801967 0.0057616946 0.01961522 -0.0076734712 -0.02308546 -0.076251194 0.058273196
-0.033322755 0.014969656 -0.028290134 -0.039803192 0.011840051 -0.036551427 -0.019470414 0.04626268
-0.022088204 -0.050266266 -0.06586549 0.0095650405 0.056697976 -0.053758025 0.042879313 -0.10594385
0.058814775 0.06433497 0.049897794 0.054813456 -0.052663334 -0.0064505124 0.006173573 -0.04971844
-0.014339896 0.059438657 0.03879014 0.0153972395 0.06416301 0.0035428673 0.05969684 0.004751133
0.01419386 0.08001575 0.011685098 0.030155689 0.019357065 0.008075161 -0.035453357 -0.013183136
-0.0358075 -0.037381373 0.054036308 -0.024625475 0.038550537 -0.02492211 -0.010537666 -0.011157091
-0.046190556 -0.021341415 0.0130145205 -0.01992122 -0.043465935 0.07725105 -0.014381415 -0.06435542
0.0048195883 -0.041361306 0.06869119 -0.05242138 0.060376916 -0.041355148 0.0061850804 -0.005407293
-0.003854507 0.0027605451 0.033149794 0.04943019 0.04891187 0.022312433 0.059071746 0.028364584

weight_hh f4 [600, 200]
00000000: 94d0 c4bc f25a 4f3d d5c5 15bd c79e eebc
00000010: 620d 87bd c738 1e3d 3899 b7bc f741 a03b
00000020: cd09 5abc f389 6ebd a86e a33c 563c 193d
00000030: a233 babc bf89 8bbd c527 51bd 4461 0f3d
00000040: 82a2 12bd 68d4 91bd c84b 55bd f158 45bd
00000050: 6d2e 3bbd ce17 8f3d 4ec4 763c eaf1 653d
00000060: 0f98 7d3d 7709 39bd db51 eb3c 5dda 58bd
00000070: 75a9 abbc e7a0 ab3b f442 2e3c d2de 803b
00000080: 4a80 df3c aa79 843d b45e 063d 318c 34bd
00000090: 9b18 95bd 9377 2cbd 8839 39bb 67ff 803d
000000a0: d3ad 51bd 7b1c 36bd f1f6 423d c6c7 7b3d
000000b0: 99b0 cdb8 f682 0dbc 4f7f 07bd 310c 9abd
000000c0: 3c21 17bd 08fa 783d badc 173d 07d0 233c
000000d0: 2958 d6ba a82d 6d3d 4483 07bc fa7c b8bc
000000e0: ab15 f13c 89cf 75bc 6cc1 33bd 60c1 3ebd
000000f0: da4c 2abd 8904 bd3b fe1e 61bd 36ed c13c
00000100: 4e2c 203d 0645 23bd 3028 38bd 9faa 243a
00000110: 2b7f 45bc 73e1 1b3d 36e8 c13c 4e29 42bd
00000120: 4225 33bd bd83 82bc 05ab 0b3c 3d43 19bd
00000130: d555 78bd 2c71 4ebd 510d 6b3d eb0f 43bd
00000140: 263e 0ebd c301 95bb fcac 36bd 11a7 fc3c
00000150: cd5c 883d 10a2 923d c84d 373d 7a33 91bd
00000160: 1446 8f3d 5c45 70bd 36b0 85bd 9e1b a93b
00000170: 05ce ae3c 0721 553d 057e 833c f920 2f3d
00000180: 9b94 cabb 8035 943c a075 9abd 9c42 09bd
00000190: 680b 403d 07d2 c03c e9b9 003c 1d3c 3f3d
000001a0: 469c 133c eda0 763d 7162 073d a50e 81bd
000001b0: 46dd 2a3d b71d 60bd 6e86 2ebd 7b78 a4bc
000001c0: 5f93 d4bc 9166 d23c db4d 3cbd bf7a 69bd
000001d0: 187b 753d 4636 51bd e2bc 46bd 02c1 7a3c
000001e0: aff9 95bd 7d90 a2bc d696 6c3d 2e0d 2ebd
000001f0: 02a5 ecbc a84d 85bc 5e19 a4bc e7a7 42bd
00000200: 5998 003c 3105 433d c50e 1dbd b59a bcbc
00000210: f309 42bd bbfd 56bd 2d8a 1bbd 5274 043d
00000220: da78 8d3d fade 89bd 10cc b7bc 8c15 82bb
00000230: 1d57 da3c 8cfe 3e3d e93d 8bbd 0577 7abd
00000240: b3d8 08bd c524 6c3d cbd9 303d 95ab 953b
00000250: 98b7 87bc 96de 3f3d d38e 81bd ea4c 703d
00000260: 5f1b 50bd 26f7 6cbd cf9d be3c 4b5e aa3c
00000270: 18c1 303d c414 bdbc d7cc 99bc 4f57 2cbd
00000280: 18f4 abbc 0dd9 bfbc 86c8 2ebd 02d5 3a3d
00000290: c57b f23c 7ae9 3bbd ff50 de3c f32f da3c
000002a0: b2d6 a33c 6ce8 613c b5d2 afbc e510 2c3d
000002b0: 5f35 7c3d b37c e83c a15b 1a3d a399 a13c
000002c0: 813c 073d b4d3 23bd d6d5 453c c5d5 52bd
000002d0: 9105 cfbb a7b8 703d 0c08 87bc 9f2c 643c
000002e0: 2aa5 c53c c2bc 90bc 89a4 a03c f79e 1dbc
000002f0: bbe5 ec3c b334 45bd 7cef 9abd e857 133d
00000300: 6069 ac3c bfc9 2ebd 373e 513d 5ffc 6e3d
00000310: a7b0 90bd d938 90b9 2489 f13b 020c c23c
00000320: a8ed f83c 03f3 77bc 55f2 2cbc 30a2 27bb
00000330: cc02 9f3c 1cd7 103d 2107 2bbd 94be 2dbd
00000340: 9692 2c3d 34c7 b9bc 433d 60bd 7669 66bd
00000350: c1d0 613d c5ce 83bd ec35 fcbc f917 7bbb
00000360: 6f5c 623c b8dd 7a3d da65 863d 06f6 0b3d
00000370: 7c2c 26bb 4321 f13c 3a00 8abd 5dda 92bc
00000380: 4055 ae3c 1127 51bb 8db5 7d3d 8018 86bd
00000390: 0f0c 6b3c c99a 12bd a4fd 5cbc ec51 80bd
000003a0: 9bc2 5f3c 06a7 2ebd 88b8 1e3d d8fd 593d
000003b0: 269a 4e3c dc36 fb3c e720 1c3d 6b9d d93b
000003c0: 38d4 8c3c 8efe 3e3d 5edd e63c 578d c3bb
000003d0: b95f a93c 4fe8 bd3c 9917 933d 5c13 4c3d
000003e0: 5965 8f3a 34f4 d7bb 294c ccbc 8c6a 843d
000003f0: 13bb 3bbb 1818 5cbd 1d14 15bd 4169 113d
-0.024025239 0.05062384 -0.03656562 -0.029128445 -0.065943494 0.038628366 -0.022411928 0.004890676
-0.013308001 -0.058237027 0.019950226 0.037411056 -0.022729699 -0.06813382 -0.051063318 0.03500487
-0.03579951 -0.071205914 -0.052074224 -0.048180524 -0.045698572 0.06986962 0.015061451 0.05613891
0.061912593 -0.045175042 0.028725555 -0.052942622 -0.020954827 0.005237687 0.01063608 0.0039328123
0.027282853 0.06468518 0.03280516 -0.04407901 -0.07280084 -0.042106222 -0.002826305 0.06298714
-0.051191162 -0.044460755 0.047598783 0.061469816 -9.8080556e-05 -0.008637181 -0.033080395 -0.075218566
-0.03689693 0.060785323 0.037075736 0.009998328 -0.0016353178 0.05790487 -0.008271042 -0.022520531
0.029429277 -0.0150030935 -0.043885633 -0.046571136 -0.041577198 0.005768363 -0.054961197 0.023672681
0.039104752 -0.039860748 -0.0449602 0.0006281528 -0.012054245 0.038056802 0.023670297 -0.047402672
-0.043736704 -0.015931958 0.008524661 -0.03741764 -0.06062873 -0.050400898 0.057385746 -0.047622602
-0.034727238 -0.004547329 -0.044598565 0.030841382 0.06658325 0.07159817 0.044751912 -0.070898965
0.06995788 -0.058659896 -0.0652775 0.005160763 0.021338472 0.05203345 0.016051302 0.042756055
-0.006182266 0.018091917 -0.075419664 -0.03351079 0.046885878 0.023537649 0.007856824 0.046688188
0.009009426 0.060212065 0.033052865 -0.06301621 0.04171493 -0.05471584 -0.04260867 -0.02007698
-0.025949178 0.025683673 -0.045972686 -0.057001825 0.059931844 -0.05107715 -0.048519976 0.015304806
-0.07323014 -0.019844288 0.057761036 -0.042493038 -0.028887276 -0.016272381 -0.020031627 -0.047523405
0.0078488225 0.047612373 -0.038344163 -0.023022989 -0.04737277 -0.05248807 -0.03797357 0.032337494
0.06907816 -0.067319825 -0.022436172 -0.0039698537 0.026652867 0.046629474 -0.06798918 -0.061148662
-0.033409785 0.057652254 0.043176454 0.0045675733 -0.016567037 0.046843134 -0.0632607 0.0586671
-0.050807353 -0.057852887 0.023268608 0.020796916 0.0431529 -0.02308119 -0.018774433 -0.04207545
-0.020990416 -0.023418928 -0.042671703 0.045613296 0.029600034 -0.045876957 0.027138231 0.026634192
0.019999836 0.013788324 -0.021462778 0.0420083 0.061574336 0.028379774 0.03768504 0.01972658
0.033016685 -0.039996818 0.012074908 -0.051473398 -0.0063178022 0.05876985 -0.01648333 0.013926654
0.024126608 -0.017668132 0.019609706 -0.00962042 0.028918138 -0.04814596 -0.07565209 0.035972506
0.02104634 -0.04267287 0.051084723 0.05834615 -0.07064944 -0.00027508175 0.0073710848 0.023687366
0.03038676 -0.015133622 -0.010555823 -0.002557885 0.019410513 0.035361394 -0.041754846 -0.042418078
0.042131983 -0.022677995 -0.054745924 -0.05625292 0.055130724 -0.064359225 -0.03078743 -0.003831385
0.013815983 0.061246604 0.065623954 0.034170173 -0.0025356105 0.029434806 -0.067383245 -0.01792639
0.021280885 -0.0031914155 0.06194072 -0.06547642 0.014346137 -0.035792146 -0.013488207 -0.06265625
0.013657237 -0.042639755 0.0387502 0.0532206 0.012609994 0.030665807 0.038117316 0.00664108
0.017191038 0.04662948 0.028181728 -0.0059677768 0.020675527 0.023182062 0.07182235 0.04982315
0.0010940238 -0.0065903906 -0.02493866 0.06465635 -0.002864544 -0.053733915 -0.036396135 0.03550077

bias_ih f4 [600]
00000000: c92d bcbc 685b 59bd 088f a5bc 8047 d6bc
00000010: 1eca d5bc 5469 9f3d e00c d73b 4eb2 493d
00000020: b9ba 93bc da90 343d d75c 3c3d 8a14 91bd
00000030: 5d9d d73c 73e1 4d3c d3d8 843d 7d2e 08bd
00000040: d496 91bd fdcf ac3c 43f2 f13b c6b0 3fba
00000050: 650e 8ebc ff2a 8dbc 5807 25bd 2219 b63c
00000060: fcc4 0dbc b771 2dbd 6b64 0dbd ff8c 14bd
00000070: e9c4 2a3c c1cc 7a3c aadc 32bd 548d 7c3d
00000080: b4b5 8e3d e767 c93c 8307 193d eaee 283d
00000090: b270 29bd b1f0 723d f908 ea3b 48e5 49bd
000000a0: 4782 80bc 5fa9 8e3d 986a 12bd 71d1 833d
000000b0: fe74 ecba 0551 183d 91ee bdbc 14b8 88bd
000000c0: 1b3d c9bc cf15 8fbd 0924 6ebd 6318 12bd
000000d0: 4b9d 1cbc 095a 79bd cdf7 72bd 3c02 5d3d
000000e0: ba83 dc3c b0cb 1f3d 7de0 08bc e466 65bd
000000f0: 0637 88bd e432 ebbb 280a d83c 3532 ba3c
00000100: f854 023d 392c f03c 50e6 eabc 5411 213d
00000110: da6c c53a 508d 8abc 6c4a c4bc 7488 8bbd
00000120: a741 983c d0f8 1f3b 48c4 823d b9ac 7bbd
00000130: 3a7c 803c 33c1 da3c 795c 9a3c 4c5d f2bc
00000140: e304 323a b98a 4d3d 8c9a 3fbd abb8 033d
00000150: 16cf 673d 7870 803d 348e 4f3c b31f 8dbd
00000160: 38fe 0f3d db1f 453c 22b4 edba 064d 85bd
00000170: a29d 03bd ebd5 88bd 9060 833b 694e 00bd
00000180: a15f 5bbd e1c5 36bd 4934 3e3c 2606 743d
00000190: a5e1 67bd 6162 f6bc a95e 443d a33a 29bd
000001a0: ffed 383d 3ffc c9bc 443c 14bc c2d1 1bbc
000001b0: 3d4b 73bd b82d 1cbd 34b5 69bd d042 7e3d
000001c0: 277d 483d d246 9a3c 90cc 5b3d d6ac ecbb
000001d0: fa6f 1dbd b6f6 7d3b 9089 863d 142b 0bbd
000001e0: 8ec9 4cbd bad1 663d 43b6 4fbd 6c94 a63c
000001f0: a5a1 f63c b4dc 043d c891 3a3b 70b3 5f3d
00000200: ebe4 733d 009b c03b 269b 24bd a416 f9bc
00000210: e4fe 41bd 4eff 3b3d 6802 33bd f6cf 843d
00000220: f447 783c dc36 d33c 2f02 84bd d09c 5d3d
00000230: e1f4 38bd 9b25 73ba 6aac b83c 245d 1d3d
00000240: 7e21 bd3c 8e97 f63c 5108 c63c b61e 5fbd
00000250: 25a3 833d feac f73c 311b 41bb 4c42 b3bc
00000260: 542c 4abd a0a1 593d 879b 25bd 4df5 19bd
00000270: a326 90bd 4128 b7bc 760b fb37 e21a 753c
00000280: 7178 433d ee3b 73bd fb95 30bd c66c b83c
00000290: 734e 233d 01c4 4fbd c29a 64bc 7f2b 2bbd
000002a0: f126 823d 5365 913d e9f1 58bd c428 013c
000002b0: 5067 393d db94 80bc dacc 233d e7b7 513d
000002c0: 928e 78bd 2e64 8ebd 4abf 7cbc ea5f eb3b
000002d0: b2d9 463c e3c8 d2bb 7a29 80bd fe4e 16bd
000002e0: 1ea4 b1bc 2b95 8bbc 608d 7a3d 4ebc 913d
000002f0: 468c 03bd 75e3 903c fd08 3cbd 2621 a23c
00000300: 2f60 a2bc a1c1 3ebb a043 e5bc 5691 90bc
00000310: 8610 f43c f34a 80bc afda 7fbd 095a e7bc
00000320: 2dd4 043b cae7 c93b 47a0 953d c625 133c
00000330: f2dc 37bd 0ef5 1abd ed40 dabc 95c6 853d
00000340: ce97 63bc 16ba a7bc d4d8 6fbd 5bc3 2cbd
00000350: fb16 85bd b627 9ebb 19f6 8f3c 17df 4a3c
00000360: 9498 343d 8ec6 e1bb c6fd aabc 1295 273d
00000370: 45e2 15bd fa68 7fbd e57d d03b 54e8 973c
00000380: ec95 b33c b17b 33bc 9b7d 103d ed64 bebc
00000390: 6b08 49bd b24e 5fbc 03f8 7f3d 629e 383d
000003a0: b6df 73bd 62d1 c23a 6b47 9bbd ea40 77bd
000003b0: 41ec 48bd 13f6 ac3c f254 713d c212 313d
000003c0: 11d7 16bd 723d 58bd 8799 7ebd 94b1 4a3d
000003d0: 19aa 94bd 2f29 f4bb 3704 de3c 3c01 18bd
000003e0: 42e9 963d 7dbd 883d 447c 27bd 94c8 273c
000003f0: 4b3b 633d 3e9f 86bd afb8 3b3d 88ba eb3c
-0.02297105 -0.053065687 -0.020209804 -0.02615714 -0.026097354 0.077837616 0.006562814 0.04924231
-0.018033372 0.044083454 0.045986976 -0.07083996 0.026320154 0.012565958 0.064866684 -0.03324746
-0.07108846 0.02109527 0.007383616 -0.0007312413 -0.017340848 -0.017232416 -0.040290207 0.022228781
-0.008652922 -0.042344775 -0.034519594 -0.036267277 0.010422924 0.015307606 -0.043667473 0.06165822
0.06968251 0.024585677 0.03736068 0.04124347 -0.04136724 0.059311572 0.007142183 -0.049290925
-0.015687121 0.06965899 -0.035746187 0.06436432 -0.0018040237 0.03718664 -0.023185046 -0.06675735
-0.02456527 -0.069865815 -0.058139835 -0.03566779 -0.009558986 -0.06087688 -0.059318352 0.05395721
0.02691828 0.03901261 -0.008354303 -0.056006327 -0.0665112 -0.0071776975 0.02637203 0.022729019
0.031819314 0.029317962 -0.028674275 0.039323166 0.0015062348 -0.016913086 -0.023961268 -0.06813136
0.018585993 0.0024409778 0.06385094 -0.061444018 0.015684236 0.026703453 0.018842923 -0.029585503
0.00067908893 0.050181124 -0.046778247 0.032158535 0.056593977 0.06271452 0.012668181 -0.06890812
0.03515455 0.012031521 -0.0018135349 -0.06508832 -0.032132752 -0.066814266 0.004009314 -0.031324778
-0.053557996 -0.044622306 0.011609145 0.059576176 -0.056611676 -0.030076208 0.047941837 -0.041315686
0.045148846 -0.024656413 -0.009047572 -0.009510459 -0.059397925 -0.03812954 -0.057057574 0.062075436
0.04894748 0.018832598 0.053661883 -0.007222752 -0.038436867 0.0038751788 0.06569207 -0.03397663
-0.049996905 0.056352355 -0.050710928 0.020334445 0.030106375 0.03243704 0.002846824 0.054614484
0.059544485 0.0058778524 -0.040187024 -0.030406304 -0.047362223 0.045897774 -0.043703467 0.06484978
0.015153874 0.025782995 -0.06445729 0.054104626 -0.04515541 -0.0009275318 0.022543151 0.038418904
0.02308726 0.030101564 0.024173887 -0.054472648 0.06427602 0.030233856 -0.002946567 -0.021882199
-0.04935868 0.053132653 -0.040431526 -0.037587453 -0.07038619 -0.022358062 2.9926869e-05 0.014960023
0.047722284 -0.059383325 -0.043111783 0.022512805 0.039869737 -0.050724033 -0.013952913 -0.041789528
0.06355084 0.07099404 -0.05296508 0.007883254 0.045264542 -0.01569598 0.039990284 0.051200774
-0.06068284 -0.069527015 -0.015426466 0.0071830647 0.012136864 -0.006432639 -0.06257911 -0.036696427
-0.021684702 -0.017038902 0.061169982 0.071159944 -0.032116197 0.017686585 -0.04590701 0.019791197
-0.019821255 -0.002910711 -0.027986348 -0.017647427 0.029793035 -0.015660739 -0.062464412 -0.028241174
0.0020268068 0.0061616646 0.07305961 0.008981174 -0.044888444 -0.03783136 -0.026642287 0.06532017
-0.0138911735 -0.020474475 -0.058556393 -0.042178493 -0.06498524 -0.0048265113 0.017573403 0.01238229
0.044090822 -0.0068901246 -0.020872962 0.04091365 -0.03659274 -0.062355973 0.006362664 0.0185434
0.021922074 -0.010954783 0.035276037 -0.023241485 -0.049080294 -0.013629602 0.06249238 0.04507292
-0.05953952 0.0014863426 -0.07581981 -0.06036464 -0.049053434 0.021113431 0.0589189 0.04323078
-0.036826197 -0.052792974 -0.062158134 0.049485758 -0.07259006 -0.0074511985 0.02710162 -0.037110552
0.07368709 0.06676767 -0.040889993 0.010240693 0.055476468 -0.06573342 0.045830425 0.028775468

bias_hh f4 [600]
00000000: ec25 273d 02d8 0fbd d5ed b4bc 33b6 183d
00000010: 41ba f6bb aad4 763d 3a7a e8bb 9669 9b3d
00000020: 0694 60bc 62de fbbc 534c f1bc 0a39 d43c
00000030: 0f53 1bbd 3d0a 5e3b 2838 3b3d 6986 733d
00000040: 527c 94bd 9dd4 88ba 257c 16bd 1f18 0bbd
00000050: 1f23 883d 02fa 6bbd 5244 9e3c fce8 69bd
00000060: 57e0 5d3b 2fb4 193d 4214 8fbc f922 9f3c
00000070: a008 323d 5c59 cf3c 0fc1 3cbc f4ec 88bc
00000080: ddf7 49bc 0127 8d3d 894d fd3c 9aa4 763c
00000090: 5c9b 7abd a0ae 2b3d 5b4b bbbc 327c 70bd
000000a0: 22d2 d03c 5f7b f6bb 0c0c f73c e015 32bd
000000b0: 7fc8 4a3d 7cba 823c d984 1abd fa5f 69bd
000000c0: 9f08 89bc 89a4 8abd 64b8 e2bc d1a6 333d
000000d0: 4508 28bd eda4 6bbc 8ee3 3f3d c19c 333c
000000e0: a67b 1f3d a146 563d 2e6e 95bd 5695 74bd
000000f0: ce76 cfbb b98c 4e3d 050a 933d 0541 01bd
00000100: e0cb 38bd db5b 19bc d1d9 8fbd f222 c8bb
00000110: 3642 c4bb 2316 033d d358 f63c 28a8 8f3d
00000120: d11b 163d e34d c53c 8dff 68bd ed87 073c
00000130: 699c ee3c 43c5 dc3c 0ecd 693d 8f9c 3bbd
00000140: 9d6b 5e3c 3cb7 8dbd 9ddd 193d 2a8d e6bc
00000150: 7301 8fbc 8767 86bd 08eb 853c 2b41 423d
00000160: e7e3 f43c 8117 9f3d cf48 a73c fe6d 583c
00000170: c3f3 6cbd e01c 82bd 2b39 d53b e544 813c
00000180: 4f9b 493d dcea 5fbd 0a73 4bbb 9de8 afbb
00000190: e1a6 e23c 48a9 123c db9c 95bd 581f 8b3d
000001a0: aa12 473d 230d 653d 6154 ad3a 4b93 913c
000001b0: 6fd4 4cbc 2c4e 5ebd b8b9 3b3b 61fe 7abd
000001c0: 4fb5 923c de12 213d 9ef4 0f3d 69aa 0fbd
000001d0: 039f 9bba 3e3d 013b 0343 0c3d 7188 67bd
000001e0: d1af 1e3d f068 0cbc 0a00 6abd e8af c63b
000001f0: 0d11 54bd a750 68bd 1ae9 bbbc 943f a03d
00000200: 051e bbbb d041 6ebd 96ac 4e3c 2c30 823c
00000210: 9a04 3a3d 0f10 8bbd d3b5 74bd e0a3 263d
00000220: 86ad 2f3d 3004 6d3d b579 cb3c 943e de3b
00000230: c62b 873d f0c2 2abd 7020 59bd ab43 2e3d
00000240: a3a9 673b 0580 79bc d1da a83c a2e0 493c
00000250: a0c9 8e3c b7ed 8c3d e6d2 433b 0878 8f3d
00000260: 19a2 4e3c 4a13 783d f4a8 0b3d a039 9b3d
00000270: 52b8 91bd 0b3f 65bd aa79 40bd af7c 92bc
00000280: 57d2 383d d970 77bd a0d8 d3b9 8526 fa3a
00000290: 1ede ddbc f5bd 8f3d f2c3 49bc 1daa 4d3d
000002a0: 91b6 233d a55f 5cbd 38ff 933c 3bc7 963c
000002b0: 4038 08bd 366a 2fbc 2ba9 42bb 36db 2ebb
000002c0: 3abd 00bd 11d5 583d e21e 313c e457 7e3c
000002d0: 4450 873d ef9f e53c 3e37 acbc 533b 74bd
000002e0: 6a6c 3d3d 2b49 753d 057d 703d 15f2 b03b
000002f0: 8e3f 073d 60f0 f73c 8154 6f3d cdea 033d
00000300: 0088 673d 73db 6a3d a4ee 68bd 8192 6b3d
00000310: 3c5e 3dbd 5e83 23bd 1177 483d bdeb 493d
00000320: ed61 4cbc b54f 40bd 2ba8 c23b 7b89 59bd
00000330: 8a09 85bc 07fe 883d 7482 8abb ffcd 4c3d
00000340: d318 a43c 47c3 d2ba af26 483d 3095 7c3d
00000350: 5176 933c 7dc8 913c 4fd1 d4bc b30e 7cbd
00000360: 8f1f 50bb d62b 38bc 5cd4 97bc b0b9 83bc
00000370: b251 c83c 7350 c3bc 4d0f 12bd 1621 a53d
00000380: 2289 15bd b3c7 4cbd d264 73bd 845d 8738
00000390: c818 9fbc ad9b 7abd 58ea 77bd afdb 4a3d
000003a0: f984 30bd 2a39 833d 886e f53b 8f6f 9bbb
000003b0: 921f 9e3d 3282 6d3c 8bd9 0ebb a9e4 503b
000003c0: 6a9c 623b 7c4e 21bc dd62 4bbd b105 78bd
000003d0: 4cf8 9dbd 314e 81bc f309 96bb 2563 963d
000003e0: 60fa 9d3c a967 15bd 446d 903c f2ba 7fbd
000003f0: 67a8 083d eaf8 82bd 66e4 74bd 54d5 1e3d
0.04080765 -0.03511811 -0.022086063 0.037283134 -0.0075295274 0.060261406 -0.0070946487 0.07588498
-0.013707167 -0.030745689 -0.02945534 0.025906105 -0.037921008 0.0033880614 0.04570785 0.059454355
-0.07250275 -0.001043934 -0.036739487 -0.03395855 0.06647324 -0.057611473 0.019319687 -0.057106957
0.003385564 0.037525352 -0.017465714 0.019425856 0.043465257 0.025311165 -0.011520638 -0.01671455
-0.012327162 0.06892205 0.03092076 0.0150538925 -0.06118332 0.041914582 -0.02286308 -0.058712192
0.025490824 -0.007522031 0.030157112 -0.043477893 0.049507614 0.015958063 -0.03772435 -0.056976296
-0.016727744 -0.06769664 -0.027675815 0.04386026 -0.04102351 -0.014382583 0.046847872 0.010962666
0.03893628 0.05231345 -0.07296406 -0.05971273 -0.0063313013 0.050427172 0.071796454 -0.031556148
-0.045116305 -0.009360279 -0.07023967 -0.0061076814 -0.0059893383 0.032003533 0.030071652 0.07014495
0.03664762 0.02408499 -0.056884337 0.008272153 0.029127317 0.02694953 0.05708032 -0.045803603
0.013575462 -0.06919715 0.037564863 -0.028143484 -0.017456746 -0.06562715 0.016347423 0.04742543
0.029893829 0.07768155 0.02042046 0.013209818 -0.057849657 -0.06353164 0.006507059 0.015779922
0.04922038 -0.05466734 -0.003104391 -0.005368306 0.027667465 0.008951493 -0.073053084 0.06793088
0.048601784 0.05592073 0.0013223999 0.01777043 -0.01250182 -0.05427377 0.0028644633 -0.06127775
0.01790872 0.039324634 0.035145395 -0.035074625 -0.0011872951 0.001972034 0.034243595 -0.056526605
0.03874189 -0.008569941 -0.057128944 0.00606345 -0.051774073 -0.05671754 -0.0229383 0.078246266
-0.0057103657 -0.058168232 0.01261439 0.01589211 0.045414545 -0.06790172 -0.059743714 0.040683627
0.042890094 0.05786532 0.024838308 0.0067823622 0.06600146 -0.041689813 -0.05300945 0.042545002
0.0035348914 -0.015228276 0.020612152 0.012321623 0.017430127 0.06881278 0.0029880344 0.07005316
0.012611889 0.06056527 0.034096673 0.075793505 -0.071152344 -0.055968326 -0.046991028 -0.01788172
0.04512247 -0.060410354 -0.00040406454 0.0019084966 -0.027083453 0.07018653 -0.012314783 0.05021106
0.03996903 -0.05380215 0.018066034 0.018405547 -0.03325677 -0.010706475 -0.0029702883 -0.0026680953
-0.03143046 0.05293757 0.010810586 0.015523884 0.06607106 0.028030364 -0.021022435 -0.05962689
0.04624597 0.05988423 0.058712978 0.005399952 0.033019595 0.030265987 0.0584302 0.032206345
0.056526184 0.05733819 -0.05686821 0.057512764 -0.046232447 -0.039920203 0.048941676 0.049297083
-0.012474519 -0.046951015 0.0059404573 -0.053109627 -0.0162399 0.06689077 -0.004226977 0.05000114
0.020031368 -0.0016079926 0.048865017 0.061665714 0.018000754 0.017795796 -0.025978712 -0.061537456
-0.0031757092 -0.01124092 -0.018533878 -0.016079754 0.024453018 -0.023842072 -0.035659123 0.08062951
-0.036507733 -0.049995136 -0.05942232 6.45472e-05 -0.019420996 -0.06118362 -0.060526222 0.049525913
-0.043095563 0.064073876 0.007489983 -0.0047435234 0.07720865 0.014496373 -0.0021797146 0.0031874573
0.0034578093 -0.009845372 -0.04965483 -0.060552303 -0.077133745 -0.015784355 -0.0045788228 0.07343129
0.019284427 -0.03647581 0.017630227 -0.062434144 0.033363726 -0.06395133 -0.05978813 0.038777664
