testbed/models_v5/output_layer.pt (torch, 182552 bytes, 3 tensors)

weight f4 [200, 214]
000000 fc ac 09 3d f3 cf 38 bd 50 24 4b bc 28 3d c7 3c
       0.033612236 -0.04512019 -0.012398794 0.024321154
000010 18 d5 13 bd f6 4d 09 3d f1 5e 09 bd 09 be 6f 3d
       -0.036091894 0.033521615 -0.03353781 0.05853084
000020 c0 73 38 3d a6 8e 44 3d 50 9d 88 bd e9 87 47 3b
       0.045032263 0.047987603 -0.0667063 0.0030446
000030 b9 c6 24 bd e2 fc 5d 3d 8d e5 41 bd 5f c5 57 bd
       -0.04022858 0.054196246 -0.047338057 -0.052678462
000040 42 df a4 bc 15 74 39 3d e3 ff 7c bd 30 75 78 3d
       -0.020125989 0.04527672 -0.06176747 0.060658634
000050 6e 76 d0 bc d9 4b 64 3d fc 4c f9 3c ff ac 06 3d
       -0.025447097 0.055736396 0.030432217 0.032879826
000060 b3 b8 14 bd ea 83 71 3c e4 8c 88 3c a0 a0 2e 3d
       -0.036308955 0.014740923 0.016668744 0.042633653
000070 26 ec 3b bd 97 ca 49 bd c3 82 83 3d e6 28 19 bd
       -0.045879506 -0.04926547 0.06421425 -0.03739252
000080 68 4d 06 bd ed cc 1c bd 1a 5a 4b 3d bd 16 29 3c
       -0.032788664 -0.03828137 0.049646474 0.010320363
000090 b8 d4 57 bd 9f fb 2c bd f8 f9 6d 3d 0b e6 17 bd
       -0.0526931 -0.042232152 0.058099717 -0.03708462
0000a0 e2 05 29 3d 0f b6 75 bd 00 67 80 bd 05 1c 85 3d
       0.041265376 -0.059988078 -0.06269646 0.06499485
0000b0 db bc f9 3c 9f da 7e bd 48 18 7f bd cc bd 84 bd
       0.030485561 -0.062220212 -0.062279016 -0.064815134
0000c0 d3 eb 29 3d 24 05 73 bd 83 ef fe bc 5b 60 6b bd
       0.041484665 -0.059331074 -0.031120067 -0.05746494
0000d0 9f 62 c4 3c e4 f9 d3 bc 8e b3 68 bd 10 77 07 bd
       0.023972807 -0.025875993 -0.05681186 -0.03307253
0000e0 5e 76 10 bd 45 46 4e bd 00 47 2c bc df fa 84 bd
       -0.035269134 -0.050359983 -0.010514975 -0.06493162
0000f0 73 4c b5 bc 4c 9b b5 3a e3 ce 62 bd 77 86 5d bc
       -0.02213118 0.0013855486 -0.055373084 -0.013520828
000100 cb 65 87 37 37 fa cd 3c 6d cd 72 3d 60 8e ec bc
       1.6140655e-05 0.025143726 0.05927794 -0.028876483
000110 b9 6d 8f 3d 20 76 e8 bc 66 46 31 bd 91 71 62 3b
       0.0700335 -0.028376639 -0.043280028 0.0034552554
000120 68 01 83 3d 1e 84 ef 3c d6 ca 2b bc 60 98 b9 3c
       0.063967526 0.029237803 -0.010485372 0.022655666
000130 cd ff 84 3d 81 9d 04 bd 3d 3b 00 bd b7 e2 dd bc
       0.064941026 -0.03237677 -0.031306494 -0.027085645
000140 ea fb cf bc a0 21 27 3d 35 60 26 3c 68 81 39 3d
       -0.025388677 0.04080355 0.0101547735 0.045289427
000150 19 87 52 3d 31 a0 63 bd 9d cd d9 3c 29 9f 95 bc
       0.05139837 -0.055572692 0.026587302 -0.01826437
000160 52 26 5e 3d f0 05 db 3b 7f 64 d3 bc bc 62 b2 bb
       0.054235764 0.0066840574 -0.025804756 -0.005443899
000170 2f 5e 78 3d d8 51 18 3d fd 74 59 bd 47 2b 86 3d
       0.060636695 0.037187427 -0.053090084 0.06551223
000180 8e 18 75 bd b0 0d 3d 3d 1c ee 0f bd af ae a7 3c
       -0.05983787 0.04615563 -0.03513919 0.020469038
000190 50 c0 7a 3d b5 bb cb bb 90 97 8b 3d 7b 42 9a 3c
       0.06121856 -0.006217445 0.06816018 0.018830528
0001a0 55 46 0b 3d 34 0d 18 3b 11 be f8 bc b9 f4 68 bd
       0.03400262 0.002320123 -0.030364068 -0.05687401
0001b0 67 0a 41 bd cb 39 69 3a 69 9b 52 bc 2a e3 7e 3d
       -0.04712906 0.00088968565 -0.0128544355 0.06222836
0001c0 85 be 5c bc ea fe 18 bc c5 d3 b5 bc a1 ee 55 3d
       -0.013473158 -0.00933812 -0.022195706 0.052229527
0001d0 15 b0 29 bd 4b 00 bc 3c 28 01 9d bc 65 9c 85 bd
       -0.04142769 0.022949358 -0.01916559 -0.065239705
0001e0 3c 34 8a bc 4e e1 50 bd 0c 18 53 bd 5f 11 3d 3d
       -0.01687061 -0.050996117 -0.051536605 0.046159144
0001f0 fc 65 0d 3d 46 e9 e1 bc 67 d4 6c 3d bb 29 4a 3d
       0.034521088 -0.027577054 0.05781975 0.049356204
000200 1b b2 5e bd 53 0b 85 3d 4f b4 dc 3c 87 48 42 3d
       -0.054369073 0.064963005 0.026941447 0.04743245
000210 eb ce 2b bd 2c 91 88 3d 42 d1 5d 3d c5 5f 42 3d
       -0.04194538 0.06668314 0.054154642 0.047454614
000220 0c 12 3c 3d c9 63 80 3d 84 4d 31 bd 52 36 64 3d
       0.04591565 0.062690325 -0.043286815 0.055715866
000230 5f 9f d8 3c c4 34 16 3d 83 e1 67 3d 93 18 42 bd
       0.026443182 0.036671415 0.05661155 -0.047386717
000240 ea 9b 35 bd ed b5 0d 3d 6b 3b 67 3d 5c b5 2a 3d
       -0.044338144 0.034597326 0.05645315 0.041676864
000250 a2 92 3a 3d 76 2f 81 bd 97 73 4d 3d 76 8f 12 ba
       0.045549996 -0.063078806 0.050159063 -0.00055908354
000260 12 3c 2f bd 99 3f 66 3d 50 79 05 bd 6c d2 ff 3c
       -0.042781897 0.056212995 -0.032586396 0.031228267
000270 36 5d 27 3c 32 e9 91 3c fe fc 67 3d 96 b5 81 3c
       0.010215094 0.017811392 0.056637757 0.015833657
000280 a7 ea 43 bd 6d a2 c7 3c a1 78 3c 3d 38 1b 39 3d
       -0.047831204 0.024369443 0.04601348 0.045191973
000290 61 5b 1b bd 19 7c 2b 3d 27 9a 83 3d 3b 8e 84 bd
       -0.037928943 0.041866396 0.064258866 -0.06472441
0002a0 67 74 4e bd 90 e1 b2 3c 86 47 2e bd 5d 23 84 bd
       -0.05040398 0.021836072 -0.04254868 -0.064520575
0002b0 a5 f6 bb bb f3 d7 0b bb af 65 de 3c 0d b6 10 3b
       -0.0057361894 -0.0021338433 0.027148096 0.0022081167
0002c0 9e cf 45 bd 55 e6 1a 3d fc b0 7e bd 36 83 1a 3d
       -0.048293702 0.037817318 -0.062180504 0.03772279
0002d0 fb 58 43 3c 20 9e 70 3d da 7a 15 bd 01 79 54 bc
       0.01192307 0.05874455 -0.036494114 -0.012968303
0002e0 76 31 a2 bc fe 98 61 bd a7 a2 27 bd e5 6d 1a 3d
       -0.019798975 -0.055077545 -0.0409266 0.03770246
0002f0 bc 62 0b 3d df 12 bc bc 52 9f 87 bb 4c 59 04 bc
       0.034029707 -0.022958217 -0.0041388655 -0.008077931
000300 c2 f6 4c bd 80 88 17 bd e3 3c c1 bc c1 40 72 3d
       -0.050040014 -0.03699541 -0.023588603 0.059143785
000310 fe 50 52 3d 43 c5 7f 3d f6 7e 19 3d f5 91 a2 bc
       0.05134677 0.062443983 0.037474595 -0.019844988
000320 d7 9b 7d bd d9 cb d1 3c ea 01 35 bd 1f 67 0c 3d
       -0.0619162 0.025609897 -0.04419128 0.03427803
000330 68 61 f6 bc 48 da 3b 3d a2 b9 81 bd 37 52 8a 3d
       -0.030075744 0.045862466 -0.06334235 0.067539625
000340 58 e7 68 3d 01 26 2d bd 65 06 24 bd ea 1e 62 3d
       0.05686125 -0.04227257 -0.04004516 0.055205263
000350 03 bd 75 3d 5a 50 8c bb be 2a 72 3c bd 1c 79 3d
       0.05999471 -0.0042820396 0.014780698 0.060818423
000360 de 93 38 bc ce ef 97 3b fa 12 9b 3c 69 a1 40 bd
       -0.011265723 0.0046367412 0.018929947 -0.047028933
000370 b9 d4 63 bd bd b9 03 3d 3a 92 65 bd 0c b8 7b bd
       -0.05562279 0.032159556 -0.056047656 -0.061454818
000380 c9 1e 63 bd 86 99 12 3d ac 2a 00 3d 67 5a d2 3c
       -0.05544928 0.035790943 0.031290695 0.025677873
000390 86 80 f8 bc f9 a4 90 3d 9d 4d 9d bc 10 f7 cb 3c
       -0.030334722 0.07062716 -0.019202048 0.024898082
0003a0 55 23 5c bd 20 b8 ac bc 21 ca 43 3c 0d e2 76 bd
       -0.053744633 -0.021083891 0.011950047 -0.060274173
0003b0 64 84 1f bd 8b a9 2f bd 3e e1 c2 3c de 38 24 3d
       -0.038944617 -0.0428863 0.023789044 0.040093295
0003c0 3c 90 7c bd 3b 89 15 3d 52 9f 53 3c 13 91 87 3d
       -0.06166099 0.036507826 0.012916403 0.066194676
0003d0 91 92 3c bc 4b 5d 83 3d 3c 2d 27 bd 35 45 05 bd
       -0.0115095535 0.064142786 -0.040814623 -0.032536704
0003e0 c8 4c b9 3c 0c 9e 9b 3c 62 18 99 3a 39 a2 92 bc
       0.02261962 0.018996261 0.001168024 -0.01789962
0003f0 f0 da dd 3c 5c 0d 6c bd e0 dd 08 3d a4 95 3b bd
       0.027081937 -0.057629928 0.03341472 -0.045797005

bias f4 [200]
000000 c4 5c 50 bd f8 32 a7 bc 65 fa 85 bc 5d d1 15 bc
       -0.05086972 -0.020410046 -0.016354749 -0.009144154
000010 cb b7 3e 3d e7 1a c8 3b 98 b7 8b 3c 90 57 57 bd
       0.046561997 0.0061067226 0.017055318 -0.05257374
000020 56 d0 37 bd d1 f9 4d 3b 52 ab 60 3d 81 7a 8e 3d
       -0.04487642 0.003142942 0.054850884 0.069569595
000030 78 96 7e bd ff 83 e5 bc 7c 60 48 3d 2d 0a 21 3d
       -0.062155217 -0.028017042 0.04892014 0.039316345
000040 ba 49 66 3c f1 54 ce bc 65 66 32 bc c1 67 0d bd
       0.014055664 -0.025186988 -0.010888671 -0.034522776
000050 59 d4 91 bc 31 ed 48 3d 54 b6 54 bd 24 ac 5f 3d
       -0.01780145 0.04905433 -0.051931694 0.054607525
000060 96 4c e7 bc 25 fd 03 bd e7 87 ec 3c 05 b3 ff bc
       -0.028234761 -0.03222384 0.028873397 -0.031213293
000070 d8 34 77 3b c4 50 4f bc 85 fe a9 bc 17 24 38 3d
       0.0037720706 -0.012653533 -0.020751247 0.044956293
000080 55 b8 08 bd fa e6 c3 3c 09 ac 88 bd 87 27 97 bc
       -0.033378918 0.02391385 -0.06673438 -0.018451465
000090 6d 6c 5e 3d e1 e4 69 3c 37 76 f9 bc fe b3 39 bd
       0.05430262 0.01427576 -0.030451877 -0.04533767
0000a0 5d 65 28 ba 5f 1c 1a bd c1 84 24 3d 12 17 63 3d
       -0.0006423796 -0.037624713 0.040165666 0.055441923
0000b0 9c e1 37 bd 23 e6 95 bd 1c 6d db 3c c0 8d 5c 3d
       -0.044892892 -0.07319286 0.026785426 0.05384612
0000c0 28 3e 05 bd 45 9d bc 3c 93 62 3c 3c e6 1f 66 3b
       -0.03252998 0.02302421 0.011498111 0.0035114228
0000d0 fa a2 0a bd 72 8f b6 3c 8d f8 e8 bc 2b c5 2e bd
       -0.033846833 0.022285197 -0.02843883 -0.042668503
0000e0 72 b3 83 3d 1c d0 f3 39 8c 21 8b 3d ca 2c 76 bc
       0.06430711 0.00046503625 0.06793508 -0.015025327
0000f0 e6 e7 2d 3d d4 eb 36 bd c7 32 35 3d 7f 8b 99 bc
       0.042457484 -0.044658497 0.04423788 -0.018743275
000100 3a 8c 2b 3d 41 c8 1b bd 19 a2 23 bd 40 eb 08 3c
       0.041881777 -0.038032774 -0.03994951 0.008356869
000110 8e 53 94 3d ca c1 06 3d 63 9f 69 3d 48 a7 ea bb
       0.07242499 0.032899655 0.05703677 -0.0071610548
000120 0e bb ba 3c da 1e 8b bd a7 89 0b bd a0 50 3e 3d
       0.022794273 -0.06792994 -0.034066822 0.04646361
000130 31 7a 3a bd fe 21 65 3d 58 21 0f bd 29 62 e3 3c
       -0.045526687 0.05594062 -0.03494391 0.027756767
000140 fd 8c 8f 3c 8b 21 75 bc 8c 7b ca 3c fc 16 39 3d
       0.017523283 -0.014961611 0.024717115 0.045187935
000150 66 9b dc bc 2f 5f 28 bd a1 11 ea bc 5f 65 6e bd
       -0.026929568 -0.0411064 -0.02857286 -0.058202144
000160 fc 42 7e 3d 49 00 81 3c ba aa 74 3d 7d 90 00 bd
       0.0620756 0.015747206 0.05973313 -0.031387795
000170 ba 3a 30 bd 14 fe aa b8 14 f3 9f 3c 2b b0 79 3d
       -0.043024756 -8.1535574e-05 0.019525088 0.060959022
000180 ef ee 10 3d ae a7 31 bd fa 5a 5a 3d de 08 53 bd
       0.035384115 -0.043372802 0.05330942 -0.05152213
000190 36 df 39 3d 4e f0 47 bb 55 e9 cf bc dd 78 77 bb
       0.045378886 -0.0030508223 -0.025379816 -0.003776125
0001a0 22 5c 74 bc fe 4b 8a 3c 08 12 35 3c dd f6 0b bd
       -0.014914544 0.016881939 0.011051662 -0.034170974
0001b0 26 14 2f 3c 77 56 99 bb 7a d1 b8 bc b4 0e 4b bc
       0.010685956 -0.004679497 -0.022560824 -0.012393642
0001c0 c0 b1 d7 3c 6a 94 55 3d 36 33 2f bd ff 4c b9 3c
       0.026329875 0.05214349 -0.042773448 0.022619722
0001d0 92 ab 88 b8 5a 98 b9 3c bd 9d 49 3c 77 c3 7e 3c
       -6.516943e-05 0.022655655 0.012305674 0.015549532
0001e0 65 04 d2 3c d0 97 63 bd a1 cc 1b bd 41 53 ae 3b
       0.025636861 -0.0555647 -0.038036946 0.005319983
0001f0 c9 a4 99 bc e7 37 78 3d 4e 55 c4 bc fb 51 6a 3d
       -0.018755333 0.060600188 -0.023966458 0.05720709
000200 15 a4 b4 bb 4a 42 33 bd be 77 3a 3c 4e a9 54 bd
       -0.005512724 -0.04376439 0.011381088 -0.051919274
000210 6f 6c 27 bb 43 bd 2a bd 24 84 fc 3c 1b a2 bc bc
       -0.002554681 -0.0416844 0.030824728 -0.023026517
000220 23 2c 24 3d 13 6e f2 3c fd ea 97 ba c2 52 33 bd
       0.040081155 0.029593503 -0.0011590418 -0.043780096
000230 35 f5 78 bd 49 e2 1a bd 69 e9 a2 3b 96 5d 28 bd
       -0.060780723 -0.03781346 0.0049716723 -0.041104876
000240 f0 8a 2d bd 88 57 0a 3c af 10 31 bd ff 87 d5 3c
       -0.04236883 0.008443721 -0.0432288 0.026065825
000250 9e 54 94 3d 34 65 4a bd c7 f2 21 3d d3 20 18 3d
       0.07242702 -0.04941292 0.03953817 0.03714068
000260 9e 44 3b 3d 6f 06 d7 bb 3e 67 24 bd 5a 5c de 39
       0.045719735 -0.0065620462 -0.040137522 0.00042411947
000270 3d a6 8a 3d b6 25 89 bc 61 8f 44 3a f0 47 43 bd
       0.06769989 -0.016741615 0.0007498172 -0.047676027
000280 50 f9 d7 bc b9 8b 67 bd c3 78 22 bd 01 2b 27 3c
       -0.026363999 -0.056529734 -0.03966595 0.010203124
000290 05 5b 91 3d 33 2f a3 3c 23 37 20 bc 9c 0a 05 bd
       0.07097439 0.019919967 -0.009778771 -0.03248082
0002a0 23 3c f0 3b b9 d5 10 3d bd 9e 3d bd 8f 95 53 bd
       0.0073313876 0.03536007 -0.046293963 -0.051656302
0002b0 cd b0 dd bc 72 70 6b 3d 35 66 80 3d 43 67 4a bd
       -0.027061844 0.057480283 0.062694944 -0.049414884
0002c0 df b8 38 bd 9d 76 5c 3d ce 12 0c 3d b2 1a b0 3b
       -0.04509818 0.053824056 0.03419762 0.005374276
0002d0 ef bb 51 3d 93 f7 11 bd 84 40 fc bc 7d 56 56 bd
       0.051204618 -0.035636496 -0.030792482 -0.052328575
0002e0 56 84 5d 3d b8 bd 94 bd 94 29 1f bc 50 59 b4 bc
       0.054081284 -0.072627485 -0.009714503 -0.022015244
0002f0 36 1c 5e 3d 96 f2 c0 bc f8 4c a4 3a 50 aa 63 bd
       0.054226123 -0.023553174 0.0012535146 -0.055582345
000300 e3 b1 da ba 62 a0 aa 3a 44 72 d0 3b 8e c2 11 3c
       -0.0016685094 0.0013017769 0.006361278 0.008896483
000310 f2 f4 64 3c 26 f3 56 bd 68 5a 87 3c 96 76 81 bd
       0.013974415 -0.05247798 0.016522601 -0.063214466

weight f4 [1, 200]
000000 a9 95 a2 bc fa ca e5 bc ef dd 54 3d ec 05 5b bd
       -0.019846754 -0.028050888 0.051969465 -0.053472444
000010 e4 f4 9a bd 5e 71 33 bd 44 cc 99 3d b0 b7 8a bd
       -0.075662404 -0.043809287 0.07509664 -0.06773317
000020 2d 55 19 3d ec 18 06 3d 79 46 15 bd d8 2c ab 3c
       0.037434746 0.03273861 -0.03644416 0.020895407
000030 e0 4f 52 3d f6 ed 68 3d eb 66 00 bd 55 97 1a bd
       0.051345706 0.056867562 -0.03134815 -0.037741978
000040 67 bc 87 bd ba 94 58 bc f7 e8 a0 3c 18 df 14 bb
       -0.06627732 -0.013219053 0.019642336 -0.0022715982
000050 85 1e 4a 3d 63 11 b9 3c ca 4e 8a bd 45 f4 86 bd
       0.049345512 0.022591298 -0.06753309 -0.065895595
000060 ac 79 45 3d d9 f4 f5 3d 64 9f 92 3d 52 51 44 3e
       0.04821174 0.120095916 0.071593076 0.19171646
000070 14 7c a2 3c 65 2d e8 bc 93 77 ef bc 23 0d 4b 3d
       0.019834556 -0.028341958 -0.029231822 0.049573075
000080 be 86 f5 3c 8e fc 4a 3d 24 43 90 b9 69 45 26 bd
       0.029971477 0.04955726 -0.00027515844 -0.04059354
000090 68 16 e1 bc d2 d9 7a bd ec 09 04 3d 91 7f 9b 3d
       -0.027476504 -0.061242886 0.032236025 0.07592691
0000a0 39 13 01 bd 1a 06 a2 ba 06 e6 d7 3d 63 48 bd bb
       -0.031512473 -0.0012361438 0.1054192 -0.0057764514
0000b0 3d b1 f3 3b 79 e9 c9 ba 22 60 49 bd 80 97 09 3d
       0.0074369 -0.0015404663 -0.049163945 0.033591747
0000c0 3d ee 9c 3d 74 84 34 bd 7e 34 6e 3d ef 3f 0f bd
       0.07662628 -0.04407163 0.05815553 -0.03497308
0000d0 94 b2 43 3d 2a 03 4f bc f1 5c 29 bd 6d ba 9a 3d
       0.047777727 -0.012635032 -0.0413484 0.07555089
0000e0 b7 e8 3c 3d 0d f6 32 3d dc 35 91 3d 30 22 c4 3c
       0.04612037 0.043691684 0.07090351 0.023942083
0000f0 b3 d5 00 bc 52 77 4b bd 41 98 38 3d 98 07 55 bd
       -0.00786345 -0.04967434 0.045067076 -0.052009195
000100 80 20 39 bc 28 ee 92 3d 2a eb ae bc bf 64 e5 bc
       -0.0112992525 0.07174331 -0.02135237 -0.028002141
000110 a3 bf 4c 3d 68 a6 07 3d ff ca 75 bc 92 1a d3 bb
       0.049987447 0.03311768 -0.015002011 -0.0064423764
000120 00 3d 61 bd f3 3e 90 bd 44 5a a1 3d e0 4d 89 bd
       -0.054989815 -0.070432566 0.07878545 -0.067043066
000130 5c dc 4c bd 9b a6 1e 3d d1 4f 20 bd c9 d5 1c bd
       -0.05001484 0.038733106 -0.03913862 -0.03828982
000140 4a a6 55 3c 20 e8 4e bd 79 68 a9 3d d6 84 bd 3d
       0.013040135 -0.05051434 0.0827188 0.09253852
000150 5c b0 6f bc ea 20 13 3d 2c 32 55 bd 23 49 d1 bc
       -0.01462945 0.03592006 -0.0520498 -0.02554757
000160 f8 71 8a 3d 9f 34 84 bd 1e 38 7e 3d 84 80 7e bd
       0.06760019 -0.06455349 0.062065236 -0.06213428
000170 2f b7 66 3d bd 75 b2 3c 59 95 98 3d c7 68 c2 bc
       0.05632704 0.021784658 0.07450361 -0.023731602
000180 ec 29 a3 3d b7 1c f4 bc 69 f4 06 bc 03 62 00 3d
       0.0796698 -0.029798849 -0.008236983 0.03134347
000190 eb cd 53 3d 52 bc 49 bd 07 24 c3 3d 9d c6 03 bd
       0.05171005 -0.049251862 0.09528356 -0.032171834
0001a0 8c e1 b5 bc 20 5d f0 bc 27 96 85 3d 29 be 31 bd
       -0.022202276 -0.02934128 0.0652278 -0.04339424
0001b0 72 6c e9 3c fe a3 10 bd be c8 bd bb 16 6b 0b 3d
       0.028494094 -0.035312645 -0.0057917526 0.034037672
0001c0 47 02 89 3d 42 f3 2e 3d 2b 95 88 3d 3b 6b 15 bd
       0.066898875 0.042712457 0.066690765 -0.036479216
0001d0 ce 02 16 3d 14 57 0e bd ee 3e 7d bd f1 ef 5d 3d
       0.03662377 -0.034751013 -0.061827593 0.054183904
0001e0 de 28 a8 bc e9 85 08 bd b4 b8 d3 3c 90 05 2b bd
       -0.0205273 -0.03333083 0.02584491 -0.04175335
0001f0 cb 5a 78 bd 23 15 5c 3d 6d 47 8e bc 33 e2 e8 bc
       -0.060633462 0.053731095 -0.017368043 -0.028428173
000200 48 3b 82 3b 99 1a d0 bb b0 59 56 3d a7 f8 de 3b
       0.003974352 -0.006350827 0.052331626 0.006804544
000210 6c 6c 59 bd f4 9e c6 bc 5f ae e1 3c 05 b1 e9 3c
       -0.053081915 -0.024245717 0.027548967 0.028526792
000220 11 b7 23 3d e2 00 74 bb 00 61 d3 3c 3c 2a 0a 3e
       0.039969508 -0.0037231972 0.02580309 0.13492674
000230 99 7e e3 bc e0 b7 58 bd c0 0d 91 3c c5 bf 6f bc
       -0.027770327 -0.052909732 0.017706752 -0.014633124
000240 6e 7c 4e bd 48 0b 0f bb a3 ab c3 bc 5d 93 ae 3d
       -0.050411634 -0.0021826793 -0.023885554 0.08524201
000250 e5 1f 0e 3d ad 32 24 bd de 3b 61 bd fb 33 80 3d
       0.034698386 -0.04008739 -0.054988734 0.062599145
000260 ed 1a 31 3d c4 42 65 3c fb 57 89 bc 46 c6 90 3c
       0.04323857 0.013992969 -0.016765585 0.01767267
000270 d7 90 0c 3d d5 db 10 bd 7e 1b 91 bc ab 12 71 bd
       0.034317818 -0.0353659 -0.017713305 -0.058855694
000280 7e 9e a9 3d 7d b2 26 3d af d1 85 3d ab 73 69 bd
       0.08282183 0.040697563 0.065341346 -0.056995075
000290 26 c4 f1 3d 6a 96 7f 3d bf ab 0a 3d 55 d9 3b bd
       0.118049905 0.062399305 0.033855196 -0.04586156
0002a0 6c 88 53 bd 2c bc 00 bd 5a 88 b5 3c 19 92 56 bd
       -0.051643774 -0.031429455 0.022159744 -0.052385423
0002b0 b2 81 eb bc 40 28 a8 3d 62 7c 83 3d bd 34 cc 3c
       -0.028748367 0.08210802 0.064202085 0.024927491
0002c0 10 e2 49 3d 0e 8c 54 3d 34 55 d1 3c 4b 94 39 bd
       0.049287856 0.05189138 0.025553323 -0.04530744
0002d0 55 54 7d 3d 63 5e d2 3c 6f ad b8 3c 08 d8 55 3d
       0.061848003 0.025679773 0.022543637 0.052207977
0002e0 ea e5 85 3d d9 49 9d bc 3e 85 de bc 49 5c 3a bc
       0.06537993 -0.019200252 -0.027163144 -0.011374542
0002f0 fa db 49 3d b6 ee 67 3d ed 97 a3 3d 39 ee 38 bd
       0.04928205 0.056624137 0.07987962 -0.04514906
000300 db 0c 63 bd 2c c2 7e bd c6 13 a2 bc cb 86 40 bd
       -0.05543218 -0.062196895 -0.01978482 -0.04700355
000310 e5 09 1f bd f5 39 4d 3d f2 b9 5e 3d 06 b8 97 bc
       -0.038827796 0.0501041 0.05437655 -0.018520366
